<?xml version="1.0" ?>
<net name="ResMobNet_v4 (LReLU) with single SSD head" version="11">
	<layers>
		<layer id="24" name="data" type="Parameter" version="opset1">
			<data shape="1,3,320,544" element_type="f32"/>
			<rt_info>
				<attribute name="old_api_map_element_type" version="0" value="f16"/>
			</rt_info>
			<output>
				<port id="0" precision="FP32" names="data">
					<dim>1</dim>
					<dim>3</dim>
					<dim>320</dim>
					<dim>544</dim>
					<rt_info>
						<attribute name="layout" version="0" layout="[N,C,H,W]"/>
					</rt_info>
				</port>
			</output>
		</layer>
		<layer id="0" name="5737574128862" type="Const" version="opset1">
			<data offset="0" size="4" shape="" element_type="f32"/>
			<output>
				<port id="0" precision="FP32"/>
			</output>
		</layer>
		<layer id="1" name="5738574228265" type="Const" version="opset1">
			<data offset="4" size="4" shape="" element_type="f32"/>
			<output>
				<port id="0" precision="FP32"/>
			</output>
		</layer>
		<layer id="2" name="5739574329213" type="Const" version="opset1">
			<data offset="0" size="4" shape="" element_type="f32"/>
			<output>
				<port id="0" precision="FP32"/>
			</output>
		</layer>
		<layer id="3" name="5740574427011" type="Const" version="opset1">
			<data offset="4" size="4" shape="" element_type="f32"/>
			<output>
				<port id="0" precision="FP32"/>
			</output>
		</layer>
		<layer id="4" name="6217622126837" type="Const" version="opset1">
			<data offset="8" size="4" shape="" element_type="f32"/>
			<output>
				<port id="0" precision="FP32"/>
			</output>
		</layer>
		<layer id="5" name="6218622226678" type="Const" version="opset1">
			<data offset="12" size="4" shape="" element_type="f32"/>
			<output>
				<port id="0" precision="FP32"/>
			</output>
		</layer>
		<layer id="6" name="6219622327005" type="Const" version="opset1">
			<data offset="8" size="4" shape="" element_type="f32"/>
			<output>
				<port id="0" precision="FP32"/>
			</output>
		</layer>
		<layer id="7" name="6220622425805" type="Const" version="opset1">
			<data offset="12" size="4" shape="" element_type="f32"/>
			<output>
				<port id="0" precision="FP32"/>
			</output>
		</layer>
		<layer id="8" name="4837484126000" type="Const" version="opset1">
			<data offset="16" size="4" shape="" element_type="f32"/>
			<output>
				<port id="0" precision="FP32"/>
			</output>
		</layer>
		<layer id="9" name="4838484228769" type="Const" version="opset1">
			<data offset="20" size="4" shape="" element_type="f32"/>
			<output>
				<port id="0" precision="FP32"/>
			</output>
		</layer>
		<layer id="10" name="4839484326933" type="Const" version="opset1">
			<data offset="16" size="4" shape="" element_type="f32"/>
			<output>
				<port id="0" precision="FP32"/>
			</output>
		</layer>
		<layer id="11" name="4840484426348" type="Const" version="opset1">
			<data offset="20" size="4" shape="" element_type="f32"/>
			<output>
				<port id="0" precision="FP32"/>
			</output>
		</layer>
		<layer id="12" name="6337634126012" type="Const" version="opset1">
			<data offset="24" size="4" shape="" element_type="f32"/>
			<output>
				<port id="0" precision="FP32"/>
			</output>
		</layer>
		<layer id="13" name="6338634228421" type="Const" version="opset1">
			<data offset="28" size="4" shape="" element_type="f32"/>
			<output>
				<port id="0" precision="FP32"/>
			</output>
		</layer>
		<layer id="14" name="6339634328598" type="Const" version="opset1">
			<data offset="24" size="4" shape="" element_type="f32"/>
			<output>
				<port id="0" precision="FP32"/>
			</output>
		</layer>
		<layer id="15" name="6340634428823" type="Const" version="opset1">
			<data offset="28" size="4" shape="" element_type="f32"/>
			<output>
				<port id="0" precision="FP32"/>
			</output>
		</layer>
		<layer id="16" name="5497550125955" type="Const" version="opset1">
			<data offset="32" size="4" shape="" element_type="f32"/>
			<output>
				<port id="0" precision="FP32"/>
			</output>
		</layer>
		<layer id="17" name="5498550226240" type="Const" version="opset1">
			<data offset="36" size="4" shape="" element_type="f32"/>
			<output>
				<port id="0" precision="FP32"/>
			</output>
		</layer>
		<layer id="18" name="5499550326345" type="Const" version="opset1">
			<data offset="32" size="4" shape="" element_type="f32"/>
			<output>
				<port id="0" precision="FP32"/>
			</output>
		</layer>
		<layer id="19" name="5500550426213" type="Const" version="opset1">
			<data offset="36" size="4" shape="" element_type="f32"/>
			<output>
				<port id="0" precision="FP32"/>
			</output>
		</layer>
		<layer id="20" name="6157616127032" type="Const" version="opset1">
			<data offset="40" size="4" shape="" element_type="f32"/>
			<output>
				<port id="0" precision="FP32"/>
			</output>
		</layer>
		<layer id="21" name="6158616229114" type="Const" version="opset1">
			<data offset="44" size="4" shape="" element_type="f32"/>
			<output>
				<port id="0" precision="FP32"/>
			</output>
		</layer>
		<layer id="22" name="6159616328742" type="Const" version="opset1">
			<data offset="40" size="4" shape="" element_type="f32"/>
			<output>
				<port id="0" precision="FP32"/>
			</output>
		</layer>
		<layer id="23" name="6160616427407" type="Const" version="opset1">
			<data offset="44" size="4" shape="" element_type="f32"/>
			<output>
				<port id="0" precision="FP32"/>
			</output>
		</layer>
		<layer id="25" name="data_mul_24444108627041" type="Const" version="opset1">
			<data offset="48" size="6" shape="1,3,1,1" element_type="f16"/>
			<output>
				<port id="0" precision="FP16">
					<dim>1</dim>
					<dim>3</dim>
					<dim>1</dim>
					<dim>1</dim>
				</port>
			</output>
		</layer>
		<layer id="26" name="data_mul_24444108613917/restored_convert" type="Convert" version="opset1">
			<data destination_type="f32"/>
			<rt_info>
				<attribute name="decompression" version="0"/>
			</rt_info>
			<input>
				<port id="0">
					<dim>1</dim>
					<dim>3</dim>
					<dim>1</dim>
					<dim>1</dim>
				</port>
			</input>
			<output>
				<port id="1" precision="FP32">
					<dim>1</dim>
					<dim>3</dim>
					<dim>1</dim>
					<dim>1</dim>
				</port>
			</output>
		</layer>
		<layer id="27" name="data/norm/bn/mean/Fused_Mul_" type="Multiply" version="opset1">
			<data auto_broadcast="numpy"/>
			<input>
				<port id="0">
					<dim>1</dim>
					<dim>3</dim>
					<dim>320</dim>
					<dim>544</dim>
				</port>
				<port id="1">
					<dim>1</dim>
					<dim>3</dim>
					<dim>1</dim>
					<dim>1</dim>
				</port>
			</input>
			<output>
				<port id="2" precision="FP32">
					<dim>1</dim>
					<dim>3</dim>
					<dim>320</dim>
					<dim>544</dim>
				</port>
			</output>
		</layer>
		<layer id="28" name="data_add_24446108925928" type="Const" version="opset1">
			<data offset="54" size="6" shape="1,3,1,1" element_type="f16"/>
			<output>
				<port id="0" precision="FP16">
					<dim>1</dim>
					<dim>3</dim>
					<dim>1</dim>
					<dim>1</dim>
				</port>
			</output>
		</layer>
		<layer id="29" name="data_add_24446108913918/restored_convert" type="Convert" version="opset1">
			<data destination_type="f32"/>
			<rt_info>
				<attribute name="decompression" version="0"/>
			</rt_info>
			<input>
				<port id="0">
					<dim>1</dim>
					<dim>3</dim>
					<dim>1</dim>
					<dim>1</dim>
				</port>
			</input>
			<output>
				<port id="1" precision="FP32">
					<dim>1</dim>
					<dim>3</dim>
					<dim>1</dim>
					<dim>1</dim>
				</port>
			</output>
		</layer>
		<layer id="30" name="data/norm/bn/variance/Fused_Add_" type="Add" version="opset1">
			<data auto_broadcast="numpy"/>
			<input>
				<port id="0">
					<dim>1</dim>
					<dim>3</dim>
					<dim>320</dim>
					<dim>544</dim>
				</port>
				<port id="1">
					<dim>1</dim>
					<dim>3</dim>
					<dim>1</dim>
					<dim>1</dim>
				</port>
			</input>
			<output>
				<port id="2" precision="FP32" names="data/norm/bn">
					<dim>1</dim>
					<dim>3</dim>
					<dim>320</dim>
					<dim>544</dim>
				</port>
			</output>
		</layer>
		<layer id="31" name="init_block1/dim_inc/conv/fq_input_0" type="FakeQuantize" version="opset1">
			<data levels="256" auto_broadcast="numpy"/>
			<input>
				<port id="0">
					<dim>1</dim>
					<dim>3</dim>
					<dim>320</dim>
					<dim>544</dim>
				</port>
				<port id="1"/>
				<port id="2"/>
				<port id="3"/>
				<port id="4"/>
			</input>
			<output>
				<port id="5" precision="FP32">
					<dim>1</dim>
					<dim>3</dim>
					<dim>320</dim>
					<dim>544</dim>
				</port>
			</output>
		</layer>
		<layer id="32" name="init_block1/dim_inc/conv/fq_weights_1/scale1718126054" type="Const" version="opset1">
			<data offset="60" size="128" shape="32,1,1,1" element_type="f32"/>
			<output>
				<port id="0" precision="FP32">
					<dim>32</dim>
					<dim>1</dim>
					<dim>1</dim>
					<dim>1</dim>
				</port>
			</output>
		</layer>
		<layer id="33" name="init_block1/dim_inc/bn/mean/Fused_Mul__copy109213919/restored_convert/quantized1717326093" type="Const" version="opset1">
			<data offset="188" size="864" shape="32,3,3,3" element_type="i8"/>
			<output>
				<port id="0" precision="I8">
					<dim>32</dim>
					<dim>3</dim>
					<dim>3</dim>
					<dim>3</dim>
				</port>
			</output>
		</layer>
		<layer id="34" name="init_block1/dim_inc/bn/mean/Fused_Mul__copy109213919/restored_convert/quantized/to_f32" type="Convert" version="opset1">
			<data destination_type="f32"/>
			<input>
				<port id="0">
					<dim>32</dim>
					<dim>3</dim>
					<dim>3</dim>
					<dim>3</dim>
				</port>
			</input>
			<output>
				<port id="1" precision="FP32">
					<dim>32</dim>
					<dim>3</dim>
					<dim>3</dim>
					<dim>3</dim>
				</port>
			</output>
		</layer>
		<layer id="35" name="init_block1/dim_inc/conv/fq_weights_1/mulpiply_by_scale" type="Multiply" version="opset1">
			<data auto_broadcast="numpy"/>
			<input>
				<port id="0">
					<dim>32</dim>
					<dim>3</dim>
					<dim>3</dim>
					<dim>3</dim>
				</port>
				<port id="1">
					<dim>32</dim>
					<dim>1</dim>
					<dim>1</dim>
					<dim>1</dim>
				</port>
			</input>
			<output>
				<port id="2" precision="FP32">
					<dim>32</dim>
					<dim>3</dim>
					<dim>3</dim>
					<dim>3</dim>
				</port>
			</output>
		</layer>
		<layer id="36" name="init_block1/dim_inc/conv" type="Convolution" version="opset1">
			<data auto_pad="explicit" strides="2,2" dilations="1,1" pads_begin="1,1" pads_end="1,1"/>
			<input>
				<port id="0">
					<dim>1</dim>
					<dim>3</dim>
					<dim>320</dim>
					<dim>544</dim>
				</port>
				<port id="1">
					<dim>32</dim>
					<dim>3</dim>
					<dim>3</dim>
					<dim>3</dim>
				</port>
			</input>
			<output>
				<port id="2" precision="FP32">
					<dim>1</dim>
					<dim>32</dim>
					<dim>160</dim>
					<dim>272</dim>
				</port>
			</output>
		</layer>
		<layer id="37" name="data_add_2444924454109526519" type="Const" version="opset1">
			<data offset="1052" size="64" shape="1,32,1,1" element_type="f16"/>
			<output>
				<port id="0" precision="FP16">
					<dim>1</dim>
					<dim>32</dim>
					<dim>1</dim>
					<dim>1</dim>
				</port>
			</output>
		</layer>
		<layer id="38" name="data_add_2444924454109513920/restored_convert" type="Convert" version="opset1">
			<data destination_type="f32"/>
			<rt_info>
				<attribute name="decompression" version="0"/>
			</rt_info>
			<input>
				<port id="0">
					<dim>1</dim>
					<dim>32</dim>
					<dim>1</dim>
					<dim>1</dim>
				</port>
			</input>
			<output>
				<port id="1" precision="FP32">
					<dim>1</dim>
					<dim>32</dim>
					<dim>1</dim>
					<dim>1</dim>
				</port>
			</output>
		</layer>
		<layer id="39" name="init_block1/dim_inc/bn/variance/Fused_Add_" type="Add" version="opset1">
			<data auto_broadcast="numpy"/>
			<input>
				<port id="0">
					<dim>1</dim>
					<dim>32</dim>
					<dim>160</dim>
					<dim>272</dim>
				</port>
				<port id="1">
					<dim>1</dim>
					<dim>32</dim>
					<dim>1</dim>
					<dim>1</dim>
				</port>
			</input>
			<output>
				<port id="2" precision="FP32" names="init_block1/dim_inc/conv">
					<dim>1</dim>
					<dim>32</dim>
					<dim>160</dim>
					<dim>272</dim>
				</port>
			</output>
		</layer>
		<layer id="40" name="init_block1/dim_inc/fn" type="ReLU" version="opset1">
			<input>
				<port id="0">
					<dim>1</dim>
					<dim>32</dim>
					<dim>160</dim>
					<dim>272</dim>
				</port>
			</input>
			<output>
				<port id="1" precision="FP32" names="init_block1/dim_inc/conv">
					<dim>1</dim>
					<dim>32</dim>
					<dim>160</dim>
					<dim>272</dim>
				</port>
			</output>
		</layer>
		<layer id="41" name="bottleneck1_1/add/fq_input_0" type="FakeQuantize" version="opset1">
			<data levels="256" auto_broadcast="numpy"/>
			<input>
				<port id="0">
					<dim>1</dim>
					<dim>32</dim>
					<dim>160</dim>
					<dim>272</dim>
				</port>
				<port id="1"/>
				<port id="2"/>
				<port id="3"/>
				<port id="4"/>
			</input>
			<output>
				<port id="5" precision="FP32">
					<dim>1</dim>
					<dim>32</dim>
					<dim>160</dim>
					<dim>272</dim>
				</port>
			</output>
		</layer>
		<layer id="42" name="5507551126327" type="Const" version="opset1">
			<data offset="1116" size="4" shape="" element_type="f32"/>
			<output>
				<port id="0" precision="FP32"/>
			</output>
		</layer>
		<layer id="43" name="5508551226453" type="Const" version="opset1">
			<data offset="1120" size="4" shape="" element_type="f32"/>
			<output>
				<port id="0" precision="FP32"/>
			</output>
		</layer>
		<layer id="44" name="5509551328223" type="Const" version="opset1">
			<data offset="1116" size="4" shape="" element_type="f32"/>
			<output>
				<port id="0" precision="FP32"/>
			</output>
		</layer>
		<layer id="45" name="5510551428733" type="Const" version="opset1">
			<data offset="1120" size="4" shape="" element_type="f32"/>
			<output>
				<port id="0" precision="FP32"/>
			</output>
		</layer>
		<layer id="46" name="5857586126045" type="Const" version="opset1">
			<data offset="1124" size="4" shape="" element_type="f32"/>
			<output>
				<port id="0" precision="FP32"/>
			</output>
		</layer>
		<layer id="47" name="5858586228409" type="Const" version="opset1">
			<data offset="1128" size="4" shape="" element_type="f32"/>
			<output>
				<port id="0" precision="FP32"/>
			</output>
		</layer>
		<layer id="48" name="5859586327869" type="Const" version="opset1">
			<data offset="1124" size="4" shape="" element_type="f32"/>
			<output>
				<port id="0" precision="FP32"/>
			</output>
		</layer>
		<layer id="49" name="5860586428091" type="Const" version="opset1">
			<data offset="1128" size="4" shape="" element_type="f32"/>
			<output>
				<port id="0" precision="FP32"/>
			</output>
		</layer>
		<layer id="50" name="6097610126432" type="Const" version="opset1">
			<data offset="1132" size="32" shape="1,8,1,1" element_type="f32"/>
			<output>
				<port id="0" precision="FP32">
					<dim>1</dim>
					<dim>8</dim>
					<dim>1</dim>
					<dim>1</dim>
				</port>
			</output>
		</layer>
		<layer id="51" name="6098610226336" type="Const" version="opset1">
			<data offset="1164" size="32" shape="1,8,1,1" element_type="f32"/>
			<output>
				<port id="0" precision="FP32">
					<dim>1</dim>
					<dim>8</dim>
					<dim>1</dim>
					<dim>1</dim>
				</port>
			</output>
		</layer>
		<layer id="52" name="6099610325877" type="Const" version="opset1">
			<data offset="1132" size="32" shape="1,8,1,1" element_type="f32"/>
			<output>
				<port id="0" precision="FP32">
					<dim>1</dim>
					<dim>8</dim>
					<dim>1</dim>
					<dim>1</dim>
				</port>
			</output>
		</layer>
		<layer id="53" name="6100610425811" type="Const" version="opset1">
			<data offset="1164" size="32" shape="1,8,1,1" element_type="f32"/>
			<output>
				<port id="0" precision="FP32">
					<dim>1</dim>
					<dim>8</dim>
					<dim>1</dim>
					<dim>1</dim>
				</port>
			</output>
		</layer>
		<layer id="54" name="bottleneck1_1/dim_red/conv/fq_weights_1/scale1730127806" type="Const" version="opset1">
			<data offset="1196" size="32" shape="8,1,1,1" element_type="f32"/>
			<output>
				<port id="0" precision="FP32">
					<dim>8</dim>
					<dim>1</dim>
					<dim>1</dim>
					<dim>1</dim>
				</port>
			</output>
		</layer>
		<layer id="55" name="bottleneck1_1/dim_red/bn/mean/Fused_Mul__copy109913921/restored_convert/quantized1729327653" type="Const" version="opset1">
			<data offset="1228" size="256" shape="8,32,1,1" element_type="i8"/>
			<output>
				<port id="0" precision="I8">
					<dim>8</dim>
					<dim>32</dim>
					<dim>1</dim>
					<dim>1</dim>
				</port>
			</output>
		</layer>
		<layer id="56" name="bottleneck1_1/dim_red/bn/mean/Fused_Mul__copy109913921/restored_convert/quantized/to_f32" type="Convert" version="opset1">
			<data destination_type="f32"/>
			<input>
				<port id="0">
					<dim>8</dim>
					<dim>32</dim>
					<dim>1</dim>
					<dim>1</dim>
				</port>
			</input>
			<output>
				<port id="1" precision="FP32">
					<dim>8</dim>
					<dim>32</dim>
					<dim>1</dim>
					<dim>1</dim>
				</port>
			</output>
		</layer>
		<layer id="57" name="bottleneck1_1/dim_red/conv/fq_weights_1/mulpiply_by_scale" type="Multiply" version="opset1">
			<data auto_broadcast="numpy"/>
			<input>
				<port id="0">
					<dim>8</dim>
					<dim>32</dim>
					<dim>1</dim>
					<dim>1</dim>
				</port>
				<port id="1">
					<dim>8</dim>
					<dim>1</dim>
					<dim>1</dim>
					<dim>1</dim>
				</port>
			</input>
			<output>
				<port id="2" precision="FP32">
					<dim>8</dim>
					<dim>32</dim>
					<dim>1</dim>
					<dim>1</dim>
				</port>
			</output>
		</layer>
		<layer id="58" name="bottleneck1_1/dim_red/conv" type="Convolution" version="opset1">
			<data auto_pad="explicit" strides="1,1" dilations="1,1" pads_begin="0,0" pads_end="0,0"/>
			<input>
				<port id="0">
					<dim>1</dim>
					<dim>32</dim>
					<dim>160</dim>
					<dim>272</dim>
				</port>
				<port id="1">
					<dim>8</dim>
					<dim>32</dim>
					<dim>1</dim>
					<dim>1</dim>
				</port>
			</input>
			<output>
				<port id="2" precision="FP32">
					<dim>1</dim>
					<dim>8</dim>
					<dim>160</dim>
					<dim>272</dim>
				</port>
			</output>
		</layer>
		<layer id="59" name="data_add_2445724462110228832" type="Const" version="opset1">
			<data offset="1484" size="16" shape="1,8,1,1" element_type="f16"/>
			<output>
				<port id="0" precision="FP16">
					<dim>1</dim>
					<dim>8</dim>
					<dim>1</dim>
					<dim>1</dim>
				</port>
			</output>
		</layer>
		<layer id="60" name="data_add_2445724462110213922/restored_convert" type="Convert" version="opset1">
			<data destination_type="f32"/>
			<rt_info>
				<attribute name="decompression" version="0"/>
			</rt_info>
			<input>
				<port id="0">
					<dim>1</dim>
					<dim>8</dim>
					<dim>1</dim>
					<dim>1</dim>
				</port>
			</input>
			<output>
				<port id="1" precision="FP32">
					<dim>1</dim>
					<dim>8</dim>
					<dim>1</dim>
					<dim>1</dim>
				</port>
			</output>
		</layer>
		<layer id="61" name="bottleneck1_1/dim_red/bn/variance/Fused_Add_" type="Add" version="opset1">
			<data auto_broadcast="numpy"/>
			<input>
				<port id="0">
					<dim>1</dim>
					<dim>8</dim>
					<dim>160</dim>
					<dim>272</dim>
				</port>
				<port id="1">
					<dim>1</dim>
					<dim>8</dim>
					<dim>1</dim>
					<dim>1</dim>
				</port>
			</input>
			<output>
				<port id="2" precision="FP32" names="bottleneck1_1/dim_red/conv">
					<dim>1</dim>
					<dim>8</dim>
					<dim>160</dim>
					<dim>272</dim>
				</port>
			</output>
		</layer>
		<layer id="62" name="bottleneck1_1/dim_red/fn/weights3126040658110528277" type="Const" version="opset1">
			<data offset="1500" size="2" shape="1" element_type="f16"/>
			<output>
				<port id="0" precision="FP16">
					<dim>1</dim>
				</port>
			</output>
		</layer>
		<layer id="63" name="bottleneck1_1/dim_red/fn/weights3126040658110513923/restored_convert" type="Convert" version="opset1">
			<data destination_type="f32"/>
			<rt_info>
				<attribute name="decompression" version="0"/>
			</rt_info>
			<input>
				<port id="0">
					<dim>1</dim>
				</port>
			</input>
			<output>
				<port id="1" precision="FP32">
					<dim>1</dim>
				</port>
			</output>
		</layer>
		<layer id="64" name="bottleneck1_1/dim_red/fn" type="PReLU" version="opset1">
			<input>
				<port id="0">
					<dim>1</dim>
					<dim>8</dim>
					<dim>160</dim>
					<dim>272</dim>
				</port>
				<port id="1">
					<dim>1</dim>
				</port>
			</input>
			<output>
				<port id="2" precision="FP32" names="bottleneck1_1/dim_red/conv">
					<dim>1</dim>
					<dim>8</dim>
					<dim>160</dim>
					<dim>272</dim>
				</port>
			</output>
		</layer>
		<layer id="65" name="bottleneck1_1/inner/dw1/conv/fq_input_0" type="FakeQuantize" version="opset1">
			<data levels="256" auto_broadcast="numpy"/>
			<input>
				<port id="0">
					<dim>1</dim>
					<dim>8</dim>
					<dim>160</dim>
					<dim>272</dim>
				</port>
				<port id="1">
					<dim>1</dim>
					<dim>8</dim>
					<dim>1</dim>
					<dim>1</dim>
				</port>
				<port id="2">
					<dim>1</dim>
					<dim>8</dim>
					<dim>1</dim>
					<dim>1</dim>
				</port>
				<port id="3">
					<dim>1</dim>
					<dim>8</dim>
					<dim>1</dim>
					<dim>1</dim>
				</port>
				<port id="4">
					<dim>1</dim>
					<dim>8</dim>
					<dim>1</dim>
					<dim>1</dim>
				</port>
			</input>
			<output>
				<port id="5" precision="FP32">
					<dim>1</dim>
					<dim>8</dim>
					<dim>160</dim>
					<dim>272</dim>
				</port>
			</output>
		</layer>
		<layer id="66" name="bottleneck1_1/inner/dw1/conv/fq_weights_1/scale1640128025" type="Const" version="opset1">
			<data offset="1502" size="32" shape="8,1,1,1" element_type="f32"/>
			<output>
				<port id="0" precision="FP32">
					<dim>8</dim>
					<dim>1</dim>
					<dim>1</dim>
					<dim>1</dim>
				</port>
			</output>
		</layer>
		<layer id="67" name="bottleneck1_1/inner/dw1/bn/mean/Fused_Mul__copy110813924/restored_convert/quantized1639327263" type="Const" version="opset1">
			<data offset="1534" size="72" shape="8,1,3,3" element_type="i8"/>
			<output>
				<port id="0" precision="I8">
					<dim>8</dim>
					<dim>1</dim>
					<dim>3</dim>
					<dim>3</dim>
				</port>
			</output>
		</layer>
		<layer id="68" name="bottleneck1_1/inner/dw1/bn/mean/Fused_Mul__copy110813924/restored_convert/quantized/to_f32" type="Convert" version="opset1">
			<data destination_type="f32"/>
			<input>
				<port id="0">
					<dim>8</dim>
					<dim>1</dim>
					<dim>3</dim>
					<dim>3</dim>
				</port>
			</input>
			<output>
				<port id="1" precision="FP32">
					<dim>8</dim>
					<dim>1</dim>
					<dim>3</dim>
					<dim>3</dim>
				</port>
			</output>
		</layer>
		<layer id="69" name="bottleneck1_1/inner/dw1/conv/fq_weights_1/mulpiply_by_scale" type="Multiply" version="opset1">
			<data auto_broadcast="numpy"/>
			<input>
				<port id="0">
					<dim>8</dim>
					<dim>1</dim>
					<dim>3</dim>
					<dim>3</dim>
				</port>
				<port id="1">
					<dim>8</dim>
					<dim>1</dim>
					<dim>1</dim>
					<dim>1</dim>
				</port>
			</input>
			<output>
				<port id="2" precision="FP32">
					<dim>8</dim>
					<dim>1</dim>
					<dim>3</dim>
					<dim>3</dim>
				</port>
			</output>
		</layer>
		<layer id="70" name="bottleneck1_1/inner/dw1/conv/GOI_weights_part2295428541" type="Const" version="opset1">
			<data offset="1606" size="24" shape="3" element_type="i64"/>
			<output>
				<port id="0" precision="I64">
					<dim>3</dim>
				</port>
			</output>
		</layer>
		<layer id="71" name="bottleneck1_1/inner/dw1/conv/WeightsShape" type="ShapeOf" version="opset3">
			<data output_type="i64"/>
			<input>
				<port id="0">
					<dim>8</dim>
					<dim>1</dim>
					<dim>3</dim>
					<dim>3</dim>
				</port>
			</input>
			<output>
				<port id="1" precision="I64">
					<dim>4</dim>
				</port>
			</output>
		</layer>
		<layer id="72" name="bottleneck1_1/inner/dw1/conv/XY_weights_part_input_port_1/value2295028403" type="Const" version="opset1">
			<data offset="1630" size="16" shape="2" element_type="i64"/>
			<output>
				<port id="0" precision="I64">
					<dim>2</dim>
				</port>
			</output>
		</layer>
		<layer id="73" name="bottleneck1_1/inner/dw1/conv/XY_weights_part_input_port_2/value2295227311" type="Const" version="opset1">
			<data offset="1646" size="8" shape="" element_type="i64"/>
			<output>
				<port id="0" precision="I64"/>
			</output>
		</layer>
		<layer id="74" name="bottleneck1_1/inner/dw1/conv/XY_weights_part" type="Gather" version="opset8">
			<data batch_dims="0"/>
			<input>
				<port id="0">
					<dim>4</dim>
				</port>
				<port id="1">
					<dim>2</dim>
				</port>
				<port id="2"/>
			</input>
			<output>
				<port id="3" precision="I64">
					<dim>2</dim>
				</port>
			</output>
		</layer>
		<layer id="75" name="bottleneck1_1/inner/dw1/conv/weights_shape" type="Concat" version="opset1">
			<data axis="0"/>
			<input>
				<port id="0">
					<dim>3</dim>
				</port>
				<port id="1">
					<dim>2</dim>
				</port>
			</input>
			<output>
				<port id="2" precision="I64">
					<dim>5</dim>
				</port>
			</output>
		</layer>
		<layer id="76" name="22956" type="Reshape" version="opset1">
			<data special_zero="true"/>
			<input>
				<port id="0">
					<dim>8</dim>
					<dim>1</dim>
					<dim>3</dim>
					<dim>3</dim>
				</port>
				<port id="1">
					<dim>5</dim>
				</port>
			</input>
			<output>
				<port id="2" precision="FP32">
					<dim>8</dim>
					<dim>1</dim>
					<dim>1</dim>
					<dim>3</dim>
					<dim>3</dim>
				</port>
			</output>
		</layer>
		<layer id="77" name="bottleneck1_1/inner/dw1/conv" type="GroupConvolution" version="opset1">
			<data auto_pad="explicit" strides="1,1" dilations="1,1" pads_begin="1,1" pads_end="1,1"/>
			<input>
				<port id="0">
					<dim>1</dim>
					<dim>8</dim>
					<dim>160</dim>
					<dim>272</dim>
				</port>
				<port id="1">
					<dim>8</dim>
					<dim>1</dim>
					<dim>1</dim>
					<dim>3</dim>
					<dim>3</dim>
				</port>
			</input>
			<output>
				<port id="2" precision="FP32">
					<dim>1</dim>
					<dim>8</dim>
					<dim>160</dim>
					<dim>272</dim>
				</port>
			</output>
		</layer>
		<layer id="78" name="data_add_2446524470111126066" type="Const" version="opset1">
			<data offset="1654" size="16" shape="1,8,1,1" element_type="f16"/>
			<output>
				<port id="0" precision="FP16">
					<dim>1</dim>
					<dim>8</dim>
					<dim>1</dim>
					<dim>1</dim>
				</port>
			</output>
		</layer>
		<layer id="79" name="data_add_2446524470111113925/restored_convert" type="Convert" version="opset1">
			<data destination_type="f32"/>
			<rt_info>
				<attribute name="decompression" version="0"/>
			</rt_info>
			<input>
				<port id="0">
					<dim>1</dim>
					<dim>8</dim>
					<dim>1</dim>
					<dim>1</dim>
				</port>
			</input>
			<output>
				<port id="1" precision="FP32">
					<dim>1</dim>
					<dim>8</dim>
					<dim>1</dim>
					<dim>1</dim>
				</port>
			</output>
		</layer>
		<layer id="80" name="bottleneck1_1/inner/dw1/bn/variance/Fused_Add_" type="Add" version="opset1">
			<data auto_broadcast="numpy"/>
			<input>
				<port id="0">
					<dim>1</dim>
					<dim>8</dim>
					<dim>160</dim>
					<dim>272</dim>
				</port>
				<port id="1">
					<dim>1</dim>
					<dim>8</dim>
					<dim>1</dim>
					<dim>1</dim>
				</port>
			</input>
			<output>
				<port id="2" precision="FP32" names="bottleneck1_1/inner/dw1/conv">
					<dim>1</dim>
					<dim>8</dim>
					<dim>160</dim>
					<dim>272</dim>
				</port>
			</output>
		</layer>
		<layer id="81" name="bottleneck1_1/inner/dw1/fn/weights3114840853111429231" type="Const" version="opset1">
			<data offset="1500" size="2" shape="1" element_type="f16"/>
			<output>
				<port id="0" precision="FP16">
					<dim>1</dim>
				</port>
			</output>
		</layer>
		<layer id="82" name="bottleneck1_1/inner/dw1/fn/weights3114840853111413926/restored_convert" type="Convert" version="opset1">
			<data destination_type="f32"/>
			<rt_info>
				<attribute name="decompression" version="0"/>
			</rt_info>
			<input>
				<port id="0">
					<dim>1</dim>
				</port>
			</input>
			<output>
				<port id="1" precision="FP32">
					<dim>1</dim>
				</port>
			</output>
		</layer>
		<layer id="83" name="bottleneck1_1/inner/dw1/fn" type="PReLU" version="opset1">
			<input>
				<port id="0">
					<dim>1</dim>
					<dim>8</dim>
					<dim>160</dim>
					<dim>272</dim>
				</port>
				<port id="1">
					<dim>1</dim>
				</port>
			</input>
			<output>
				<port id="2" precision="FP32" names="bottleneck1_1/inner/dw1/conv">
					<dim>1</dim>
					<dim>8</dim>
					<dim>160</dim>
					<dim>272</dim>
				</port>
			</output>
		</layer>
		<layer id="84" name="bottleneck1_1/dim_inc/conv/fq_input_0" type="FakeQuantize" version="opset1">
			<data levels="256" auto_broadcast="numpy"/>
			<input>
				<port id="0">
					<dim>1</dim>
					<dim>8</dim>
					<dim>160</dim>
					<dim>272</dim>
				</port>
				<port id="1"/>
				<port id="2"/>
				<port id="3"/>
				<port id="4"/>
			</input>
			<output>
				<port id="5" precision="FP32">
					<dim>1</dim>
					<dim>8</dim>
					<dim>160</dim>
					<dim>272</dim>
				</port>
			</output>
		</layer>
		<layer id="85" name="bottleneck1_1/dim_inc/conv/fq_weights_1/scale1931127140" type="Const" version="opset1">
			<data offset="1670" size="128" shape="32,1,1,1" element_type="f32"/>
			<output>
				<port id="0" precision="FP32">
					<dim>32</dim>
					<dim>1</dim>
					<dim>1</dim>
					<dim>1</dim>
				</port>
			</output>
		</layer>
		<layer id="86" name="bottleneck1_1/dim_inc/bn/mean/Fused_Mul__copy111713927/restored_convert/quantized1930327941" type="Const" version="opset1">
			<data offset="1798" size="256" shape="32,8,1,1" element_type="i8"/>
			<output>
				<port id="0" precision="I8">
					<dim>32</dim>
					<dim>8</dim>
					<dim>1</dim>
					<dim>1</dim>
				</port>
			</output>
		</layer>
		<layer id="87" name="bottleneck1_1/dim_inc/bn/mean/Fused_Mul__copy111713927/restored_convert/quantized/to_f32" type="Convert" version="opset1">
			<data destination_type="f32"/>
			<input>
				<port id="0">
					<dim>32</dim>
					<dim>8</dim>
					<dim>1</dim>
					<dim>1</dim>
				</port>
			</input>
			<output>
				<port id="1" precision="FP32">
					<dim>32</dim>
					<dim>8</dim>
					<dim>1</dim>
					<dim>1</dim>
				</port>
			</output>
		</layer>
		<layer id="88" name="bottleneck1_1/dim_inc/conv/fq_weights_1/mulpiply_by_scale" type="Multiply" version="opset1">
			<data auto_broadcast="numpy"/>
			<input>
				<port id="0">
					<dim>32</dim>
					<dim>8</dim>
					<dim>1</dim>
					<dim>1</dim>
				</port>
				<port id="1">
					<dim>32</dim>
					<dim>1</dim>
					<dim>1</dim>
					<dim>1</dim>
				</port>
			</input>
			<output>
				<port id="2" precision="FP32">
					<dim>32</dim>
					<dim>8</dim>
					<dim>1</dim>
					<dim>1</dim>
				</port>
			</output>
		</layer>
		<layer id="89" name="bottleneck1_1/dim_inc/conv" type="Convolution" version="opset1">
			<data auto_pad="explicit" strides="1,1" dilations="1,1" pads_begin="0,0" pads_end="0,0"/>
			<input>
				<port id="0">
					<dim>1</dim>
					<dim>8</dim>
					<dim>160</dim>
					<dim>272</dim>
				</port>
				<port id="1">
					<dim>32</dim>
					<dim>8</dim>
					<dim>1</dim>
					<dim>1</dim>
				</port>
			</input>
			<output>
				<port id="2" precision="FP32">
					<dim>1</dim>
					<dim>32</dim>
					<dim>160</dim>
					<dim>272</dim>
				</port>
			</output>
		</layer>
		<layer id="90" name="data_add_2447324478112028205" type="Const" version="opset1">
			<data offset="2054" size="64" shape="1,32,1,1" element_type="f16"/>
			<output>
				<port id="0" precision="FP16">
					<dim>1</dim>
					<dim>32</dim>
					<dim>1</dim>
					<dim>1</dim>
				</port>
			</output>
		</layer>
		<layer id="91" name="data_add_2447324478112013928/restored_convert" type="Convert" version="opset1">
			<data destination_type="f32"/>
			<rt_info>
				<attribute name="decompression" version="0"/>
			</rt_info>
			<input>
				<port id="0">
					<dim>1</dim>
					<dim>32</dim>
					<dim>1</dim>
					<dim>1</dim>
				</port>
			</input>
			<output>
				<port id="1" precision="FP32">
					<dim>1</dim>
					<dim>32</dim>
					<dim>1</dim>
					<dim>1</dim>
				</port>
			</output>
		</layer>
		<layer id="92" name="bottleneck1_1/dim_inc/bn/variance/Fused_Add_" type="Add" version="opset1">
			<data auto_broadcast="numpy"/>
			<input>
				<port id="0">
					<dim>1</dim>
					<dim>32</dim>
					<dim>160</dim>
					<dim>272</dim>
				</port>
				<port id="1">
					<dim>1</dim>
					<dim>32</dim>
					<dim>1</dim>
					<dim>1</dim>
				</port>
			</input>
			<output>
				<port id="2" precision="FP32" names="bottleneck1_1/dim_inc/conv">
					<dim>1</dim>
					<dim>32</dim>
					<dim>160</dim>
					<dim>272</dim>
				</port>
			</output>
		</layer>
		<layer id="93" name="bottleneck1_1/add/fq_input_1" type="FakeQuantize" version="opset1">
			<data levels="256" auto_broadcast="numpy"/>
			<input>
				<port id="0">
					<dim>1</dim>
					<dim>32</dim>
					<dim>160</dim>
					<dim>272</dim>
				</port>
				<port id="1"/>
				<port id="2"/>
				<port id="3"/>
				<port id="4"/>
			</input>
			<output>
				<port id="5" precision="FP32">
					<dim>1</dim>
					<dim>32</dim>
					<dim>160</dim>
					<dim>272</dim>
				</port>
			</output>
		</layer>
		<layer id="94" name="bottleneck1_1/add" type="Add" version="opset1">
			<data auto_broadcast="numpy"/>
			<input>
				<port id="0">
					<dim>1</dim>
					<dim>32</dim>
					<dim>160</dim>
					<dim>272</dim>
				</port>
				<port id="1">
					<dim>1</dim>
					<dim>32</dim>
					<dim>160</dim>
					<dim>272</dim>
				</port>
			</input>
			<output>
				<port id="2" precision="FP32" names="bottleneck1_1/add">
					<dim>1</dim>
					<dim>32</dim>
					<dim>160</dim>
					<dim>272</dim>
				</port>
			</output>
		</layer>
		<layer id="95" name="bottleneck1_1/fn/weights3109240031112427257" type="Const" version="opset1">
			<data offset="1500" size="2" shape="1" element_type="f16"/>
			<output>
				<port id="0" precision="FP16">
					<dim>1</dim>
				</port>
			</output>
		</layer>
		<layer id="96" name="bottleneck1_1/fn/weights3109240031112413929/restored_convert" type="Convert" version="opset1">
			<data destination_type="f32"/>
			<rt_info>
				<attribute name="decompression" version="0"/>
			</rt_info>
			<input>
				<port id="0">
					<dim>1</dim>
				</port>
			</input>
			<output>
				<port id="1" precision="FP32">
					<dim>1</dim>
				</port>
			</output>
		</layer>
		<layer id="97" name="bottleneck1_1/fn" type="PReLU" version="opset1">
			<input>
				<port id="0">
					<dim>1</dim>
					<dim>32</dim>
					<dim>160</dim>
					<dim>272</dim>
				</port>
				<port id="1">
					<dim>1</dim>
				</port>
			</input>
			<output>
				<port id="2" precision="FP32" names="bottleneck1_1/add">
					<dim>1</dim>
					<dim>32</dim>
					<dim>160</dim>
					<dim>272</dim>
				</port>
			</output>
		</layer>
		<layer id="98" name="bottleneck1_2/add/fq_input_0" type="FakeQuantize" version="opset1">
			<data levels="256" auto_broadcast="numpy"/>
			<input>
				<port id="0">
					<dim>1</dim>
					<dim>32</dim>
					<dim>160</dim>
					<dim>272</dim>
				</port>
				<port id="1"/>
				<port id="2"/>
				<port id="3"/>
				<port id="4"/>
			</input>
			<output>
				<port id="5" precision="FP32">
					<dim>1</dim>
					<dim>32</dim>
					<dim>160</dim>
					<dim>272</dim>
				</port>
			</output>
		</layer>
		<layer id="99" name="6347635126816" type="Const" version="opset1">
			<data offset="2118" size="4" shape="" element_type="f32"/>
			<output>
				<port id="0" precision="FP32"/>
			</output>
		</layer>
		<layer id="100" name="6348635228571" type="Const" version="opset1">
			<data offset="2122" size="4" shape="" element_type="f32"/>
			<output>
				<port id="0" precision="FP32"/>
			</output>
		</layer>
		<layer id="101" name="6349635326411" type="Const" version="opset1">
			<data offset="2118" size="4" shape="" element_type="f32"/>
			<output>
				<port id="0" precision="FP32"/>
			</output>
		</layer>
		<layer id="102" name="6350635427641" type="Const" version="opset1">
			<data offset="2122" size="4" shape="" element_type="f32"/>
			<output>
				<port id="0" precision="FP32"/>
			</output>
		</layer>
		<layer id="103" name="5357536128835" type="Const" version="opset1">
			<data offset="2126" size="4" shape="" element_type="f32"/>
			<output>
				<port id="0" precision="FP32"/>
			</output>
		</layer>
		<layer id="104" name="5358536227227" type="Const" version="opset1">
			<data offset="2130" size="4" shape="" element_type="f32"/>
			<output>
				<port id="0" precision="FP32"/>
			</output>
		</layer>
		<layer id="105" name="5359536328904" type="Const" version="opset1">
			<data offset="2126" size="4" shape="" element_type="f32"/>
			<output>
				<port id="0" precision="FP32"/>
			</output>
		</layer>
		<layer id="106" name="5360536426171" type="Const" version="opset1">
			<data offset="2130" size="4" shape="" element_type="f32"/>
			<output>
				<port id="0" precision="FP32"/>
			</output>
		</layer>
		<layer id="107" name="5557556126471" type="Const" version="opset1">
			<data offset="2134" size="32" shape="1,8,1,1" element_type="f32"/>
			<output>
				<port id="0" precision="FP32">
					<dim>1</dim>
					<dim>8</dim>
					<dim>1</dim>
					<dim>1</dim>
				</port>
			</output>
		</layer>
		<layer id="108" name="5558556229270" type="Const" version="opset1">
			<data offset="2166" size="32" shape="1,8,1,1" element_type="f32"/>
			<output>
				<port id="0" precision="FP32">
					<dim>1</dim>
					<dim>8</dim>
					<dim>1</dim>
					<dim>1</dim>
				</port>
			</output>
		</layer>
		<layer id="109" name="5559556328724" type="Const" version="opset1">
			<data offset="2134" size="32" shape="1,8,1,1" element_type="f32"/>
			<output>
				<port id="0" precision="FP32">
					<dim>1</dim>
					<dim>8</dim>
					<dim>1</dim>
					<dim>1</dim>
				</port>
			</output>
		</layer>
		<layer id="110" name="5560556427269" type="Const" version="opset1">
			<data offset="2166" size="32" shape="1,8,1,1" element_type="f32"/>
			<output>
				<port id="0" precision="FP32">
					<dim>1</dim>
					<dim>8</dim>
					<dim>1</dim>
					<dim>1</dim>
				</port>
			</output>
		</layer>
		<layer id="111" name="bottleneck1_2/dim_red/conv/fq_weights_1/scale1622126132" type="Const" version="opset1">
			<data offset="2198" size="32" shape="8,1,1,1" element_type="f32"/>
			<output>
				<port id="0" precision="FP32">
					<dim>8</dim>
					<dim>1</dim>
					<dim>1</dim>
					<dim>1</dim>
				</port>
			</output>
		</layer>
		<layer id="112" name="bottleneck1_2/dim_red/bn/mean/Fused_Mul__copy112713930/restored_convert/quantized1621328106" type="Const" version="opset1">
			<data offset="2230" size="256" shape="8,32,1,1" element_type="i8"/>
			<output>
				<port id="0" precision="I8">
					<dim>8</dim>
					<dim>32</dim>
					<dim>1</dim>
					<dim>1</dim>
				</port>
			</output>
		</layer>
		<layer id="113" name="bottleneck1_2/dim_red/bn/mean/Fused_Mul__copy112713930/restored_convert/quantized/to_f32" type="Convert" version="opset1">
			<data destination_type="f32"/>
			<input>
				<port id="0">
					<dim>8</dim>
					<dim>32</dim>
					<dim>1</dim>
					<dim>1</dim>
				</port>
			</input>
			<output>
				<port id="1" precision="FP32">
					<dim>8</dim>
					<dim>32</dim>
					<dim>1</dim>
					<dim>1</dim>
				</port>
			</output>
		</layer>
		<layer id="114" name="bottleneck1_2/dim_red/conv/fq_weights_1/mulpiply_by_scale" type="Multiply" version="opset1">
			<data auto_broadcast="numpy"/>
			<input>
				<port id="0">
					<dim>8</dim>
					<dim>32</dim>
					<dim>1</dim>
					<dim>1</dim>
				</port>
				<port id="1">
					<dim>8</dim>
					<dim>1</dim>
					<dim>1</dim>
					<dim>1</dim>
				</port>
			</input>
			<output>
				<port id="2" precision="FP32">
					<dim>8</dim>
					<dim>32</dim>
					<dim>1</dim>
					<dim>1</dim>
				</port>
			</output>
		</layer>
		<layer id="115" name="bottleneck1_2/dim_red/conv" type="Convolution" version="opset1">
			<data auto_pad="explicit" strides="1,1" dilations="1,1" pads_begin="0,0" pads_end="0,0"/>
			<input>
				<port id="0">
					<dim>1</dim>
					<dim>32</dim>
					<dim>160</dim>
					<dim>272</dim>
				</port>
				<port id="1">
					<dim>8</dim>
					<dim>32</dim>
					<dim>1</dim>
					<dim>1</dim>
				</port>
			</input>
			<output>
				<port id="2" precision="FP32">
					<dim>1</dim>
					<dim>8</dim>
					<dim>160</dim>
					<dim>272</dim>
				</port>
			</output>
		</layer>
		<layer id="116" name="data_add_2448124486113028268" type="Const" version="opset1">
			<data offset="2486" size="16" shape="1,8,1,1" element_type="f16"/>
			<output>
				<port id="0" precision="FP16">
					<dim>1</dim>
					<dim>8</dim>
					<dim>1</dim>
					<dim>1</dim>
				</port>
			</output>
		</layer>
		<layer id="117" name="data_add_2448124486113013931/restored_convert" type="Convert" version="opset1">
			<data destination_type="f32"/>
			<rt_info>
				<attribute name="decompression" version="0"/>
			</rt_info>
			<input>
				<port id="0">
					<dim>1</dim>
					<dim>8</dim>
					<dim>1</dim>
					<dim>1</dim>
				</port>
			</input>
			<output>
				<port id="1" precision="FP32">
					<dim>1</dim>
					<dim>8</dim>
					<dim>1</dim>
					<dim>1</dim>
				</port>
			</output>
		</layer>
		<layer id="118" name="bottleneck1_2/dim_red/bn/variance/Fused_Add_" type="Add" version="opset1">
			<data auto_broadcast="numpy"/>
			<input>
				<port id="0">
					<dim>1</dim>
					<dim>8</dim>
					<dim>160</dim>
					<dim>272</dim>
				</port>
				<port id="1">
					<dim>1</dim>
					<dim>8</dim>
					<dim>1</dim>
					<dim>1</dim>
				</port>
			</input>
			<output>
				<port id="2" precision="FP32" names="bottleneck1_2/dim_red/conv">
					<dim>1</dim>
					<dim>8</dim>
					<dim>160</dim>
					<dim>272</dim>
				</port>
			</output>
		</layer>
		<layer id="119" name="bottleneck1_2/dim_red/fn/weights3110440790113328358" type="Const" version="opset1">
			<data offset="1500" size="2" shape="1" element_type="f16"/>
			<output>
				<port id="0" precision="FP16">
					<dim>1</dim>
				</port>
			</output>
		</layer>
		<layer id="120" name="bottleneck1_2/dim_red/fn/weights3110440790113313932/restored_convert" type="Convert" version="opset1">
			<data destination_type="f32"/>
			<rt_info>
				<attribute name="decompression" version="0"/>
			</rt_info>
			<input>
				<port id="0">
					<dim>1</dim>
				</port>
			</input>
			<output>
				<port id="1" precision="FP32">
					<dim>1</dim>
				</port>
			</output>
		</layer>
		<layer id="121" name="bottleneck1_2/dim_red/fn" type="PReLU" version="opset1">
			<input>
				<port id="0">
					<dim>1</dim>
					<dim>8</dim>
					<dim>160</dim>
					<dim>272</dim>
				</port>
				<port id="1">
					<dim>1</dim>
				</port>
			</input>
			<output>
				<port id="2" precision="FP32" names="bottleneck1_2/dim_red/conv">
					<dim>1</dim>
					<dim>8</dim>
					<dim>160</dim>
					<dim>272</dim>
				</port>
			</output>
		</layer>
		<layer id="122" name="bottleneck1_2/inner/dw1/conv/fq_input_0" type="FakeQuantize" version="opset1">
			<data levels="256" auto_broadcast="numpy"/>
			<input>
				<port id="0">
					<dim>1</dim>
					<dim>8</dim>
					<dim>160</dim>
					<dim>272</dim>
				</port>
				<port id="1">
					<dim>1</dim>
					<dim>8</dim>
					<dim>1</dim>
					<dim>1</dim>
				</port>
				<port id="2">
					<dim>1</dim>
					<dim>8</dim>
					<dim>1</dim>
					<dim>1</dim>
				</port>
				<port id="3">
					<dim>1</dim>
					<dim>8</dim>
					<dim>1</dim>
					<dim>1</dim>
				</port>
				<port id="4">
					<dim>1</dim>
					<dim>8</dim>
					<dim>1</dim>
					<dim>1</dim>
				</port>
			</input>
			<output>
				<port id="5" precision="FP32">
					<dim>1</dim>
					<dim>8</dim>
					<dim>160</dim>
					<dim>272</dim>
				</port>
			</output>
		</layer>
		<layer id="123" name="bottleneck1_2/inner/dw1/conv/fq_weights_1/scale1658127203" type="Const" version="opset1">
			<data offset="2502" size="32" shape="8,1,1,1" element_type="f32"/>
			<output>
				<port id="0" precision="FP32">
					<dim>8</dim>
					<dim>1</dim>
					<dim>1</dim>
					<dim>1</dim>
				</port>
			</output>
		</layer>
		<layer id="124" name="bottleneck1_2/inner/dw1/bn/mean/Fused_Mul__copy113613933/restored_convert/quantized1657328895" type="Const" version="opset1">
			<data offset="2534" size="72" shape="8,1,3,3" element_type="i8"/>
			<output>
				<port id="0" precision="I8">
					<dim>8</dim>
					<dim>1</dim>
					<dim>3</dim>
					<dim>3</dim>
				</port>
			</output>
		</layer>
		<layer id="125" name="bottleneck1_2/inner/dw1/bn/mean/Fused_Mul__copy113613933/restored_convert/quantized/to_f32" type="Convert" version="opset1">
			<data destination_type="f32"/>
			<input>
				<port id="0">
					<dim>8</dim>
					<dim>1</dim>
					<dim>3</dim>
					<dim>3</dim>
				</port>
			</input>
			<output>
				<port id="1" precision="FP32">
					<dim>8</dim>
					<dim>1</dim>
					<dim>3</dim>
					<dim>3</dim>
				</port>
			</output>
		</layer>
		<layer id="126" name="bottleneck1_2/inner/dw1/conv/fq_weights_1/mulpiply_by_scale" type="Multiply" version="opset1">
			<data auto_broadcast="numpy"/>
			<input>
				<port id="0">
					<dim>8</dim>
					<dim>1</dim>
					<dim>3</dim>
					<dim>3</dim>
				</port>
				<port id="1">
					<dim>8</dim>
					<dim>1</dim>
					<dim>1</dim>
					<dim>1</dim>
				</port>
			</input>
			<output>
				<port id="2" precision="FP32">
					<dim>8</dim>
					<dim>1</dim>
					<dim>3</dim>
					<dim>3</dim>
				</port>
			</output>
		</layer>
		<layer id="127" name="bottleneck1_2/inner/dw1/conv/GOI_weights_part2296828880" type="Const" version="opset1">
			<data offset="1606" size="24" shape="3" element_type="i64"/>
			<output>
				<port id="0" precision="I64">
					<dim>3</dim>
				</port>
			</output>
		</layer>
		<layer id="128" name="bottleneck1_2/inner/dw1/conv/WeightsShape" type="ShapeOf" version="opset3">
			<data output_type="i64"/>
			<input>
				<port id="0">
					<dim>8</dim>
					<dim>1</dim>
					<dim>3</dim>
					<dim>3</dim>
				</port>
			</input>
			<output>
				<port id="1" precision="I64">
					<dim>4</dim>
				</port>
			</output>
		</layer>
		<layer id="129" name="bottleneck1_2/inner/dw1/conv/XY_weights_part_input_port_1/value2296426765" type="Const" version="opset1">
			<data offset="1630" size="16" shape="2" element_type="i64"/>
			<output>
				<port id="0" precision="I64">
					<dim>2</dim>
				</port>
			</output>
		</layer>
		<layer id="130" name="bottleneck1_2/inner/dw1/conv/XY_weights_part_input_port_2/value2296627722" type="Const" version="opset1">
			<data offset="1646" size="8" shape="" element_type="i64"/>
			<output>
				<port id="0" precision="I64"/>
			</output>
		</layer>
		<layer id="131" name="bottleneck1_2/inner/dw1/conv/XY_weights_part" type="Gather" version="opset8">
			<data batch_dims="0"/>
			<input>
				<port id="0">
					<dim>4</dim>
				</port>
				<port id="1">
					<dim>2</dim>
				</port>
				<port id="2"/>
			</input>
			<output>
				<port id="3" precision="I64">
					<dim>2</dim>
				</port>
			</output>
		</layer>
		<layer id="132" name="bottleneck1_2/inner/dw1/conv/weights_shape" type="Concat" version="opset1">
			<data axis="0"/>
			<input>
				<port id="0">
					<dim>3</dim>
				</port>
				<port id="1">
					<dim>2</dim>
				</port>
			</input>
			<output>
				<port id="2" precision="I64">
					<dim>5</dim>
				</port>
			</output>
		</layer>
		<layer id="133" name="22970" type="Reshape" version="opset1">
			<data special_zero="true"/>
			<input>
				<port id="0">
					<dim>8</dim>
					<dim>1</dim>
					<dim>3</dim>
					<dim>3</dim>
				</port>
				<port id="1">
					<dim>5</dim>
				</port>
			</input>
			<output>
				<port id="2" precision="FP32">
					<dim>8</dim>
					<dim>1</dim>
					<dim>1</dim>
					<dim>3</dim>
					<dim>3</dim>
				</port>
			</output>
		</layer>
		<layer id="134" name="bottleneck1_2/inner/dw1/conv" type="GroupConvolution" version="opset1">
			<data auto_pad="explicit" strides="1,1" dilations="1,1" pads_begin="1,1" pads_end="1,1"/>
			<input>
				<port id="0">
					<dim>1</dim>
					<dim>8</dim>
					<dim>160</dim>
					<dim>272</dim>
				</port>
				<port id="1">
					<dim>8</dim>
					<dim>1</dim>
					<dim>1</dim>
					<dim>3</dim>
					<dim>3</dim>
				</port>
			</input>
			<output>
				<port id="2" precision="FP32">
					<dim>1</dim>
					<dim>8</dim>
					<dim>160</dim>
					<dim>272</dim>
				</port>
			</output>
		</layer>
		<layer id="135" name="data_add_2448924494113928556" type="Const" version="opset1">
			<data offset="2606" size="16" shape="1,8,1,1" element_type="f16"/>
			<output>
				<port id="0" precision="FP16">
					<dim>1</dim>
					<dim>8</dim>
					<dim>1</dim>
					<dim>1</dim>
				</port>
			</output>
		</layer>
		<layer id="136" name="data_add_2448924494113913934/restored_convert" type="Convert" version="opset1">
			<data destination_type="f32"/>
			<rt_info>
				<attribute name="decompression" version="0"/>
			</rt_info>
			<input>
				<port id="0">
					<dim>1</dim>
					<dim>8</dim>
					<dim>1</dim>
					<dim>1</dim>
				</port>
			</input>
			<output>
				<port id="1" precision="FP32">
					<dim>1</dim>
					<dim>8</dim>
					<dim>1</dim>
					<dim>1</dim>
				</port>
			</output>
		</layer>
		<layer id="137" name="bottleneck1_2/inner/dw1/bn/variance/Fused_Add_" type="Add" version="opset1">
			<data auto_broadcast="numpy"/>
			<input>
				<port id="0">
					<dim>1</dim>
					<dim>8</dim>
					<dim>160</dim>
					<dim>272</dim>
				</port>
				<port id="1">
					<dim>1</dim>
					<dim>8</dim>
					<dim>1</dim>
					<dim>1</dim>
				</port>
			</input>
			<output>
				<port id="2" precision="FP32" names="bottleneck1_2/inner/dw1/conv">
					<dim>1</dim>
					<dim>8</dim>
					<dim>160</dim>
					<dim>272</dim>
				</port>
			</output>
		</layer>
		<layer id="138" name="bottleneck1_2/inner/dw1/fn/weights3102040397114225937" type="Const" version="opset1">
			<data offset="1500" size="2" shape="1" element_type="f16"/>
			<output>
				<port id="0" precision="FP16">
					<dim>1</dim>
				</port>
			</output>
		</layer>
		<layer id="139" name="bottleneck1_2/inner/dw1/fn/weights3102040397114213935/restored_convert" type="Convert" version="opset1">
			<data destination_type="f32"/>
			<rt_info>
				<attribute name="decompression" version="0"/>
			</rt_info>
			<input>
				<port id="0">
					<dim>1</dim>
				</port>
			</input>
			<output>
				<port id="1" precision="FP32">
					<dim>1</dim>
				</port>
			</output>
		</layer>
		<layer id="140" name="bottleneck1_2/inner/dw1/fn" type="PReLU" version="opset1">
			<input>
				<port id="0">
					<dim>1</dim>
					<dim>8</dim>
					<dim>160</dim>
					<dim>272</dim>
				</port>
				<port id="1">
					<dim>1</dim>
				</port>
			</input>
			<output>
				<port id="2" precision="FP32" names="bottleneck1_2/inner/dw1/conv">
					<dim>1</dim>
					<dim>8</dim>
					<dim>160</dim>
					<dim>272</dim>
				</port>
			</output>
		</layer>
		<layer id="141" name="bottleneck1_2/dim_inc/conv/fq_input_0" type="FakeQuantize" version="opset1">
			<data levels="256" auto_broadcast="numpy"/>
			<input>
				<port id="0">
					<dim>1</dim>
					<dim>8</dim>
					<dim>160</dim>
					<dim>272</dim>
				</port>
				<port id="1"/>
				<port id="2"/>
				<port id="3"/>
				<port id="4"/>
			</input>
			<output>
				<port id="5" precision="FP32">
					<dim>1</dim>
					<dim>8</dim>
					<dim>160</dim>
					<dim>272</dim>
				</port>
			</output>
		</layer>
		<layer id="142" name="bottleneck1_2/dim_inc/conv/fq_weights_1/scale1637126897" type="Const" version="opset1">
			<data offset="2622" size="128" shape="32,1,1,1" element_type="f32"/>
			<output>
				<port id="0" precision="FP32">
					<dim>32</dim>
					<dim>1</dim>
					<dim>1</dim>
					<dim>1</dim>
				</port>
			</output>
		</layer>
		<layer id="143" name="bottleneck1_2/dim_inc/bn/mean/Fused_Mul__copy114513936/restored_convert/quantized1636326027" type="Const" version="opset1">
			<data offset="2750" size="256" shape="32,8,1,1" element_type="i8"/>
			<output>
				<port id="0" precision="I8">
					<dim>32</dim>
					<dim>8</dim>
					<dim>1</dim>
					<dim>1</dim>
				</port>
			</output>
		</layer>
		<layer id="144" name="bottleneck1_2/dim_inc/bn/mean/Fused_Mul__copy114513936/restored_convert/quantized/to_f32" type="Convert" version="opset1">
			<data destination_type="f32"/>
			<input>
				<port id="0">
					<dim>32</dim>
					<dim>8</dim>
					<dim>1</dim>
					<dim>1</dim>
				</port>
			</input>
			<output>
				<port id="1" precision="FP32">
					<dim>32</dim>
					<dim>8</dim>
					<dim>1</dim>
					<dim>1</dim>
				</port>
			</output>
		</layer>
		<layer id="145" name="bottleneck1_2/dim_inc/conv/fq_weights_1/mulpiply_by_scale" type="Multiply" version="opset1">
			<data auto_broadcast="numpy"/>
			<input>
				<port id="0">
					<dim>32</dim>
					<dim>8</dim>
					<dim>1</dim>
					<dim>1</dim>
				</port>
				<port id="1">
					<dim>32</dim>
					<dim>1</dim>
					<dim>1</dim>
					<dim>1</dim>
				</port>
			</input>
			<output>
				<port id="2" precision="FP32">
					<dim>32</dim>
					<dim>8</dim>
					<dim>1</dim>
					<dim>1</dim>
				</port>
			</output>
		</layer>
		<layer id="146" name="bottleneck1_2/dim_inc/conv" type="Convolution" version="opset1">
			<data auto_pad="explicit" strides="1,1" dilations="1,1" pads_begin="0,0" pads_end="0,0"/>
			<input>
				<port id="0">
					<dim>1</dim>
					<dim>8</dim>
					<dim>160</dim>
					<dim>272</dim>
				</port>
				<port id="1">
					<dim>32</dim>
					<dim>8</dim>
					<dim>1</dim>
					<dim>1</dim>
				</port>
			</input>
			<output>
				<port id="2" precision="FP32">
					<dim>1</dim>
					<dim>32</dim>
					<dim>160</dim>
					<dim>272</dim>
				</port>
			</output>
		</layer>
		<layer id="147" name="data_add_2449724502114826036" type="Const" version="opset1">
			<data offset="3006" size="64" shape="1,32,1,1" element_type="f16"/>
			<output>
				<port id="0" precision="FP16">
					<dim>1</dim>
					<dim>32</dim>
					<dim>1</dim>
					<dim>1</dim>
				</port>
			</output>
		</layer>
		<layer id="148" name="data_add_2449724502114813937/restored_convert" type="Convert" version="opset1">
			<data destination_type="f32"/>
			<rt_info>
				<attribute name="decompression" version="0"/>
			</rt_info>
			<input>
				<port id="0">
					<dim>1</dim>
					<dim>32</dim>
					<dim>1</dim>
					<dim>1</dim>
				</port>
			</input>
			<output>
				<port id="1" precision="FP32">
					<dim>1</dim>
					<dim>32</dim>
					<dim>1</dim>
					<dim>1</dim>
				</port>
			</output>
		</layer>
		<layer id="149" name="bottleneck1_2/dim_inc/bn/variance/Fused_Add_" type="Add" version="opset1">
			<data auto_broadcast="numpy"/>
			<input>
				<port id="0">
					<dim>1</dim>
					<dim>32</dim>
					<dim>160</dim>
					<dim>272</dim>
				</port>
				<port id="1">
					<dim>1</dim>
					<dim>32</dim>
					<dim>1</dim>
					<dim>1</dim>
				</port>
			</input>
			<output>
				<port id="2" precision="FP32" names="bottleneck1_2/dim_inc/conv">
					<dim>1</dim>
					<dim>32</dim>
					<dim>160</dim>
					<dim>272</dim>
				</port>
			</output>
		</layer>
		<layer id="150" name="bottleneck1_2/add/fq_input_1" type="FakeQuantize" version="opset1">
			<data levels="256" auto_broadcast="numpy"/>
			<input>
				<port id="0">
					<dim>1</dim>
					<dim>32</dim>
					<dim>160</dim>
					<dim>272</dim>
				</port>
				<port id="1"/>
				<port id="2"/>
				<port id="3"/>
				<port id="4"/>
			</input>
			<output>
				<port id="5" precision="FP32">
					<dim>1</dim>
					<dim>32</dim>
					<dim>160</dim>
					<dim>272</dim>
				</port>
			</output>
		</layer>
		<layer id="151" name="bottleneck1_2/add" type="Add" version="opset1">
			<data auto_broadcast="numpy"/>
			<input>
				<port id="0">
					<dim>1</dim>
					<dim>32</dim>
					<dim>160</dim>
					<dim>272</dim>
				</port>
				<port id="1">
					<dim>1</dim>
					<dim>32</dim>
					<dim>160</dim>
					<dim>272</dim>
				</port>
			</input>
			<output>
				<port id="2" precision="FP32" names="bottleneck1_2/add">
					<dim>1</dim>
					<dim>32</dim>
					<dim>160</dim>
					<dim>272</dim>
				</port>
			</output>
		</layer>
		<layer id="152" name="bottleneck1_2/fn/weights3116040475115228967" type="Const" version="opset1">
			<data offset="1500" size="2" shape="1" element_type="f16"/>
			<output>
				<port id="0" precision="FP16">
					<dim>1</dim>
				</port>
			</output>
		</layer>
		<layer id="153" name="bottleneck1_2/fn/weights3116040475115213938/restored_convert" type="Convert" version="opset1">
			<data destination_type="f32"/>
			<rt_info>
				<attribute name="decompression" version="0"/>
			</rt_info>
			<input>
				<port id="0">
					<dim>1</dim>
				</port>
			</input>
			<output>
				<port id="1" precision="FP32">
					<dim>1</dim>
				</port>
			</output>
		</layer>
		<layer id="154" name="bottleneck1_2/fn" type="PReLU" version="opset1">
			<input>
				<port id="0">
					<dim>1</dim>
					<dim>32</dim>
					<dim>160</dim>
					<dim>272</dim>
				</port>
				<port id="1">
					<dim>1</dim>
				</port>
			</input>
			<output>
				<port id="2" precision="FP32" names="bottleneck1_2/add">
					<dim>1</dim>
					<dim>32</dim>
					<dim>160</dim>
					<dim>272</dim>
				</port>
			</output>
		</layer>
		<layer id="155" name="bottleneck1_3/add/fq_input_0" type="FakeQuantize" version="opset1">
			<data levels="256" auto_broadcast="numpy"/>
			<input>
				<port id="0">
					<dim>1</dim>
					<dim>32</dim>
					<dim>160</dim>
					<dim>272</dim>
				</port>
				<port id="1"/>
				<port id="2"/>
				<port id="3"/>
				<port id="4"/>
			</input>
			<output>
				<port id="5" precision="FP32">
					<dim>1</dim>
					<dim>32</dim>
					<dim>160</dim>
					<dim>272</dim>
				</port>
			</output>
		</layer>
		<layer id="156" name="4847485129174" type="Const" version="opset1">
			<data offset="3070" size="4" shape="" element_type="f32"/>
			<output>
				<port id="0" precision="FP32"/>
			</output>
		</layer>
		<layer id="157" name="4848485228070" type="Const" version="opset1">
			<data offset="3074" size="4" shape="" element_type="f32"/>
			<output>
				<port id="0" precision="FP32"/>
			</output>
		</layer>
		<layer id="158" name="4849485327356" type="Const" version="opset1">
			<data offset="3070" size="4" shape="" element_type="f32"/>
			<output>
				<port id="0" precision="FP32"/>
			</output>
		</layer>
		<layer id="159" name="4850485427791" type="Const" version="opset1">
			<data offset="3074" size="4" shape="" element_type="f32"/>
			<output>
				<port id="0" precision="FP32"/>
			</output>
		</layer>
		<layer id="160" name="5057506128637" type="Const" version="opset1">
			<data offset="3078" size="4" shape="" element_type="f32"/>
			<output>
				<port id="0" precision="FP32"/>
			</output>
		</layer>
		<layer id="161" name="5058506228157" type="Const" version="opset1">
			<data offset="3082" size="4" shape="" element_type="f32"/>
			<output>
				<port id="0" precision="FP32"/>
			</output>
		</layer>
		<layer id="162" name="5059506326108" type="Const" version="opset1">
			<data offset="3078" size="4" shape="" element_type="f32"/>
			<output>
				<port id="0" precision="FP32"/>
			</output>
		</layer>
		<layer id="163" name="5060506428214" type="Const" version="opset1">
			<data offset="3082" size="4" shape="" element_type="f32"/>
			<output>
				<port id="0" precision="FP32"/>
			</output>
		</layer>
		<layer id="164" name="4197420127305" type="Const" version="opset1">
			<data offset="3086" size="32" shape="1,8,1,1" element_type="f32"/>
			<output>
				<port id="0" precision="FP32">
					<dim>1</dim>
					<dim>8</dim>
					<dim>1</dim>
					<dim>1</dim>
				</port>
			</output>
		</layer>
		<layer id="165" name="4198420229162" type="Const" version="opset1">
			<data offset="3118" size="32" shape="1,8,1,1" element_type="f32"/>
			<output>
				<port id="0" precision="FP32">
					<dim>1</dim>
					<dim>8</dim>
					<dim>1</dim>
					<dim>1</dim>
				</port>
			</output>
		</layer>
		<layer id="166" name="4199420328217" type="Const" version="opset1">
			<data offset="3086" size="32" shape="1,8,1,1" element_type="f32"/>
			<output>
				<port id="0" precision="FP32">
					<dim>1</dim>
					<dim>8</dim>
					<dim>1</dim>
					<dim>1</dim>
				</port>
			</output>
		</layer>
		<layer id="167" name="4200420426078" type="Const" version="opset1">
			<data offset="3118" size="32" shape="1,8,1,1" element_type="f32"/>
			<output>
				<port id="0" precision="FP32">
					<dim>1</dim>
					<dim>8</dim>
					<dim>1</dim>
					<dim>1</dim>
				</port>
			</output>
		</layer>
		<layer id="168" name="bottleneck1_3/dim_red/conv/fq_weights_1/scale1832129021" type="Const" version="opset1">
			<data offset="3150" size="32" shape="8,1,1,1" element_type="f32"/>
			<output>
				<port id="0" precision="FP32">
					<dim>8</dim>
					<dim>1</dim>
					<dim>1</dim>
					<dim>1</dim>
				</port>
			</output>
		</layer>
		<layer id="169" name="bottleneck1_3/dim_red/bn/mean/Fused_Mul__copy115513939/restored_convert/quantized1831325931" type="Const" version="opset1">
			<data offset="3182" size="256" shape="8,32,1,1" element_type="i8"/>
			<output>
				<port id="0" precision="I8">
					<dim>8</dim>
					<dim>32</dim>
					<dim>1</dim>
					<dim>1</dim>
				</port>
			</output>
		</layer>
		<layer id="170" name="bottleneck1_3/dim_red/bn/mean/Fused_Mul__copy115513939/restored_convert/quantized/to_f32" type="Convert" version="opset1">
			<data destination_type="f32"/>
			<input>
				<port id="0">
					<dim>8</dim>
					<dim>32</dim>
					<dim>1</dim>
					<dim>1</dim>
				</port>
			</input>
			<output>
				<port id="1" precision="FP32">
					<dim>8</dim>
					<dim>32</dim>
					<dim>1</dim>
					<dim>1</dim>
				</port>
			</output>
		</layer>
		<layer id="171" name="bottleneck1_3/dim_red/conv/fq_weights_1/mulpiply_by_scale" type="Multiply" version="opset1">
			<data auto_broadcast="numpy"/>
			<input>
				<port id="0">
					<dim>8</dim>
					<dim>32</dim>
					<dim>1</dim>
					<dim>1</dim>
				</port>
				<port id="1">
					<dim>8</dim>
					<dim>1</dim>
					<dim>1</dim>
					<dim>1</dim>
				</port>
			</input>
			<output>
				<port id="2" precision="FP32">
					<dim>8</dim>
					<dim>32</dim>
					<dim>1</dim>
					<dim>1</dim>
				</port>
			</output>
		</layer>
		<layer id="172" name="bottleneck1_3/dim_red/conv" type="Convolution" version="opset1">
			<data auto_pad="explicit" strides="1,1" dilations="1,1" pads_begin="0,0" pads_end="0,0"/>
			<input>
				<port id="0">
					<dim>1</dim>
					<dim>32</dim>
					<dim>160</dim>
					<dim>272</dim>
				</port>
				<port id="1">
					<dim>8</dim>
					<dim>32</dim>
					<dim>1</dim>
					<dim>1</dim>
				</port>
			</input>
			<output>
				<port id="2" precision="FP32">
					<dim>1</dim>
					<dim>8</dim>
					<dim>160</dim>
					<dim>272</dim>
				</port>
			</output>
		</layer>
		<layer id="173" name="data_add_2450524510115829267" type="Const" version="opset1">
			<data offset="3438" size="16" shape="1,8,1,1" element_type="f16"/>
			<output>
				<port id="0" precision="FP16">
					<dim>1</dim>
					<dim>8</dim>
					<dim>1</dim>
					<dim>1</dim>
				</port>
			</output>
		</layer>
		<layer id="174" name="data_add_2450524510115813940/restored_convert" type="Convert" version="opset1">
			<data destination_type="f32"/>
			<rt_info>
				<attribute name="decompression" version="0"/>
			</rt_info>
			<input>
				<port id="0">
					<dim>1</dim>
					<dim>8</dim>
					<dim>1</dim>
					<dim>1</dim>
				</port>
			</input>
			<output>
				<port id="1" precision="FP32">
					<dim>1</dim>
					<dim>8</dim>
					<dim>1</dim>
					<dim>1</dim>
				</port>
			</output>
		</layer>
		<layer id="175" name="bottleneck1_3/dim_red/bn/variance/Fused_Add_" type="Add" version="opset1">
			<data auto_broadcast="numpy"/>
			<input>
				<port id="0">
					<dim>1</dim>
					<dim>8</dim>
					<dim>160</dim>
					<dim>272</dim>
				</port>
				<port id="1">
					<dim>1</dim>
					<dim>8</dim>
					<dim>1</dim>
					<dim>1</dim>
				</port>
			</input>
			<output>
				<port id="2" precision="FP32" names="bottleneck1_3/dim_red/conv">
					<dim>1</dim>
					<dim>8</dim>
					<dim>160</dim>
					<dim>272</dim>
				</port>
			</output>
		</layer>
		<layer id="176" name="bottleneck1_3/dim_red/fn/weights3123240523116126234" type="Const" version="opset1">
			<data offset="1500" size="2" shape="1" element_type="f16"/>
			<output>
				<port id="0" precision="FP16">
					<dim>1</dim>
				</port>
			</output>
		</layer>
		<layer id="177" name="bottleneck1_3/dim_red/fn/weights3123240523116113941/restored_convert" type="Convert" version="opset1">
			<data destination_type="f32"/>
			<rt_info>
				<attribute name="decompression" version="0"/>
			</rt_info>
			<input>
				<port id="0">
					<dim>1</dim>
				</port>
			</input>
			<output>
				<port id="1" precision="FP32">
					<dim>1</dim>
				</port>
			</output>
		</layer>
		<layer id="178" name="bottleneck1_3/dim_red/fn" type="PReLU" version="opset1">
			<input>
				<port id="0">
					<dim>1</dim>
					<dim>8</dim>
					<dim>160</dim>
					<dim>272</dim>
				</port>
				<port id="1">
					<dim>1</dim>
				</port>
			</input>
			<output>
				<port id="2" precision="FP32" names="bottleneck1_3/dim_red/conv">
					<dim>1</dim>
					<dim>8</dim>
					<dim>160</dim>
					<dim>272</dim>
				</port>
			</output>
		</layer>
		<layer id="179" name="bottleneck1_3/inner/dw1/conv/fq_input_0" type="FakeQuantize" version="opset1">
			<data levels="256" auto_broadcast="numpy"/>
			<input>
				<port id="0">
					<dim>1</dim>
					<dim>8</dim>
					<dim>160</dim>
					<dim>272</dim>
				</port>
				<port id="1">
					<dim>1</dim>
					<dim>8</dim>
					<dim>1</dim>
					<dim>1</dim>
				</port>
				<port id="2">
					<dim>1</dim>
					<dim>8</dim>
					<dim>1</dim>
					<dim>1</dim>
				</port>
				<port id="3">
					<dim>1</dim>
					<dim>8</dim>
					<dim>1</dim>
					<dim>1</dim>
				</port>
				<port id="4">
					<dim>1</dim>
					<dim>8</dim>
					<dim>1</dim>
					<dim>1</dim>
				</port>
			</input>
			<output>
				<port id="5" precision="FP32">
					<dim>1</dim>
					<dim>8</dim>
					<dim>160</dim>
					<dim>272</dim>
				</port>
			</output>
		</layer>
		<layer id="180" name="bottleneck1_3/inner/dw1/conv/fq_weights_1/scale1835129102" type="Const" version="opset1">
			<data offset="3454" size="32" shape="8,1,1,1" element_type="f32"/>
			<output>
				<port id="0" precision="FP32">
					<dim>8</dim>
					<dim>1</dim>
					<dim>1</dim>
					<dim>1</dim>
				</port>
			</output>
		</layer>
		<layer id="181" name="bottleneck1_3/inner/dw1/bn/mean/Fused_Mul__copy116413942/restored_convert/quantized1834328370" type="Const" version="opset1">
			<data offset="3486" size="72" shape="8,1,3,3" element_type="i8"/>
			<output>
				<port id="0" precision="I8">
					<dim>8</dim>
					<dim>1</dim>
					<dim>3</dim>
					<dim>3</dim>
				</port>
			</output>
		</layer>
		<layer id="182" name="bottleneck1_3/inner/dw1/bn/mean/Fused_Mul__copy116413942/restored_convert/quantized/to_f32" type="Convert" version="opset1">
			<data destination_type="f32"/>
			<input>
				<port id="0">
					<dim>8</dim>
					<dim>1</dim>
					<dim>3</dim>
					<dim>3</dim>
				</port>
			</input>
			<output>
				<port id="1" precision="FP32">
					<dim>8</dim>
					<dim>1</dim>
					<dim>3</dim>
					<dim>3</dim>
				</port>
			</output>
		</layer>
		<layer id="183" name="bottleneck1_3/inner/dw1/conv/fq_weights_1/mulpiply_by_scale" type="Multiply" version="opset1">
			<data auto_broadcast="numpy"/>
			<input>
				<port id="0">
					<dim>8</dim>
					<dim>1</dim>
					<dim>3</dim>
					<dim>3</dim>
				</port>
				<port id="1">
					<dim>8</dim>
					<dim>1</dim>
					<dim>1</dim>
					<dim>1</dim>
				</port>
			</input>
			<output>
				<port id="2" precision="FP32">
					<dim>8</dim>
					<dim>1</dim>
					<dim>3</dim>
					<dim>3</dim>
				</port>
			</output>
		</layer>
		<layer id="184" name="bottleneck1_3/inner/dw1/conv/GOI_weights_part2298229210" type="Const" version="opset1">
			<data offset="1606" size="24" shape="3" element_type="i64"/>
			<output>
				<port id="0" precision="I64">
					<dim>3</dim>
				</port>
			</output>
		</layer>
		<layer id="185" name="bottleneck1_3/inner/dw1/conv/WeightsShape" type="ShapeOf" version="opset3">
			<data output_type="i64"/>
			<input>
				<port id="0">
					<dim>8</dim>
					<dim>1</dim>
					<dim>3</dim>
					<dim>3</dim>
				</port>
			</input>
			<output>
				<port id="1" precision="I64">
					<dim>4</dim>
				</port>
			</output>
		</layer>
		<layer id="186" name="bottleneck1_3/inner/dw1/conv/XY_weights_part_input_port_1/value2297825952" type="Const" version="opset1">
			<data offset="1630" size="16" shape="2" element_type="i64"/>
			<output>
				<port id="0" precision="I64">
					<dim>2</dim>
				</port>
			</output>
		</layer>
		<layer id="187" name="bottleneck1_3/inner/dw1/conv/XY_weights_part_input_port_2/value2298027377" type="Const" version="opset1">
			<data offset="1646" size="8" shape="" element_type="i64"/>
			<output>
				<port id="0" precision="I64"/>
			</output>
		</layer>
		<layer id="188" name="bottleneck1_3/inner/dw1/conv/XY_weights_part" type="Gather" version="opset8">
			<data batch_dims="0"/>
			<input>
				<port id="0">
					<dim>4</dim>
				</port>
				<port id="1">
					<dim>2</dim>
				</port>
				<port id="2"/>
			</input>
			<output>
				<port id="3" precision="I64">
					<dim>2</dim>
				</port>
			</output>
		</layer>
		<layer id="189" name="bottleneck1_3/inner/dw1/conv/weights_shape" type="Concat" version="opset1">
			<data axis="0"/>
			<input>
				<port id="0">
					<dim>3</dim>
				</port>
				<port id="1">
					<dim>2</dim>
				</port>
			</input>
			<output>
				<port id="2" precision="I64">
					<dim>5</dim>
				</port>
			</output>
		</layer>
		<layer id="190" name="22984" type="Reshape" version="opset1">
			<data special_zero="true"/>
			<input>
				<port id="0">
					<dim>8</dim>
					<dim>1</dim>
					<dim>3</dim>
					<dim>3</dim>
				</port>
				<port id="1">
					<dim>5</dim>
				</port>
			</input>
			<output>
				<port id="2" precision="FP32">
					<dim>8</dim>
					<dim>1</dim>
					<dim>1</dim>
					<dim>3</dim>
					<dim>3</dim>
				</port>
			</output>
		</layer>
		<layer id="191" name="bottleneck1_3/inner/dw1/conv" type="GroupConvolution" version="opset1">
			<data auto_pad="explicit" strides="1,1" dilations="1,1" pads_begin="1,1" pads_end="1,1"/>
			<input>
				<port id="0">
					<dim>1</dim>
					<dim>8</dim>
					<dim>160</dim>
					<dim>272</dim>
				</port>
				<port id="1">
					<dim>8</dim>
					<dim>1</dim>
					<dim>1</dim>
					<dim>3</dim>
					<dim>3</dim>
				</port>
			</input>
			<output>
				<port id="2" precision="FP32">
					<dim>1</dim>
					<dim>8</dim>
					<dim>160</dim>
					<dim>272</dim>
				</port>
			</output>
		</layer>
		<layer id="192" name="data_add_2451324518116727905" type="Const" version="opset1">
			<data offset="3558" size="16" shape="1,8,1,1" element_type="f16"/>
			<output>
				<port id="0" precision="FP16">
					<dim>1</dim>
					<dim>8</dim>
					<dim>1</dim>
					<dim>1</dim>
				</port>
			</output>
		</layer>
		<layer id="193" name="data_add_2451324518116713943/restored_convert" type="Convert" version="opset1">
			<data destination_type="f32"/>
			<rt_info>
				<attribute name="decompression" version="0"/>
			</rt_info>
			<input>
				<port id="0">
					<dim>1</dim>
					<dim>8</dim>
					<dim>1</dim>
					<dim>1</dim>
				</port>
			</input>
			<output>
				<port id="1" precision="FP32">
					<dim>1</dim>
					<dim>8</dim>
					<dim>1</dim>
					<dim>1</dim>
				</port>
			</output>
		</layer>
		<layer id="194" name="bottleneck1_3/inner/dw1/bn/variance/Fused_Add_" type="Add" version="opset1">
			<data auto_broadcast="numpy"/>
			<input>
				<port id="0">
					<dim>1</dim>
					<dim>8</dim>
					<dim>160</dim>
					<dim>272</dim>
				</port>
				<port id="1">
					<dim>1</dim>
					<dim>8</dim>
					<dim>1</dim>
					<dim>1</dim>
				</port>
			</input>
			<output>
				<port id="2" precision="FP32" names="bottleneck1_3/inner/dw1/conv">
					<dim>1</dim>
					<dim>8</dim>
					<dim>160</dim>
					<dim>272</dim>
				</port>
			</output>
		</layer>
		<layer id="195" name="bottleneck1_3/inner/dw1/fn/weights3125240664117027947" type="Const" version="opset1">
			<data offset="1500" size="2" shape="1" element_type="f16"/>
			<output>
				<port id="0" precision="FP16">
					<dim>1</dim>
				</port>
			</output>
		</layer>
		<layer id="196" name="bottleneck1_3/inner/dw1/fn/weights3125240664117013944/restored_convert" type="Convert" version="opset1">
			<data destination_type="f32"/>
			<rt_info>
				<attribute name="decompression" version="0"/>
			</rt_info>
			<input>
				<port id="0">
					<dim>1</dim>
				</port>
			</input>
			<output>
				<port id="1" precision="FP32">
					<dim>1</dim>
				</port>
			</output>
		</layer>
		<layer id="197" name="bottleneck1_3/inner/dw1/fn" type="PReLU" version="opset1">
			<input>
				<port id="0">
					<dim>1</dim>
					<dim>8</dim>
					<dim>160</dim>
					<dim>272</dim>
				</port>
				<port id="1">
					<dim>1</dim>
				</port>
			</input>
			<output>
				<port id="2" precision="FP32" names="bottleneck1_3/inner/dw1/conv">
					<dim>1</dim>
					<dim>8</dim>
					<dim>160</dim>
					<dim>272</dim>
				</port>
			</output>
		</layer>
		<layer id="198" name="bottleneck1_3/dim_inc/conv/fq_input_0" type="FakeQuantize" version="opset1">
			<data levels="256" auto_broadcast="numpy"/>
			<input>
				<port id="0">
					<dim>1</dim>
					<dim>8</dim>
					<dim>160</dim>
					<dim>272</dim>
				</port>
				<port id="1"/>
				<port id="2"/>
				<port id="3"/>
				<port id="4"/>
			</input>
			<output>
				<port id="5" precision="FP32">
					<dim>1</dim>
					<dim>8</dim>
					<dim>160</dim>
					<dim>272</dim>
				</port>
			</output>
		</layer>
		<layer id="199" name="bottleneck1_3/dim_inc/conv/fq_weights_1/scale1802128361" type="Const" version="opset1">
			<data offset="3574" size="128" shape="32,1,1,1" element_type="f32"/>
			<output>
				<port id="0" precision="FP32">
					<dim>32</dim>
					<dim>1</dim>
					<dim>1</dim>
					<dim>1</dim>
				</port>
			</output>
		</layer>
		<layer id="200" name="bottleneck1_3/dim_inc/bn/mean/Fused_Mul__copy117313945/restored_convert/quantized1801326546" type="Const" version="opset1">
			<data offset="3702" size="256" shape="32,8,1,1" element_type="i8"/>
			<output>
				<port id="0" precision="I8">
					<dim>32</dim>
					<dim>8</dim>
					<dim>1</dim>
					<dim>1</dim>
				</port>
			</output>
		</layer>
		<layer id="201" name="bottleneck1_3/dim_inc/bn/mean/Fused_Mul__copy117313945/restored_convert/quantized/to_f32" type="Convert" version="opset1">
			<data destination_type="f32"/>
			<input>
				<port id="0">
					<dim>32</dim>
					<dim>8</dim>
					<dim>1</dim>
					<dim>1</dim>
				</port>
			</input>
			<output>
				<port id="1" precision="FP32">
					<dim>32</dim>
					<dim>8</dim>
					<dim>1</dim>
					<dim>1</dim>
				</port>
			</output>
		</layer>
		<layer id="202" name="bottleneck1_3/dim_inc/conv/fq_weights_1/mulpiply_by_scale" type="Multiply" version="opset1">
			<data auto_broadcast="numpy"/>
			<input>
				<port id="0">
					<dim>32</dim>
					<dim>8</dim>
					<dim>1</dim>
					<dim>1</dim>
				</port>
				<port id="1">
					<dim>32</dim>
					<dim>1</dim>
					<dim>1</dim>
					<dim>1</dim>
				</port>
			</input>
			<output>
				<port id="2" precision="FP32">
					<dim>32</dim>
					<dim>8</dim>
					<dim>1</dim>
					<dim>1</dim>
				</port>
			</output>
		</layer>
		<layer id="203" name="bottleneck1_3/dim_inc/conv" type="Convolution" version="opset1">
			<data auto_pad="explicit" strides="1,1" dilations="1,1" pads_begin="0,0" pads_end="0,0"/>
			<input>
				<port id="0">
					<dim>1</dim>
					<dim>8</dim>
					<dim>160</dim>
					<dim>272</dim>
				</port>
				<port id="1">
					<dim>32</dim>
					<dim>8</dim>
					<dim>1</dim>
					<dim>1</dim>
				</port>
			</input>
			<output>
				<port id="2" precision="FP32">
					<dim>1</dim>
					<dim>32</dim>
					<dim>160</dim>
					<dim>272</dim>
				</port>
			</output>
		</layer>
		<layer id="204" name="data_add_2452124526117629279" type="Const" version="opset1">
			<data offset="3958" size="64" shape="1,32,1,1" element_type="f16"/>
			<output>
				<port id="0" precision="FP16">
					<dim>1</dim>
					<dim>32</dim>
					<dim>1</dim>
					<dim>1</dim>
				</port>
			</output>
		</layer>
		<layer id="205" name="data_add_2452124526117613946/restored_convert" type="Convert" version="opset1">
			<data destination_type="f32"/>
			<rt_info>
				<attribute name="decompression" version="0"/>
			</rt_info>
			<input>
				<port id="0">
					<dim>1</dim>
					<dim>32</dim>
					<dim>1</dim>
					<dim>1</dim>
				</port>
			</input>
			<output>
				<port id="1" precision="FP32">
					<dim>1</dim>
					<dim>32</dim>
					<dim>1</dim>
					<dim>1</dim>
				</port>
			</output>
		</layer>
		<layer id="206" name="bottleneck1_3/dim_inc/bn/variance/Fused_Add_" type="Add" version="opset1">
			<data auto_broadcast="numpy"/>
			<input>
				<port id="0">
					<dim>1</dim>
					<dim>32</dim>
					<dim>160</dim>
					<dim>272</dim>
				</port>
				<port id="1">
					<dim>1</dim>
					<dim>32</dim>
					<dim>1</dim>
					<dim>1</dim>
				</port>
			</input>
			<output>
				<port id="2" precision="FP32" names="bottleneck1_3/dim_inc/conv">
					<dim>1</dim>
					<dim>32</dim>
					<dim>160</dim>
					<dim>272</dim>
				</port>
			</output>
		</layer>
		<layer id="207" name="bottleneck1_3/add/fq_input_1" type="FakeQuantize" version="opset1">
			<data levels="256" auto_broadcast="numpy"/>
			<input>
				<port id="0">
					<dim>1</dim>
					<dim>32</dim>
					<dim>160</dim>
					<dim>272</dim>
				</port>
				<port id="1"/>
				<port id="2"/>
				<port id="3"/>
				<port id="4"/>
			</input>
			<output>
				<port id="5" precision="FP32">
					<dim>1</dim>
					<dim>32</dim>
					<dim>160</dim>
					<dim>272</dim>
				</port>
			</output>
		</layer>
		<layer id="208" name="bottleneck1_3/add" type="Add" version="opset1">
			<data auto_broadcast="numpy"/>
			<input>
				<port id="0">
					<dim>1</dim>
					<dim>32</dim>
					<dim>160</dim>
					<dim>272</dim>
				</port>
				<port id="1">
					<dim>1</dim>
					<dim>32</dim>
					<dim>160</dim>
					<dim>272</dim>
				</port>
			</input>
			<output>
				<port id="2" precision="FP32" names="bottleneck1_3/add">
					<dim>1</dim>
					<dim>32</dim>
					<dim>160</dim>
					<dim>272</dim>
				</port>
			</output>
		</layer>
		<layer id="209" name="bottleneck1_3/fn/weights3113640055118028115" type="Const" version="opset1">
			<data offset="1500" size="2" shape="1" element_type="f16"/>
			<output>
				<port id="0" precision="FP16">
					<dim>1</dim>
				</port>
			</output>
		</layer>
		<layer id="210" name="bottleneck1_3/fn/weights3113640055118013947/restored_convert" type="Convert" version="opset1">
			<data destination_type="f32"/>
			<rt_info>
				<attribute name="decompression" version="0"/>
			</rt_info>
			<input>
				<port id="0">
					<dim>1</dim>
				</port>
			</input>
			<output>
				<port id="1" precision="FP32">
					<dim>1</dim>
				</port>
			</output>
		</layer>
		<layer id="211" name="bottleneck1_3/fn" type="PReLU" version="opset1">
			<input>
				<port id="0">
					<dim>1</dim>
					<dim>32</dim>
					<dim>160</dim>
					<dim>272</dim>
				</port>
				<port id="1">
					<dim>1</dim>
				</port>
			</input>
			<output>
				<port id="2" precision="FP32" names="bottleneck1_3/add">
					<dim>1</dim>
					<dim>32</dim>
					<dim>160</dim>
					<dim>272</dim>
				</port>
			</output>
		</layer>
		<layer id="212" name="bottleneck1_4/add/fq_input_0" type="FakeQuantize" version="opset1">
			<data levels="256" auto_broadcast="numpy"/>
			<input>
				<port id="0">
					<dim>1</dim>
					<dim>32</dim>
					<dim>160</dim>
					<dim>272</dim>
				</port>
				<port id="1"/>
				<port id="2"/>
				<port id="3"/>
				<port id="4"/>
			</input>
			<output>
				<port id="5" precision="FP32">
					<dim>1</dim>
					<dim>32</dim>
					<dim>160</dim>
					<dim>272</dim>
				</port>
			</output>
		</layer>
		<layer id="213" name="6227623126951" type="Const" version="opset1">
			<data offset="4022" size="4" shape="" element_type="f32"/>
			<output>
				<port id="0" precision="FP32"/>
			</output>
		</layer>
		<layer id="214" name="6228623227569" type="Const" version="opset1">
			<data offset="4026" size="4" shape="" element_type="f32"/>
			<output>
				<port id="0" precision="FP32"/>
			</output>
		</layer>
		<layer id="215" name="6229623327548" type="Const" version="opset1">
			<data offset="4022" size="4" shape="" element_type="f32"/>
			<output>
				<port id="0" precision="FP32"/>
			</output>
		</layer>
		<layer id="216" name="6230623428364" type="Const" version="opset1">
			<data offset="4026" size="4" shape="" element_type="f32"/>
			<output>
				<port id="0" precision="FP32"/>
			</output>
		</layer>
		<layer id="217" name="6077608126501" type="Const" version="opset1">
			<data offset="4030" size="4" shape="" element_type="f32"/>
			<output>
				<port id="0" precision="FP32"/>
			</output>
		</layer>
		<layer id="218" name="6078608226621" type="Const" version="opset1">
			<data offset="4034" size="4" shape="" element_type="f32"/>
			<output>
				<port id="0" precision="FP32"/>
			</output>
		</layer>
		<layer id="219" name="6079608326687" type="Const" version="opset1">
			<data offset="4030" size="4" shape="" element_type="f32"/>
			<output>
				<port id="0" precision="FP32"/>
			</output>
		</layer>
		<layer id="220" name="6080608428118" type="Const" version="opset1">
			<data offset="4034" size="4" shape="" element_type="f32"/>
			<output>
				<port id="0" precision="FP32"/>
			</output>
		</layer>
		<layer id="221" name="5877588127797" type="Const" version="opset1">
			<data offset="4038" size="32" shape="1,8,1,1" element_type="f32"/>
			<output>
				<port id="0" precision="FP32">
					<dim>1</dim>
					<dim>8</dim>
					<dim>1</dim>
					<dim>1</dim>
				</port>
			</output>
		</layer>
		<layer id="222" name="5878588228679" type="Const" version="opset1">
			<data offset="4070" size="32" shape="1,8,1,1" element_type="f32"/>
			<output>
				<port id="0" precision="FP32">
					<dim>1</dim>
					<dim>8</dim>
					<dim>1</dim>
					<dim>1</dim>
				</port>
			</output>
		</layer>
		<layer id="223" name="5879588326537" type="Const" version="opset1">
			<data offset="4038" size="32" shape="1,8,1,1" element_type="f32"/>
			<output>
				<port id="0" precision="FP32">
					<dim>1</dim>
					<dim>8</dim>
					<dim>1</dim>
					<dim>1</dim>
				</port>
			</output>
		</layer>
		<layer id="224" name="5880588426849" type="Const" version="opset1">
			<data offset="4070" size="32" shape="1,8,1,1" element_type="f32"/>
			<output>
				<port id="0" precision="FP32">
					<dim>1</dim>
					<dim>8</dim>
					<dim>1</dim>
					<dim>1</dim>
				</port>
			</output>
		</layer>
		<layer id="225" name="bottleneck1_4/dim_red/conv/fq_weights_1/scale1757128844" type="Const" version="opset1">
			<data offset="4102" size="32" shape="8,1,1,1" element_type="f32"/>
			<output>
				<port id="0" precision="FP32">
					<dim>8</dim>
					<dim>1</dim>
					<dim>1</dim>
					<dim>1</dim>
				</port>
			</output>
		</layer>
		<layer id="226" name="bottleneck1_4/dim_red/bn/mean/Fused_Mul__copy118313948/restored_convert/quantized1756327113" type="Const" version="opset1">
			<data offset="4134" size="256" shape="8,32,1,1" element_type="i8"/>
			<output>
				<port id="0" precision="I8">
					<dim>8</dim>
					<dim>32</dim>
					<dim>1</dim>
					<dim>1</dim>
				</port>
			</output>
		</layer>
		<layer id="227" name="bottleneck1_4/dim_red/bn/mean/Fused_Mul__copy118313948/restored_convert/quantized/to_f32" type="Convert" version="opset1">
			<data destination_type="f32"/>
			<input>
				<port id="0">
					<dim>8</dim>
					<dim>32</dim>
					<dim>1</dim>
					<dim>1</dim>
				</port>
			</input>
			<output>
				<port id="1" precision="FP32">
					<dim>8</dim>
					<dim>32</dim>
					<dim>1</dim>
					<dim>1</dim>
				</port>
			</output>
		</layer>
		<layer id="228" name="bottleneck1_4/dim_red/conv/fq_weights_1/mulpiply_by_scale" type="Multiply" version="opset1">
			<data auto_broadcast="numpy"/>
			<input>
				<port id="0">
					<dim>8</dim>
					<dim>32</dim>
					<dim>1</dim>
					<dim>1</dim>
				</port>
				<port id="1">
					<dim>8</dim>
					<dim>1</dim>
					<dim>1</dim>
					<dim>1</dim>
				</port>
			</input>
			<output>
				<port id="2" precision="FP32">
					<dim>8</dim>
					<dim>32</dim>
					<dim>1</dim>
					<dim>1</dim>
				</port>
			</output>
		</layer>
		<layer id="229" name="bottleneck1_4/dim_red/conv" type="Convolution" version="opset1">
			<data auto_pad="explicit" strides="1,1" dilations="1,1" pads_begin="0,0" pads_end="0,0"/>
			<input>
				<port id="0">
					<dim>1</dim>
					<dim>32</dim>
					<dim>160</dim>
					<dim>272</dim>
				</port>
				<port id="1">
					<dim>8</dim>
					<dim>32</dim>
					<dim>1</dim>
					<dim>1</dim>
				</port>
			</input>
			<output>
				<port id="2" precision="FP32">
					<dim>1</dim>
					<dim>8</dim>
					<dim>160</dim>
					<dim>272</dim>
				</port>
			</output>
		</layer>
		<layer id="230" name="data_add_2452924534118628394" type="Const" version="opset1">
			<data offset="4390" size="16" shape="1,8,1,1" element_type="f16"/>
			<output>
				<port id="0" precision="FP16">
					<dim>1</dim>
					<dim>8</dim>
					<dim>1</dim>
					<dim>1</dim>
				</port>
			</output>
		</layer>
		<layer id="231" name="data_add_2452924534118613949/restored_convert" type="Convert" version="opset1">
			<data destination_type="f32"/>
			<rt_info>
				<attribute name="decompression" version="0"/>
			</rt_info>
			<input>
				<port id="0">
					<dim>1</dim>
					<dim>8</dim>
					<dim>1</dim>
					<dim>1</dim>
				</port>
			</input>
			<output>
				<port id="1" precision="FP32">
					<dim>1</dim>
					<dim>8</dim>
					<dim>1</dim>
					<dim>1</dim>
				</port>
			</output>
		</layer>
		<layer id="232" name="bottleneck1_4/dim_red/bn/variance/Fused_Add_" type="Add" version="opset1">
			<data auto_broadcast="numpy"/>
			<input>
				<port id="0">
					<dim>1</dim>
					<dim>8</dim>
					<dim>160</dim>
					<dim>272</dim>
				</port>
				<port id="1">
					<dim>1</dim>
					<dim>8</dim>
					<dim>1</dim>
					<dim>1</dim>
				</port>
			</input>
			<output>
				<port id="2" precision="FP32" names="bottleneck1_4/dim_red/conv">
					<dim>1</dim>
					<dim>8</dim>
					<dim>160</dim>
					<dim>272</dim>
				</port>
			</output>
		</layer>
		<layer id="233" name="bottleneck1_4/dim_red/fn/weights3085240337118928424" type="Const" version="opset1">
			<data offset="1500" size="2" shape="1" element_type="f16"/>
			<output>
				<port id="0" precision="FP16">
					<dim>1</dim>
				</port>
			</output>
		</layer>
		<layer id="234" name="bottleneck1_4/dim_red/fn/weights3085240337118913950/restored_convert" type="Convert" version="opset1">
			<data destination_type="f32"/>
			<rt_info>
				<attribute name="decompression" version="0"/>
			</rt_info>
			<input>
				<port id="0">
					<dim>1</dim>
				</port>
			</input>
			<output>
				<port id="1" precision="FP32">
					<dim>1</dim>
				</port>
			</output>
		</layer>
		<layer id="235" name="bottleneck1_4/dim_red/fn" type="PReLU" version="opset1">
			<input>
				<port id="0">
					<dim>1</dim>
					<dim>8</dim>
					<dim>160</dim>
					<dim>272</dim>
				</port>
				<port id="1">
					<dim>1</dim>
				</port>
			</input>
			<output>
				<port id="2" precision="FP32" names="bottleneck1_4/dim_red/conv">
					<dim>1</dim>
					<dim>8</dim>
					<dim>160</dim>
					<dim>272</dim>
				</port>
			</output>
		</layer>
		<layer id="236" name="bottleneck1_4/inner/dw1/conv/fq_input_0" type="FakeQuantize" version="opset1">
			<data levels="256" auto_broadcast="numpy"/>
			<input>
				<port id="0">
					<dim>1</dim>
					<dim>8</dim>
					<dim>160</dim>
					<dim>272</dim>
				</port>
				<port id="1">
					<dim>1</dim>
					<dim>8</dim>
					<dim>1</dim>
					<dim>1</dim>
				</port>
				<port id="2">
					<dim>1</dim>
					<dim>8</dim>
					<dim>1</dim>
					<dim>1</dim>
				</port>
				<port id="3">
					<dim>1</dim>
					<dim>8</dim>
					<dim>1</dim>
					<dim>1</dim>
				</port>
				<port id="4">
					<dim>1</dim>
					<dim>8</dim>
					<dim>1</dim>
					<dim>1</dim>
				</port>
			</input>
			<output>
				<port id="5" precision="FP32">
					<dim>1</dim>
					<dim>8</dim>
					<dim>160</dim>
					<dim>272</dim>
				</port>
			</output>
		</layer>
		<layer id="237" name="bottleneck1_4/inner/dw1/conv/fq_weights_1/scale1805126618" type="Const" version="opset1">
			<data offset="4406" size="32" shape="8,1,1,1" element_type="f32"/>
			<output>
				<port id="0" precision="FP32">
					<dim>8</dim>
					<dim>1</dim>
					<dim>1</dim>
					<dim>1</dim>
				</port>
			</output>
		</layer>
		<layer id="238" name="bottleneck1_4/inner/dw1/bn/mean/Fused_Mul__copy119213951/restored_convert/quantized1804329216" type="Const" version="opset1">
			<data offset="4438" size="72" shape="8,1,3,3" element_type="i8"/>
			<output>
				<port id="0" precision="I8">
					<dim>8</dim>
					<dim>1</dim>
					<dim>3</dim>
					<dim>3</dim>
				</port>
			</output>
		</layer>
		<layer id="239" name="bottleneck1_4/inner/dw1/bn/mean/Fused_Mul__copy119213951/restored_convert/quantized/to_f32" type="Convert" version="opset1">
			<data destination_type="f32"/>
			<input>
				<port id="0">
					<dim>8</dim>
					<dim>1</dim>
					<dim>3</dim>
					<dim>3</dim>
				</port>
			</input>
			<output>
				<port id="1" precision="FP32">
					<dim>8</dim>
					<dim>1</dim>
					<dim>3</dim>
					<dim>3</dim>
				</port>
			</output>
		</layer>
		<layer id="240" name="bottleneck1_4/inner/dw1/conv/fq_weights_1/mulpiply_by_scale" type="Multiply" version="opset1">
			<data auto_broadcast="numpy"/>
			<input>
				<port id="0">
					<dim>8</dim>
					<dim>1</dim>
					<dim>3</dim>
					<dim>3</dim>
				</port>
				<port id="1">
					<dim>8</dim>
					<dim>1</dim>
					<dim>1</dim>
					<dim>1</dim>
				</port>
			</input>
			<output>
				<port id="2" precision="FP32">
					<dim>8</dim>
					<dim>1</dim>
					<dim>3</dim>
					<dim>3</dim>
				</port>
			</output>
		</layer>
		<layer id="241" name="bottleneck1_4/inner/dw1/conv/GOI_weights_part2299627059" type="Const" version="opset1">
			<data offset="1606" size="24" shape="3" element_type="i64"/>
			<output>
				<port id="0" precision="I64">
					<dim>3</dim>
				</port>
			</output>
		</layer>
		<layer id="242" name="bottleneck1_4/inner/dw1/conv/WeightsShape" type="ShapeOf" version="opset3">
			<data output_type="i64"/>
			<input>
				<port id="0">
					<dim>8</dim>
					<dim>1</dim>
					<dim>3</dim>
					<dim>3</dim>
				</port>
			</input>
			<output>
				<port id="1" precision="I64">
					<dim>4</dim>
				</port>
			</output>
		</layer>
		<layer id="243" name="bottleneck1_4/inner/dw1/conv/XY_weights_part_input_port_1/value2299225916" type="Const" version="opset1">
			<data offset="1630" size="16" shape="2" element_type="i64"/>
			<output>
				<port id="0" precision="I64">
					<dim>2</dim>
				</port>
			</output>
		</layer>
		<layer id="244" name="bottleneck1_4/inner/dw1/conv/XY_weights_part_input_port_2/value2299429042" type="Const" version="opset1">
			<data offset="1646" size="8" shape="" element_type="i64"/>
			<output>
				<port id="0" precision="I64"/>
			</output>
		</layer>
		<layer id="245" name="bottleneck1_4/inner/dw1/conv/XY_weights_part" type="Gather" version="opset8">
			<data batch_dims="0"/>
			<input>
				<port id="0">
					<dim>4</dim>
				</port>
				<port id="1">
					<dim>2</dim>
				</port>
				<port id="2"/>
			</input>
			<output>
				<port id="3" precision="I64">
					<dim>2</dim>
				</port>
			</output>
		</layer>
		<layer id="246" name="bottleneck1_4/inner/dw1/conv/weights_shape" type="Concat" version="opset1">
			<data axis="0"/>
			<input>
				<port id="0">
					<dim>3</dim>
				</port>
				<port id="1">
					<dim>2</dim>
				</port>
			</input>
			<output>
				<port id="2" precision="I64">
					<dim>5</dim>
				</port>
			</output>
		</layer>
		<layer id="247" name="22998" type="Reshape" version="opset1">
			<data special_zero="true"/>
			<input>
				<port id="0">
					<dim>8</dim>
					<dim>1</dim>
					<dim>3</dim>
					<dim>3</dim>
				</port>
				<port id="1">
					<dim>5</dim>
				</port>
			</input>
			<output>
				<port id="2" precision="FP32">
					<dim>8</dim>
					<dim>1</dim>
					<dim>1</dim>
					<dim>3</dim>
					<dim>3</dim>
				</port>
			</output>
		</layer>
		<layer id="248" name="bottleneck1_4/inner/dw1/conv" type="GroupConvolution" version="opset1">
			<data auto_pad="explicit" strides="1,1" dilations="1,1" pads_begin="1,1" pads_end="1,1"/>
			<input>
				<port id="0">
					<dim>1</dim>
					<dim>8</dim>
					<dim>160</dim>
					<dim>272</dim>
				</port>
				<port id="1">
					<dim>8</dim>
					<dim>1</dim>
					<dim>1</dim>
					<dim>3</dim>
					<dim>3</dim>
				</port>
			</input>
			<output>
				<port id="2" precision="FP32">
					<dim>1</dim>
					<dim>8</dim>
					<dim>160</dim>
					<dim>272</dim>
				</port>
			</output>
		</layer>
		<layer id="249" name="data_add_2453724542119528352" type="Const" version="opset1">
			<data offset="4510" size="16" shape="1,8,1,1" element_type="f16"/>
			<output>
				<port id="0" precision="FP16">
					<dim>1</dim>
					<dim>8</dim>
					<dim>1</dim>
					<dim>1</dim>
				</port>
			</output>
		</layer>
		<layer id="250" name="data_add_2453724542119513952/restored_convert" type="Convert" version="opset1">
			<data destination_type="f32"/>
			<rt_info>
				<attribute name="decompression" version="0"/>
			</rt_info>
			<input>
				<port id="0">
					<dim>1</dim>
					<dim>8</dim>
					<dim>1</dim>
					<dim>1</dim>
				</port>
			</input>
			<output>
				<port id="1" precision="FP32">
					<dim>1</dim>
					<dim>8</dim>
					<dim>1</dim>
					<dim>1</dim>
				</port>
			</output>
		</layer>
		<layer id="251" name="bottleneck1_4/inner/dw1/bn/variance/Fused_Add_" type="Add" version="opset1">
			<data auto_broadcast="numpy"/>
			<input>
				<port id="0">
					<dim>1</dim>
					<dim>8</dim>
					<dim>160</dim>
					<dim>272</dim>
				</port>
				<port id="1">
					<dim>1</dim>
					<dim>8</dim>
					<dim>1</dim>
					<dim>1</dim>
				</port>
			</input>
			<output>
				<port id="2" precision="FP32" names="bottleneck1_4/inner/dw1/conv">
					<dim>1</dim>
					<dim>8</dim>
					<dim>160</dim>
					<dim>272</dim>
				</port>
			</output>
		</layer>
		<layer id="252" name="bottleneck1_4/inner/dw1/fn/weights3123640466119828166" type="Const" version="opset1">
			<data offset="1500" size="2" shape="1" element_type="f16"/>
			<output>
				<port id="0" precision="FP16">
					<dim>1</dim>
				</port>
			</output>
		</layer>
		<layer id="253" name="bottleneck1_4/inner/dw1/fn/weights3123640466119813953/restored_convert" type="Convert" version="opset1">
			<data destination_type="f32"/>
			<rt_info>
				<attribute name="decompression" version="0"/>
			</rt_info>
			<input>
				<port id="0">
					<dim>1</dim>
				</port>
			</input>
			<output>
				<port id="1" precision="FP32">
					<dim>1</dim>
				</port>
			</output>
		</layer>
		<layer id="254" name="bottleneck1_4/inner/dw1/fn" type="PReLU" version="opset1">
			<input>
				<port id="0">
					<dim>1</dim>
					<dim>8</dim>
					<dim>160</dim>
					<dim>272</dim>
				</port>
				<port id="1">
					<dim>1</dim>
				</port>
			</input>
			<output>
				<port id="2" precision="FP32" names="bottleneck1_4/inner/dw1/conv">
					<dim>1</dim>
					<dim>8</dim>
					<dim>160</dim>
					<dim>272</dim>
				</port>
			</output>
		</layer>
		<layer id="255" name="bottleneck1_4/dim_inc/conv/fq_input_0" type="FakeQuantize" version="opset1">
			<data levels="256" auto_broadcast="numpy"/>
			<input>
				<port id="0">
					<dim>1</dim>
					<dim>8</dim>
					<dim>160</dim>
					<dim>272</dim>
				</port>
				<port id="1"/>
				<port id="2"/>
				<port id="3"/>
				<port id="4"/>
			</input>
			<output>
				<port id="5" precision="FP32">
					<dim>1</dim>
					<dim>8</dim>
					<dim>160</dim>
					<dim>272</dim>
				</port>
			</output>
		</layer>
		<layer id="256" name="bottleneck1_4/dim_inc/conv/fq_weights_1/scale1607126390" type="Const" version="opset1">
			<data offset="4526" size="128" shape="32,1,1,1" element_type="f32"/>
			<output>
				<port id="0" precision="FP32">
					<dim>32</dim>
					<dim>1</dim>
					<dim>1</dim>
					<dim>1</dim>
				</port>
			</output>
		</layer>
		<layer id="257" name="bottleneck1_4/dim_inc/bn/mean/Fused_Mul__copy120113954/restored_convert/quantized1606326483" type="Const" version="opset1">
			<data offset="4654" size="256" shape="32,8,1,1" element_type="i8"/>
			<output>
				<port id="0" precision="I8">
					<dim>32</dim>
					<dim>8</dim>
					<dim>1</dim>
					<dim>1</dim>
				</port>
			</output>
		</layer>
		<layer id="258" name="bottleneck1_4/dim_inc/bn/mean/Fused_Mul__copy120113954/restored_convert/quantized/to_f32" type="Convert" version="opset1">
			<data destination_type="f32"/>
			<input>
				<port id="0">
					<dim>32</dim>
					<dim>8</dim>
					<dim>1</dim>
					<dim>1</dim>
				</port>
			</input>
			<output>
				<port id="1" precision="FP32">
					<dim>32</dim>
					<dim>8</dim>
					<dim>1</dim>
					<dim>1</dim>
				</port>
			</output>
		</layer>
		<layer id="259" name="bottleneck1_4/dim_inc/conv/fq_weights_1/mulpiply_by_scale" type="Multiply" version="opset1">
			<data auto_broadcast="numpy"/>
			<input>
				<port id="0">
					<dim>32</dim>
					<dim>8</dim>
					<dim>1</dim>
					<dim>1</dim>
				</port>
				<port id="1">
					<dim>32</dim>
					<dim>1</dim>
					<dim>1</dim>
					<dim>1</dim>
				</port>
			</input>
			<output>
				<port id="2" precision="FP32">
					<dim>32</dim>
					<dim>8</dim>
					<dim>1</dim>
					<dim>1</dim>
				</port>
			</output>
		</layer>
		<layer id="260" name="bottleneck1_4/dim_inc/conv" type="Convolution" version="opset1">
			<data auto_pad="explicit" strides="1,1" dilations="1,1" pads_begin="0,0" pads_end="0,0"/>
			<input>
				<port id="0">
					<dim>1</dim>
					<dim>8</dim>
					<dim>160</dim>
					<dim>272</dim>
				</port>
				<port id="1">
					<dim>32</dim>
					<dim>8</dim>
					<dim>1</dim>
					<dim>1</dim>
				</port>
			</input>
			<output>
				<port id="2" precision="FP32">
					<dim>1</dim>
					<dim>32</dim>
					<dim>160</dim>
					<dim>272</dim>
				</port>
			</output>
		</layer>
		<layer id="261" name="data_add_2454524550120429291" type="Const" version="opset1">
			<data offset="4910" size="64" shape="1,32,1,1" element_type="f16"/>
			<output>
				<port id="0" precision="FP16">
					<dim>1</dim>
					<dim>32</dim>
					<dim>1</dim>
					<dim>1</dim>
				</port>
			</output>
		</layer>
		<layer id="262" name="data_add_2454524550120413955/restored_convert" type="Convert" version="opset1">
			<data destination_type="f32"/>
			<rt_info>
				<attribute name="decompression" version="0"/>
			</rt_info>
			<input>
				<port id="0">
					<dim>1</dim>
					<dim>32</dim>
					<dim>1</dim>
					<dim>1</dim>
				</port>
			</input>
			<output>
				<port id="1" precision="FP32">
					<dim>1</dim>
					<dim>32</dim>
					<dim>1</dim>
					<dim>1</dim>
				</port>
			</output>
		</layer>
		<layer id="263" name="bottleneck1_4/dim_inc/bn/variance/Fused_Add_" type="Add" version="opset1">
			<data auto_broadcast="numpy"/>
			<input>
				<port id="0">
					<dim>1</dim>
					<dim>32</dim>
					<dim>160</dim>
					<dim>272</dim>
				</port>
				<port id="1">
					<dim>1</dim>
					<dim>32</dim>
					<dim>1</dim>
					<dim>1</dim>
				</port>
			</input>
			<output>
				<port id="2" precision="FP32" names="bottleneck1_4/dim_inc/conv">
					<dim>1</dim>
					<dim>32</dim>
					<dim>160</dim>
					<dim>272</dim>
				</port>
			</output>
		</layer>
		<layer id="264" name="bottleneck1_4/add/fq_input_1" type="FakeQuantize" version="opset1">
			<data levels="256" auto_broadcast="numpy"/>
			<input>
				<port id="0">
					<dim>1</dim>
					<dim>32</dim>
					<dim>160</dim>
					<dim>272</dim>
				</port>
				<port id="1"/>
				<port id="2"/>
				<port id="3"/>
				<port id="4"/>
			</input>
			<output>
				<port id="5" precision="FP32">
					<dim>1</dim>
					<dim>32</dim>
					<dim>160</dim>
					<dim>272</dim>
				</port>
			</output>
		</layer>
		<layer id="265" name="bottleneck1_4/add" type="Add" version="opset1">
			<data auto_broadcast="numpy"/>
			<input>
				<port id="0">
					<dim>1</dim>
					<dim>32</dim>
					<dim>160</dim>
					<dim>272</dim>
				</port>
				<port id="1">
					<dim>1</dim>
					<dim>32</dim>
					<dim>160</dim>
					<dim>272</dim>
				</port>
			</input>
			<output>
				<port id="2" precision="FP32" names="bottleneck1_4/add">
					<dim>1</dim>
					<dim>32</dim>
					<dim>160</dim>
					<dim>272</dim>
				</port>
			</output>
		</layer>
		<layer id="266" name="bottleneck1_4/fn/weights3100440364120826786" type="Const" version="opset1">
			<data offset="1500" size="2" shape="1" element_type="f16"/>
			<output>
				<port id="0" precision="FP16">
					<dim>1</dim>
				</port>
			</output>
		</layer>
		<layer id="267" name="bottleneck1_4/fn/weights3100440364120813956/restored_convert" type="Convert" version="opset1">
			<data destination_type="f32"/>
			<rt_info>
				<attribute name="decompression" version="0"/>
			</rt_info>
			<input>
				<port id="0">
					<dim>1</dim>
				</port>
			</input>
			<output>
				<port id="1" precision="FP32">
					<dim>1</dim>
				</port>
			</output>
		</layer>
		<layer id="268" name="bottleneck1_4/fn" type="PReLU" version="opset1">
			<input>
				<port id="0">
					<dim>1</dim>
					<dim>32</dim>
					<dim>160</dim>
					<dim>272</dim>
				</port>
				<port id="1">
					<dim>1</dim>
				</port>
			</input>
			<output>
				<port id="2" precision="FP32" names="bottleneck1_4/add">
					<dim>1</dim>
					<dim>32</dim>
					<dim>160</dim>
					<dim>272</dim>
				</port>
			</output>
		</layer>
		<layer id="269" name="bottleneck2_0/dim_red/conv/fq_input_0" type="FakeQuantize" version="opset1">
			<data levels="256" auto_broadcast="numpy"/>
			<input>
				<port id="0">
					<dim>1</dim>
					<dim>32</dim>
					<dim>160</dim>
					<dim>272</dim>
				</port>
				<port id="1"/>
				<port id="2"/>
				<port id="3"/>
				<port id="4"/>
			</input>
			<output>
				<port id="5" precision="FP32">
					<dim>1</dim>
					<dim>32</dim>
					<dim>160</dim>
					<dim>272</dim>
				</port>
			</output>
		</layer>
		<layer id="270" name="bottleneck2_0/skip/pooling" type="MaxPool" version="opset8">
			<data strides="2,2" kernel="2,2" pads_begin="0,0" pads_end="0,0" rounding_type="ceil" auto_pad="explicit" dilations="1,1" axis="0" index_element_type="i64"/>
			<input>
				<port id="0">
					<dim>1</dim>
					<dim>32</dim>
					<dim>160</dim>
					<dim>272</dim>
				</port>
			</input>
			<output>
				<port id="1" precision="FP32" names="bottleneck2_0/skip/pooling">
					<dim>1</dim>
					<dim>32</dim>
					<dim>80</dim>
					<dim>136</dim>
				</port>
				<port id="2" precision="FP32">
					<dim>1</dim>
					<dim>32</dim>
					<dim>80</dim>
					<dim>136</dim>
					<rt_info/>
				</port>
			</output>
		</layer>
		<layer id="272" name="4277428125988" type="Const" version="opset1">
			<data offset="4974" size="4" shape="" element_type="f32"/>
			<output>
				<port id="0" precision="FP32"/>
			</output>
		</layer>
		<layer id="273" name="4278428228925" type="Const" version="opset1">
			<data offset="4978" size="4" shape="" element_type="f32"/>
			<output>
				<port id="0" precision="FP32"/>
			</output>
		</layer>
		<layer id="274" name="4279428327716" type="Const" version="opset1">
			<data offset="4974" size="4" shape="" element_type="f32"/>
			<output>
				<port id="0" precision="FP32"/>
			</output>
		</layer>
		<layer id="275" name="4280428427902" type="Const" version="opset1">
			<data offset="4978" size="4" shape="" element_type="f32"/>
			<output>
				<port id="0" precision="FP32"/>
			</output>
		</layer>
		<layer id="276" name="3617362127467" type="Const" version="opset1">
			<data offset="4982" size="4" shape="" element_type="f32"/>
			<output>
				<port id="0" precision="FP32"/>
			</output>
		</layer>
		<layer id="277" name="3618362227053" type="Const" version="opset1">
			<data offset="4986" size="4" shape="" element_type="f32"/>
			<output>
				<port id="0" precision="FP32"/>
			</output>
		</layer>
		<layer id="278" name="3619362327023" type="Const" version="opset1">
			<data offset="4982" size="4" shape="" element_type="f32"/>
			<output>
				<port id="0" precision="FP32"/>
			</output>
		</layer>
		<layer id="279" name="3620362426288" type="Const" version="opset1">
			<data offset="4986" size="4" shape="" element_type="f32"/>
			<output>
				<port id="0" precision="FP32"/>
			</output>
		</layer>
		<layer id="280" name="5217522128514" type="Const" version="opset1">
			<data offset="4990" size="4" shape="" element_type="f32"/>
			<output>
				<port id="0" precision="FP32"/>
			</output>
		</layer>
		<layer id="281" name="5218522226552" type="Const" version="opset1">
			<data offset="4994" size="4" shape="" element_type="f32"/>
			<output>
				<port id="0" precision="FP32"/>
			</output>
		</layer>
		<layer id="282" name="5219522326930" type="Const" version="opset1">
			<data offset="4990" size="4" shape="" element_type="f32"/>
			<output>
				<port id="0" precision="FP32"/>
			</output>
		</layer>
		<layer id="283" name="5220522427974" type="Const" version="opset1">
			<data offset="4994" size="4" shape="" element_type="f32"/>
			<output>
				<port id="0" precision="FP32"/>
			</output>
		</layer>
		<layer id="284" name="6537654127629" type="Const" version="opset1">
			<data offset="4998" size="4" shape="" element_type="f32"/>
			<output>
				<port id="0" precision="FP32"/>
			</output>
		</layer>
		<layer id="285" name="6538654227512" type="Const" version="opset1">
			<data offset="5002" size="4" shape="" element_type="f32"/>
			<output>
				<port id="0" precision="FP32"/>
			</output>
		</layer>
		<layer id="286" name="6539654327977" type="Const" version="opset1">
			<data offset="4998" size="4" shape="" element_type="f32"/>
			<output>
				<port id="0" precision="FP32"/>
			</output>
		</layer>
		<layer id="287" name="6540654426894" type="Const" version="opset1">
			<data offset="5002" size="4" shape="" element_type="f32"/>
			<output>
				<port id="0" precision="FP32"/>
			</output>
		</layer>
		<layer id="288" name="4657466126924" type="Const" version="opset1">
			<data offset="5006" size="4" shape="" element_type="f32"/>
			<output>
				<port id="0" precision="FP32"/>
			</output>
		</layer>
		<layer id="289" name="4658466228136" type="Const" version="opset1">
			<data offset="5010" size="4" shape="" element_type="f32"/>
			<output>
				<port id="0" precision="FP32"/>
			</output>
		</layer>
		<layer id="290" name="4659466326513" type="Const" version="opset1">
			<data offset="5006" size="4" shape="" element_type="f32"/>
			<output>
				<port id="0" precision="FP32"/>
			</output>
		</layer>
		<layer id="291" name="4660466428790" type="Const" version="opset1">
			<data offset="5010" size="4" shape="" element_type="f32"/>
			<output>
				<port id="0" precision="FP32"/>
			</output>
		</layer>
		<layer id="292" name="3637364126789" type="Const" version="opset1">
			<data offset="5014" size="4" shape="" element_type="f32"/>
			<output>
				<port id="0" precision="FP32"/>
			</output>
		</layer>
		<layer id="293" name="3638364227056" type="Const" version="opset1">
			<data offset="5018" size="4" shape="" element_type="f32"/>
			<output>
				<port id="0" precision="FP32"/>
			</output>
		</layer>
		<layer id="294" name="3639364326915" type="Const" version="opset1">
			<data offset="5014" size="4" shape="" element_type="f32"/>
			<output>
				<port id="0" precision="FP32"/>
			</output>
		</layer>
		<layer id="295" name="3640364428109" type="Const" version="opset1">
			<data offset="5018" size="4" shape="" element_type="f32"/>
			<output>
				<port id="0" precision="FP32"/>
			</output>
		</layer>
		<layer id="296" name="4397440126492" type="Const" version="opset1">
			<data offset="5022" size="4" shape="" element_type="f32"/>
			<output>
				<port id="0" precision="FP32"/>
			</output>
		</layer>
		<layer id="297" name="4398440228820" type="Const" version="opset1">
			<data offset="5026" size="4" shape="" element_type="f32"/>
			<output>
				<port id="0" precision="FP32"/>
			</output>
		</layer>
		<layer id="298" name="4399440328709" type="Const" version="opset1">
			<data offset="5022" size="4" shape="" element_type="f32"/>
			<output>
				<port id="0" precision="FP32"/>
			</output>
		</layer>
		<layer id="299" name="4400440426399" type="Const" version="opset1">
			<data offset="5026" size="4" shape="" element_type="f32"/>
			<output>
				<port id="0" precision="FP32"/>
			</output>
		</layer>
		<layer id="300" name="3717372125838" type="Const" version="opset1">
			<data offset="5030" size="4" shape="" element_type="f32"/>
			<output>
				<port id="0" precision="FP32"/>
			</output>
		</layer>
		<layer id="301" name="3718372226177" type="Const" version="opset1">
			<data offset="5034" size="4" shape="" element_type="f32"/>
			<output>
				<port id="0" precision="FP32"/>
			</output>
		</layer>
		<layer id="302" name="3719372328052" type="Const" version="opset1">
			<data offset="5030" size="4" shape="" element_type="f32"/>
			<output>
				<port id="0" precision="FP32"/>
			</output>
		</layer>
		<layer id="303" name="3720372427386" type="Const" version="opset1">
			<data offset="5034" size="4" shape="" element_type="f32"/>
			<output>
				<port id="0" precision="FP32"/>
			</output>
		</layer>
		<layer id="304" name="3857386126480" type="Const" version="opset1">
			<data offset="5038" size="4" shape="" element_type="f32"/>
			<output>
				<port id="0" precision="FP32"/>
			</output>
		</layer>
		<layer id="305" name="3858386228490" type="Const" version="opset1">
			<data offset="5042" size="4" shape="" element_type="f32"/>
			<output>
				<port id="0" precision="FP32"/>
			</output>
		</layer>
		<layer id="306" name="3859386328931" type="Const" version="opset1">
			<data offset="5038" size="4" shape="" element_type="f32"/>
			<output>
				<port id="0" precision="FP32"/>
			</output>
		</layer>
		<layer id="307" name="3860386428016" type="Const" version="opset1">
			<data offset="5042" size="4" shape="" element_type="f32"/>
			<output>
				<port id="0" precision="FP32"/>
			</output>
		</layer>
		<layer id="308" name="5577558126474" type="Const" version="opset1">
			<data offset="5046" size="4" shape="" element_type="f32"/>
			<output>
				<port id="0" precision="FP32"/>
			</output>
		</layer>
		<layer id="309" name="5578558228640" type="Const" version="opset1">
			<data offset="5050" size="4" shape="" element_type="f32"/>
			<output>
				<port id="0" precision="FP32"/>
			</output>
		</layer>
		<layer id="310" name="5579558326657" type="Const" version="opset1">
			<data offset="5046" size="4" shape="" element_type="f32"/>
			<output>
				<port id="0" precision="FP32"/>
			</output>
		</layer>
		<layer id="311" name="5580558427035" type="Const" version="opset1">
			<data offset="5050" size="4" shape="" element_type="f32"/>
			<output>
				<port id="0" precision="FP32"/>
			</output>
		</layer>
		<layer id="312" name="bottleneck2_0/skip/conv/fq_weights_1/scale1694128805" type="Const" version="opset1">
			<data offset="5054" size="256" shape="64,1,1,1" element_type="f32"/>
			<output>
				<port id="0" precision="FP32">
					<dim>64</dim>
					<dim>1</dim>
					<dim>1</dim>
					<dim>1</dim>
				</port>
			</output>
		</layer>
		<layer id="313" name="bottleneck2_0/skip/bn/mean/Fused_Mul__copy121213957/restored_convert/quantized1693326312" type="Const" version="opset1">
			<data offset="5310" size="2048" shape="64,32,1,1" element_type="i8"/>
			<output>
				<port id="0" precision="I8">
					<dim>64</dim>
					<dim>32</dim>
					<dim>1</dim>
					<dim>1</dim>
				</port>
			</output>
		</layer>
		<layer id="314" name="bottleneck2_0/skip/bn/mean/Fused_Mul__copy121213957/restored_convert/quantized/to_f32" type="Convert" version="opset1">
			<data destination_type="f32"/>
			<input>
				<port id="0">
					<dim>64</dim>
					<dim>32</dim>
					<dim>1</dim>
					<dim>1</dim>
				</port>
			</input>
			<output>
				<port id="1" precision="FP32">
					<dim>64</dim>
					<dim>32</dim>
					<dim>1</dim>
					<dim>1</dim>
				</port>
			</output>
		</layer>
		<layer id="315" name="bottleneck2_0/skip/conv/fq_weights_1/mulpiply_by_scale" type="Multiply" version="opset1">
			<data auto_broadcast="numpy"/>
			<input>
				<port id="0">
					<dim>64</dim>
					<dim>32</dim>
					<dim>1</dim>
					<dim>1</dim>
				</port>
				<port id="1">
					<dim>64</dim>
					<dim>1</dim>
					<dim>1</dim>
					<dim>1</dim>
				</port>
			</input>
			<output>
				<port id="2" precision="FP32">
					<dim>64</dim>
					<dim>32</dim>
					<dim>1</dim>
					<dim>1</dim>
				</port>
			</output>
		</layer>
		<layer id="316" name="bottleneck2_0/skip/conv" type="Convolution" version="opset1">
			<data auto_pad="explicit" strides="1,1" dilations="1,1" pads_begin="0,0" pads_end="0,0"/>
			<input>
				<port id="0">
					<dim>1</dim>
					<dim>32</dim>
					<dim>80</dim>
					<dim>136</dim>
				</port>
				<port id="1">
					<dim>64</dim>
					<dim>32</dim>
					<dim>1</dim>
					<dim>1</dim>
				</port>
			</input>
			<output>
				<port id="2" precision="FP32">
					<dim>1</dim>
					<dim>64</dim>
					<dim>80</dim>
					<dim>136</dim>
				</port>
			</output>
		</layer>
		<layer id="317" name="data_add_2455324558121527830" type="Const" version="opset1">
			<data offset="7358" size="128" shape="1,64,1,1" element_type="f16"/>
			<output>
				<port id="0" precision="FP16">
					<dim>1</dim>
					<dim>64</dim>
					<dim>1</dim>
					<dim>1</dim>
				</port>
			</output>
		</layer>
		<layer id="318" name="data_add_2455324558121513958/restored_convert" type="Convert" version="opset1">
			<data destination_type="f32"/>
			<rt_info>
				<attribute name="decompression" version="0"/>
			</rt_info>
			<input>
				<port id="0">
					<dim>1</dim>
					<dim>64</dim>
					<dim>1</dim>
					<dim>1</dim>
				</port>
			</input>
			<output>
				<port id="1" precision="FP32">
					<dim>1</dim>
					<dim>64</dim>
					<dim>1</dim>
					<dim>1</dim>
				</port>
			</output>
		</layer>
		<layer id="319" name="bottleneck2_0/skip/bn/variance/Fused_Add_" type="Add" version="opset1">
			<data auto_broadcast="numpy"/>
			<input>
				<port id="0">
					<dim>1</dim>
					<dim>64</dim>
					<dim>80</dim>
					<dim>136</dim>
				</port>
				<port id="1">
					<dim>1</dim>
					<dim>64</dim>
					<dim>1</dim>
					<dim>1</dim>
				</port>
			</input>
			<output>
				<port id="2" precision="FP32" names="bottleneck2_0/skip/conv">
					<dim>1</dim>
					<dim>64</dim>
					<dim>80</dim>
					<dim>136</dim>
				</port>
			</output>
		</layer>
		<layer id="320" name="bottleneck2_0/add/fq_input_0" type="FakeQuantize" version="opset1">
			<data levels="256" auto_broadcast="numpy"/>
			<input>
				<port id="0">
					<dim>1</dim>
					<dim>64</dim>
					<dim>80</dim>
					<dim>136</dim>
				</port>
				<port id="1"/>
				<port id="2"/>
				<port id="3"/>
				<port id="4"/>
			</input>
			<output>
				<port id="5" precision="FP32">
					<dim>1</dim>
					<dim>64</dim>
					<dim>80</dim>
					<dim>136</dim>
				</port>
			</output>
		</layer>
		<layer id="321" name="5587559128793" type="Const" version="opset1">
			<data offset="7486" size="4" shape="" element_type="f32"/>
			<output>
				<port id="0" precision="FP32"/>
			</output>
		</layer>
		<layer id="322" name="5588559229081" type="Const" version="opset1">
			<data offset="7490" size="4" shape="" element_type="f32"/>
			<output>
				<port id="0" precision="FP32"/>
			</output>
		</layer>
		<layer id="323" name="5589559327581" type="Const" version="opset1">
			<data offset="7486" size="4" shape="" element_type="f32"/>
			<output>
				<port id="0" precision="FP32"/>
			</output>
		</layer>
		<layer id="324" name="5590559427938" type="Const" version="opset1">
			<data offset="7490" size="4" shape="" element_type="f32"/>
			<output>
				<port id="0" precision="FP32"/>
			</output>
		</layer>
		<layer id="325" name="3737374127383" type="Const" version="opset1">
			<data offset="7494" size="4" shape="" element_type="f32"/>
			<output>
				<port id="0" precision="FP32"/>
			</output>
		</layer>
		<layer id="326" name="3738374225793" type="Const" version="opset1">
			<data offset="7498" size="4" shape="" element_type="f32"/>
			<output>
				<port id="0" precision="FP32"/>
			</output>
		</layer>
		<layer id="327" name="3739374327914" type="Const" version="opset1">
			<data offset="7494" size="4" shape="" element_type="f32"/>
			<output>
				<port id="0" precision="FP32"/>
			</output>
		</layer>
		<layer id="328" name="3740374428577" type="Const" version="opset1">
			<data offset="7498" size="4" shape="" element_type="f32"/>
			<output>
				<port id="0" precision="FP32"/>
			</output>
		</layer>
		<layer id="329" name="3657366127122" type="Const" version="opset1">
			<data offset="7502" size="64" shape="1,16,1,1" element_type="f32"/>
			<output>
				<port id="0" precision="FP32">
					<dim>1</dim>
					<dim>16</dim>
					<dim>1</dim>
					<dim>1</dim>
				</port>
			</output>
		</layer>
		<layer id="330" name="3658366227767" type="Const" version="opset1">
			<data offset="7566" size="64" shape="1,16,1,1" element_type="f32"/>
			<output>
				<port id="0" precision="FP32">
					<dim>1</dim>
					<dim>16</dim>
					<dim>1</dim>
					<dim>1</dim>
				</port>
			</output>
		</layer>
		<layer id="331" name="3659366327173" type="Const" version="opset1">
			<data offset="7502" size="64" shape="1,16,1,1" element_type="f32"/>
			<output>
				<port id="0" precision="FP32">
					<dim>1</dim>
					<dim>16</dim>
					<dim>1</dim>
					<dim>1</dim>
				</port>
			</output>
		</layer>
		<layer id="332" name="3660366428103" type="Const" version="opset1">
			<data offset="7566" size="64" shape="1,16,1,1" element_type="f32"/>
			<output>
				<port id="0" precision="FP32">
					<dim>1</dim>
					<dim>16</dim>
					<dim>1</dim>
					<dim>1</dim>
				</port>
			</output>
		</layer>
		<layer id="333" name="bottleneck2_0/dim_red/conv/fq_weights_1/scale1628126732" type="Const" version="opset1">
			<data offset="7630" size="64" shape="16,1,1,1" element_type="f32"/>
			<output>
				<port id="0" precision="FP32">
					<dim>16</dim>
					<dim>1</dim>
					<dim>1</dim>
					<dim>1</dim>
				</port>
			</output>
		</layer>
		<layer id="334" name="bottleneck2_0/dim_red/bn/mean/Fused_Mul__copy121813959/restored_convert/quantized1627328193" type="Const" version="opset1">
			<data offset="7694" size="512" shape="16,32,1,1" element_type="i8"/>
			<output>
				<port id="0" precision="I8">
					<dim>16</dim>
					<dim>32</dim>
					<dim>1</dim>
					<dim>1</dim>
				</port>
			</output>
		</layer>
		<layer id="335" name="bottleneck2_0/dim_red/bn/mean/Fused_Mul__copy121813959/restored_convert/quantized/to_f32" type="Convert" version="opset1">
			<data destination_type="f32"/>
			<input>
				<port id="0">
					<dim>16</dim>
					<dim>32</dim>
					<dim>1</dim>
					<dim>1</dim>
				</port>
			</input>
			<output>
				<port id="1" precision="FP32">
					<dim>16</dim>
					<dim>32</dim>
					<dim>1</dim>
					<dim>1</dim>
				</port>
			</output>
		</layer>
		<layer id="336" name="bottleneck2_0/dim_red/conv/fq_weights_1/mulpiply_by_scale" type="Multiply" version="opset1">
			<data auto_broadcast="numpy"/>
			<input>
				<port id="0">
					<dim>16</dim>
					<dim>32</dim>
					<dim>1</dim>
					<dim>1</dim>
				</port>
				<port id="1">
					<dim>16</dim>
					<dim>1</dim>
					<dim>1</dim>
					<dim>1</dim>
				</port>
			</input>
			<output>
				<port id="2" precision="FP32">
					<dim>16</dim>
					<dim>32</dim>
					<dim>1</dim>
					<dim>1</dim>
				</port>
			</output>
		</layer>
		<layer id="337" name="bottleneck2_0/dim_red/conv" type="Convolution" version="opset1">
			<data auto_pad="explicit" strides="1,1" dilations="1,1" pads_begin="0,0" pads_end="0,0"/>
			<input>
				<port id="0">
					<dim>1</dim>
					<dim>32</dim>
					<dim>160</dim>
					<dim>272</dim>
				</port>
				<port id="1">
					<dim>16</dim>
					<dim>32</dim>
					<dim>1</dim>
					<dim>1</dim>
				</port>
			</input>
			<output>
				<port id="2" precision="FP32">
					<dim>1</dim>
					<dim>16</dim>
					<dim>160</dim>
					<dim>272</dim>
				</port>
			</output>
		</layer>
		<layer id="338" name="data_add_2456124566122128784" type="Const" version="opset1">
			<data offset="8206" size="32" shape="1,16,1,1" element_type="f16"/>
			<output>
				<port id="0" precision="FP16">
					<dim>1</dim>
					<dim>16</dim>
					<dim>1</dim>
					<dim>1</dim>
				</port>
			</output>
		</layer>
		<layer id="339" name="data_add_2456124566122113960/restored_convert" type="Convert" version="opset1">
			<data destination_type="f32"/>
			<rt_info>
				<attribute name="decompression" version="0"/>
			</rt_info>
			<input>
				<port id="0">
					<dim>1</dim>
					<dim>16</dim>
					<dim>1</dim>
					<dim>1</dim>
				</port>
			</input>
			<output>
				<port id="1" precision="FP32">
					<dim>1</dim>
					<dim>16</dim>
					<dim>1</dim>
					<dim>1</dim>
				</port>
			</output>
		</layer>
		<layer id="340" name="bottleneck2_0/dim_red/bn/variance/Fused_Add_" type="Add" version="opset1">
			<data auto_broadcast="numpy"/>
			<input>
				<port id="0">
					<dim>1</dim>
					<dim>16</dim>
					<dim>160</dim>
					<dim>272</dim>
				</port>
				<port id="1">
					<dim>1</dim>
					<dim>16</dim>
					<dim>1</dim>
					<dim>1</dim>
				</port>
			</input>
			<output>
				<port id="2" precision="FP32" names="bottleneck2_0/dim_red/conv">
					<dim>1</dim>
					<dim>16</dim>
					<dim>160</dim>
					<dim>272</dim>
				</port>
			</output>
		</layer>
		<layer id="341" name="bottleneck2_0/dim_red/fn/weights3118040955122427836" type="Const" version="opset1">
			<data offset="1500" size="2" shape="1" element_type="f16"/>
			<output>
				<port id="0" precision="FP16">
					<dim>1</dim>
				</port>
			</output>
		</layer>
		<layer id="342" name="bottleneck2_0/dim_red/fn/weights3118040955122413961/restored_convert" type="Convert" version="opset1">
			<data destination_type="f32"/>
			<rt_info>
				<attribute name="decompression" version="0"/>
			</rt_info>
			<input>
				<port id="0">
					<dim>1</dim>
				</port>
			</input>
			<output>
				<port id="1" precision="FP32">
					<dim>1</dim>
				</port>
			</output>
		</layer>
		<layer id="343" name="bottleneck2_0/dim_red/fn" type="PReLU" version="opset1">
			<input>
				<port id="0">
					<dim>1</dim>
					<dim>16</dim>
					<dim>160</dim>
					<dim>272</dim>
				</port>
				<port id="1">
					<dim>1</dim>
				</port>
			</input>
			<output>
				<port id="2" precision="FP32" names="bottleneck2_0/dim_red/conv">
					<dim>1</dim>
					<dim>16</dim>
					<dim>160</dim>
					<dim>272</dim>
				</port>
			</output>
		</layer>
		<layer id="344" name="bottleneck2_0/inner/dw1/conv/fq_input_0" type="FakeQuantize" version="opset1">
			<data levels="256" auto_broadcast="numpy"/>
			<input>
				<port id="0">
					<dim>1</dim>
					<dim>16</dim>
					<dim>160</dim>
					<dim>272</dim>
				</port>
				<port id="1">
					<dim>1</dim>
					<dim>16</dim>
					<dim>1</dim>
					<dim>1</dim>
				</port>
				<port id="2">
					<dim>1</dim>
					<dim>16</dim>
					<dim>1</dim>
					<dim>1</dim>
				</port>
				<port id="3">
					<dim>1</dim>
					<dim>16</dim>
					<dim>1</dim>
					<dim>1</dim>
				</port>
				<port id="4">
					<dim>1</dim>
					<dim>16</dim>
					<dim>1</dim>
					<dim>1</dim>
				</port>
			</input>
			<output>
				<port id="5" precision="FP32">
					<dim>1</dim>
					<dim>16</dim>
					<dim>160</dim>
					<dim>272</dim>
				</port>
			</output>
		</layer>
		<layer id="345" name="bottleneck2_0/inner/dw1/conv/fq_weights_1/scale1892126300" type="Const" version="opset1">
			<data offset="8238" size="64" shape="16,1,1,1" element_type="f32"/>
			<output>
				<port id="0" precision="FP32">
					<dim>16</dim>
					<dim>1</dim>
					<dim>1</dim>
					<dim>1</dim>
				</port>
			</output>
		</layer>
		<layer id="346" name="bottleneck2_0/inner/dw1/bn/mean/Fused_Mul__copy122713962/restored_convert/quantized1891328532" type="Const" version="opset1">
			<data offset="8302" size="144" shape="16,1,3,3" element_type="i8"/>
			<output>
				<port id="0" precision="I8">
					<dim>16</dim>
					<dim>1</dim>
					<dim>3</dim>
					<dim>3</dim>
				</port>
			</output>
		</layer>
		<layer id="347" name="bottleneck2_0/inner/dw1/bn/mean/Fused_Mul__copy122713962/restored_convert/quantized/to_f32" type="Convert" version="opset1">
			<data destination_type="f32"/>
			<input>
				<port id="0">
					<dim>16</dim>
					<dim>1</dim>
					<dim>3</dim>
					<dim>3</dim>
				</port>
			</input>
			<output>
				<port id="1" precision="FP32">
					<dim>16</dim>
					<dim>1</dim>
					<dim>3</dim>
					<dim>3</dim>
				</port>
			</output>
		</layer>
		<layer id="348" name="bottleneck2_0/inner/dw1/conv/fq_weights_1/mulpiply_by_scale" type="Multiply" version="opset1">
			<data auto_broadcast="numpy"/>
			<input>
				<port id="0">
					<dim>16</dim>
					<dim>1</dim>
					<dim>3</dim>
					<dim>3</dim>
				</port>
				<port id="1">
					<dim>16</dim>
					<dim>1</dim>
					<dim>1</dim>
					<dim>1</dim>
				</port>
			</input>
			<output>
				<port id="2" precision="FP32">
					<dim>16</dim>
					<dim>1</dim>
					<dim>3</dim>
					<dim>3</dim>
				</port>
			</output>
		</layer>
		<layer id="349" name="bottleneck2_0/inner/dw1/conv/GOI_weights_part2301026021" type="Const" version="opset1">
			<data offset="8446" size="24" shape="3" element_type="i64"/>
			<output>
				<port id="0" precision="I64">
					<dim>3</dim>
				</port>
			</output>
		</layer>
		<layer id="350" name="bottleneck2_0/inner/dw1/conv/WeightsShape" type="ShapeOf" version="opset3">
			<data output_type="i64"/>
			<input>
				<port id="0">
					<dim>16</dim>
					<dim>1</dim>
					<dim>3</dim>
					<dim>3</dim>
				</port>
			</input>
			<output>
				<port id="1" precision="I64">
					<dim>4</dim>
				</port>
			</output>
		</layer>
		<layer id="351" name="bottleneck2_0/inner/dw1/conv/XY_weights_part_input_port_1/value2300629159" type="Const" version="opset1">
			<data offset="1630" size="16" shape="2" element_type="i64"/>
			<output>
				<port id="0" precision="I64">
					<dim>2</dim>
				</port>
			</output>
		</layer>
		<layer id="352" name="bottleneck2_0/inner/dw1/conv/XY_weights_part_input_port_2/value2300827659" type="Const" version="opset1">
			<data offset="1646" size="8" shape="" element_type="i64"/>
			<output>
				<port id="0" precision="I64"/>
			</output>
		</layer>
		<layer id="353" name="bottleneck2_0/inner/dw1/conv/XY_weights_part" type="Gather" version="opset8">
			<data batch_dims="0"/>
			<input>
				<port id="0">
					<dim>4</dim>
				</port>
				<port id="1">
					<dim>2</dim>
				</port>
				<port id="2"/>
			</input>
			<output>
				<port id="3" precision="I64">
					<dim>2</dim>
				</port>
			</output>
		</layer>
		<layer id="354" name="bottleneck2_0/inner/dw1/conv/weights_shape" type="Concat" version="opset1">
			<data axis="0"/>
			<input>
				<port id="0">
					<dim>3</dim>
				</port>
				<port id="1">
					<dim>2</dim>
				</port>
			</input>
			<output>
				<port id="2" precision="I64">
					<dim>5</dim>
				</port>
			</output>
		</layer>
		<layer id="355" name="23012" type="Reshape" version="opset1">
			<data special_zero="true"/>
			<input>
				<port id="0">
					<dim>16</dim>
					<dim>1</dim>
					<dim>3</dim>
					<dim>3</dim>
				</port>
				<port id="1">
					<dim>5</dim>
				</port>
			</input>
			<output>
				<port id="2" precision="FP32">
					<dim>16</dim>
					<dim>1</dim>
					<dim>1</dim>
					<dim>3</dim>
					<dim>3</dim>
				</port>
			</output>
		</layer>
		<layer id="356" name="bottleneck2_0/inner/dw1/conv" type="GroupConvolution" version="opset1">
			<data auto_pad="explicit" strides="2,2" dilations="1,1" pads_begin="1,1" pads_end="1,1"/>
			<input>
				<port id="0">
					<dim>1</dim>
					<dim>16</dim>
					<dim>160</dim>
					<dim>272</dim>
				</port>
				<port id="1">
					<dim>16</dim>
					<dim>1</dim>
					<dim>1</dim>
					<dim>3</dim>
					<dim>3</dim>
				</port>
			</input>
			<output>
				<port id="2" precision="FP32">
					<dim>1</dim>
					<dim>16</dim>
					<dim>80</dim>
					<dim>136</dim>
				</port>
			</output>
		</layer>
		<layer id="357" name="data_add_2456924574123026123" type="Const" version="opset1">
			<data offset="8470" size="32" shape="1,16,1,1" element_type="f16"/>
			<output>
				<port id="0" precision="FP16">
					<dim>1</dim>
					<dim>16</dim>
					<dim>1</dim>
					<dim>1</dim>
				</port>
			</output>
		</layer>
		<layer id="358" name="data_add_2456924574123013963/restored_convert" type="Convert" version="opset1">
			<data destination_type="f32"/>
			<rt_info>
				<attribute name="decompression" version="0"/>
			</rt_info>
			<input>
				<port id="0">
					<dim>1</dim>
					<dim>16</dim>
					<dim>1</dim>
					<dim>1</dim>
				</port>
			</input>
			<output>
				<port id="1" precision="FP32">
					<dim>1</dim>
					<dim>16</dim>
					<dim>1</dim>
					<dim>1</dim>
				</port>
			</output>
		</layer>
		<layer id="359" name="bottleneck2_0/inner/dw1/bn/variance/Fused_Add_" type="Add" version="opset1">
			<data auto_broadcast="numpy"/>
			<input>
				<port id="0">
					<dim>1</dim>
					<dim>16</dim>
					<dim>80</dim>
					<dim>136</dim>
				</port>
				<port id="1">
					<dim>1</dim>
					<dim>16</dim>
					<dim>1</dim>
					<dim>1</dim>
				</port>
			</input>
			<output>
				<port id="2" precision="FP32" names="bottleneck2_0/inner/dw1/conv">
					<dim>1</dim>
					<dim>16</dim>
					<dim>80</dim>
					<dim>136</dim>
				</port>
			</output>
		</layer>
		<layer id="360" name="bottleneck2_0/inner/dw1/fn/weights3101640457123326570" type="Const" version="opset1">
			<data offset="1500" size="2" shape="1" element_type="f16"/>
			<output>
				<port id="0" precision="FP16">
					<dim>1</dim>
				</port>
			</output>
		</layer>
		<layer id="361" name="bottleneck2_0/inner/dw1/fn/weights3101640457123313964/restored_convert" type="Convert" version="opset1">
			<data destination_type="f32"/>
			<rt_info>
				<attribute name="decompression" version="0"/>
			</rt_info>
			<input>
				<port id="0">
					<dim>1</dim>
				</port>
			</input>
			<output>
				<port id="1" precision="FP32">
					<dim>1</dim>
				</port>
			</output>
		</layer>
		<layer id="362" name="bottleneck2_0/inner/dw1/fn" type="PReLU" version="opset1">
			<input>
				<port id="0">
					<dim>1</dim>
					<dim>16</dim>
					<dim>80</dim>
					<dim>136</dim>
				</port>
				<port id="1">
					<dim>1</dim>
				</port>
			</input>
			<output>
				<port id="2" precision="FP32" names="bottleneck2_0/inner/dw1/conv">
					<dim>1</dim>
					<dim>16</dim>
					<dim>80</dim>
					<dim>136</dim>
				</port>
			</output>
		</layer>
		<layer id="363" name="bottleneck2_0/dim_inc/conv/fq_input_0" type="FakeQuantize" version="opset1">
			<data levels="256" auto_broadcast="numpy"/>
			<input>
				<port id="0">
					<dim>1</dim>
					<dim>16</dim>
					<dim>80</dim>
					<dim>136</dim>
				</port>
				<port id="1"/>
				<port id="2"/>
				<port id="3"/>
				<port id="4"/>
			</input>
			<output>
				<port id="5" precision="FP32">
					<dim>1</dim>
					<dim>16</dim>
					<dim>80</dim>
					<dim>136</dim>
				</port>
			</output>
		</layer>
		<layer id="364" name="bottleneck2_0/dim_inc/conv/fq_weights_1/scale1793128496" type="Const" version="opset1">
			<data offset="8502" size="256" shape="64,1,1,1" element_type="f32"/>
			<output>
				<port id="0" precision="FP32">
					<dim>64</dim>
					<dim>1</dim>
					<dim>1</dim>
					<dim>1</dim>
				</port>
			</output>
		</layer>
		<layer id="365" name="bottleneck2_0/dim_inc/bn/mean/Fused_Mul__copy123613965/restored_convert/quantized1792328616" type="Const" version="opset1">
			<data offset="8758" size="1024" shape="64,16,1,1" element_type="i8"/>
			<output>
				<port id="0" precision="I8">
					<dim>64</dim>
					<dim>16</dim>
					<dim>1</dim>
					<dim>1</dim>
				</port>
			</output>
		</layer>
		<layer id="366" name="bottleneck2_0/dim_inc/bn/mean/Fused_Mul__copy123613965/restored_convert/quantized/to_f32" type="Convert" version="opset1">
			<data destination_type="f32"/>
			<input>
				<port id="0">
					<dim>64</dim>
					<dim>16</dim>
					<dim>1</dim>
					<dim>1</dim>
				</port>
			</input>
			<output>
				<port id="1" precision="FP32">
					<dim>64</dim>
					<dim>16</dim>
					<dim>1</dim>
					<dim>1</dim>
				</port>
			</output>
		</layer>
		<layer id="367" name="bottleneck2_0/dim_inc/conv/fq_weights_1/mulpiply_by_scale" type="Multiply" version="opset1">
			<data auto_broadcast="numpy"/>
			<input>
				<port id="0">
					<dim>64</dim>
					<dim>16</dim>
					<dim>1</dim>
					<dim>1</dim>
				</port>
				<port id="1">
					<dim>64</dim>
					<dim>1</dim>
					<dim>1</dim>
					<dim>1</dim>
				</port>
			</input>
			<output>
				<port id="2" precision="FP32">
					<dim>64</dim>
					<dim>16</dim>
					<dim>1</dim>
					<dim>1</dim>
				</port>
			</output>
		</layer>
		<layer id="368" name="bottleneck2_0/dim_inc/conv" type="Convolution" version="opset1">
			<data auto_pad="explicit" strides="1,1" dilations="1,1" pads_begin="0,0" pads_end="0,0"/>
			<input>
				<port id="0">
					<dim>1</dim>
					<dim>16</dim>
					<dim>80</dim>
					<dim>136</dim>
				</port>
				<port id="1">
					<dim>64</dim>
					<dim>16</dim>
					<dim>1</dim>
					<dim>1</dim>
				</port>
			</input>
			<output>
				<port id="2" precision="FP32">
					<dim>1</dim>
					<dim>64</dim>
					<dim>80</dim>
					<dim>136</dim>
				</port>
			</output>
		</layer>
		<layer id="369" name="data_add_2457724582123928628" type="Const" version="opset1">
			<data offset="9782" size="128" shape="1,64,1,1" element_type="f16"/>
			<output>
				<port id="0" precision="FP16">
					<dim>1</dim>
					<dim>64</dim>
					<dim>1</dim>
					<dim>1</dim>
				</port>
			</output>
		</layer>
		<layer id="370" name="data_add_2457724582123913966/restored_convert" type="Convert" version="opset1">
			<data destination_type="f32"/>
			<rt_info>
				<attribute name="decompression" version="0"/>
			</rt_info>
			<input>
				<port id="0">
					<dim>1</dim>
					<dim>64</dim>
					<dim>1</dim>
					<dim>1</dim>
				</port>
			</input>
			<output>
				<port id="1" precision="FP32">
					<dim>1</dim>
					<dim>64</dim>
					<dim>1</dim>
					<dim>1</dim>
				</port>
			</output>
		</layer>
		<layer id="371" name="bottleneck2_0/dim_inc/bn/variance/Fused_Add_" type="Add" version="opset1">
			<data auto_broadcast="numpy"/>
			<input>
				<port id="0">
					<dim>1</dim>
					<dim>64</dim>
					<dim>80</dim>
					<dim>136</dim>
				</port>
				<port id="1">
					<dim>1</dim>
					<dim>64</dim>
					<dim>1</dim>
					<dim>1</dim>
				</port>
			</input>
			<output>
				<port id="2" precision="FP32" names="bottleneck2_0/dim_inc/conv">
					<dim>1</dim>
					<dim>64</dim>
					<dim>80</dim>
					<dim>136</dim>
				</port>
			</output>
		</layer>
		<layer id="372" name="bottleneck2_0/add/fq_input_1" type="FakeQuantize" version="opset1">
			<data levels="256" auto_broadcast="numpy"/>
			<input>
				<port id="0">
					<dim>1</dim>
					<dim>64</dim>
					<dim>80</dim>
					<dim>136</dim>
				</port>
				<port id="1"/>
				<port id="2"/>
				<port id="3"/>
				<port id="4"/>
			</input>
			<output>
				<port id="5" precision="FP32">
					<dim>1</dim>
					<dim>64</dim>
					<dim>80</dim>
					<dim>136</dim>
				</port>
			</output>
		</layer>
		<layer id="373" name="bottleneck2_0/add" type="Add" version="opset1">
			<data auto_broadcast="numpy"/>
			<input>
				<port id="0">
					<dim>1</dim>
					<dim>64</dim>
					<dim>80</dim>
					<dim>136</dim>
				</port>
				<port id="1">
					<dim>1</dim>
					<dim>64</dim>
					<dim>80</dim>
					<dim>136</dim>
				</port>
			</input>
			<output>
				<port id="2" precision="FP32" names="bottleneck2_0/add">
					<dim>1</dim>
					<dim>64</dim>
					<dim>80</dim>
					<dim>136</dim>
				</port>
			</output>
		</layer>
		<layer id="374" name="bottleneck2_0/fn/weights3086039998124328310" type="Const" version="opset1">
			<data offset="1500" size="2" shape="1" element_type="f16"/>
			<output>
				<port id="0" precision="FP16">
					<dim>1</dim>
				</port>
			</output>
		</layer>
		<layer id="375" name="bottleneck2_0/fn/weights3086039998124313967/restored_convert" type="Convert" version="opset1">
			<data destination_type="f32"/>
			<rt_info>
				<attribute name="decompression" version="0"/>
			</rt_info>
			<input>
				<port id="0">
					<dim>1</dim>
				</port>
			</input>
			<output>
				<port id="1" precision="FP32">
					<dim>1</dim>
				</port>
			</output>
		</layer>
		<layer id="376" name="bottleneck2_0/fn" type="PReLU" version="opset1">
			<input>
				<port id="0">
					<dim>1</dim>
					<dim>64</dim>
					<dim>80</dim>
					<dim>136</dim>
				</port>
				<port id="1">
					<dim>1</dim>
				</port>
			</input>
			<output>
				<port id="2" precision="FP32" names="bottleneck2_0/add">
					<dim>1</dim>
					<dim>64</dim>
					<dim>80</dim>
					<dim>136</dim>
				</port>
			</output>
		</layer>
		<layer id="377" name="bottleneck2_1/add/fq_input_0" type="FakeQuantize" version="opset1">
			<data levels="256" auto_broadcast="numpy"/>
			<input>
				<port id="0">
					<dim>1</dim>
					<dim>64</dim>
					<dim>80</dim>
					<dim>136</dim>
				</port>
				<port id="1"/>
				<port id="2"/>
				<port id="3"/>
				<port id="4"/>
			</input>
			<output>
				<port id="5" precision="FP32">
					<dim>1</dim>
					<dim>64</dim>
					<dim>80</dim>
					<dim>136</dim>
				</port>
			</output>
		</layer>
		<layer id="378" name="3867387127431" type="Const" version="opset1">
			<data offset="9910" size="4" shape="" element_type="f32"/>
			<output>
				<port id="0" precision="FP32"/>
			</output>
		</layer>
		<layer id="379" name="3868387227809" type="Const" version="opset1">
			<data offset="9914" size="4" shape="" element_type="f32"/>
			<output>
				<port id="0" precision="FP32"/>
			</output>
		</layer>
		<layer id="380" name="3869387327827" type="Const" version="opset1">
			<data offset="9910" size="4" shape="" element_type="f32"/>
			<output>
				<port id="0" precision="FP32"/>
			</output>
		</layer>
		<layer id="381" name="3870387426972" type="Const" version="opset1">
			<data offset="9914" size="4" shape="" element_type="f32"/>
			<output>
				<port id="0" precision="FP32"/>
			</output>
		</layer>
		<layer id="382" name="3957396126870" type="Const" version="opset1">
			<data offset="9918" size="4" shape="" element_type="f32"/>
			<output>
				<port id="0" precision="FP32"/>
			</output>
		</layer>
		<layer id="383" name="3958396226105" type="Const" version="opset1">
			<data offset="9922" size="4" shape="" element_type="f32"/>
			<output>
				<port id="0" precision="FP32"/>
			</output>
		</layer>
		<layer id="384" name="3959396326189" type="Const" version="opset1">
			<data offset="9918" size="4" shape="" element_type="f32"/>
			<output>
				<port id="0" precision="FP32"/>
			</output>
		</layer>
		<layer id="385" name="3960396428160" type="Const" version="opset1">
			<data offset="9922" size="4" shape="" element_type="f32"/>
			<output>
				<port id="0" precision="FP32"/>
			</output>
		</layer>
		<layer id="386" name="3877388128694" type="Const" version="opset1">
			<data offset="9926" size="64" shape="1,16,1,1" element_type="f32"/>
			<output>
				<port id="0" precision="FP32">
					<dim>1</dim>
					<dim>16</dim>
					<dim>1</dim>
					<dim>1</dim>
				</port>
			</output>
		</layer>
		<layer id="387" name="3878388226438" type="Const" version="opset1">
			<data offset="9990" size="64" shape="1,16,1,1" element_type="f32"/>
			<output>
				<port id="0" precision="FP32">
					<dim>1</dim>
					<dim>16</dim>
					<dim>1</dim>
					<dim>1</dim>
				</port>
			</output>
		</layer>
		<layer id="388" name="3879388326393" type="Const" version="opset1">
			<data offset="9926" size="64" shape="1,16,1,1" element_type="f32"/>
			<output>
				<port id="0" precision="FP32">
					<dim>1</dim>
					<dim>16</dim>
					<dim>1</dim>
					<dim>1</dim>
				</port>
			</output>
		</layer>
		<layer id="389" name="3880388427218" type="Const" version="opset1">
			<data offset="9990" size="64" shape="1,16,1,1" element_type="f32"/>
			<output>
				<port id="0" precision="FP32">
					<dim>1</dim>
					<dim>16</dim>
					<dim>1</dim>
					<dim>1</dim>
				</port>
			</output>
		</layer>
		<layer id="390" name="bottleneck2_1/dim_red/conv/fq_weights_1/scale1682126216" type="Const" version="opset1">
			<data offset="10054" size="64" shape="16,1,1,1" element_type="f32"/>
			<output>
				<port id="0" precision="FP32">
					<dim>16</dim>
					<dim>1</dim>
					<dim>1</dim>
					<dim>1</dim>
				</port>
			</output>
		</layer>
		<layer id="391" name="bottleneck2_1/dim_red/bn/mean/Fused_Mul__copy124613968/restored_convert/quantized1681326072" type="Const" version="opset1">
			<data offset="10118" size="1024" shape="16,64,1,1" element_type="i8"/>
			<output>
				<port id="0" precision="I8">
					<dim>16</dim>
					<dim>64</dim>
					<dim>1</dim>
					<dim>1</dim>
				</port>
			</output>
		</layer>
		<layer id="392" name="bottleneck2_1/dim_red/bn/mean/Fused_Mul__copy124613968/restored_convert/quantized/to_f32" type="Convert" version="opset1">
			<data destination_type="f32"/>
			<input>
				<port id="0">
					<dim>16</dim>
					<dim>64</dim>
					<dim>1</dim>
					<dim>1</dim>
				</port>
			</input>
			<output>
				<port id="1" precision="FP32">
					<dim>16</dim>
					<dim>64</dim>
					<dim>1</dim>
					<dim>1</dim>
				</port>
			</output>
		</layer>
		<layer id="393" name="bottleneck2_1/dim_red/conv/fq_weights_1/mulpiply_by_scale" type="Multiply" version="opset1">
			<data auto_broadcast="numpy"/>
			<input>
				<port id="0">
					<dim>16</dim>
					<dim>64</dim>
					<dim>1</dim>
					<dim>1</dim>
				</port>
				<port id="1">
					<dim>16</dim>
					<dim>1</dim>
					<dim>1</dim>
					<dim>1</dim>
				</port>
			</input>
			<output>
				<port id="2" precision="FP32">
					<dim>16</dim>
					<dim>64</dim>
					<dim>1</dim>
					<dim>1</dim>
				</port>
			</output>
		</layer>
		<layer id="394" name="bottleneck2_1/dim_red/conv" type="Convolution" version="opset1">
			<data auto_pad="explicit" strides="1,1" dilations="1,1" pads_begin="0,0" pads_end="0,0"/>
			<input>
				<port id="0">
					<dim>1</dim>
					<dim>64</dim>
					<dim>80</dim>
					<dim>136</dim>
				</port>
				<port id="1">
					<dim>16</dim>
					<dim>64</dim>
					<dim>1</dim>
					<dim>1</dim>
				</port>
			</input>
			<output>
				<port id="2" precision="FP32">
					<dim>1</dim>
					<dim>16</dim>
					<dim>80</dim>
					<dim>136</dim>
				</port>
			</output>
		</layer>
		<layer id="395" name="data_add_2458524590124927614" type="Const" version="opset1">
			<data offset="11142" size="32" shape="1,16,1,1" element_type="f16"/>
			<output>
				<port id="0" precision="FP16">
					<dim>1</dim>
					<dim>16</dim>
					<dim>1</dim>
					<dim>1</dim>
				</port>
			</output>
		</layer>
		<layer id="396" name="data_add_2458524590124913969/restored_convert" type="Convert" version="opset1">
			<data destination_type="f32"/>
			<rt_info>
				<attribute name="decompression" version="0"/>
			</rt_info>
			<input>
				<port id="0">
					<dim>1</dim>
					<dim>16</dim>
					<dim>1</dim>
					<dim>1</dim>
				</port>
			</input>
			<output>
				<port id="1" precision="FP32">
					<dim>1</dim>
					<dim>16</dim>
					<dim>1</dim>
					<dim>1</dim>
				</port>
			</output>
		</layer>
		<layer id="397" name="bottleneck2_1/dim_red/bn/variance/Fused_Add_" type="Add" version="opset1">
			<data auto_broadcast="numpy"/>
			<input>
				<port id="0">
					<dim>1</dim>
					<dim>16</dim>
					<dim>80</dim>
					<dim>136</dim>
				</port>
				<port id="1">
					<dim>1</dim>
					<dim>16</dim>
					<dim>1</dim>
					<dim>1</dim>
				</port>
			</input>
			<output>
				<port id="2" precision="FP32" names="bottleneck2_1/dim_red/conv">
					<dim>1</dim>
					<dim>16</dim>
					<dim>80</dim>
					<dim>136</dim>
				</port>
			</output>
		</layer>
		<layer id="398" name="bottleneck2_1/dim_red/fn/weights3119240946125228991" type="Const" version="opset1">
			<data offset="1500" size="2" shape="1" element_type="f16"/>
			<output>
				<port id="0" precision="FP16">
					<dim>1</dim>
				</port>
			</output>
		</layer>
		<layer id="399" name="bottleneck2_1/dim_red/fn/weights3119240946125213970/restored_convert" type="Convert" version="opset1">
			<data destination_type="f32"/>
			<rt_info>
				<attribute name="decompression" version="0"/>
			</rt_info>
			<input>
				<port id="0">
					<dim>1</dim>
				</port>
			</input>
			<output>
				<port id="1" precision="FP32">
					<dim>1</dim>
				</port>
			</output>
		</layer>
		<layer id="400" name="bottleneck2_1/dim_red/fn" type="PReLU" version="opset1">
			<input>
				<port id="0">
					<dim>1</dim>
					<dim>16</dim>
					<dim>80</dim>
					<dim>136</dim>
				</port>
				<port id="1">
					<dim>1</dim>
				</port>
			</input>
			<output>
				<port id="2" precision="FP32" names="bottleneck2_1/dim_red/conv">
					<dim>1</dim>
					<dim>16</dim>
					<dim>80</dim>
					<dim>136</dim>
				</port>
			</output>
		</layer>
		<layer id="401" name="bottleneck2_1/inner/dw1/conv/fq_input_0" type="FakeQuantize" version="opset1">
			<data levels="256" auto_broadcast="numpy"/>
			<input>
				<port id="0">
					<dim>1</dim>
					<dim>16</dim>
					<dim>80</dim>
					<dim>136</dim>
				</port>
				<port id="1">
					<dim>1</dim>
					<dim>16</dim>
					<dim>1</dim>
					<dim>1</dim>
				</port>
				<port id="2">
					<dim>1</dim>
					<dim>16</dim>
					<dim>1</dim>
					<dim>1</dim>
				</port>
				<port id="3">
					<dim>1</dim>
					<dim>16</dim>
					<dim>1</dim>
					<dim>1</dim>
				</port>
				<port id="4">
					<dim>1</dim>
					<dim>16</dim>
					<dim>1</dim>
					<dim>1</dim>
				</port>
			</input>
			<output>
				<port id="5" precision="FP32">
					<dim>1</dim>
					<dim>16</dim>
					<dim>80</dim>
					<dim>136</dim>
				</port>
			</output>
		</layer>
		<layer id="402" name="bottleneck2_1/inner/dw1/conv/fq_weights_1/scale1868125832" type="Const" version="opset1">
			<data offset="11174" size="64" shape="16,1,1,1" element_type="f32"/>
			<output>
				<port id="0" precision="FP32">
					<dim>16</dim>
					<dim>1</dim>
					<dim>1</dim>
					<dim>1</dim>
				</port>
			</output>
		</layer>
		<layer id="403" name="bottleneck2_1/inner/dw1/bn/mean/Fused_Mul__copy125513971/restored_convert/quantized1867326696" type="Const" version="opset1">
			<data offset="11238" size="144" shape="16,1,3,3" element_type="i8"/>
			<output>
				<port id="0" precision="I8">
					<dim>16</dim>
					<dim>1</dim>
					<dim>3</dim>
					<dim>3</dim>
				</port>
			</output>
		</layer>
		<layer id="404" name="bottleneck2_1/inner/dw1/bn/mean/Fused_Mul__copy125513971/restored_convert/quantized/to_f32" type="Convert" version="opset1">
			<data destination_type="f32"/>
			<input>
				<port id="0">
					<dim>16</dim>
					<dim>1</dim>
					<dim>3</dim>
					<dim>3</dim>
				</port>
			</input>
			<output>
				<port id="1" precision="FP32">
					<dim>16</dim>
					<dim>1</dim>
					<dim>3</dim>
					<dim>3</dim>
				</port>
			</output>
		</layer>
		<layer id="405" name="bottleneck2_1/inner/dw1/conv/fq_weights_1/mulpiply_by_scale" type="Multiply" version="opset1">
			<data auto_broadcast="numpy"/>
			<input>
				<port id="0">
					<dim>16</dim>
					<dim>1</dim>
					<dim>3</dim>
					<dim>3</dim>
				</port>
				<port id="1">
					<dim>16</dim>
					<dim>1</dim>
					<dim>1</dim>
					<dim>1</dim>
				</port>
			</input>
			<output>
				<port id="2" precision="FP32">
					<dim>16</dim>
					<dim>1</dim>
					<dim>3</dim>
					<dim>3</dim>
				</port>
			</output>
		</layer>
		<layer id="406" name="bottleneck2_1/inner/dw1/conv/GOI_weights_part2302427533" type="Const" version="opset1">
			<data offset="8446" size="24" shape="3" element_type="i64"/>
			<output>
				<port id="0" precision="I64">
					<dim>3</dim>
				</port>
			</output>
		</layer>
		<layer id="407" name="bottleneck2_1/inner/dw1/conv/WeightsShape" type="ShapeOf" version="opset3">
			<data output_type="i64"/>
			<input>
				<port id="0">
					<dim>16</dim>
					<dim>1</dim>
					<dim>3</dim>
					<dim>3</dim>
				</port>
			</input>
			<output>
				<port id="1" precision="I64">
					<dim>4</dim>
				</port>
			</output>
		</layer>
		<layer id="408" name="bottleneck2_1/inner/dw1/conv/XY_weights_part_input_port_1/value2302028763" type="Const" version="opset1">
			<data offset="1630" size="16" shape="2" element_type="i64"/>
			<output>
				<port id="0" precision="I64">
					<dim>2</dim>
				</port>
			</output>
		</layer>
		<layer id="409" name="bottleneck2_1/inner/dw1/conv/XY_weights_part_input_port_2/value2302227596" type="Const" version="opset1">
			<data offset="1646" size="8" shape="" element_type="i64"/>
			<output>
				<port id="0" precision="I64"/>
			</output>
		</layer>
		<layer id="410" name="bottleneck2_1/inner/dw1/conv/XY_weights_part" type="Gather" version="opset8">
			<data batch_dims="0"/>
			<input>
				<port id="0">
					<dim>4</dim>
				</port>
				<port id="1">
					<dim>2</dim>
				</port>
				<port id="2"/>
			</input>
			<output>
				<port id="3" precision="I64">
					<dim>2</dim>
				</port>
			</output>
		</layer>
		<layer id="411" name="bottleneck2_1/inner/dw1/conv/weights_shape" type="Concat" version="opset1">
			<data axis="0"/>
			<input>
				<port id="0">
					<dim>3</dim>
				</port>
				<port id="1">
…
		<edge from-layer="1731" from-port="2" to-layer="1732" to-port="1"/>
		<edge from-layer="1733" from-port="0" to-layer="1734" to-port="0"/>
		<edge from-layer="1732" from-port="2" to-layer="1735" to-port="0"/>
		<edge from-layer="1734" from-port="1" to-layer="1735" to-port="1"/>
		<edge from-layer="1736" from-port="0" to-layer="1737" to-port="0"/>
		<edge from-layer="1735" from-port="2" to-layer="1738" to-port="0"/>
		<edge from-layer="1737" from-port="1" to-layer="1738" to-port="1"/>
		<edge from-layer="1738" from-port="2" to-layer="1739" to-port="0"/>
		<edge from-layer="1701" from-port="0" to-layer="1739" to-port="1"/>
		<edge from-layer="1702" from-port="0" to-layer="1739" to-port="2"/>
		<edge from-layer="1703" from-port="0" to-layer="1739" to-port="3"/>
		<edge from-layer="1704" from-port="0" to-layer="1739" to-port="4"/>
		<edge from-layer="1741" from-port="0" to-layer="1742" to-port="0"/>
		<edge from-layer="1742" from-port="1" to-layer="1743" to-port="0"/>
		<edge from-layer="1740" from-port="0" to-layer="1743" to-port="1"/>
		<edge from-layer="1739" from-port="5" to-layer="1744" to-port="0"/>
		<edge from-layer="1743" from-port="2" to-layer="1744" to-port="1"/>
		<edge from-layer="1745" from-port="0" to-layer="1746" to-port="0"/>
		<edge from-layer="1744" from-port="2" to-layer="1747" to-port="0"/>
		<edge from-layer="1746" from-port="1" to-layer="1747" to-port="1"/>
		<edge from-layer="1747" from-port="2" to-layer="1748" to-port="0"/>
		<edge from-layer="1697" from-port="0" to-layer="1748" to-port="1"/>
		<edge from-layer="1698" from-port="0" to-layer="1748" to-port="2"/>
		<edge from-layer="1699" from-port="0" to-layer="1748" to-port="3"/>
		<edge from-layer="1700" from-port="0" to-layer="1748" to-port="4"/>
		<edge from-layer="1696" from-port="5" to-layer="1749" to-port="0"/>
		<edge from-layer="1748" from-port="5" to-layer="1749" to-port="1"/>
		<edge from-layer="1750" from-port="0" to-layer="1751" to-port="0"/>
		<edge from-layer="1749" from-port="2" to-layer="1752" to-port="0"/>
		<edge from-layer="1751" from-port="1" to-layer="1752" to-port="1"/>
		<edge from-layer="1752" from-port="2" to-layer="1753" to-port="0"/>
		<edge from-layer="1558" from-port="0" to-layer="1753" to-port="1"/>
		<edge from-layer="1559" from-port="0" to-layer="1753" to-port="2"/>
		<edge from-layer="1560" from-port="0" to-layer="1753" to-port="3"/>
		<edge from-layer="1561" from-port="0" to-layer="1753" to-port="4"/>
		<edge from-layer="1767" from-port="0" to-layer="1768" to-port="0"/>
		<edge from-layer="1768" from-port="1" to-layer="1769" to-port="0"/>
		<edge from-layer="1766" from-port="0" to-layer="1769" to-port="1"/>
		<edge from-layer="1753" from-port="5" to-layer="1770" to-port="0"/>
		<edge from-layer="1769" from-port="2" to-layer="1770" to-port="1"/>
		<edge from-layer="1771" from-port="0" to-layer="1772" to-port="0"/>
		<edge from-layer="1770" from-port="2" to-layer="1773" to-port="0"/>
		<edge from-layer="1772" from-port="1" to-layer="1773" to-port="1"/>
		<edge from-layer="1774" from-port="0" to-layer="1775" to-port="0"/>
		<edge from-layer="1773" from-port="2" to-layer="1776" to-port="0"/>
		<edge from-layer="1775" from-port="1" to-layer="1776" to-port="1"/>
		<edge from-layer="1776" from-port="2" to-layer="1777" to-port="0"/>
		<edge from-layer="1762" from-port="0" to-layer="1777" to-port="1"/>
		<edge from-layer="1763" from-port="0" to-layer="1777" to-port="2"/>
		<edge from-layer="1764" from-port="0" to-layer="1777" to-port="3"/>
		<edge from-layer="1765" from-port="0" to-layer="1777" to-port="4"/>
		<edge from-layer="1779" from-port="0" to-layer="1780" to-port="0"/>
		<edge from-layer="1780" from-port="1" to-layer="1781" to-port="0"/>
		<edge from-layer="1778" from-port="0" to-layer="1781" to-port="1"/>
		<edge from-layer="1781" from-port="2" to-layer="1783" to-port="0"/>
		<edge from-layer="1783" from-port="1" to-layer="1786" to-port="0"/>
		<edge from-layer="1784" from-port="0" to-layer="1786" to-port="1"/>
		<edge from-layer="1785" from-port="0" to-layer="1786" to-port="2"/>
		<edge from-layer="1782" from-port="0" to-layer="1787" to-port="0"/>
		<edge from-layer="1786" from-port="3" to-layer="1787" to-port="1"/>
		<edge from-layer="1781" from-port="2" to-layer="1788" to-port="0"/>
		<edge from-layer="1787" from-port="2" to-layer="1788" to-port="1"/>
		<edge from-layer="1777" from-port="5" to-layer="1789" to-port="0"/>
		<edge from-layer="1788" from-port="2" to-layer="1789" to-port="1"/>
		<edge from-layer="1790" from-port="0" to-layer="1791" to-port="0"/>
		<edge from-layer="1789" from-port="2" to-layer="1792" to-port="0"/>
		<edge from-layer="1791" from-port="1" to-layer="1792" to-port="1"/>
		<edge from-layer="1793" from-port="0" to-layer="1794" to-port="0"/>
		<edge from-layer="1792" from-port="2" to-layer="1795" to-port="0"/>
		<edge from-layer="1794" from-port="1" to-layer="1795" to-port="1"/>
		<edge from-layer="1795" from-port="2" to-layer="1796" to-port="0"/>
		<edge from-layer="1758" from-port="0" to-layer="1796" to-port="1"/>
		<edge from-layer="1759" from-port="0" to-layer="1796" to-port="2"/>
		<edge from-layer="1760" from-port="0" to-layer="1796" to-port="3"/>
		<edge from-layer="1761" from-port="0" to-layer="1796" to-port="4"/>
		<edge from-layer="1798" from-port="0" to-layer="1799" to-port="0"/>
		<edge from-layer="1799" from-port="1" to-layer="1800" to-port="0"/>
		<edge from-layer="1797" from-port="0" to-layer="1800" to-port="1"/>
		<edge from-layer="1796" from-port="5" to-layer="1801" to-port="0"/>
		<edge from-layer="1800" from-port="2" to-layer="1801" to-port="1"/>
		<edge from-layer="1802" from-port="0" to-layer="1803" to-port="0"/>
		<edge from-layer="1801" from-port="2" to-layer="1804" to-port="0"/>
		<edge from-layer="1803" from-port="1" to-layer="1804" to-port="1"/>
		<edge from-layer="1804" from-port="2" to-layer="1805" to-port="0"/>
		<edge from-layer="1754" from-port="0" to-layer="1805" to-port="1"/>
		<edge from-layer="1755" from-port="0" to-layer="1805" to-port="2"/>
		<edge from-layer="1756" from-port="0" to-layer="1805" to-port="3"/>
		<edge from-layer="1757" from-port="0" to-layer="1805" to-port="4"/>
		<edge from-layer="1753" from-port="5" to-layer="1806" to-port="0"/>
		<edge from-layer="1805" from-port="5" to-layer="1806" to-port="1"/>
		<edge from-layer="1807" from-port="0" to-layer="1808" to-port="0"/>
		<edge from-layer="1806" from-port="2" to-layer="1809" to-port="0"/>
		<edge from-layer="1808" from-port="1" to-layer="1809" to-port="1"/>
		<edge from-layer="1809" from-port="2" to-layer="1810" to-port="0"/>
		<edge from-layer="1554" from-port="0" to-layer="1810" to-port="1"/>
		<edge from-layer="1555" from-port="0" to-layer="1810" to-port="2"/>
		<edge from-layer="1556" from-port="0" to-layer="1810" to-port="3"/>
		<edge from-layer="1557" from-port="0" to-layer="1810" to-port="4"/>
		<edge from-layer="1824" from-port="0" to-layer="1825" to-port="0"/>
		<edge from-layer="1825" from-port="1" to-layer="1826" to-port="0"/>
		<edge from-layer="1823" from-port="0" to-layer="1826" to-port="1"/>
		<edge from-layer="1810" from-port="5" to-layer="1827" to-port="0"/>
		<edge from-layer="1826" from-port="2" to-layer="1827" to-port="1"/>
		<edge from-layer="1828" from-port="0" to-layer="1829" to-port="0"/>
		<edge from-layer="1827" from-port="2" to-layer="1830" to-port="0"/>
		<edge from-layer="1829" from-port="1" to-layer="1830" to-port="1"/>
		<edge from-layer="1831" from-port="0" to-layer="1832" to-port="0"/>
		<edge from-layer="1830" from-port="2" to-layer="1833" to-port="0"/>
		<edge from-layer="1832" from-port="1" to-layer="1833" to-port="1"/>
		<edge from-layer="1833" from-port="2" to-layer="1834" to-port="0"/>
		<edge from-layer="1819" from-port="0" to-layer="1834" to-port="1"/>
		<edge from-layer="1820" from-port="0" to-layer="1834" to-port="2"/>
		<edge from-layer="1821" from-port="0" to-layer="1834" to-port="3"/>
		<edge from-layer="1822" from-port="0" to-layer="1834" to-port="4"/>
		<edge from-layer="1836" from-port="0" to-layer="1837" to-port="0"/>
		<edge from-layer="1837" from-port="1" to-layer="1838" to-port="0"/>
		<edge from-layer="1835" from-port="0" to-layer="1838" to-port="1"/>
		<edge from-layer="1838" from-port="2" to-layer="1840" to-port="0"/>
		<edge from-layer="1840" from-port="1" to-layer="1843" to-port="0"/>
		<edge from-layer="1841" from-port="0" to-layer="1843" to-port="1"/>
		<edge from-layer="1842" from-port="0" to-layer="1843" to-port="2"/>
		<edge from-layer="1839" from-port="0" to-layer="1844" to-port="0"/>
		<edge from-layer="1843" from-port="3" to-layer="1844" to-port="1"/>
		<edge from-layer="1838" from-port="2" to-layer="1845" to-port="0"/>
		<edge from-layer="1844" from-port="2" to-layer="1845" to-port="1"/>
		<edge from-layer="1834" from-port="5" to-layer="1846" to-port="0"/>
		<edge from-layer="1845" from-port="2" to-layer="1846" to-port="1"/>
		<edge from-layer="1847" from-port="0" to-layer="1848" to-port="0"/>
		<edge from-layer="1846" from-port="2" to-layer="1849" to-port="0"/>
		<edge from-layer="1848" from-port="1" to-layer="1849" to-port="1"/>
		<edge from-layer="1850" from-port="0" to-layer="1851" to-port="0"/>
		<edge from-layer="1849" from-port="2" to-layer="1852" to-port="0"/>
		<edge from-layer="1851" from-port="1" to-layer="1852" to-port="1"/>
		<edge from-layer="1852" from-port="2" to-layer="1853" to-port="0"/>
		<edge from-layer="1815" from-port="0" to-layer="1853" to-port="1"/>
		<edge from-layer="1816" from-port="0" to-layer="1853" to-port="2"/>
		<edge from-layer="1817" from-port="0" to-layer="1853" to-port="3"/>
		<edge from-layer="1818" from-port="0" to-layer="1853" to-port="4"/>
		<edge from-layer="1855" from-port="0" to-layer="1856" to-port="0"/>
		<edge from-layer="1856" from-port="1" to-layer="1857" to-port="0"/>
		<edge from-layer="1854" from-port="0" to-layer="1857" to-port="1"/>
		<edge from-layer="1853" from-port="5" to-layer="1858" to-port="0"/>
		<edge from-layer="1857" from-port="2" to-layer="1858" to-port="1"/>
		<edge from-layer="1859" from-port="0" to-layer="1860" to-port="0"/>
		<edge from-layer="1858" from-port="2" to-layer="1861" to-port="0"/>
		<edge from-layer="1860" from-port="1" to-layer="1861" to-port="1"/>
		<edge from-layer="1861" from-port="2" to-layer="1862" to-port="0"/>
		<edge from-layer="1811" from-port="0" to-layer="1862" to-port="1"/>
		<edge from-layer="1812" from-port="0" to-layer="1862" to-port="2"/>
		<edge from-layer="1813" from-port="0" to-layer="1862" to-port="3"/>
		<edge from-layer="1814" from-port="0" to-layer="1862" to-port="4"/>
		<edge from-layer="1810" from-port="5" to-layer="1863" to-port="0"/>
		<edge from-layer="1862" from-port="5" to-layer="1863" to-port="1"/>
		<edge from-layer="1864" from-port="0" to-layer="1865" to-port="0"/>
		<edge from-layer="1863" from-port="2" to-layer="1866" to-port="0"/>
		<edge from-layer="1865" from-port="1" to-layer="1866" to-port="1"/>
		<edge from-layer="1866" from-port="2" to-layer="1867" to-port="0"/>
		<edge from-layer="1550" from-port="0" to-layer="1867" to-port="1"/>
		<edge from-layer="1551" from-port="0" to-layer="1867" to-port="2"/>
		<edge from-layer="1552" from-port="0" to-layer="1867" to-port="3"/>
		<edge from-layer="1553" from-port="0" to-layer="1867" to-port="4"/>
		<edge from-layer="1881" from-port="0" to-layer="1882" to-port="0"/>
		<edge from-layer="1882" from-port="1" to-layer="1883" to-port="0"/>
		<edge from-layer="1880" from-port="0" to-layer="1883" to-port="1"/>
		<edge from-layer="1867" from-port="5" to-layer="1884" to-port="0"/>
		<edge from-layer="1883" from-port="2" to-layer="1884" to-port="1"/>
		<edge from-layer="1885" from-port="0" to-layer="1886" to-port="0"/>
		<edge from-layer="1884" from-port="2" to-layer="1887" to-port="0"/>
		<edge from-layer="1886" from-port="1" to-layer="1887" to-port="1"/>
		<edge from-layer="1888" from-port="0" to-layer="1889" to-port="0"/>
		<edge from-layer="1887" from-port="2" to-layer="1890" to-port="0"/>
		<edge from-layer="1889" from-port="1" to-layer="1890" to-port="1"/>
		<edge from-layer="1890" from-port="2" to-layer="1891" to-port="0"/>
		<edge from-layer="1876" from-port="0" to-layer="1891" to-port="1"/>
		<edge from-layer="1877" from-port="0" to-layer="1891" to-port="2"/>
		<edge from-layer="1878" from-port="0" to-layer="1891" to-port="3"/>
		<edge from-layer="1879" from-port="0" to-layer="1891" to-port="4"/>
		<edge from-layer="1893" from-port="0" to-layer="1894" to-port="0"/>
		<edge from-layer="1894" from-port="1" to-layer="1895" to-port="0"/>
		<edge from-layer="1892" from-port="0" to-layer="1895" to-port="1"/>
		<edge from-layer="1895" from-port="2" to-layer="1897" to-port="0"/>
		<edge from-layer="1897" from-port="1" to-layer="1900" to-port="0"/>
		<edge from-layer="1898" from-port="0" to-layer="1900" to-port="1"/>
		<edge from-layer="1899" from-port="0" to-layer="1900" to-port="2"/>
		<edge from-layer="1896" from-port="0" to-layer="1901" to-port="0"/>
		<edge from-layer="1900" from-port="3" to-layer="1901" to-port="1"/>
		<edge from-layer="1895" from-port="2" to-layer="1902" to-port="0"/>
		<edge from-layer="1901" from-port="2" to-layer="1902" to-port="1"/>
		<edge from-layer="1891" from-port="5" to-layer="1903" to-port="0"/>
		<edge from-layer="1902" from-port="2" to-layer="1903" to-port="1"/>
		<edge from-layer="1904" from-port="0" to-layer="1905" to-port="0"/>
		<edge from-layer="1903" from-port="2" to-layer="1906" to-port="0"/>
		<edge from-layer="1905" from-port="1" to-layer="1906" to-port="1"/>
		<edge from-layer="1907" from-port="0" to-layer="1908" to-port="0"/>
		<edge from-layer="1906" from-port="2" to-layer="1909" to-port="0"/>
		<edge from-layer="1908" from-port="1" to-layer="1909" to-port="1"/>
		<edge from-layer="1909" from-port="2" to-layer="1910" to-port="0"/>
		<edge from-layer="1872" from-port="0" to-layer="1910" to-port="1"/>
		<edge from-layer="1873" from-port="0" to-layer="1910" to-port="2"/>
		<edge from-layer="1874" from-port="0" to-layer="1910" to-port="3"/>
		<edge from-layer="1875" from-port="0" to-layer="1910" to-port="4"/>
		<edge from-layer="1912" from-port="0" to-layer="1913" to-port="0"/>
		<edge from-layer="1913" from-port="1" to-layer="1914" to-port="0"/>
		<edge from-layer="1911" from-port="0" to-layer="1914" to-port="1"/>
		<edge from-layer="1910" from-port="5" to-layer="1915" to-port="0"/>
		<edge from-layer="1914" from-port="2" to-layer="1915" to-port="1"/>
		<edge from-layer="1916" from-port="0" to-layer="1917" to-port="0"/>
		<edge from-layer="1915" from-port="2" to-layer="1918" to-port="0"/>
		<edge from-layer="1917" from-port="1" to-layer="1918" to-port="1"/>
		<edge from-layer="1918" from-port="2" to-layer="1919" to-port="0"/>
		<edge from-layer="1868" from-port="0" to-layer="1919" to-port="1"/>
		<edge from-layer="1869" from-port="0" to-layer="1919" to-port="2"/>
		<edge from-layer="1870" from-port="0" to-layer="1919" to-port="3"/>
		<edge from-layer="1871" from-port="0" to-layer="1919" to-port="4"/>
		<edge from-layer="1867" from-port="5" to-layer="1920" to-port="0"/>
		<edge from-layer="1919" from-port="5" to-layer="1920" to-port="1"/>
		<edge from-layer="1921" from-port="0" to-layer="1922" to-port="0"/>
		<edge from-layer="1920" from-port="2" to-layer="1923" to-port="0"/>
		<edge from-layer="1922" from-port="1" to-layer="1923" to-port="1"/>
		<edge from-layer="1923" from-port="2" to-layer="1924" to-port="0"/>
		<edge from-layer="1546" from-port="0" to-layer="1924" to-port="1"/>
		<edge from-layer="1547" from-port="0" to-layer="1924" to-port="2"/>
		<edge from-layer="1548" from-port="0" to-layer="1924" to-port="3"/>
		<edge from-layer="1549" from-port="0" to-layer="1924" to-port="4"/>
		<edge from-layer="1938" from-port="0" to-layer="1939" to-port="0"/>
		<edge from-layer="1939" from-port="1" to-layer="1940" to-port="0"/>
		<edge from-layer="1937" from-port="0" to-layer="1940" to-port="1"/>
		<edge from-layer="1924" from-port="5" to-layer="1941" to-port="0"/>
		<edge from-layer="1940" from-port="2" to-layer="1941" to-port="1"/>
		<edge from-layer="1942" from-port="0" to-layer="1943" to-port="0"/>
		<edge from-layer="1941" from-port="2" to-layer="1944" to-port="0"/>
		<edge from-layer="1943" from-port="1" to-layer="1944" to-port="1"/>
		<edge from-layer="1945" from-port="0" to-layer="1946" to-port="0"/>
		<edge from-layer="1944" from-port="2" to-layer="1947" to-port="0"/>
		<edge from-layer="1946" from-port="1" to-layer="1947" to-port="1"/>
		<edge from-layer="1947" from-port="2" to-layer="1948" to-port="0"/>
		<edge from-layer="1933" from-port="0" to-layer="1948" to-port="1"/>
		<edge from-layer="1934" from-port="0" to-layer="1948" to-port="2"/>
		<edge from-layer="1935" from-port="0" to-layer="1948" to-port="3"/>
		<edge from-layer="1936" from-port="0" to-layer="1948" to-port="4"/>
		<edge from-layer="1950" from-port="0" to-layer="1951" to-port="0"/>
		<edge from-layer="1951" from-port="1" to-layer="1952" to-port="0"/>
		<edge from-layer="1949" from-port="0" to-layer="1952" to-port="1"/>
		<edge from-layer="1952" from-port="2" to-layer="1954" to-port="0"/>
		<edge from-layer="1954" from-port="1" to-layer="1957" to-port="0"/>
		<edge from-layer="1955" from-port="0" to-layer="1957" to-port="1"/>
		<edge from-layer="1956" from-port="0" to-layer="1957" to-port="2"/>
		<edge from-layer="1953" from-port="0" to-layer="1958" to-port="0"/>
		<edge from-layer="1957" from-port="3" to-layer="1958" to-port="1"/>
		<edge from-layer="1952" from-port="2" to-layer="1959" to-port="0"/>
		<edge from-layer="1958" from-port="2" to-layer="1959" to-port="1"/>
		<edge from-layer="1948" from-port="5" to-layer="1960" to-port="0"/>
		<edge from-layer="1959" from-port="2" to-layer="1960" to-port="1"/>
		<edge from-layer="1961" from-port="0" to-layer="1962" to-port="0"/>
		<edge from-layer="1960" from-port="2" to-layer="1963" to-port="0"/>
		<edge from-layer="1962" from-port="1" to-layer="1963" to-port="1"/>
		<edge from-layer="1964" from-port="0" to-layer="1965" to-port="0"/>
		<edge from-layer="1963" from-port="2" to-layer="1966" to-port="0"/>
		<edge from-layer="1965" from-port="1" to-layer="1966" to-port="1"/>
		<edge from-layer="1966" from-port="2" to-layer="1967" to-port="0"/>
		<edge from-layer="1929" from-port="0" to-layer="1967" to-port="1"/>
		<edge from-layer="1930" from-port="0" to-layer="1967" to-port="2"/>
		<edge from-layer="1931" from-port="0" to-layer="1967" to-port="3"/>
		<edge from-layer="1932" from-port="0" to-layer="1967" to-port="4"/>
		<edge from-layer="1969" from-port="0" to-layer="1970" to-port="0"/>
		<edge from-layer="1970" from-port="1" to-layer="1971" to-port="0"/>
		<edge from-layer="1968" from-port="0" to-layer="1971" to-port="1"/>
		<edge from-layer="1967" from-port="5" to-layer="1972" to-port="0"/>
		<edge from-layer="1971" from-port="2" to-layer="1972" to-port="1"/>
		<edge from-layer="1973" from-port="0" to-layer="1974" to-port="0"/>
		<edge from-layer="1972" from-port="2" to-layer="1975" to-port="0"/>
		<edge from-layer="1974" from-port="1" to-layer="1975" to-port="1"/>
		<edge from-layer="1975" from-port="2" to-layer="1976" to-port="0"/>
		<edge from-layer="1925" from-port="0" to-layer="1976" to-port="1"/>
		<edge from-layer="1926" from-port="0" to-layer="1976" to-port="2"/>
		<edge from-layer="1927" from-port="0" to-layer="1976" to-port="3"/>
		<edge from-layer="1928" from-port="0" to-layer="1976" to-port="4"/>
		<edge from-layer="1924" from-port="5" to-layer="1977" to-port="0"/>
		<edge from-layer="1976" from-port="5" to-layer="1977" to-port="1"/>
		<edge from-layer="1978" from-port="0" to-layer="1979" to-port="0"/>
		<edge from-layer="1977" from-port="2" to-layer="1980" to-port="0"/>
		<edge from-layer="1979" from-port="1" to-layer="1980" to-port="1"/>
		<edge from-layer="1980" from-port="2" to-layer="1981" to-port="0"/>
		<edge from-layer="1542" from-port="0" to-layer="1981" to-port="1"/>
		<edge from-layer="1543" from-port="0" to-layer="1981" to-port="2"/>
		<edge from-layer="1544" from-port="0" to-layer="1981" to-port="3"/>
		<edge from-layer="1545" from-port="0" to-layer="1981" to-port="4"/>
		<edge from-layer="1995" from-port="0" to-layer="1996" to-port="0"/>
		<edge from-layer="1996" from-port="1" to-layer="1997" to-port="0"/>
		<edge from-layer="1994" from-port="0" to-layer="1997" to-port="1"/>
		<edge from-layer="1981" from-port="5" to-layer="1998" to-port="0"/>
		<edge from-layer="1997" from-port="2" to-layer="1998" to-port="1"/>
		<edge from-layer="1999" from-port="0" to-layer="2000" to-port="0"/>
		<edge from-layer="1998" from-port="2" to-layer="2001" to-port="0"/>
		<edge from-layer="2000" from-port="1" to-layer="2001" to-port="1"/>
		<edge from-layer="2002" from-port="0" to-layer="2003" to-port="0"/>
		<edge from-layer="2001" from-port="2" to-layer="2004" to-port="0"/>
		<edge from-layer="2003" from-port="1" to-layer="2004" to-port="1"/>
		<edge from-layer="2004" from-port="2" to-layer="2005" to-port="0"/>
		<edge from-layer="1990" from-port="0" to-layer="2005" to-port="1"/>
		<edge from-layer="1991" from-port="0" to-layer="2005" to-port="2"/>
		<edge from-layer="1992" from-port="0" to-layer="2005" to-port="3"/>
		<edge from-layer="1993" from-port="0" to-layer="2005" to-port="4"/>
		<edge from-layer="2007" from-port="0" to-layer="2008" to-port="0"/>
		<edge from-layer="2008" from-port="1" to-layer="2009" to-port="0"/>
		<edge from-layer="2006" from-port="0" to-layer="2009" to-port="1"/>
		<edge from-layer="2009" from-port="2" to-layer="2011" to-port="0"/>
		<edge from-layer="2011" from-port="1" to-layer="2014" to-port="0"/>
		<edge from-layer="2012" from-port="0" to-layer="2014" to-port="1"/>
		<edge from-layer="2013" from-port="0" to-layer="2014" to-port="2"/>
		<edge from-layer="2010" from-port="0" to-layer="2015" to-port="0"/>
		<edge from-layer="2014" from-port="3" to-layer="2015" to-port="1"/>
		<edge from-layer="2009" from-port="2" to-layer="2016" to-port="0"/>
		<edge from-layer="2015" from-port="2" to-layer="2016" to-port="1"/>
		<edge from-layer="2005" from-port="5" to-layer="2017" to-port="0"/>
		<edge from-layer="2016" from-port="2" to-layer="2017" to-port="1"/>
		<edge from-layer="2018" from-port="0" to-layer="2019" to-port="0"/>
		<edge from-layer="2017" from-port="2" to-layer="2020" to-port="0"/>
		<edge from-layer="2019" from-port="1" to-layer="2020" to-port="1"/>
		<edge from-layer="2021" from-port="0" to-layer="2022" to-port="0"/>
		<edge from-layer="2020" from-port="2" to-layer="2023" to-port="0"/>
		<edge from-layer="2022" from-port="1" to-layer="2023" to-port="1"/>
		<edge from-layer="2023" from-port="2" to-layer="2024" to-port="0"/>
		<edge from-layer="1986" from-port="0" to-layer="2024" to-port="1"/>
		<edge from-layer="1987" from-port="0" to-layer="2024" to-port="2"/>
		<edge from-layer="1988" from-port="0" to-layer="2024" to-port="3"/>
		<edge from-layer="1989" from-port="0" to-layer="2024" to-port="4"/>
		<edge from-layer="2026" from-port="0" to-layer="2027" to-port="0"/>
		<edge from-layer="2027" from-port="1" to-layer="2028" to-port="0"/>
		<edge from-layer="2025" from-port="0" to-layer="2028" to-port="1"/>
		<edge from-layer="2024" from-port="5" to-layer="2029" to-port="0"/>
		<edge from-layer="2028" from-port="2" to-layer="2029" to-port="1"/>
		<edge from-layer="2030" from-port="0" to-layer="2031" to-port="0"/>
		<edge from-layer="2029" from-port="2" to-layer="2032" to-port="0"/>
		<edge from-layer="2031" from-port="1" to-layer="2032" to-port="1"/>
		<edge from-layer="2032" from-port="2" to-layer="2033" to-port="0"/>
		<edge from-layer="1982" from-port="0" to-layer="2033" to-port="1"/>
		<edge from-layer="1983" from-port="0" to-layer="2033" to-port="2"/>
		<edge from-layer="1984" from-port="0" to-layer="2033" to-port="3"/>
		<edge from-layer="1985" from-port="0" to-layer="2033" to-port="4"/>
		<edge from-layer="1981" from-port="5" to-layer="2034" to-port="0"/>
		<edge from-layer="2033" from-port="5" to-layer="2034" to-port="1"/>
		<edge from-layer="2035" from-port="0" to-layer="2036" to-port="0"/>
		<edge from-layer="2034" from-port="2" to-layer="2037" to-port="0"/>
		<edge from-layer="2036" from-port="1" to-layer="2037" to-port="1"/>
		<edge from-layer="2037" from-port="2" to-layer="2038" to-port="0"/>
		<edge from-layer="1538" from-port="0" to-layer="2038" to-port="1"/>
		<edge from-layer="1539" from-port="0" to-layer="2038" to-port="2"/>
		<edge from-layer="1540" from-port="0" to-layer="2038" to-port="3"/>
		<edge from-layer="1541" from-port="0" to-layer="2038" to-port="4"/>
		<edge from-layer="2052" from-port="0" to-layer="2053" to-port="0"/>
		<edge from-layer="2053" from-port="1" to-layer="2054" to-port="0"/>
		<edge from-layer="2051" from-port="0" to-layer="2054" to-port="1"/>
		<edge from-layer="2038" from-port="5" to-layer="2055" to-port="0"/>
		<edge from-layer="2054" from-port="2" to-layer="2055" to-port="1"/>
		<edge from-layer="2056" from-port="0" to-layer="2057" to-port="0"/>
		<edge from-layer="2055" from-port="2" to-layer="2058" to-port="0"/>
		<edge from-layer="2057" from-port="1" to-layer="2058" to-port="1"/>
		<edge from-layer="2059" from-port="0" to-layer="2060" to-port="0"/>
		<edge from-layer="2058" from-port="2" to-layer="2061" to-port="0"/>
		<edge from-layer="2060" from-port="1" to-layer="2061" to-port="1"/>
		<edge from-layer="2061" from-port="2" to-layer="2062" to-port="0"/>
		<edge from-layer="2047" from-port="0" to-layer="2062" to-port="1"/>
		<edge from-layer="2048" from-port="0" to-layer="2062" to-port="2"/>
		<edge from-layer="2049" from-port="0" to-layer="2062" to-port="3"/>
		<edge from-layer="2050" from-port="0" to-layer="2062" to-port="4"/>
		<edge from-layer="2064" from-port="0" to-layer="2065" to-port="0"/>
		<edge from-layer="2065" from-port="1" to-layer="2066" to-port="0"/>
		<edge from-layer="2063" from-port="0" to-layer="2066" to-port="1"/>
		<edge from-layer="2066" from-port="2" to-layer="2068" to-port="0"/>
		<edge from-layer="2068" from-port="1" to-layer="2071" to-port="0"/>
		<edge from-layer="2069" from-port="0" to-layer="2071" to-port="1"/>
		<edge from-layer="2070" from-port="0" to-layer="2071" to-port="2"/>
		<edge from-layer="2067" from-port="0" to-layer="2072" to-port="0"/>
		<edge from-layer="2071" from-port="3" to-layer="2072" to-port="1"/>
		<edge from-layer="2066" from-port="2" to-layer="2073" to-port="0"/>
		<edge from-layer="2072" from-port="2" to-layer="2073" to-port="1"/>
		<edge from-layer="2062" from-port="5" to-layer="2074" to-port="0"/>
		<edge from-layer="2073" from-port="2" to-layer="2074" to-port="1"/>
		<edge from-layer="2075" from-port="0" to-layer="2076" to-port="0"/>
		<edge from-layer="2074" from-port="2" to-layer="2077" to-port="0"/>
		<edge from-layer="2076" from-port="1" to-layer="2077" to-port="1"/>
		<edge from-layer="2078" from-port="0" to-layer="2079" to-port="0"/>
		<edge from-layer="2077" from-port="2" to-layer="2080" to-port="0"/>
		<edge from-layer="2079" from-port="1" to-layer="2080" to-port="1"/>
		<edge from-layer="2080" from-port="2" to-layer="2081" to-port="0"/>
		<edge from-layer="2043" from-port="0" to-layer="2081" to-port="1"/>
		<edge from-layer="2044" from-port="0" to-layer="2081" to-port="2"/>
		<edge from-layer="2045" from-port="0" to-layer="2081" to-port="3"/>
		<edge from-layer="2046" from-port="0" to-layer="2081" to-port="4"/>
		<edge from-layer="2083" from-port="0" to-layer="2084" to-port="0"/>
		<edge from-layer="2084" from-port="1" to-layer="2085" to-port="0"/>
		<edge from-layer="2082" from-port="0" to-layer="2085" to-port="1"/>
		<edge from-layer="2081" from-port="5" to-layer="2086" to-port="0"/>
		<edge from-layer="2085" from-port="2" to-layer="2086" to-port="1"/>
		<edge from-layer="2087" from-port="0" to-layer="2088" to-port="0"/>
		<edge from-layer="2086" from-port="2" to-layer="2089" to-port="0"/>
		<edge from-layer="2088" from-port="1" to-layer="2089" to-port="1"/>
		<edge from-layer="2089" from-port="2" to-layer="2090" to-port="0"/>
		<edge from-layer="2039" from-port="0" to-layer="2090" to-port="1"/>
		<edge from-layer="2040" from-port="0" to-layer="2090" to-port="2"/>
		<edge from-layer="2041" from-port="0" to-layer="2090" to-port="3"/>
		<edge from-layer="2042" from-port="0" to-layer="2090" to-port="4"/>
		<edge from-layer="2038" from-port="5" to-layer="2091" to-port="0"/>
		<edge from-layer="2090" from-port="5" to-layer="2091" to-port="1"/>
		<edge from-layer="2092" from-port="0" to-layer="2093" to-port="0"/>
		<edge from-layer="2091" from-port="2" to-layer="2094" to-port="0"/>
		<edge from-layer="2093" from-port="1" to-layer="2094" to-port="1"/>
		<edge from-layer="2094" from-port="2" to-layer="2095" to-port="0"/>
		<edge from-layer="1534" from-port="0" to-layer="2095" to-port="1"/>
		<edge from-layer="1535" from-port="0" to-layer="2095" to-port="2"/>
		<edge from-layer="1536" from-port="0" to-layer="2095" to-port="3"/>
		<edge from-layer="1537" from-port="0" to-layer="2095" to-port="4"/>
		<edge from-layer="2109" from-port="0" to-layer="2110" to-port="0"/>
		<edge from-layer="2110" from-port="1" to-layer="2111" to-port="0"/>
		<edge from-layer="2108" from-port="0" to-layer="2111" to-port="1"/>
		<edge from-layer="2095" from-port="5" to-layer="2112" to-port="0"/>
		<edge from-layer="2111" from-port="2" to-layer="2112" to-port="1"/>
		<edge from-layer="2113" from-port="0" to-layer="2114" to-port="0"/>
		<edge from-layer="2112" from-port="2" to-layer="2115" to-port="0"/>
		<edge from-layer="2114" from-port="1" to-layer="2115" to-port="1"/>
		<edge from-layer="2116" from-port="0" to-layer="2117" to-port="0"/>
		<edge from-layer="2115" from-port="2" to-layer="2118" to-port="0"/>
		<edge from-layer="2117" from-port="1" to-layer="2118" to-port="1"/>
		<edge from-layer="2118" from-port="2" to-layer="2119" to-port="0"/>
		<edge from-layer="2104" from-port="0" to-layer="2119" to-port="1"/>
		<edge from-layer="2105" from-port="0" to-layer="2119" to-port="2"/>
		<edge from-layer="2106" from-port="0" to-layer="2119" to-port="3"/>
		<edge from-layer="2107" from-port="0" to-layer="2119" to-port="4"/>
		<edge from-layer="2121" from-port="0" to-layer="2122" to-port="0"/>
		<edge from-layer="2122" from-port="1" to-layer="2123" to-port="0"/>
		<edge from-layer="2120" from-port="0" to-layer="2123" to-port="1"/>
		<edge from-layer="2123" from-port="2" to-layer="2125" to-port="0"/>
		<edge from-layer="2125" from-port="1" to-layer="2128" to-port="0"/>
		<edge from-layer="2126" from-port="0" to-layer="2128" to-port="1"/>
		<edge from-layer="2127" from-port="0" to-layer="2128" to-port="2"/>
		<edge from-layer="2124" from-port="0" to-layer="2129" to-port="0"/>
		<edge from-layer="2128" from-port="3" to-layer="2129" to-port="1"/>
		<edge from-layer="2123" from-port="2" to-layer="2130" to-port="0"/>
		<edge from-layer="2129" from-port="2" to-layer="2130" to-port="1"/>
		<edge from-layer="2119" from-port="5" to-layer="2131" to-port="0"/>
		<edge from-layer="2130" from-port="2" to-layer="2131" to-port="1"/>
		<edge from-layer="2132" from-port="0" to-layer="2133" to-port="0"/>
		<edge from-layer="2131" from-port="2" to-layer="2134" to-port="0"/>
		<edge from-layer="2133" from-port="1" to-layer="2134" to-port="1"/>
		<edge from-layer="2135" from-port="0" to-layer="2136" to-port="0"/>
		<edge from-layer="2134" from-port="2" to-layer="2137" to-port="0"/>
		<edge from-layer="2136" from-port="1" to-layer="2137" to-port="1"/>
		<edge from-layer="2137" from-port="2" to-layer="2138" to-port="0"/>
		<edge from-layer="2100" from-port="0" to-layer="2138" to-port="1"/>
		<edge from-layer="2101" from-port="0" to-layer="2138" to-port="2"/>
		<edge from-layer="2102" from-port="0" to-layer="2138" to-port="3"/>
		<edge from-layer="2103" from-port="0" to-layer="2138" to-port="4"/>
		<edge from-layer="2140" from-port="0" to-layer="2141" to-port="0"/>
		<edge from-layer="2141" from-port="1" to-layer="2142" to-port="0"/>
		<edge from-layer="2139" from-port="0" to-layer="2142" to-port="1"/>
		<edge from-layer="2138" from-port="5" to-layer="2143" to-port="0"/>
		<edge from-layer="2142" from-port="2" to-layer="2143" to-port="1"/>
		<edge from-layer="2144" from-port="0" to-layer="2145" to-port="0"/>
		<edge from-layer="2143" from-port="2" to-layer="2146" to-port="0"/>
		<edge from-layer="2145" from-port="1" to-layer="2146" to-port="1"/>
		<edge from-layer="2146" from-port="2" to-layer="2147" to-port="0"/>
		<edge from-layer="2096" from-port="0" to-layer="2147" to-port="1"/>
		<edge from-layer="2097" from-port="0" to-layer="2147" to-port="2"/>
		<edge from-layer="2098" from-port="0" to-layer="2147" to-port="3"/>
		<edge from-layer="2099" from-port="0" to-layer="2147" to-port="4"/>
		<edge from-layer="2095" from-port="5" to-layer="2148" to-port="0"/>
		<edge from-layer="2147" from-port="5" to-layer="2148" to-port="1"/>
		<edge from-layer="2149" from-port="0" to-layer="2150" to-port="0"/>
		<edge from-layer="2148" from-port="2" to-layer="2151" to-port="0"/>
		<edge from-layer="2150" from-port="1" to-layer="2151" to-port="1"/>
		<edge from-layer="2151" from-port="2" to-layer="2152" to-port="0"/>
		<edge from-layer="1530" from-port="0" to-layer="2152" to-port="1"/>
		<edge from-layer="1531" from-port="0" to-layer="2152" to-port="2"/>
		<edge from-layer="1532" from-port="0" to-layer="2152" to-port="3"/>
		<edge from-layer="1533" from-port="0" to-layer="2152" to-port="4"/>
		<edge from-layer="2166" from-port="0" to-layer="2167" to-port="0"/>
		<edge from-layer="2167" from-port="1" to-layer="2168" to-port="0"/>
		<edge from-layer="2165" from-port="0" to-layer="2168" to-port="1"/>
		<edge from-layer="2152" from-port="5" to-layer="2169" to-port="0"/>
		<edge from-layer="2168" from-port="2" to-layer="2169" to-port="1"/>
		<edge from-layer="2170" from-port="0" to-layer="2171" to-port="0"/>
		<edge from-layer="2169" from-port="2" to-layer="2172" to-port="0"/>
		<edge from-layer="2171" from-port="1" to-layer="2172" to-port="1"/>
		<edge from-layer="2173" from-port="0" to-layer="2174" to-port="0"/>
		<edge from-layer="2172" from-port="2" to-layer="2175" to-port="0"/>
		<edge from-layer="2174" from-port="1" to-layer="2175" to-port="1"/>
		<edge from-layer="2175" from-port="2" to-layer="2176" to-port="0"/>
		<edge from-layer="2161" from-port="0" to-layer="2176" to-port="1"/>
		<edge from-layer="2162" from-port="0" to-layer="2176" to-port="2"/>
		<edge from-layer="2163" from-port="0" to-layer="2176" to-port="3"/>
		<edge from-layer="2164" from-port="0" to-layer="2176" to-port="4"/>
		<edge from-layer="2178" from-port="0" to-layer="2179" to-port="0"/>
		<edge from-layer="2179" from-port="1" to-layer="2180" to-port="0"/>
		<edge from-layer="2177" from-port="0" to-layer="2180" to-port="1"/>
		<edge from-layer="2180" from-port="2" to-layer="2182" to-port="0"/>
		<edge from-layer="2182" from-port="1" to-layer="2185" to-port="0"/>
		<edge from-layer="2183" from-port="0" to-layer="2185" to-port="1"/>
		<edge from-layer="2184" from-port="0" to-layer="2185" to-port="2"/>
		<edge from-layer="2181" from-port="0" to-layer="2186" to-port="0"/>
		<edge from-layer="2185" from-port="3" to-layer="2186" to-port="1"/>
		<edge from-layer="2180" from-port="2" to-layer="2187" to-port="0"/>
		<edge from-layer="2186" from-port="2" to-layer="2187" to-port="1"/>
		<edge from-layer="2176" from-port="5" to-layer="2188" to-port="0"/>
		<edge from-layer="2187" from-port="2" to-layer="2188" to-port="1"/>
		<edge from-layer="2189" from-port="0" to-layer="2190" to-port="0"/>
		<edge from-layer="2188" from-port="2" to-layer="2191" to-port="0"/>
		<edge from-layer="2190" from-port="1" to-layer="2191" to-port="1"/>
		<edge from-layer="2192" from-port="0" to-layer="2193" to-port="0"/>
		<edge from-layer="2191" from-port="2" to-layer="2194" to-port="0"/>
		<edge from-layer="2193" from-port="1" to-layer="2194" to-port="1"/>
		<edge from-layer="2194" from-port="2" to-layer="2195" to-port="0"/>
		<edge from-layer="2157" from-port="0" to-layer="2195" to-port="1"/>
		<edge from-layer="2158" from-port="0" to-layer="2195" to-port="2"/>
		<edge from-layer="2159" from-port="0" to-layer="2195" to-port="3"/>
		<edge from-layer="2160" from-port="0" to-layer="2195" to-port="4"/>
		<edge from-layer="2197" from-port="0" to-layer="2198" to-port="0"/>
		<edge from-layer="2198" from-port="1" to-layer="2199" to-port="0"/>
		<edge from-layer="2196" from-port="0" to-layer="2199" to-port="1"/>
		<edge from-layer="2195" from-port="5" to-layer="2200" to-port="0"/>
		<edge from-layer="2199" from-port="2" to-layer="2200" to-port="1"/>
		<edge from-layer="2201" from-port="0" to-layer="2202" to-port="0"/>
		<edge from-layer="2200" from-port="2" to-layer="2203" to-port="0"/>
		<edge from-layer="2202" from-port="1" to-layer="2203" to-port="1"/>
		<edge from-layer="2203" from-port="2" to-layer="2204" to-port="0"/>
		<edge from-layer="2153" from-port="0" to-layer="2204" to-port="1"/>
		<edge from-layer="2154" from-port="0" to-layer="2204" to-port="2"/>
		<edge from-layer="2155" from-port="0" to-layer="2204" to-port="3"/>
		<edge from-layer="2156" from-port="0" to-layer="2204" to-port="4"/>
		<edge from-layer="2152" from-port="5" to-layer="2205" to-port="0"/>
		<edge from-layer="2204" from-port="5" to-layer="2205" to-port="1"/>
		<edge from-layer="2206" from-port="0" to-layer="2207" to-port="0"/>
		<edge from-layer="2205" from-port="2" to-layer="2208" to-port="0"/>
		<edge from-layer="2207" from-port="1" to-layer="2208" to-port="1"/>
		<edge from-layer="2208" from-port="2" to-layer="2209" to-port="0"/>
		<edge from-layer="1526" from-port="0" to-layer="2209" to-port="1"/>
		<edge from-layer="1527" from-port="0" to-layer="2209" to-port="2"/>
		<edge from-layer="1528" from-port="0" to-layer="2209" to-port="3"/>
		<edge from-layer="1529" from-port="0" to-layer="2209" to-port="4"/>
		<edge from-layer="2223" from-port="0" to-layer="2224" to-port="0"/>
		<edge from-layer="2224" from-port="1" to-layer="2225" to-port="0"/>
		<edge from-layer="2222" from-port="0" to-layer="2225" to-port="1"/>
		<edge from-layer="2209" from-port="5" to-layer="2226" to-port="0"/>
		<edge from-layer="2225" from-port="2" to-layer="2226" to-port="1"/>
		<edge from-layer="2227" from-port="0" to-layer="2228" to-port="0"/>
		<edge from-layer="2226" from-port="2" to-layer="2229" to-port="0"/>
		<edge from-layer="2228" from-port="1" to-layer="2229" to-port="1"/>
		<edge from-layer="2230" from-port="0" to-layer="2231" to-port="0"/>
		<edge from-layer="2229" from-port="2" to-layer="2232" to-port="0"/>
		<edge from-layer="2231" from-port="1" to-layer="2232" to-port="1"/>
		<edge from-layer="2232" from-port="2" to-layer="2233" to-port="0"/>
		<edge from-layer="2218" from-port="0" to-layer="2233" to-port="1"/>
		<edge from-layer="2219" from-port="0" to-layer="2233" to-port="2"/>
		<edge from-layer="2220" from-port="0" to-layer="2233" to-port="3"/>
		<edge from-layer="2221" from-port="0" to-layer="2233" to-port="4"/>
		<edge from-layer="2235" from-port="0" to-layer="2236" to-port="0"/>
		<edge from-layer="2236" from-port="1" to-layer="2237" to-port="0"/>
		<edge from-layer="2234" from-port="0" to-layer="2237" to-port="1"/>
		<edge from-layer="2237" from-port="2" to-layer="2239" to-port="0"/>
		<edge from-layer="2239" from-port="1" to-layer="2242" to-port="0"/>
		<edge from-layer="2240" from-port="0" to-layer="2242" to-port="1"/>
		<edge from-layer="2241" from-port="0" to-layer="2242" to-port="2"/>
		<edge from-layer="2238" from-port="0" to-layer="2243" to-port="0"/>
		<edge from-layer="2242" from-port="3" to-layer="2243" to-port="1"/>
		<edge from-layer="2237" from-port="2" to-layer="2244" to-port="0"/>
		<edge from-layer="2243" from-port="2" to-layer="2244" to-port="1"/>
		<edge from-layer="2233" from-port="5" to-layer="2245" to-port="0"/>
		<edge from-layer="2244" from-port="2" to-layer="2245" to-port="1"/>
		<edge from-layer="2246" from-port="0" to-layer="2247" to-port="0"/>
		<edge from-layer="2245" from-port="2" to-layer="2248" to-port="0"/>
		<edge from-layer="2247" from-port="1" to-layer="2248" to-port="1"/>
		<edge from-layer="2249" from-port="0" to-layer="2250" to-port="0"/>
		<edge from-layer="2248" from-port="2" to-layer="2251" to-port="0"/>
		<edge from-layer="2250" from-port="1" to-layer="2251" to-port="1"/>
		<edge from-layer="2251" from-port="2" to-layer="2252" to-port="0"/>
		<edge from-layer="2214" from-port="0" to-layer="2252" to-port="1"/>
		<edge from-layer="2215" from-port="0" to-layer="2252" to-port="2"/>
		<edge from-layer="2216" from-port="0" to-layer="2252" to-port="3"/>
		<edge from-layer="2217" from-port="0" to-layer="2252" to-port="4"/>
		<edge from-layer="2254" from-port="0" to-layer="2255" to-port="0"/>
		<edge from-layer="2255" from-port="1" to-layer="2256" to-port="0"/>
		<edge from-layer="2253" from-port="0" to-layer="2256" to-port="1"/>
		<edge from-layer="2252" from-port="5" to-layer="2257" to-port="0"/>
		<edge from-layer="2256" from-port="2" to-layer="2257" to-port="1"/>
		<edge from-layer="2258" from-port="0" to-layer="2259" to-port="0"/>
		<edge from-layer="2257" from-port="2" to-layer="2260" to-port="0"/>
		<edge from-layer="2259" from-port="1" to-layer="2260" to-port="1"/>
		<edge from-layer="2260" from-port="2" to-layer="2261" to-port="0"/>
		<edge from-layer="2210" from-port="0" to-layer="2261" to-port="1"/>
		<edge from-layer="2211" from-port="0" to-layer="2261" to-port="2"/>
		<edge from-layer="2212" from-port="0" to-layer="2261" to-port="3"/>
		<edge from-layer="2213" from-port="0" to-layer="2261" to-port="4"/>
		<edge from-layer="2209" from-port="5" to-layer="2262" to-port="0"/>
		<edge from-layer="2261" from-port="5" to-layer="2262" to-port="1"/>
		<edge from-layer="2263" from-port="0" to-layer="2264" to-port="0"/>
		<edge from-layer="2262" from-port="2" to-layer="2265" to-port="0"/>
		<edge from-layer="2264" from-port="1" to-layer="2265" to-port="1"/>
		<edge from-layer="2265" from-port="2" to-layer="2266" to-port="0"/>
		<edge from-layer="1522" from-port="0" to-layer="2266" to-port="1"/>
		<edge from-layer="1523" from-port="0" to-layer="2266" to-port="2"/>
		<edge from-layer="1524" from-port="0" to-layer="2266" to-port="3"/>
		<edge from-layer="1525" from-port="0" to-layer="2266" to-port="4"/>
		<edge from-layer="2268" from-port="0" to-layer="2269" to-port="0"/>
		<edge from-layer="2269" from-port="1" to-layer="2270" to-port="0"/>
		<edge from-layer="2267" from-port="0" to-layer="2270" to-port="1"/>
		<edge from-layer="2266" from-port="5" to-layer="2271" to-port="0"/>
		<edge from-layer="2270" from-port="2" to-layer="2271" to-port="1"/>
		<edge from-layer="2272" from-port="0" to-layer="2273" to-port="0"/>
		<edge from-layer="2271" from-port="2" to-layer="2274" to-port="0"/>
		<edge from-layer="2273" from-port="1" to-layer="2274" to-port="1"/>
		<edge from-layer="2274" from-port="2" to-layer="2276" to-port="0"/>
		<edge from-layer="2275" from-port="0" to-layer="2276" to-port="1"/>
		<edge from-layer="2276" from-port="2" to-layer="2278" to-port="0"/>
		<edge from-layer="2277" from-port="0" to-layer="2278" to-port="1"/>
		<edge from-layer="2280" from-port="0" to-layer="2281" to-port="0"/>
		<edge from-layer="2281" from-port="1" to-layer="2282" to-port="0"/>
		<edge from-layer="2279" from-port="0" to-layer="2282" to-port="1"/>
		<edge from-layer="2266" from-port="5" to-layer="2283" to-port="0"/>
		<edge from-layer="2282" from-port="2" to-layer="2283" to-port="1"/>
		<edge from-layer="2284" from-port="0" to-layer="2285" to-port="0"/>
		<edge from-layer="2283" from-port="2" to-layer="2286" to-port="0"/>
		<edge from-layer="2285" from-port="1" to-layer="2286" to-port="1"/>
		<edge from-layer="2286" from-port="2" to-layer="2288" to-port="0"/>
		<edge from-layer="2287" from-port="0" to-layer="2288" to-port="1"/>
		<edge from-layer="2288" from-port="2" to-layer="2290" to-port="0"/>
		<edge from-layer="2289" from-port="0" to-layer="2290" to-port="1"/>
		<edge from-layer="2290" from-port="2" to-layer="2292" to-port="0"/>
		<edge from-layer="2291" from-port="0" to-layer="2292" to-port="1"/>
		<edge from-layer="2292" from-port="2" to-layer="2293" to-port="0"/>
		<edge from-layer="2293" from-port="1" to-layer="2295" to-port="0"/>
		<edge from-layer="2294" from-port="0" to-layer="2295" to-port="1"/>
		<edge from-layer="2265" from-port="2" to-layer="2296" to-port="0"/>
		<edge from-layer="2296" from-port="1" to-layer="2300" to-port="0"/>
		<edge from-layer="2297" from-port="0" to-layer="2300" to-port="1"/>
		<edge from-layer="2298" from-port="0" to-layer="2300" to-port="2"/>
		<edge from-layer="2299" from-port="0" to-layer="2300" to-port="3"/>
		<edge from-layer="24" from-port="0" to-layer="2301" to-port="0"/>
		<edge from-layer="2301" from-port="1" to-layer="2305" to-port="0"/>
		<edge from-layer="2302" from-port="0" to-layer="2305" to-port="1"/>
		<edge from-layer="2303" from-port="0" to-layer="2305" to-port="2"/>
		<edge from-layer="2304" from-port="0" to-layer="2305" to-port="3"/>
		<edge from-layer="2300" from-port="4" to-layer="2306" to-port="0"/>
		<edge from-layer="2305" from-port="4" to-layer="2306" to-port="1"/>
		<edge from-layer="2306" from-port="2" to-layer="2308" to-port="0"/>
		<edge from-layer="2307" from-port="0" to-layer="2308" to-port="1"/>
		<edge from-layer="2278" from-port="2" to-layer="2309" to-port="0"/>
		<edge from-layer="2295" from-port="2" to-layer="2309" to-port="1"/>
		<edge from-layer="2308" from-port="2" to-layer="2309" to-port="2"/>
		<edge from-layer="2309" from-port="3" to-layer="2310" to-port="0"/>
	</edges>
	<meta_data>
		<MO_version value="custom_HEAD_0e242b324458ed332f0907ac6d88fc24b610d9b9"/>
		<Runtime_version value="2022.3.0-000-0e242b32445-HEAD"/>
		<legacy_path value="True"/>
		<cli_parameters>
			<caffe_parser_path value="DIR"/>
			<data_type value="FP16"/>
			<disable_nhwc_to_nchw value="False"/>
			<disable_omitting_optional value="False"/>
			<disable_resnet_optimization value="False"/>
			<disable_weights_compression value="False"/>
			<enable_concat_optimization value="False"/>
			<enable_flattening_nested_params value="False"/>
			<enable_ssd_gluoncv value="False"/>
			<extensions value="['/opt/home/sys_k8sworker/workspace/DL-Benchmark/try/convert']"/>
			<framework value="caffe"/>
			<input value="data"/>
			<input_model value="DIR/rmnet_lrelu_pd_ssd.caffemodel"/>
			<input_model_is_text value="False"/>
			<input_proto value="DIR/rmnet_lrelu_pd_ssd.prototxt"/>
			<input_shape value="[1,3,320,544]"/>
			<k value="DIR/CustomLayersMapping.xml"/>
			<layout value="data(nchw)"/>
			<legacy_mxnet_model value="False"/>
			<log_level value="ERROR"/>
			<mean_values value="()"/>
			<model_name value="person-detection-retail-0013"/>
			<output value="detection_out"/>
			<output_dir value="DIR"/>
			<progress value="False"/>
			<remove_memory value="False"/>
			<remove_output_softmax value="False"/>
			<reverse_input_channels value="False"/>
			<save_params_from_nd value="False"/>
			<scale_values value="()"/>
			<silent value="True"/>
			<source_layout value="()"/>
			<static_shape value="False"/>
			<stream_output value="False"/>
			<target_layout value="()"/>
			<transform value=""/>
			<use_legacy_frontend value="False"/>
			<use_new_frontend value="False"/>
			<unset unset_cli_parameters="batch, counts, disable_fusing, finegrain_fusing, freeze_placeholder_with_value, input_checkpoint, input_meta_graph, input_symbol, mean_file, mean_file_offsets, nd_prefix_name, pretrained_model_name, saved_model_dir, saved_model_tags, scale, tensorboard_logdir, tensorflow_custom_layer_libraries, tensorflow_custom_operations_config_update, tensorflow_object_detection_api_pipeline_config, tensorflow_use_custom_operations_config, transformations_config"/>
		</cli_parameters>
	</meta_data>
	<quantization_parameters>
		<config>{
		'compression': {
			'algorithms': [
				{
					'name': 'DefaultQuantization',
					'params': {
						'num_samples_for_tuning': 2000,
						'preset': 'performance',
						'stat_subset_size': 300,
						'use_layerwise_tuning': false
					}
				}
			],
			'dump_intermediate_model': true,
			'target_device': 'ANY'
		},
		'engine': {
			'models': [
				{
					'name': 'person-detection-retail-0013',
					'launchers': [
						{
							'framework': 'openvino',
							'adapter': 'ssd',
							'device': 'cpu'
						}
					],
					'datasets': [
						{
							'name': 'person_detection',
							'data_source': 'PATH',
							'annotation_conversion': {
								'converter': 'datatang_street_subway',
								'annotation_file': 'PATH'
							},
							'annotation': 'PATH',
							'dataset_meta': 'PATH',
							'preprocessing': [
								{
									'type': 'resize',
									'dst_width': 544,
									'dst_height': 320
								}
							],
							'postprocessing': [
								{
									'type': 'resize_prediction_boxes'
								},
								{
									'type': 'filter',
									'apply_to': 'annotation',
									'height_range': 100,
									'aspect_ratio': '0.666, 5',
									'is_empty': true,
									'min_visibility': 'partially occluded'
								},
								{
									'type': 'filter',
									'apply_to': 'prediction',
									'height_range': 100,
									'is_empty': true,
									'aspect_ratio': '0.666, 5'
								}
							],
							'metrics': [
								{
									'type': 'map',
									'ignore_difficult': true,
									'include_boundaries': true,
									'allow_multiple_matches_per_ignored': false,
									'distinct_conf': false,
									'reference': 0.8862
								}
							],
							'_command_line_mapping': {
								'annotation_file': 'PATH'
							}
						}
					]
				}
			],
			'stat_requests_number': null,
			'eval_requests_number': null,
			'type': 'accuracy_checker'
		}
	}</config>
		<version value="invalid version"/>
		<cli_params value="{'quantize': None, 'preset': None, 'model': None, 'weights': None, 'name': None, 'engine': None, 'ac_config': None, 'max_drop': None, 'evaluate': False, 'output_dir': 'PATH', 'direct_dump': True, 'log_level': 'INFO', 'pbar': False, 'stream_output': False, 'keep_uncompressed_weights': False, 'data_source': None}"/>
	</quantization_parameters>
</net>
