<?xml version="1.0"?>
<net name="torch-jit-export" version="11">
	<layers>
		<layer id="0" name="input.1" type="Parameter" version="opset1">
			<data shape="1,3,64,64" element_type="f32" />
			<rt_info>
				<attribute name="old_api_map_element_type" version="0" value="f16" />
			</rt_info>
			<output>
				<port id="0" precision="FP32" names="input.1">
					<dim>1</dim>
					<dim>3</dim>
					<dim>64</dim>
					<dim>64</dim>
					<rt_info>
						<attribute name="layout" version="0" layout="[N,C,H,W]" />
					</rt_info>
				</port>
			</output>
		</layer>
		<layer id="1" name="Gather_94273_compressed" type="Const" version="opset1">
			<data element_type="f16" shape="64, 3, 3, 3" offset="0" size="3456" />
			<output>
				<port id="0" precision="FP16">
					<dim>64</dim>
					<dim>3</dim>
					<dim>3</dim>
					<dim>3</dim>
				</port>
			</output>
		</layer>
		<layer id="2" name="Gather_94273" type="Convert" version="opset1">
			<data destination_type="f32" />
			<rt_info>
				<attribute name="decompression" version="0" />
			</rt_info>
			<input>
				<port id="0" precision="FP16">
					<dim>64</dim>
					<dim>3</dim>
					<dim>3</dim>
					<dim>3</dim>
				</port>
			</input>
			<output>
				<port id="1" precision="FP32">
					<dim>64</dim>
					<dim>3</dim>
					<dim>3</dim>
					<dim>3</dim>
				</port>
			</output>
		</layer>
		<layer id="3" name="Multiply_81663" type="Convolution" version="opset1">
			<data strides="2, 2" dilations="1, 1" pads_begin="1, 1" pads_end="1, 1" auto_pad="explicit" />
			<rt_info>
				<attribute name="preprocessing" version="0" />
			</rt_info>
			<input>
				<port id="0" precision="FP32">
					<dim>1</dim>
					<dim>3</dim>
					<dim>64</dim>
					<dim>64</dim>
				</port>
				<port id="1" precision="FP32">
					<dim>64</dim>
					<dim>3</dim>
					<dim>3</dim>
					<dim>3</dim>
				</port>
			</input>
			<output>
				<port id="2" precision="FP32">
					<dim>1</dim>
					<dim>64</dim>
					<dim>32</dim>
					<dim>32</dim>
				</port>
			</output>
		</layer>
		<layer id="4" name="Constant_81668_compressed" type="Const" version="opset1">
			<data element_type="f16" shape="1, 64, 1, 1" offset="3456" size="128" />
			<output>
				<port id="0" precision="FP16">
					<dim>1</dim>
					<dim>64</dim>
					<dim>1</dim>
					<dim>1</dim>
				</port>
			</output>
		</layer>
		<layer id="5" name="Constant_81668" type="Convert" version="opset1">
			<data destination_type="f32" />
			<rt_info>
				<attribute name="decompression" version="0" />
			</rt_info>
			<input>
				<port id="0" precision="FP16">
					<dim>1</dim>
					<dim>64</dim>
					<dim>1</dim>
					<dim>1</dim>
				</port>
			</input>
			<output>
				<port id="1" precision="FP32">
					<dim>1</dim>
					<dim>64</dim>
					<dim>1</dim>
					<dim>1</dim>
				</port>
			</output>
		</layer>
		<layer id="6" name="BatchNormalization_1" type="Add" version="opset1">
			<data auto_broadcast="numpy" />
			<input>
				<port id="0" precision="FP32">
					<dim>1</dim>
					<dim>64</dim>
					<dim>32</dim>
					<dim>32</dim>
				</port>
				<port id="1" precision="FP32">
					<dim>1</dim>
					<dim>64</dim>
					<dim>1</dim>
					<dim>1</dim>
				</port>
			</input>
			<output>
				<port id="2" precision="FP32" names="1841">
					<dim>1</dim>
					<dim>64</dim>
					<dim>32</dim>
					<dim>32</dim>
				</port>
			</output>
		</layer>
		<layer id="7" name="Relu_2" type="ReLU" version="opset1">
			<input>
				<port id="0" precision="FP32">
					<dim>1</dim>
					<dim>64</dim>
					<dim>32</dim>
					<dim>32</dim>
				</port>
			</input>
			<output>
				<port id="1" precision="FP32" names="1842">
					<dim>1</dim>
					<dim>64</dim>
					<dim>32</dim>
					<dim>32</dim>
				</port>
			</output>
		</layer>
		<layer id="8" name="Multiply_83830_compressed" type="Const" version="opset1">
			<data element_type="f16" shape="64, 64, 3, 3" offset="3584" size="73728" />
			<output>
				<port id="0" precision="FP16">
					<dim>64</dim>
					<dim>64</dim>
					<dim>3</dim>
					<dim>3</dim>
				</port>
			</output>
		</layer>
		<layer id="9" name="Multiply_83830" type="Convert" version="opset1">
			<data destination_type="f32" />
			<rt_info>
				<attribute name="decompression" version="0" />
			</rt_info>
			<input>
				<port id="0" precision="FP16">
					<dim>64</dim>
					<dim>64</dim>
					<dim>3</dim>
					<dim>3</dim>
				</port>
			</input>
			<output>
				<port id="1" precision="FP32">
					<dim>64</dim>
					<dim>64</dim>
					<dim>3</dim>
					<dim>3</dim>
				</port>
			</output>
		</layer>
		<layer id="10" name="Multiply_81670" type="Convolution" version="opset1">
			<data strides="2, 2" dilations="1, 1" pads_begin="1, 1" pads_end="1, 1" auto_pad="explicit" />
			<input>
				<port id="0" precision="FP32">
					<dim>1</dim>
					<dim>64</dim>
					<dim>32</dim>
					<dim>32</dim>
				</port>
				<port id="1" precision="FP32">
					<dim>64</dim>
					<dim>64</dim>
					<dim>3</dim>
					<dim>3</dim>
				</port>
			</input>
			<output>
				<port id="2" precision="FP32">
					<dim>1</dim>
					<dim>64</dim>
					<dim>16</dim>
					<dim>16</dim>
				</port>
			</output>
		</layer>
		<layer id="11" name="Constant_81675_compressed" type="Const" version="opset1">
			<data element_type="f16" shape="1, 64, 1, 1" offset="77312" size="128" />
			<output>
				<port id="0" precision="FP16">
					<dim>1</dim>
					<dim>64</dim>
					<dim>1</dim>
					<dim>1</dim>
				</port>
			</output>
		</layer>
		<layer id="12" name="Constant_81675" type="Convert" version="opset1">
			<data destination_type="f32" />
			<rt_info>
				<attribute name="decompression" version="0" />
			</rt_info>
			<input>
				<port id="0" precision="FP16">
					<dim>1</dim>
					<dim>64</dim>
					<dim>1</dim>
					<dim>1</dim>
				</port>
			</input>
			<output>
				<port id="1" precision="FP32">
					<dim>1</dim>
					<dim>64</dim>
					<dim>1</dim>
					<dim>1</dim>
				</port>
			</output>
		</layer>
		<layer id="13" name="BatchNormalization_4" type="Add" version="opset1">
			<data auto_broadcast="numpy" />
			<input>
				<port id="0" precision="FP32">
					<dim>1</dim>
					<dim>64</dim>
					<dim>16</dim>
					<dim>16</dim>
				</port>
				<port id="1" precision="FP32">
					<dim>1</dim>
					<dim>64</dim>
					<dim>1</dim>
					<dim>1</dim>
				</port>
			</input>
			<output>
				<port id="2" precision="FP32" names="1844">
					<dim>1</dim>
					<dim>64</dim>
					<dim>16</dim>
					<dim>16</dim>
				</port>
			</output>
		</layer>
		<layer id="14" name="Relu_5" type="ReLU" version="opset1">
			<input>
				<port id="0" precision="FP32">
					<dim>1</dim>
					<dim>64</dim>
					<dim>16</dim>
					<dim>16</dim>
				</port>
			</input>
			<output>
				<port id="1" precision="FP32" names="1845">
					<dim>1</dim>
					<dim>64</dim>
					<dim>16</dim>
					<dim>16</dim>
				</port>
			</output>
		</layer>
		<layer id="15" name="Multiply_83839_compressed" type="Const" version="opset1">
			<data element_type="f16" shape="64, 64, 1, 1" offset="77440" size="8192" />
			<output>
				<port id="0" precision="FP16">
					<dim>64</dim>
					<dim>64</dim>
					<dim>1</dim>
					<dim>1</dim>
				</port>
			</output>
		</layer>
		<layer id="16" name="Multiply_83839" type="Convert" version="opset1">
			<data destination_type="f32" />
			<rt_info>
				<attribute name="decompression" version="0" />
			</rt_info>
			<input>
				<port id="0" precision="FP16">
					<dim>64</dim>
					<dim>64</dim>
					<dim>1</dim>
					<dim>1</dim>
				</port>
			</input>
			<output>
				<port id="1" precision="FP32">
					<dim>64</dim>
					<dim>64</dim>
					<dim>1</dim>
					<dim>1</dim>
				</port>
			</output>
		</layer>
		<layer id="17" name="Multiply_81677" type="Convolution" version="opset1">
			<data strides="1, 1" dilations="1, 1" pads_begin="0, 0" pads_end="0, 0" auto_pad="explicit" />
			<input>
				<port id="0" precision="FP32">
					<dim>1</dim>
					<dim>64</dim>
					<dim>16</dim>
					<dim>16</dim>
				</port>
				<port id="1" precision="FP32">
					<dim>64</dim>
					<dim>64</dim>
					<dim>1</dim>
					<dim>1</dim>
				</port>
			</input>
			<output>
				<port id="2" precision="FP32">
					<dim>1</dim>
					<dim>64</dim>
					<dim>16</dim>
					<dim>16</dim>
				</port>
			</output>
		</layer>
		<layer id="18" name="Constant_81682_compressed" type="Const" version="opset1">
			<data element_type="f16" shape="1, 64, 1, 1" offset="85632" size="128" />
			<output>
				<port id="0" precision="FP16">
					<dim>1</dim>
					<dim>64</dim>
					<dim>1</dim>
					<dim>1</dim>
				</port>
			</output>
		</layer>
		<layer id="19" name="Constant_81682" type="Convert" version="opset1">
			<data destination_type="f32" />
			<rt_info>
				<attribute name="decompression" version="0" />
			</rt_info>
			<input>
				<port id="0" precision="FP16">
					<dim>1</dim>
					<dim>64</dim>
					<dim>1</dim>
					<dim>1</dim>
				</port>
			</input>
			<output>
				<port id="1" precision="FP32">
					<dim>1</dim>
					<dim>64</dim>
					<dim>1</dim>
					<dim>1</dim>
				</port>
			</output>
		</layer>
		<layer id="20" name="BatchNormalization_7" type="Add" version="opset1">
			<data auto_broadcast="numpy" />
			<input>
				<port id="0" precision="FP32">
					<dim>1</dim>
					<dim>64</dim>
					<dim>16</dim>
					<dim>16</dim>
				</port>
				<port id="1" precision="FP32">
					<dim>1</dim>
					<dim>64</dim>
					<dim>1</dim>
					<dim>1</dim>
				</port>
			</input>
			<output>
				<port id="2" precision="FP32" names="1847">
					<dim>1</dim>
					<dim>64</dim>
					<dim>16</dim>
					<dim>16</dim>
				</port>
			</output>
		</layer>
		<layer id="21" name="Relu_8" type="ReLU" version="opset1">
			<input>
				<port id="0" precision="FP32">
					<dim>1</dim>
					<dim>64</dim>
					<dim>16</dim>
					<dim>16</dim>
				</port>
			</input>
			<output>
				<port id="1" precision="FP32" names="1848">
					<dim>1</dim>
					<dim>64</dim>
					<dim>16</dim>
					<dim>16</dim>
				</port>
			</output>
		</layer>
		<layer id="22" name="Multiply_83848_compressed" type="Const" version="opset1">
			<data element_type="f16" shape="64, 64, 3, 3" offset="85760" size="73728" />
			<output>
				<port id="0" precision="FP16">
					<dim>64</dim>
					<dim>64</dim>
					<dim>3</dim>
					<dim>3</dim>
				</port>
			</output>
		</layer>
		<layer id="23" name="Multiply_83848" type="Convert" version="opset1">
			<data destination_type="f32" />
			<rt_info>
				<attribute name="decompression" version="0" />
			</rt_info>
			<input>
				<port id="0" precision="FP16">
					<dim>64</dim>
					<dim>64</dim>
					<dim>3</dim>
					<dim>3</dim>
				</port>
			</input>
			<output>
				<port id="1" precision="FP32">
					<dim>64</dim>
					<dim>64</dim>
					<dim>3</dim>
					<dim>3</dim>
				</port>
			</output>
		</layer>
		<layer id="24" name="Multiply_81684" type="Convolution" version="opset1">
			<data strides="1, 1" dilations="1, 1" pads_begin="1, 1" pads_end="1, 1" auto_pad="explicit" />
			<input>
				<port id="0" precision="FP32">
					<dim>1</dim>
					<dim>64</dim>
					<dim>16</dim>
					<dim>16</dim>
				</port>
				<port id="1" precision="FP32">
					<dim>64</dim>
					<dim>64</dim>
					<dim>3</dim>
					<dim>3</dim>
				</port>
			</input>
			<output>
				<port id="2" precision="FP32">
					<dim>1</dim>
					<dim>64</dim>
					<dim>16</dim>
					<dim>16</dim>
				</port>
			</output>
		</layer>
		<layer id="25" name="Constant_81689_compressed" type="Const" version="opset1">
			<data element_type="f16" shape="1, 64, 1, 1" offset="159488" size="128" />
			<output>
				<port id="0" precision="FP16">
					<dim>1</dim>
					<dim>64</dim>
					<dim>1</dim>
					<dim>1</dim>
				</port>
			</output>
		</layer>
		<layer id="26" name="Constant_81689" type="Convert" version="opset1">
			<data destination_type="f32" />
			<rt_info>
				<attribute name="decompression" version="0" />
			</rt_info>
			<input>
				<port id="0" precision="FP16">
					<dim>1</dim>
					<dim>64</dim>
					<dim>1</dim>
					<dim>1</dim>
				</port>
			</input>
			<output>
				<port id="1" precision="FP32">
					<dim>1</dim>
					<dim>64</dim>
					<dim>1</dim>
					<dim>1</dim>
				</port>
			</output>
		</layer>
		<layer id="27" name="BatchNormalization_10" type="Add" version="opset1">
			<data auto_broadcast="numpy" />
			<input>
				<port id="0" precision="FP32">
					<dim>1</dim>
					<dim>64</dim>
					<dim>16</dim>
					<dim>16</dim>
				</port>
				<port id="1" precision="FP32">
					<dim>1</dim>
					<dim>64</dim>
					<dim>1</dim>
					<dim>1</dim>
				</port>
			</input>
			<output>
				<port id="2" precision="FP32" names="1850">
					<dim>1</dim>
					<dim>64</dim>
					<dim>16</dim>
					<dim>16</dim>
				</port>
			</output>
		</layer>
		<layer id="28" name="Relu_11" type="ReLU" version="opset1">
			<input>
				<port id="0" precision="FP32">
					<dim>1</dim>
					<dim>64</dim>
					<dim>16</dim>
					<dim>16</dim>
				</port>
			</input>
			<output>
				<port id="1" precision="FP32" names="1851">
					<dim>1</dim>
					<dim>64</dim>
					<dim>16</dim>
					<dim>16</dim>
				</port>
			</output>
		</layer>
		<layer id="29" name="Multiply_83857_compressed" type="Const" version="opset1">
			<data element_type="f16" shape="256, 64, 1, 1" offset="159616" size="32768" />
			<output>
				<port id="0" precision="FP16">
					<dim>256</dim>
					<dim>64</dim>
					<dim>1</dim>
					<dim>1</dim>
				</port>
			</output>
		</layer>
		<layer id="30" name="Multiply_83857" type="Convert" version="opset1">
			<data destination_type="f32" />
			<rt_info>
				<attribute name="decompression" version="0" />
			</rt_info>
			<input>
				<port id="0" precision="FP16">
					<dim>256</dim>
					<dim>64</dim>
					<dim>1</dim>
					<dim>1</dim>
				</port>
			</input>
			<output>
				<port id="1" precision="FP32">
					<dim>256</dim>
					<dim>64</dim>
					<dim>1</dim>
					<dim>1</dim>
				</port>
			</output>
		</layer>
		<layer id="31" name="Multiply_81691" type="Convolution" version="opset1">
			<data strides="1, 1" dilations="1, 1" pads_begin="0, 0" pads_end="0, 0" auto_pad="explicit" />
			<input>
				<port id="0" precision="FP32">
					<dim>1</dim>
					<dim>64</dim>
					<dim>16</dim>
					<dim>16</dim>
				</port>
				<port id="1" precision="FP32">
					<dim>256</dim>
					<dim>64</dim>
					<dim>1</dim>
					<dim>1</dim>
				</port>
			</input>
			<output>
				<port id="2" precision="FP32">
					<dim>1</dim>
					<dim>256</dim>
					<dim>16</dim>
					<dim>16</dim>
				</port>
			</output>
		</layer>
		<layer id="32" name="Constant_81696_compressed" type="Const" version="opset1">
			<data element_type="f16" shape="1, 256, 1, 1" offset="192384" size="512" />
			<output>
				<port id="0" precision="FP16">
					<dim>1</dim>
					<dim>256</dim>
					<dim>1</dim>
					<dim>1</dim>
				</port>
			</output>
		</layer>
		<layer id="33" name="Constant_81696" type="Convert" version="opset1">
			<data destination_type="f32" />
			<rt_info>
				<attribute name="decompression" version="0" />
			</rt_info>
			<input>
				<port id="0" precision="FP16">
					<dim>1</dim>
					<dim>256</dim>
					<dim>1</dim>
					<dim>1</dim>
				</port>
			</input>
			<output>
				<port id="1" precision="FP32">
					<dim>1</dim>
					<dim>256</dim>
					<dim>1</dim>
					<dim>1</dim>
				</port>
			</output>
		</layer>
		<layer id="34" name="BatchNormalization_13" type="Add" version="opset1">
			<data auto_broadcast="numpy" />
			<input>
				<port id="0" precision="FP32">
					<dim>1</dim>
					<dim>256</dim>
					<dim>16</dim>
					<dim>16</dim>
				</port>
				<port id="1" precision="FP32">
					<dim>1</dim>
					<dim>256</dim>
					<dim>1</dim>
					<dim>1</dim>
				</port>
			</input>
			<output>
				<port id="2" precision="FP32" names="1853">
					<dim>1</dim>
					<dim>256</dim>
					<dim>16</dim>
					<dim>16</dim>
				</port>
			</output>
		</layer>
		<layer id="35" name="Multiply_83866_compressed" type="Const" version="opset1">
			<data element_type="f16" shape="256, 64, 1, 1" offset="192896" size="32768" />
			<output>
				<port id="0" precision="FP16">
					<dim>256</dim>
					<dim>64</dim>
					<dim>1</dim>
					<dim>1</dim>
				</port>
			</output>
		</layer>
		<layer id="36" name="Multiply_83866" type="Convert" version="opset1">
			<data destination_type="f32" />
			<rt_info>
				<attribute name="decompression" version="0" />
			</rt_info>
			<input>
				<port id="0" precision="FP16">
					<dim>256</dim>
					<dim>64</dim>
					<dim>1</dim>
					<dim>1</dim>
				</port>
			</input>
			<output>
				<port id="1" precision="FP32">
					<dim>256</dim>
					<dim>64</dim>
					<dim>1</dim>
					<dim>1</dim>
				</port>
			</output>
		</layer>
		<layer id="37" name="Multiply_81698" type="Convolution" version="opset1">
			<data strides="1, 1" dilations="1, 1" pads_begin="0, 0" pads_end="0, 0" auto_pad="explicit" />
			<input>
				<port id="0" precision="FP32">
					<dim>1</dim>
					<dim>64</dim>
					<dim>16</dim>
					<dim>16</dim>
				</port>
				<port id="1" precision="FP32">
					<dim>256</dim>
					<dim>64</dim>
					<dim>1</dim>
					<dim>1</dim>
				</port>
			</input>
			<output>
				<port id="2" precision="FP32">
					<dim>1</dim>
					<dim>256</dim>
					<dim>16</dim>
					<dim>16</dim>
				</port>
			</output>
		</layer>
		<layer id="38" name="Constant_81703_compressed" type="Const" version="opset1">
			<data element_type="f16" shape="1, 256, 1, 1" offset="225664" size="512" />
			<output>
				<port id="0" precision="FP16">
					<dim>1</dim>
					<dim>256</dim>
					<dim>1</dim>
					<dim>1</dim>
				</port>
			</output>
		</layer>
		<layer id="39" name="Constant_81703" type="Convert" version="opset1">
			<data destination_type="f32" />
			<rt_info>
				<attribute name="decompression" version="0" />
			</rt_info>
			<input>
				<port id="0" precision="FP16">
					<dim>1</dim>
					<dim>256</dim>
					<dim>1</dim>
					<dim>1</dim>
				</port>
			</input>
			<output>
				<port id="1" precision="FP32">
					<dim>1</dim>
					<dim>256</dim>
					<dim>1</dim>
					<dim>1</dim>
				</port>
			</output>
		</layer>
		<layer id="40" name="BatchNormalization_15" type="Add" version="opset1">
			<data auto_broadcast="numpy" />
			<input>
				<port id="0" precision="FP32">
					<dim>1</dim>
					<dim>256</dim>
					<dim>16</dim>
					<dim>16</dim>
				</port>
				<port id="1" precision="FP32">
					<dim>1</dim>
					<dim>256</dim>
					<dim>1</dim>
					<dim>1</dim>
				</port>
			</input>
			<output>
				<port id="2" precision="FP32" names="1855">
					<dim>1</dim>
					<dim>256</dim>
					<dim>16</dim>
					<dim>16</dim>
				</port>
			</output>
		</layer>
		<layer id="41" name="Add_16" type="Add" version="opset1">
			<data auto_broadcast="numpy" />
			<input>
				<port id="0" precision="FP32">
					<dim>1</dim>
					<dim>256</dim>
					<dim>16</dim>
					<dim>16</dim>
				</port>
				<port id="1" precision="FP32">
					<dim>1</dim>
					<dim>256</dim>
					<dim>16</dim>
					<dim>16</dim>
				</port>
			</input>
			<output>
				<port id="2" precision="FP32" names="1856">
					<dim>1</dim>
					<dim>256</dim>
					<dim>16</dim>
					<dim>16</dim>
				</port>
			</output>
		</layer>
		<layer id="42" name="Relu_17" type="ReLU" version="opset1">
			<input>
				<port id="0" precision="FP32">
					<dim>1</dim>
					<dim>256</dim>
					<dim>16</dim>
					<dim>16</dim>
				</port>
			</input>
			<output>
				<port id="1" precision="FP32" names="1857">
					<dim>1</dim>
					<dim>256</dim>
					<dim>16</dim>
					<dim>16</dim>
				</port>
			</output>
		</layer>
		<layer id="43" name="Multiply_83875_compressed" type="Const" version="opset1">
			<data element_type="f16" shape="64, 256, 1, 1" offset="226176" size="32768" />
			<output>
				<port id="0" precision="FP16">
					<dim>64</dim>
					<dim>256</dim>
					<dim>1</dim>
					<dim>1</dim>
				</port>
			</output>
		</layer>
		<layer id="44" name="Multiply_83875" type="Convert" version="opset1">
			<data destination_type="f32" />
			<rt_info>
				<attribute name="decompression" version="0" />
			</rt_info>
			<input>
				<port id="0" precision="FP16">
					<dim>64</dim>
					<dim>256</dim>
					<dim>1</dim>
					<dim>1</dim>
				</port>
			</input>
			<output>
				<port id="1" precision="FP32">
					<dim>64</dim>
					<dim>256</dim>
					<dim>1</dim>
					<dim>1</dim>
				</port>
			</output>
		</layer>
		<layer id="45" name="Multiply_81705" type="Convolution" version="opset1">
			<data strides="1, 1" dilations="1, 1" pads_begin="0, 0" pads_end="0, 0" auto_pad="explicit" />
			<input>
				<port id="0" precision="FP32">
					<dim>1</dim>
					<dim>256</dim>
					<dim>16</dim>
					<dim>16</dim>
				</port>
				<port id="1" precision="FP32">
					<dim>64</dim>
					<dim>256</dim>
					<dim>1</dim>
					<dim>1</dim>
				</port>
			</input>
			<output>
				<port id="2" precision="FP32">
					<dim>1</dim>
					<dim>64</dim>
					<dim>16</dim>
					<dim>16</dim>
				</port>
			</output>
		</layer>
		<layer id="46" name="Constant_81710_compressed" type="Const" version="opset1">
			<data element_type="f16" shape="1, 64, 1, 1" offset="258944" size="128" />
			<output>
				<port id="0" precision="FP16">
					<dim>1</dim>
					<dim>64</dim>
					<dim>1</dim>
					<dim>1</dim>
				</port>
			</output>
		</layer>
		<layer id="47" name="Constant_81710" type="Convert" version="opset1">
			<data destination_type="f32" />
			<rt_info>
				<attribute name="decompression" version="0" />
			</rt_info>
			<input>
				<port id="0" precision="FP16">
					<dim>1</dim>
					<dim>64</dim>
					<dim>1</dim>
					<dim>1</dim>
				</port>
			</input>
			<output>
				<port id="1" precision="FP32">
					<dim>1</dim>
					<dim>64</dim>
					<dim>1</dim>
					<dim>1</dim>
				</port>
			</output>
		</layer>
		<layer id="48" name="BatchNormalization_19" type="Add" version="opset1">
			<data auto_broadcast="numpy" />
			<input>
				<port id="0" precision="FP32">
					<dim>1</dim>
					<dim>64</dim>
					<dim>16</dim>
					<dim>16</dim>
				</port>
				<port id="1" precision="FP32">
					<dim>1</dim>
					<dim>64</dim>
					<dim>1</dim>
					<dim>1</dim>
				</port>
			</input>
			<output>
				<port id="2" precision="FP32" names="1859">
					<dim>1</dim>
					<dim>64</dim>
					<dim>16</dim>
					<dim>16</dim>
				</port>
			</output>
		</layer>
		<layer id="49" name="Relu_20" type="ReLU" version="opset1">
			<input>
				<port id="0" precision="FP32">
					<dim>1</dim>
					<dim>64</dim>
					<dim>16</dim>
					<dim>16</dim>
				</port>
			</input>
			<output>
				<port id="1" precision="FP32" names="1860">
					<dim>1</dim>
					<dim>64</dim>
					<dim>16</dim>
					<dim>16</dim>
				</port>
			</output>
		</layer>
		<layer id="50" name="Multiply_83884_compressed" type="Const" version="opset1">
			<data element_type="f16" shape="64, 64, 3, 3" offset="259072" size="73728" />
			<output>
				<port id="0" precision="FP16">
					<dim>64</dim>
					<dim>64</dim>
					<dim>3</dim>
					<dim>3</dim>
				</port>
			</output>
		</layer>
		<layer id="51" name="Multiply_83884" type="Convert" version="opset1">
			<data destination_type="f32" />
			<rt_info>
				<attribute name="decompression" version="0" />
			</rt_info>
			<input>
				<port id="0" precision="FP16">
					<dim>64</dim>
					<dim>64</dim>
					<dim>3</dim>
					<dim>3</dim>
				</port>
			</input>
			<output>
				<port id="1" precision="FP32">
					<dim>64</dim>
					<dim>64</dim>
					<dim>3</dim>
					<dim>3</dim>
				</port>
			</output>
		</layer>
		<layer id="52" name="Multiply_81712" type="Convolution" version="opset1">
			<data strides="1, 1" dilations="1, 1" pads_begin="1, 1" pads_end="1, 1" auto_pad="explicit" />
			<input>
				<port id="0" precision="FP32">
					<dim>1</dim>
					<dim>64</dim>
					<dim>16</dim>
					<dim>16</dim>
				</port>
				<port id="1" precision="FP32">
					<dim>64</dim>
					<dim>64</dim>
					<dim>3</dim>
					<dim>3</dim>
				</port>
			</input>
			<output>
				<port id="2" precision="FP32">
					<dim>1</dim>
					<dim>64</dim>
					<dim>16</dim>
					<dim>16</dim>
				</port>
			</output>
		</layer>
		<layer id="53" name="Constant_81717_compressed" type="Const" version="opset1">
			<data element_type="f16" shape="1, 64, 1, 1" offset="332800" size="128" />
			<output>
				<port id="0" precision="FP16">
					<dim>1</dim>
					<dim>64</dim>
					<dim>1</dim>
					<dim>1</dim>
				</port>
			</output>
		</layer>
		<layer id="54" name="Constant_81717" type="Convert" version="opset1">
			<data destination_type="f32" />
			<rt_info>
				<attribute name="decompression" version="0" />
			</rt_info>
			<input>
				<port id="0" precision="FP16">
					<dim>1</dim>
					<dim>64</dim>
					<dim>1</dim>
					<dim>1</dim>
				</port>
			</input>
			<output>
				<port id="1" precision="FP32">
					<dim>1</dim>
					<dim>64</dim>
					<dim>1</dim>
					<dim>1</dim>
				</port>
			</output>
		</layer>
		<layer id="55" name="BatchNormalization_22" type="Add" version="opset1">
			<data auto_broadcast="numpy" />
			<input>
				<port id="0" precision="FP32">
					<dim>1</dim>
					<dim>64</dim>
					<dim>16</dim>
					<dim>16</dim>
				</port>
				<port id="1" precision="FP32">
					<dim>1</dim>
					<dim>64</dim>
					<dim>1</dim>
					<dim>1</dim>
				</port>
			</input>
			<output>
				<port id="2" precision="FP32" names="1862">
					<dim>1</dim>
					<dim>64</dim>
					<dim>16</dim>
					<dim>16</dim>
				</port>
			</output>
		</layer>
		<layer id="56" name="Relu_23" type="ReLU" version="opset1">
			<input>
				<port id="0" precision="FP32">
					<dim>1</dim>
					<dim>64</dim>
					<dim>16</dim>
					<dim>16</dim>
				</port>
			</input>
			<output>
				<port id="1" precision="FP32" names="1863">
					<dim>1</dim>
					<dim>64</dim>
					<dim>16</dim>
					<dim>16</dim>
				</port>
			</output>
		</layer>
		<layer id="57" name="Multiply_83893_compressed" type="Const" version="opset1">
			<data element_type="f16" shape="256, 64, 1, 1" offset="332928" size="32768" />
			<output>
				<port id="0" precision="FP16">
					<dim>256</dim>
					<dim>64</dim>
					<dim>1</dim>
					<dim>1</dim>
				</port>
			</output>
		</layer>
		<layer id="58" name="Multiply_83893" type="Convert" version="opset1">
			<data destination_type="f32" />
			<rt_info>
				<attribute name="decompression" version="0" />
			</rt_info>
			<input>
				<port id="0" precision="FP16">
					<dim>256</dim>
					<dim>64</dim>
					<dim>1</dim>
					<dim>1</dim>
				</port>
			</input>
			<output>
				<port id="1" precision="FP32">
					<dim>256</dim>
					<dim>64</dim>
					<dim>1</dim>
					<dim>1</dim>
				</port>
			</output>
		</layer>
		<layer id="59" name="Multiply_81719" type="Convolution" version="opset1">
			<data strides="1, 1" dilations="1, 1" pads_begin="0, 0" pads_end="0, 0" auto_pad="explicit" />
			<input>
				<port id="0" precision="FP32">
					<dim>1</dim>
					<dim>64</dim>
					<dim>16</dim>
					<dim>16</dim>
				</port>
				<port id="1" precision="FP32">
					<dim>256</dim>
					<dim>64</dim>
					<dim>1</dim>
					<dim>1</dim>
				</port>
			</input>
			<output>
				<port id="2" precision="FP32">
					<dim>1</dim>
					<dim>256</dim>
					<dim>16</dim>
					<dim>16</dim>
				</port>
			</output>
		</layer>
		<layer id="60" name="Constant_81724_compressed" type="Const" version="opset1">
			<data element_type="f16" shape="1, 256, 1, 1" offset="365696" size="512" />
			<output>
				<port id="0" precision="FP16">
					<dim>1</dim>
					<dim>256</dim>
					<dim>1</dim>
					<dim>1</dim>
				</port>
			</output>
		</layer>
		<layer id="61" name="Constant_81724" type="Convert" version="opset1">
			<data destination_type="f32" />
			<rt_info>
				<attribute name="decompression" version="0" />
			</rt_info>
			<input>
				<port id="0" precision="FP16">
					<dim>1</dim>
					<dim>256</dim>
					<dim>1</dim>
					<dim>1</dim>
				</port>
			</input>
			<output>
				<port id="1" precision="FP32">
					<dim>1</dim>
					<dim>256</dim>
					<dim>1</dim>
					<dim>1</dim>
				</port>
			</output>
		</layer>
		<layer id="62" name="BatchNormalization_25" type="Add" version="opset1">
			<data auto_broadcast="numpy" />
			<input>
				<port id="0" precision="FP32">
					<dim>1</dim>
					<dim>256</dim>
					<dim>16</dim>
					<dim>16</dim>
				</port>
				<port id="1" precision="FP32">
					<dim>1</dim>
					<dim>256</dim>
					<dim>1</dim>
					<dim>1</dim>
				</port>
			</input>
			<output>
				<port id="2" precision="FP32" names="1865">
					<dim>1</dim>
					<dim>256</dim>
					<dim>16</dim>
					<dim>16</dim>
				</port>
			</output>
		</layer>
		<layer id="63" name="Add_26" type="Add" version="opset1">
			<data auto_broadcast="numpy" />
			<input>
				<port id="0" precision="FP32">
					<dim>1</dim>
					<dim>256</dim>
					<dim>16</dim>
					<dim>16</dim>
				</port>
				<port id="1" precision="FP32">
					<dim>1</dim>
					<dim>256</dim>
					<dim>16</dim>
					<dim>16</dim>
				</port>
			</input>
			<output>
				<port id="2" precision="FP32" names="1866">
					<dim>1</dim>
					<dim>256</dim>
					<dim>16</dim>
					<dim>16</dim>
				</port>
			</output>
		</layer>
		<layer id="64" name="Relu_27" type="ReLU" version="opset1">
			<input>
				<port id="0" precision="FP32">
					<dim>1</dim>
					<dim>256</dim>
					<dim>16</dim>
					<dim>16</dim>
				</port>
			</input>
			<output>
				<port id="1" precision="FP32" names="1867">
					<dim>1</dim>
					<dim>256</dim>
					<dim>16</dim>
					<dim>16</dim>
				</port>
			</output>
		</layer>
		<layer id="65" name="Multiply_83902_compressed" type="Const" version="opset1">
			<data element_type="f16" shape="64, 256, 1, 1" offset="366208" size="32768" />
			<output>
				<port id="0" precision="FP16">
					<dim>64</dim>
					<dim>256</dim>
					<dim>1</dim>
					<dim>1</dim>
				</port>
			</output>
		</layer>
		<layer id="66" name="Multiply_83902" type="Convert" version="opset1">
			<data destination_type="f32" />
			<rt_info>
				<attribute name="decompression" version="0" />
			</rt_info>
			<input>
				<port id="0" precision="FP16">
					<dim>64</dim>
					<dim>256</dim>
					<dim>1</dim>
					<dim>1</dim>
				</port>
			</input>
			<output>
				<port id="1" precision="FP32">
					<dim>64</dim>
					<dim>256</dim>
					<dim>1</dim>
					<dim>1</dim>
				</port>
			</output>
		</layer>
		<layer id="67" name="Multiply_81726" type="Convolution" version="opset1">
			<data strides="1, 1" dilations="1, 1" pads_begin="0, 0" pads_end="0, 0" auto_pad="explicit" />
			<input>
				<port id="0" precision="FP32">
					<dim>1</dim>
					<dim>256</dim>
					<dim>16</dim>
					<dim>16</dim>
				</port>
				<port id="1" precision="FP32">
					<dim>64</dim>
					<dim>256</dim>
					<dim>1</dim>
					<dim>1</dim>
				</port>
			</input>
			<output>
				<port id="2" precision="FP32">
					<dim>1</dim>
					<dim>64</dim>
					<dim>16</dim>
					<dim>16</dim>
				</port>
			</output>
		</layer>
		<layer id="68" name="Constant_81731_compressed" type="Const" version="opset1">
			<data element_type="f16" shape="1, 64, 1, 1" offset="398976" size="128" />
			<output>
				<port id="0" precision="FP16">
					<dim>1</dim>
					<dim>64</dim>
					<dim>1</dim>
					<dim>1</dim>
				</port>
			</output>
		</layer>
		<layer id="69" name="Constant_81731" type="Convert" version="opset1">
			<data destination_type="f32" />
			<rt_info>
				<attribute name="decompression" version="0" />
			</rt_info>
			<input>
				<port id="0" precision="FP16">
					<dim>1</dim>
					<dim>64</dim>
					<dim>1</dim>
					<dim>1</dim>
				</port>
			</input>
			<output>
				<port id="1" precision="FP32">
					<dim>1</dim>
					<dim>64</dim>
					<dim>1</dim>
					<dim>1</dim>
				</port>
			</output>
		</layer>
		<layer id="70" name="BatchNormalization_29" type="Add" version="opset1">
			<data auto_broadcast="numpy" />
			<input>
				<port id="0" precision="FP32">
					<dim>1</dim>
					<dim>64</dim>
					<dim>16</dim>
					<dim>16</dim>
				</port>
				<port id="1" precision="FP32">
					<dim>1</dim>
					<dim>64</dim>
					<dim>1</dim>
					<dim>1</dim>
				</port>
			</input>
			<output>
				<port id="2" precision="FP32" names="1869">
					<dim>1</dim>
					<dim>64</dim>
					<dim>16</dim>
					<dim>16</dim>
				</port>
			</output>
		</layer>
		<layer id="71" name="Relu_30" type="ReLU" version="opset1">
			<input>
				<port id="0" precision="FP32">
					<dim>1</dim>
					<dim>64</dim>
					<dim>16</dim>
					<dim>16</dim>
				</port>
			</input>
			<output>
				<port id="1" precision="FP32" names="1870">
					<dim>1</dim>
					<dim>64</dim>
					<dim>16</dim>
					<dim>16</dim>
				</port>
			</output>
		</layer>
		<layer id="72" name="Multiply_83911_compressed" type="Const" version="opset1">
			<data element_type="f16" shape="64, 64, 3, 3" offset="399104" size="73728" />
			<output>
				<port id="0" precision="FP16">
					<dim>64</dim>
					<dim>64</dim>
					<dim>3</dim>
					<dim>3</dim>
				</port>
			</output>
		</layer>
		<layer id="73" name="Multiply_83911" type="Convert" version="opset1">
			<data destination_type="f32" />
			<rt_info>
				<attribute name="decompression" version="0" />
			</rt_info>
			<input>
				<port id="0" precision="FP16">
					<dim>64</dim>
					<dim>64</dim>
					<dim>3</dim>
					<dim>3</dim>
				</port>
			</input>
			<output>
				<port id="1" precision="FP32">
					<dim>64</dim>
					<dim>64</dim>
					<dim>3</dim>
					<dim>3</dim>
				</port>
			</output>
		</layer>
		<layer id="74" name="Multiply_81733" type="Convolution" version="opset1">
			<data strides="1, 1" dilations="1, 1" pads_begin="1, 1" pads_end="1, 1" auto_pad="explicit" />
			<input>
				<port id="0" precision="FP32">
					<dim>1</dim>
					<dim>64</dim>
					<dim>16</dim>
					<dim>16</dim>
				</port>
				<port id="1" precision="FP32">
					<dim>64</dim>
					<dim>64</dim>
					<dim>3</dim>
					<dim>3</dim>
				</port>
			</input>
			<output>
				<port id="2" precision="FP32">
					<dim>1</dim>
					<dim>64</dim>
					<dim>16</dim>
					<dim>16</dim>
				</port>
			</output>
		</layer>
		<layer id="75" name="Constant_81738_compressed" type="Const" version="opset1">
			<data element_type="f16" shape="1, 64, 1, 1" offset="472832" size="128" />
			<output>
				<port id="0" precision="FP16">
					<dim>1</dim>
					<dim>64</dim>
					<dim>1</dim>
					<dim>1</dim>
				</port>
			</output>
		</layer>
		<layer id="76" name="Constant_81738" type="Convert" version="opset1">
			<data destination_type="f32" />
			<rt_info>
				<attribute name="decompression" version="0" />
			</rt_info>
			<input>
				<port id="0" precision="FP16">
					<dim>1</dim>
					<dim>64</dim>
					<dim>1</dim>
					<dim>1</dim>
				</port>
			</input>
			<output>
				<port id="1" precision="FP32">
					<dim>1</dim>
					<dim>64</dim>
					<dim>1</dim>
					<dim>1</dim>
				</port>
			</output>
		</layer>
		<layer id="77" name="BatchNormalization_32" type="Add" version="opset1">
			<data auto_broadcast="numpy" />
			<input>
				<port id="0" precision="FP32">
					<dim>1</dim>
					<dim>64</dim>
					<dim>16</dim>
					<dim>16</dim>
				</port>
				<port id="1" precision="FP32">
					<dim>1</dim>
					<dim>64</dim>
					<dim>1</dim>
					<dim>1</dim>
				</port>
			</input>
			<output>
				<port id="2" precision="FP32" names="1872">
					<dim>1</dim>
					<dim>64</dim>
					<dim>16</dim>
					<dim>16</dim>
				</port>
			</output>
		</layer>
		<layer id="78" name="Relu_33" type="ReLU" version="opset1">
			<input>
				<port id="0" precision="FP32">
					<dim>1</dim>
					<dim>64</dim>
					<dim>16</dim>
					<dim>16</dim>
				</port>
			</input>
			<output>
				<port id="1" precision="FP32" names="1873">
					<dim>1</dim>
					<dim>64</dim>
					<dim>16</dim>
					<dim>16</dim>
				</port>
			</output>
		</layer>
		<layer id="79" name="Multiply_83920_compressed" type="Const" version="opset1">
			<data element_type="f16" shape="256, 64, 1, 1" offset="472960" size="32768" />
			<output>
				<port id="0" precision="FP16">
					<dim>256</dim>
					<dim>64</dim>
					<dim>1</dim>
					<dim>1</dim>
				</port>
			</output>
		</layer>
		<layer id="80" name="Multiply_83920" type="Convert" version="opset1">
			<data destination_type="f32" />
			<rt_info>
				<attribute name="decompression" version="0" />
			</rt_info>
			<input>
				<port id="0" precision="FP16">
					<dim>256</dim>
					<dim>64</dim>
					<dim>1</dim>
					<dim>1</dim>
				</port>
			</input>
			<output>
				<port id="1" precision="FP32">
					<dim>256</dim>
					<dim>64</dim>
					<dim>1</dim>
					<dim>1</dim>
				</port>
			</output>
		</layer>
		<layer id="81" name="Multiply_81740" type="Convolution" version="opset1">
			<data strides="1, 1" dilations="1, 1" pads_begin="0, 0" pads_end="0, 0" auto_pad="explicit" />
			<input>
				<port id="0" precision="FP32">
					<dim>1</dim>
					<dim>64</dim>
					<dim>16</dim>
					<dim>16</dim>
				</port>
				<port id="1" precision="FP32">
					<dim>256</dim>
					<dim>64</dim>
					<dim>1</dim>
					<dim>1</dim>
				</port>
			</input>
			<output>
				<port id="2" precision="FP32">
					<dim>1</dim>
					<dim>256</dim>
					<dim>16</dim>
					<dim>16</dim>
				</port>
			</output>
		</layer>
		<layer id="82" name="Constant_81745_compressed" type="Const" version="opset1">
			<data element_type="f16" shape="1, 256, 1, 1" offset="505728" size="512" />
			<output>
				<port id="0" precision="FP16">
					<dim>1</dim>
					<dim>256</dim>
					<dim>1</dim>
					<dim>1</dim>
				</port>
			</output>
		</layer>
		<layer id="83" name="Constant_81745" type="Convert" version="opset1">
			<data destination_type="f32" />
			<rt_info>
				<attribute name="decompression" version="0" />
			</rt_info>
			<input>
				<port id="0" precision="FP16">
					<dim>1</dim>
					<dim>256</dim>
					<dim>1</dim>
					<dim>1</dim>
				</port>
			</input>
			<output>
				<port id="1" precision="FP32">
					<dim>1</dim>
					<dim>256</dim>
					<dim>1</dim>
					<dim>1</dim>
				</port>
			</output>
		</layer>
		<layer id="84" name="BatchNormalization_35" type="Add" version="opset1">
			<data auto_broadcast="numpy" />
			<input>
				<port id="0" precision="FP32">
					<dim>1</dim>
					<dim>256</dim>
					<dim>16</dim>
					<dim>16</dim>
				</port>
				<port id="1" precision="FP32">
					<dim>1</dim>
					<dim>256</dim>
					<dim>1</dim>
					<dim>1</dim>
				</port>
			</input>
			<output>
				<port id="2" precision="FP32" names="1875">
					<dim>1</dim>
					<dim>256</dim>
					<dim>16</dim>
					<dim>16</dim>
				</port>
			</output>
		</layer>
		<layer id="85" name="Add_36" type="Add" version="opset1">
			<data auto_broadcast="numpy" />
			<input>
				<port id="0" precision="FP32">
					<dim>1</dim>
					<dim>256</dim>
					<dim>16</dim>
					<dim>16</dim>
				</port>
				<port id="1" precision="FP32">
					<dim>1</dim>
					<dim>256</dim>
					<dim>16</dim>
					<dim>16</dim>
				</port>
			</input>
			<output>
				<port id="2" precision="FP32" names="1876">
					<dim>1</dim>
					<dim>256</dim>
					<dim>16</dim>
					<dim>16</dim>
				</port>
			</output>
		</layer>
		<layer id="86" name="Relu_37" type="ReLU" version="opset1">
			<input>
				<port id="0" precision="FP32">
					<dim>1</dim>
					<dim>256</dim>
					<dim>16</dim>
					<dim>16</dim>
				</port>
			</input>
			<output>
				<port id="1" precision="FP32" names="1877">
					<dim>1</dim>
					<dim>256</dim>
					<dim>16</dim>
					<dim>16</dim>
				</port>
			</output>
		</layer>
		<layer id="87" name="Multiply_83929_compressed" type="Const" version="opset1">
			<data element_type="f16" shape="64, 256, 1, 1" offset="506240" size="32768" />
			<output>
				<port id="0" precision="FP16">
					<dim>64</dim>
					<dim>256</dim>
					<dim>1</dim>
					<dim>1</dim>
				</port>
			</output>
		</layer>
		<layer id="88" name="Multiply_83929" type="Convert" version="opset1">
			<data destination_type="f32" />
			<rt_info>
				<attribute name="decompression" version="0" />
			</rt_info>
			<input>
				<port id="0" precision="FP16">
					<dim>64</dim>
					<dim>256</dim>
					<dim>1</dim>
					<dim>1</dim>
				</port>
			</input>
			<output>
				<port id="1" precision="FP32">
					<dim>64</dim>
					<dim>256</dim>
					<dim>1</dim>
					<dim>1</dim>
				</port>
			</output>
		</layer>
		<layer id="89" name="Multiply_81747" type="Convolution" version="opset1">
			<data strides="1, 1" dilations="1, 1" pads_begin="0, 0" pads_end="0, 0" auto_pad="explicit" />
			<input>
				<port id="0" precision="FP32">
					<dim>1</dim>
					<dim>256</dim>
					<dim>16</dim>
					<dim>16</dim>
				</port>
				<port id="1" precision="FP32">
					<dim>64</dim>
					<dim>256</dim>
					<dim>1</dim>
					<dim>1</dim>
				</port>
			</input>
			<output>
				<port id="2" precision="FP32">
					<dim>1</dim>
					<dim>64</dim>
					<dim>16</dim>
					<dim>16</dim>
				</port>
			</output>
		</layer>
		<layer id="90" name="Constant_81752_compressed" type="Const" version="opset1">
			<data element_type="f16" shape="1, 64, 1, 1" offset="539008" size="128" />
			<output>
				<port id="0" precision="FP16">
					<dim>1</dim>
					<dim>64</dim>
					<dim>1</dim>
					<dim>1</dim>
				</port>
			</output>
		</layer>
		<layer id="91" name="Constant_81752" type="Convert" version="opset1">
			<data destination_type="f32" />
			<rt_info>
				<attribute name="decompression" version="0" />
			</rt_info>
			<input>
				<port id="0" precision="FP16">
					<dim>1</dim>
					<dim>64</dim>
					<dim>1</dim>
					<dim>1</dim>
				</port>
			</input>
			<output>
				<port id="1" precision="FP32">
					<dim>1</dim>
					<dim>64</dim>
					<dim>1</dim>
					<dim>1</dim>
				</port>
			</output>
		</layer>
		<layer id="92" name="BatchNormalization_39" type="Add" version="opset1">
			<data auto_broadcast="numpy" />
			<input>
				<port id="0" precision="FP32">
					<dim>1</dim>
					<dim>64</dim>
					<dim>16</dim>
					<dim>16</dim>
				</port>
				<port id="1" precision="FP32">
					<dim>1</dim>
					<dim>64</dim>
					<dim>1</dim>
					<dim>1</dim>
				</port>
			</input>
			<output>
				<port id="2" precision="FP32" names="1879">
					<dim>1</dim>
					<dim>64</dim>
					<dim>16</dim>
					<dim>16</dim>
				</port>
			</output>
		</layer>
		<layer id="93" name="Relu_40" type="ReLU" version="opset1">
			<input>
				<port id="0" precision="FP32">
					<dim>1</dim>
					<dim>64</dim>
					<dim>16</dim>
					<dim>16</dim>
				</port>
			</input>
			<output>
				<port id="1" precision="FP32" names="1880">
					<dim>1</dim>
					<dim>64</dim>
					<dim>16</dim>
					<dim>16</dim>
				</port>
			</output>
		</layer>
		<layer id="94" name="Multiply_83938_compressed" type="Const" version="opset1">
			<data element_type="f16" shape="64, 64, 3, 3" offset="539136" size="73728" />
			<output>
				<port id="0" precision="FP16">
					<dim>64</dim>
					<dim>64</dim>
					<dim>3</dim>
					<dim>3</dim>
				</port>
			</output>
		</layer>
		<layer id="95" name="Multiply_83938" type="Convert" version="opset1">
			<data destination_type="f32" />
			<rt_info>
				<attribute name="decompression" version="0" />
			</rt_info>
			<input>
				<port id="0" precision="FP16">
					<dim>64</dim>
					<dim>64</dim>
					<dim>3</dim>
					<dim>3</dim>
				</port>
			</input>
			<output>
				<port id="1" precision="FP32">
					<dim>64</dim>
					<dim>64</dim>
					<dim>3</dim>
					<dim>3</dim>
				</port>
			</output>
		</layer>
		<layer id="96" name="Multiply_81754" type="Convolution" version="opset1">
			<data strides="1, 1" dilations="1, 1" pads_begin="1, 1" pads_end="1, 1" auto_pad="explicit" />
			<input>
				<port id="0" precision="FP32">
					<dim>1</dim>
					<dim>64</dim>
					<dim>16</dim>
					<dim>16</dim>
				</port>
				<port id="1" precision="FP32">
					<dim>64</dim>
					<dim>64</dim>
					<dim>3</dim>
					<dim>3</dim>
				</port>
			</input>
			<output>
				<port id="2" precision="FP32">
					<dim>1</dim>
					<dim>64</dim>
					<dim>16</dim>
					<dim>16</dim>
				</port>
			</output>
		</layer>
		<layer id="97" name="Constant_81759_compressed" type="Const" version="opset1">
			<data element_type="f16" shape="1, 64, 1, 1" offset="612864" size="128" />
			<output>
				<port id="0" precision="FP16">
					<dim>1</dim>
					<dim>64</dim>
					<dim>1</dim>
					<dim>1</dim>
				</port>
			</output>
		</layer>
		<layer id="98" name="Constant_81759" type="Convert" version="opset1">
			<data destination_type="f32" />
			<rt_info>
				<attribute name="decompression" version="0" />
			</rt_info>
			<input>
				<port id="0" precision="FP16">
					<dim>1</dim>
					<dim>64</dim>
					<dim>1</dim>
					<dim>1</dim>
				</port>
			</input>
			<output>
				<port id="1" precision="FP32">
					<dim>1</dim>
					<dim>64</dim>
					<dim>1</dim>
					<dim>1</dim>
				</port>
			</output>
		</layer>
		<layer id="99" name="BatchNormalization_42" type="Add" version="opset1">
			<data auto_broadcast="numpy" />
			<input>
				<port id="0" precision="FP32">
					<dim>1</dim>
					<dim>64</dim>
					<dim>16</dim>
					<dim>16</dim>
				</port>
				<port id="1" precision="FP32">
					<dim>1</dim>
					<dim>64</dim>
					<dim>1</dim>
					<dim>1</dim>
				</port>
			</input>
			<output>
				<port id="2" precision="FP32" names="1882">
					<dim>1</dim>
					<dim>64</dim>
					<dim>16</dim>
					<dim>16</dim>
				</port>
			</output>
		</layer>
		<layer id="100" name="Relu_43" type="ReLU" version="opset1">
			<input>
				<port id="0" precision="FP32">
					<dim>1</dim>
					<dim>64</dim>
					<dim>16</dim>
					<dim>16</dim>
				</port>
			</input>
			<output>
				<port id="1" precision="FP32" names="1883">
					<dim>1</dim>
					<dim>64</dim>
					<dim>16</dim>
					<dim>16</dim>
				</port>
			</output>
		</layer>
		<layer id="101" name="Multiply_83947_compressed" type="Const" version="opset1">
			<data element_type="f16" shape="256, 64, 1, 1" offset="612992" size="32768" />
			<output>
				<port id="0" precision="FP16">
					<dim>256</dim>
					<dim>64</dim>
					<dim>1</dim>
					<dim>1</dim>
				</port>
			</output>
		</layer>
		<layer id="102" name="Multiply_83947" type="Convert" version="opset1">
			<data destination_type="f32" />
			<rt_info>
				<attribute name="decompression" version="0" />
			</rt_info>
			<input>
				<port id="0" precision="FP16">
					<dim>256</dim>
					<dim>64</dim>
					<dim>1</dim>
					<dim>1</dim>
				</port>
			</input>
			<output>
				<port id="1" precision="FP32">
					<dim>256</dim>
					<dim>64</dim>
					<dim>1</dim>
					<dim>1</dim>
				</port>
			</output>
		</layer>
		<layer id="103" name="Multiply_81761" type="Convolution" version="opset1">
			<data strides="1, 1" dilations="1, 1" pads_begin="0, 0" pads_end="0, 0" auto_pad="explicit" />
			<input>
				<port id="0" precision="FP32">
					<dim>1</dim>
					<dim>64</dim>
					<dim>16</dim>
					<dim>16</dim>
				</port>
				<port id="1" precision="FP32">
					<dim>256</dim>
					<dim>64</dim>
					<dim>1</dim>
					<dim>1</dim>
				</port>
			</input>
			<output>
				<port id="2" precision="FP32">
					<dim>1</dim>
					<dim>256</dim>
					<dim>16</dim>
					<dim>16</dim>
				</port>
			</output>
		</layer>
		<layer id="104" name="Constant_81766_compressed" type="Const" version="opset1">
			<data element_type="f16" shape="1, 256, 1, 1" offset="645760" size="512" />
			<output>
				<port id="0" precision="FP16">
					<dim>1</dim>
					<dim>256</dim>
					<dim>1</dim>
					<dim>1</dim>
				</port>
			</output>
		</layer>
		<layer id="105" name="Constant_81766" type="Convert" version="opset1">
			<data destination_type="f32" />
			<rt_info>
				<attribute name="decompression" version="0" />
			</rt_info>
			<input>
				<port id="0" precision="FP16">
					<dim>1</dim>
					<dim>256</dim>
					<dim>1</dim>
					<dim>1</dim>
				</port>
			</input>
			<output>
				<port id="1" precision="FP32">
					<dim>1</dim>
					<dim>256</dim>
					<dim>1</dim>
					<dim>1</dim>
				</port>
			</output>
		</layer>
		<layer id="106" name="BatchNormalization_45" type="Add" version="opset1">
			<data auto_broadcast="numpy" />
			<input>
				<port id="0" precision="FP32">
					<dim>1</dim>
					<dim>256</dim>
					<dim>16</dim>
					<dim>16</dim>
				</port>
				<port id="1" precision="FP32">
					<dim>1</dim>
					<dim>256</dim>
					<dim>1</dim>
					<dim>1</dim>
				</port>
			</input>
			<output>
				<port id="2" precision="FP32" names="1885">
					<dim>1</dim>
					<dim>256</dim>
					<dim>16</dim>
					<dim>16</dim>
				</port>
			</output>
		</layer>
		<layer id="107" name="Add_46" type="Add" version="opset1">
			<data auto_broadcast="numpy" />
			<input>
				<port id="0" precision="FP32">
					<dim>1</dim>
					<dim>256</dim>
					<dim>16</dim>
					<dim>16</dim>
				</port>
				<port id="1" precision="FP32">
					<dim>1</dim>
					<dim>256</dim>
					<dim>16</dim>
					<dim>16</dim>
				</port>
			</input>
			<output>
				<port id="2" precision="FP32" names="1886">
					<dim>1</dim>
					<dim>256</dim>
					<dim>16</dim>
					<dim>16</dim>
				</port>
			</output>
		</layer>
		<layer id="108" name="Relu_47" type="ReLU" version="opset1">
			<input>
				<port id="0" precision="FP32">
					<dim>1</dim>
					<dim>256</dim>
					<dim>16</dim>
					<dim>16</dim>
				</port>
			</input>
			<output>
				<port id="1" precision="FP32" names="1887">
					<dim>1</dim>
					<dim>256</dim>
					<dim>16</dim>
					<dim>16</dim>
				</port>
			</output>
		</layer>
		<layer id="109" name="Multiply_83956_compressed" type="Const" version="opset1">
			<data element_type="f16" shape="18, 256, 3, 3" offset="646272" size="82944" />
			<output>
				<port id="0" precision="FP16">
					<dim>18</dim>
					<dim>256</dim>
					<dim>3</dim>
					<dim>3</dim>
				</port>
			</output>
		</layer>
		<layer id="110" name="Multiply_83956" type="Convert" version="opset1">
			<data destination_type="f32" />
			<rt_info>
				<attribute name="decompression" version="0" />
			</rt_info>
			<input>
				<port id="0" precision="FP16">
					<dim>18</dim>
					<dim>256</dim>
					<dim>3</dim>
					<dim>3</dim>
				</port>
			</input>
			<output>
				<port id="1" precision="FP32">
					<dim>18</dim>
					<dim>256</dim>
					<dim>3</dim>
					<dim>3</dim>
				</port>
			</output>
		</layer>
		<layer id="111" name="Multiply_81768" type="Convolution" version="opset1">
			<data strides="1, 1" dilations="1, 1" pads_begin="1, 1" pads_end="1, 1" auto_pad="explicit" />
			<input>
				<port id="0" precision="FP32">
					<dim>1</dim>
					<dim>256</dim>
					<dim>16</dim>
					<dim>16</dim>
				</port>
				<port id="1" precision="FP32">
					<dim>18</dim>
					<dim>256</dim>
					<dim>3</dim>
					<dim>3</dim>
				</port>
			</input>
			<output>
				<port id="2" precision="FP32">
					<dim>1</dim>
					<dim>18</dim>
					<dim>16</dim>
					<dim>16</dim>
				</port>
			</output>
		</layer>
		<layer id="112" name="Constant_81773_compressed" type="Const" version="opset1">
			<data element_type="f16" shape="1, 18, 1, 1" offset="729216" size="36" />
			<output>
				<port id="0" precision="FP16">
					<dim>1</dim>
					<dim>18</dim>
					<dim>1</dim>
					<dim>1</dim>
				</port>
			</output>
		</layer>
		<layer id="113" name="Constant_81773" type="Convert" version="opset1">
			<data destination_type="f32" />
			<rt_info>
				<attribute name="decompression" version="0" />
			</rt_info>
			<input>
				<port id="0" precision="FP16">
					<dim>1</dim>
					<dim>18</dim>
					<dim>1</dim>
					<dim>1</dim>
				</port>
			</input>
			<output>
				<port id="1" precision="FP32">
					<dim>1</dim>
					<dim>18</dim>
					<dim>1</dim>
					<dim>1</dim>
				</port>
			</output>
		</layer>
		<layer id="114" name="BatchNormalization_49" type="Add" version="opset1">
			<data auto_broadcast="numpy" />
			<input>
				<port id="0" precision="FP32">
					<dim>1</dim>
					<dim>18</dim>
					<dim>16</dim>
					<dim>16</dim>
				</port>
				<port id="1" precision="FP32">
					<dim>1</dim>
					<dim>18</dim>
					<dim>1</dim>
					<dim>1</dim>
				</port>
			</input>
			<output>
				<port id="2" precision="FP32" names="1889">
					<dim>1</dim>
					<dim>18</dim>
					<dim>16</dim>
					<dim>16</dim>
				</port>
			</output>
		</layer>
		<layer id="115" name="Relu_50" type="ReLU" version="opset1">
			<input>
				<port id="0" precision="FP32">
					<dim>1</dim>
					<dim>18</dim>
					<dim>16</dim>
					<dim>16</dim>
				</port>
			</input>
			<output>
				<port id="1" precision="FP32" names="1890">
					<dim>1</dim>
					<dim>18</dim>
					<dim>16</dim>
					<dim>16</dim>
				</port>
			</output>
		</layer>
		<layer id="116" name="Multiply_83965_compressed" type="Const" version="opset1">
			<data element_type="f16" shape="18, 18, 3, 3" offset="729252" size="5832" />
			<output>
				<port id="0" precision="FP16">
					<dim>18</dim>
					<dim>18</dim>
					<dim>3</dim>
					<dim>3</dim>
				</port>
			</output>
		</layer>
		<layer id="117" name="Multiply_83965" type="Convert" version="opset1">
			<data destination_type="f32" />
			<rt_info>
				<attribute name="decompression" version="0" />
			</rt_info>
			<input>
				<port id="0" precision="FP16">
					<dim>18</dim>
					<dim>18</dim>
					<dim>3</dim>
					<dim>3</dim>
				</port>
			</input>
			<output>
				<port id="1" precision="FP32">
					<dim>18</dim>
					<dim>18</dim>
					<dim>3</dim>
					<dim>3</dim>
				</port>
			</output>
		</layer>
		<layer id="118" name="Multiply_81775" type="Convolution" version="opset1">
			<data strides="1, 1" dilations="1, 1" pads_begin="1, 1" pads_end="1, 1" auto_pad="explicit" />
			<input>
				<port id="0" precision="FP32">
					<dim>1</dim>
					<dim>18</dim>
					<dim>16</dim>
					<dim>16</dim>
				</port>
				<port id="1" precision="FP32">
					<dim>18</dim>
					<dim>18</dim>
					<dim>3</dim>
					<dim>3</dim>
				</port>
			</input>
			<output>
				<port id="2" precision="FP32">
					<dim>1</dim>
					<dim>18</dim>
					<dim>16</dim>
					<dim>16</dim>
				</port>
			</output>
		</layer>
		<layer id="119" name="Constant_81780_compressed" type="Const" version="opset1">
			<data element_type="f16" shape="1, 18, 1, 1" offset="735084" size="36" />
			<output>
				<port id="0" precision="FP16">
					<dim>1</dim>
					<dim>18</dim>
					<dim>1</dim>
					<dim>1</dim>
				</port>
			</output>
		</layer>
		<layer id="120" name="Constant_81780" type="Convert" version="opset1">
			<data destination_type="f32" />
			<rt_info>
				<attribute name="decompression" version="0" />
			</rt_info>
			<input>
				<port id="0" precision="FP16">
					<dim>1</dim>
					<dim>18</dim>
					<dim>1</dim>
					<dim>1</dim>
				</port>
			</input>
			<output>
				<port id="1" precision="FP32">
					<dim>1</dim>
					<dim>18</dim>
					<dim>1</dim>
					<dim>1</dim>
				</port>
			</output>
		</layer>
		<layer id="121" name="BatchNormalization_55" type="Add" version="opset1">
			<data auto_broadcast="numpy" />
			<input>
				<port id="0" precision="FP32">
					<dim>1</dim>
					<dim>18</dim>
					<dim>16</dim>
					<dim>16</dim>
				</port>
				<port id="1" precision="FP32">
					<dim>1</dim>
					<dim>18</dim>
					<dim>1</dim>
					<dim>1</dim>
				</port>
			</input>
			<output>
				<port id="2" precision="FP32" names="1895">
					<dim>1</dim>
					<dim>18</dim>
					<dim>16</dim>
					<dim>16</dim>
				</port>
			</output>
		</layer>
		<layer id="122" name="Relu_56" type="ReLU" version="opset1">
			<input>
				<port id="0" precision="FP32">
					<dim>1</dim>
					<dim>18</dim>
					<dim>16</dim>
					<dim>16</dim>
				</port>
			</input>
			<output>
				<port id="1" precision="FP32" names="1896">
					<dim>1</dim>
					<dim>18</dim>
					<dim>16</dim>
					<dim>16</dim>
				</port>
			</output>
		</layer>
		<layer id="123" name="Multiply_83974_compressed" type="Const" version="opset1">
			<data element_type="f16" shape="18, 18, 3, 3" offset="735120" size="5832" />
			<output>
				<port id="0" precision="FP16">
					<dim>18</dim>
					<dim>18</dim>
					<dim>3</dim>
					<dim>3</dim>
				</port>
			</output>
		</layer>
		<layer id="124" name="Multiply_83974" type="Convert" version="opset1">
			<data destination_type="f32" />
			<rt_info>
				<attribute name="decompression" version="0" />
			</rt_info>
			<input>
				<port id="0" precision="FP16">
					<dim>18</dim>
					<dim>18</dim>
					<dim>3</dim>
					<dim>3</dim>
				</port>
			</input>
			<output>
				<port id="1" precision="FP32">
					<dim>18</dim>
					<dim>18</dim>
					<dim>3</dim>
					<dim>3</dim>
				</port>
			</output>
		</layer>
		<layer id="125" name="Multiply_81782" type="Convolution" version="opset1">
			<data strides="1, 1" dilations="1, 1" pads_begin="1, 1" pads_end="1, 1" auto_pad="explicit" />
			<input>
				<port id="0" precision="FP32">
					<dim>1</dim>
					<dim>18</dim>
					<dim>16</dim>
					<dim>16</dim>
				</port>
				<port id="1" precision="FP32">
					<dim>18</dim>
					<dim>18</dim>
					<dim>3</dim>
					<dim>3</dim>
				</port>
			</input>
			<output>
				<port id="2" precision="FP32">
					<dim>1</dim>
					<dim>18</dim>
					<dim>16</dim>
					<dim>16</dim>
				</port>
			</output>
		</layer>
		<layer id="126" name="Constant_81787_compressed" type="Const" version="opset1">
			<data element_type="f16" shape="1, 18, 1, 1" offset="740952" size="36" />
			<output>
				<port id="0" precision="FP16">
					<dim>1</dim>
					<dim>18</dim>
					<dim>1</dim>
					<dim>1</dim>
				</port>
			</output>
		</layer>
		<layer id="127" name="Constant_81787" type="Convert" version="opset1">
			<data destination_type="f32" />
			<rt_info>
				<attribute name="decompression" version="0" />
			</rt_info>
			<input>
				<port id="0" precision="FP16">
					<dim>1</dim>
					<dim>18</dim>
					<dim>1</dim>
					<dim>1</dim>
				</port>
			</input>
			<output>
				<port id="1" precision="FP32">
					<dim>1</dim>
					<dim>18</dim>
					<dim>1</dim>
					<dim>1</dim>
				</port>
			</output>
		</layer>
		<layer id="128" name="BatchNormalization_58" type="Add" version="opset1">
			<data auto_broadcast="numpy" />
			<input>
				<port id="0" precision="FP32">
					<dim>1</dim>
					<dim>18</dim>
					<dim>16</dim>
					<dim>16</dim>
				</port>
				<port id="1" precision="FP32">
					<dim>1</dim>
					<dim>18</dim>
					<dim>1</dim>
					<dim>1</dim>
				</port>
			</input>
			<output>
				<port id="2" precision="FP32" names="1898">
					<dim>1</dim>
					<dim>18</dim>
					<dim>16</dim>
					<dim>16</dim>
				</port>
			</output>
		</layer>
		<layer id="129" name="Add_59" type="Add" version="opset1">
			<data auto_broadcast="numpy" />
			<input>
				<port id="0" precision="FP32">
					<dim>1</dim>
					<dim>18</dim>
					<dim>16</dim>
					<dim>16</dim>
				</port>
				<port id="1" precision="FP32">
					<dim>1</dim>
					<dim>18</dim>
					<dim>16</dim>
					<dim>16</dim>
				</port>
			</input>
			<output>
				<port id="2" precision="FP32" names="1899">
					<dim>1</dim>
					<dim>18</dim>
					<dim>16</dim>
					<dim>16</dim>
				</port>
			</output>
		</layer>
		<layer id="130" name="Relu_60" type="ReLU" version="opset1">
			<input>
				<port id="0" precision="FP32">
					<dim>1</dim>
					<dim>18</dim>
					<dim>16</dim>
					<dim>16</dim>
				</port>
			</input>
			<output>
				<port id="1" precision="FP32" names="1900">
					<dim>1</dim>
					<dim>18</dim>
					<dim>16</dim>
					<dim>16</dim>
				</port>
			</output>
		</layer>
		<layer id="131" name="Multiply_83983_compressed" type="Const" version="opset1">
			<data element_type="f16" shape="18, 18, 3, 3" offset="740988" size="5832" />
			<output>
				<port id="0" precision="FP16">
					<dim>18</dim>
					<dim>18</dim>
					<dim>3</dim>
					<dim>3</dim>
				</port>
			</output>
		</layer>
		<layer id="132" name="Multiply_83983" type="Convert" version="opset1">
			<data destination_type="f32" />
			<rt_info>
				<attribute name="decompression" version="0" />
			</rt_info>
			<input>
				<port id="0" precision="FP16">
					<dim>18</dim>
					<dim>18</dim>
					<dim>3</dim>
					<dim>3</dim>
				</port>
			</input>
			<output>
				<port id="1" precision="FP32">
					<dim>18</dim>
					<dim>18</dim>
					<dim>3</dim>
					<dim>3</dim>
				</port>
			</output>
		</layer>
		<layer id="133" name="Multiply_81789" type="Convolution" version="opset1">
			<data strides="1, 1" dilations="1, 1" pads_begin="1, 1" pads_end="1, 1" auto_pad="explicit" />
			<input>
				<port id="0" precision="FP32">
					<dim>1</dim>
					<dim>18</dim>
					<dim>16</dim>
					<dim>16</dim>
				</port>
				<port id="1" precision="FP32">
					<dim>18</dim>
					<dim>18</dim>
					<dim>3</dim>
					<dim>3</dim>
				</port>
			</input>
			<output>
				<port id="2" precision="FP32">
					<dim>1</dim>
					<dim>18</dim>
					<dim>16</dim>
					<dim>16</dim>
				</port>
			</output>
		</layer>
		<layer id="134" name="Constant_81794_compressed" type="Const" version="opset1">
			<data element_type="f16" shape="1, 18, 1, 1" offset="746820" size="36" />
			<output>
				<port id="0" precision="FP16">
					<dim>1</dim>
					<dim>18</dim>
					<dim>1</dim>
					<dim>1</dim>
				</port>
			</output>
		</layer>
		<layer id="135" name="Constant_81794" type="Convert" version="opset1">
			<data destination_type="f32" />
			<rt_info>
				<attribute name="decompression" version="0" />
			</rt_info>
			<input>
				<port id="0" precision="FP16">
					<dim>1</dim>
					<dim>18</dim>
					<dim>1</dim>
					<dim>1</dim>
				</port>
			</input>
			<output>
				<port id="1" precision="FP32">
					<dim>1</dim>
					<dim>18</dim>
					<dim>1</dim>
					<dim>1</dim>
				</port>
			</output>
		</layer>
		<layer id="136" name="BatchNormalization_62" type="Add" version="opset1">
			<data auto_broadcast="numpy" />
			<input>
				<port id="0" precision="FP32">
					<dim>1</dim>
					<dim>18</dim>
					<dim>16</dim>
					<dim>16</dim>
				</port>
				<port id="1" precision="FP32">
					<dim>1</dim>
					<dim>18</dim>
					<dim>1</dim>
					<dim>1</dim>
				</port>
			</input>
			<output>
				<port id="2" precision="FP32" names="1902">
					<dim>1</dim>
					<dim>18</dim>
					<dim>16</dim>
					<dim>16</dim>
				</port>
			</output>
		</layer>
		<layer id="137" name="Relu_63" type="ReLU" version="opset1">
			<input>
				<port id="0" precision="FP32">
					<dim>1</dim>
					<dim>18</dim>
					<dim>16</dim>
					<dim>16</dim>
				</port>
			</input>
			<output>
				<port id="1" precision="FP32" names="1903">
					<dim>1</dim>
					<dim>18</dim>
					<dim>16</dim>
					<dim>16</dim>
				</port>
			</output>
		</layer>
		<layer id="138" name="Multiply_83992_compressed" type="Const" version="opset1">
			<data element_type="f16" shape="18, 18, 3, 3" offset="746856" size="5832" />
			<output>
				<port id="0" precision="FP16">
					<dim>18</dim>
					<dim>18</dim>
					<dim>3</dim>
					<dim>3</dim>
				</port>
			</output>
		</layer>
		<layer id="139" name="Multiply_83992" type="Convert" version="opset1">
			<data destination_type="f32" />
			<rt_info>
				<attribute name="decompression" version="0" />
			</rt_info>
			<input>
				<port id="0" precision="FP16">
					<dim>18</dim>
					<dim>18</dim>
					<dim>3</dim>
					<dim>3</dim>
				</port>
			</input>
			<output>
				<port id="1" precision="FP32">
					<dim>18</dim>
					<dim>18</dim>
					<dim>3</dim>
					<dim>3</dim>
				</port>
			</output>
		</layer>
		<layer id="140" name="Multiply_81796" type="Convolution" version="opset1">
			<data strides="1, 1" dilations="1, 1" pads_begin="1, 1" pads_end="1, 1" auto_pad="explicit" />
			<input>
				<port id="0" precision="FP32">
					<dim>1</dim>
					<dim>18</dim>
					<dim>16</dim>
					<dim>16</dim>
				</port>
				<port id="1" precision="FP32">
					<dim>18</dim>
					<dim>18</dim>
					<dim>3</dim>
					<dim>3</dim>
				</port>
			</input>
			<output>
				<port id="2" precision="FP32">
					<dim>1</dim>
					<dim>18</dim>
					<dim>16</dim>
					<dim>16</dim>
				</port>
			</output>
		</layer>
		<layer id="141" name="Constant_81801_compressed" type="Const" version="opset1">
			<data element_type="f16" shape="1, 18, 1, 1" offset="752688" size="36" />
			<output>
				<port id="0" precision="FP16">
					<dim>1</dim>
					<dim>18</dim>
					<dim>1</dim>
					<dim>1</dim>
				</port>
			</output>
		</layer>
		<layer id="142" name="Constant_81801" type="Convert" version="opset1">
			<data destination_type="f32" />
			<rt_info>
				<attribute name="decompression" version="0" />
			</rt_info>
			<input>
				<port id="0" precision="FP16">
					<dim>1</dim>
					<dim>18</dim>
					<dim>1</dim>
					<dim>1</dim>
				</port>
			</input>
			<output>
				<port id="1" precision="FP32">
					<dim>1</dim>
					<dim>18</dim>
					<dim>1</dim>
					<dim>1</dim>
				</port>
			</output>
		</layer>
		<layer id="143" name="BatchNormalization_65" type="Add" version="opset1">
			<data auto_broadcast="numpy" />
			<input>
				<port id="0" precision="FP32">
					<dim>1</dim>
					<dim>18</dim>
					<dim>16</dim>
					<dim>16</dim>
				</port>
				<port id="1" precision="FP32">
					<dim>1</dim>
					<dim>18</dim>
					<dim>1</dim>
					<dim>1</dim>
				</port>
			</input>
			<output>
				<port id="2" precision="FP32" names="1905">
					<dim>1</dim>
					<dim>18</dim>
					<dim>16</dim>
					<dim>16</dim>
				</port>
			</output>
		</layer>
		<layer id="144" name="Add_66" type="Add" version="opset1">
			<data auto_broadcast="numpy" />
			<input>
				<port id="0" precision="FP32">
					<dim>1</dim>
					<dim>18</dim>
					<dim>16</dim>
					<dim>16</dim>
				</port>
				<port id="1" precision="FP32">
					<dim>1</dim>
					<dim>18</dim>
					<dim>16</dim>
					<dim>16</dim>
				</port>
			</input>
			<output>
				<port id="2" precision="FP32" names="1906">
					<dim>1</dim>
					<dim>18</dim>
					<dim>16</dim>
					<dim>16</dim>
				</port>
			</output>
		</layer>
		<layer id="145" name="Relu_67" type="ReLU" version="opset1">
			<input>
				<port id="0" precision="FP32">
					<dim>1</dim>
					<dim>18</dim>
					<dim>16</dim>
					<dim>16</dim>
				</port>
			</input>
			<output>
				<port id="1" precision="FP32" names="1907">
					<dim>1</dim>
					<dim>18</dim>
					<dim>16</dim>
					<dim>16</dim>
				</port>
			</output>
		</layer>
		<layer id="146" name="Multiply_84001_compressed" type="Const" version="opset1">
			<data element_type="f16" shape="18, 18, 3, 3" offset="752724" size="5832" />
			<output>
				<port id="0" precision="FP16">
					<dim>18</dim>
					<dim>18</dim>
					<dim>3</dim>
					<dim>3</dim>
				</port>
			</output>
		</layer>
		<layer id="147" name="Multiply_84001" type="Convert" version="opset1">
			<data destination_type="f32" />
			<rt_info>
				<attribute name="decompression" version="0" />
			</rt_info>
			<input>
				<port id="0" precision="FP16">
					<dim>18</dim>
					<dim>18</dim>
					<dim>3</dim>
					<dim>3</dim>
				</port>
			</input>
			<output>
				<port id="1" precision="FP32">
					<dim>18</dim>
					<dim>18</dim>
					<dim>3</dim>
					<dim>3</dim>
				</port>
			</output>
		</layer>
		<layer id="148" name="Multiply_81803" type="Convolution" version="opset1">
			<data strides="1, 1" dilations="1, 1" pads_begin="1, 1" pads_end="1, 1" auto_pad="explicit" />
			<input>
				<port id="0" precision="FP32">
					<dim>1</dim>
					<dim>18</dim>
					<dim>16</dim>
					<dim>16</dim>
				</port>
				<port id="1" precision="FP32">
					<dim>18</dim>
					<dim>18</dim>
					<dim>3</dim>
					<dim>3</dim>
				</port>
			</input>
			<output>
				<port id="2" precision="FP32">
					<dim>1</dim>
					<dim>18</dim>
					<dim>16</dim>
					<dim>16</dim>
				</port>
			</output>
		</layer>
		<layer id="149" name="Constant_81808_compressed" type="Const" version="opset1">
			<data element_type="f16" shape="1, 18, 1, 1" offset="758556" size="36" />
			<output>
				<port id="0" precision="FP16">
					<dim>1</dim>
					<dim>18</dim>
					<dim>1</dim>
					<dim>1</dim>
				</port>
			</output>
		</layer>
		<layer id="150" name="Constant_81808" type="Convert" version="opset1">
			<data destination_type="f32" />
			<rt_info>
				<attribute name="decompression" version="0" />
			</rt_info>
			<input>
				<port id="0" precision="FP16">
					<dim>1</dim>
					<dim>18</dim>
					<dim>1</dim>
					<dim>1</dim>
				</port>
			</input>
			<output>
				<port id="1" precision="FP32">
					<dim>1</dim>
					<dim>18</dim>
					<dim>1</dim>
					<dim>1</dim>
				</port>
			</output>
		</layer>
		<layer id="151" name="BatchNormalization_69" type="Add" version="opset1">
			<data auto_broadcast="numpy" />
			<input>
				<port id="0" precision="FP32">
					<dim>1</dim>
					<dim>18</dim>
					<dim>16</dim>
					<dim>16</dim>
				</port>
				<port id="1" precision="FP32">
					<dim>1</dim>
					<dim>18</dim>
					<dim>1</dim>
					<dim>1</dim>
				</port>
			</input>
			<output>
				<port id="2" precision="FP32" names="1909">
					<dim>1</dim>
					<dim>18</dim>
					<dim>16</dim>
					<dim>16</dim>
				</port>
			</output>
		</layer>
		<layer id="152" name="Relu_70" type="ReLU" version="opset1">
			<input>
				<port id="0" precision="FP32">
					<dim>1</dim>
					<dim>18</dim>
					<dim>16</dim>
					<dim>16</dim>
				</port>
			</input>
			<output>
				<port id="1" precision="FP32" names="1910">
					<dim>1</dim>
					<dim>18</dim>
					<dim>16</dim>
					<dim>16</dim>
				</port>
			</output>
		</layer>
		<layer id="153" name="Multiply_84010_compressed" type="Const" version="opset1">
			<data element_type="f16" shape="18, 18, 3, 3" offset="758592" size="5832" />
			<output>
				<port id="0" precision="FP16">
					<dim>18</dim>
					<dim>18</dim>
					<dim>3</dim>
					<dim>3</dim>
				</port>
			</output>
		</layer>
		<layer id="154" name="Multiply_84010" type="Convert" version="opset1">
			<data destination_type="f32" />
			<rt_info>
				<attribute name="decompression" version="0" />
			</rt_info>
			<input>
				<port id="0" precision="FP16">
					<dim>18</dim>
					<dim>18</dim>
					<dim>3</dim>
					<dim>3</dim>
				</port>
			</input>
			<output>
				<port id="1" precision="FP32">
					<dim>18</dim>
					<dim>18</dim>
					<dim>3</dim>
					<dim>3</dim>
				</port>
			</output>
		</layer>
		<layer id="155" name="Multiply_81810" type="Convolution" version="opset1">
			<data strides="1, 1" dilations="1, 1" pads_begin="1, 1" pads_end="1, 1" auto_pad="explicit" />
			<input>
				<port id="0" precision="FP32">
					<dim>1</dim>
					<dim>18</dim>
					<dim>16</dim>
					<dim>16</dim>
				</port>
				<port id="1" precision="FP32">
					<dim>18</dim>
					<dim>18</dim>
					<dim>3</dim>
					<dim>3</dim>
				</port>
			</input>
			<output>
				<port id="2" precision="FP32">
					<dim>1</dim>
					<dim>18</dim>
					<dim>16</dim>
					<dim>16</dim>
				</port>
			</output>
		</layer>
		<layer id="156" name="Constant_81815_compressed" type="Const" version="opset1">
			<data element_type="f16" shape="1, 18, 1, 1" offset="764424" size="36" />
			<output>
				<port id="0" precision="FP16">
					<dim>1</dim>
					<dim>18</dim>
					<dim>1</dim>
					<dim>1</dim>
				</port>
			</output>
		</layer>
		<layer id="157" name="Constant_81815" type="Convert" version="opset1">
			<data destination_type="f32" />
			<rt_info>
				<attribute name="decompression" version="0" />
			</rt_info>
			<input>
				<port id="0" precision="FP16">
					<dim>1</dim>
					<dim>18</dim>
					<dim>1</dim>
					<dim>1</dim>
				</port>
			</input>
			<output>
				<port id="1" precision="FP32">
					<dim>1</dim>
					<dim>18</dim>
					<dim>1</dim>
					<dim>1</dim>
				</port>
			</output>
		</layer>
		<layer id="158" name="BatchNormalization_72" type="Add" version="opset1">
			<data auto_broadcast="numpy" />
			<input>
				<port id="0" precision="FP32">
					<dim>1</dim>
					<dim>18</dim>
					<dim>16</dim>
					<dim>16</dim>
				</port>
				<port id="1" precision="FP32">
					<dim>1</dim>
					<dim>18</dim>
					<dim>1</dim>
					<dim>1</dim>
				</port>
			</input>
			<output>
				<port id="2" precision="FP32" names="1912">
					<dim>1</dim>
					<dim>18</dim>
					<dim>16</dim>
					<dim>16</dim>
				</port>
			</output>
		</layer>
		<layer id="159" name="Add_73" type="Add" version="opset1">
			<data auto_broadcast="numpy" />
			<input>
				<port id="0" precision="FP32">
					<dim>1</dim>
					<dim>18</dim>
					<dim>16</dim>
					<dim>16</dim>
				</port>
				<port id="1" precision="FP32">
					<dim>1</dim>
					<dim>18</dim>
					<dim>16</dim>
					<dim>16</dim>
				</port>
			</input>
			<output>
				<port id="2" precision="FP32" names="1913">
					<dim>1</dim>
					<dim>18</dim>
					<dim>16</dim>
					<dim>16</dim>
				</port>
			</output>
		</layer>
		<layer id="160" name="Relu_74" type="ReLU" version="opset1">
			<input>
				<port id="0" precision="FP32">
					<dim>1</dim>
					<dim>18</dim>
					<dim>16</dim>
					<dim>16</dim>
				</port>
			</input>
			<output>
				<port id="1" precision="FP32" names="1914">
					<dim>1</dim>
					<dim>18</dim>
					<dim>16</dim>
					<dim>16</dim>
				</port>
			</output>
		</layer>
		<layer id="161" name="Multiply_84019_compressed" type="Const" version="opset1">
			<data element_type="f16" shape="18, 18, 3, 3" offset="764460" size="5832" />
			<output>
				<port id="0" precision="FP16">
					<dim>18</dim>
					<dim>18</dim>
					<dim>3</dim>
					<dim>3</dim>
				</port>
			</output>
		</layer>
		<layer id="162" name="Multiply_84019" type="Convert" version="opset1">
			<data destination_type="f32" />
			<rt_info>
				<attribute name="decompression" version="0" />
			</rt_info>
			<input>
				<port id="0" precision="FP16">
					<dim>18</dim>
					<dim>18</dim>
					<dim>3</dim>
					<dim>3</dim>
				</port>
			</input>
			<output>
				<port id="1" precision="FP32">
					<dim>18</dim>
					<dim>18</dim>
					<dim>3</dim>
					<dim>3</dim>
				</port>
			</output>
		</layer>
		<layer id="163" name="Multiply_81817" type="Convolution" version="opset1">
			<data strides="1, 1" dilations="1, 1" pads_begin="1, 1" pads_end="1, 1" auto_pad="explicit" />
			<input>
				<port id="0" precision="FP32">
					<dim>1</dim>
					<dim>18</dim>
					<dim>16</dim>
					<dim>16</dim>
				</port>
				<port id="1" precision="FP32">
					<dim>18</dim>
					<dim>18</dim>
					<dim>3</dim>
					<dim>3</dim>
				</port>
			</input>
			<output>
				<port id="2" precision="FP32">
					<dim>1</dim>
					<dim>18</dim>
					<dim>16</dim>
					<dim>16</dim>
				</port>
			</output>
		</layer>
		<layer id="164" name="Constant_81822_compressed" type="Const" version="opset1">
			<data element_type="f16" shape="1, 18, 1, 1" offset="770292" size="36" />
			<output>
				<port id="0" precision="FP16">
					<dim>1</dim>
					<dim>18</dim>
					<dim>1</dim>
					<dim>1</dim>
				</port>
			</output>
		</layer>
		<layer id="165" name="Constant_81822" type="Convert" version="opset1">
			<data destination_type="f32" />
			<rt_info>
				<attribute name="decompression" version="0" />
			</rt_info>
			<input>
				<port id="0" precision="FP16">
					<dim>1</dim>
					<dim>18</dim>
					<dim>1</dim>
					<dim>1</dim>
				</port>
			</input>
			<output>
				<port id="1" precision="FP32">
					<dim>1</dim>
					<dim>18</dim>
					<dim>1</dim>
					<dim>1</dim>
				</port>
			</output>
		</layer>
		<layer id="166" name="BatchNormalization_76" type="Add" version="opset1">
			<data auto_broadcast="numpy" />
			<input>
				<port id="0" precision="FP32">
					<dim>1</dim>
					<dim>18</dim>
					<dim>16</dim>
					<dim>16</dim>
				</port>
				<port id="1" precision="FP32">
					<dim>1</dim>
					<dim>18</dim>
					<dim>1</dim>
					<dim>1</dim>
				</port>
			</input>
			<output>
				<port id="2" precision="FP32" names="1916">
					<dim>1</dim>
					<dim>18</dim>
					<dim>16</dim>
					<dim>16</dim>
				</port>
			</output>
		</layer>
		<layer id="167" name="Relu_77" type="ReLU" version="opset1">
			<input>
				<port id="0" precision="FP32">
					<dim>1</dim>
					<dim>18</dim>
					<dim>16</dim>
					<dim>16</dim>
				</port>
			</input>
			<output>
				<port id="1" precision="FP32" names="1917">
					<dim>1</dim>
					<dim>18</dim>
					<dim>16</dim>
					<dim>16</dim>
				</port>
			</output>
		</layer>
		<layer id="168" name="Multiply_84028_compressed" type="Const" version="opset1">
			<data element_type="f16" shape="18, 18, 3, 3" offset="770328" size="5832" />
			<output>
				<port id="0" precision="FP16">
					<dim>18</dim>
					<dim>18</dim>
					<dim>3</dim>
					<dim>3</dim>
				</port>
			</output>
		</layer>
		<layer id="169" name="Multiply_84028" type="Convert" version="opset1">
			<data destination_type="f32" />
			<rt_info>
				<attribute name="decompression" version="0" />
			</rt_info>
			<input>
				<port id="0" precision="FP16">
					<dim>18</dim>
					<dim>18</dim>
					<dim>3</dim>
					<dim>3</dim>
				</port>
			</input>
			<output>
				<port id="1" precision="FP32">
					<dim>18</dim>
					<dim>18</dim>
					<dim>3</dim>
					<dim>3</dim>
				</port>
			</output>
		</layer>
		<layer id="170" name="Multiply_81824" type="Convolution" version="opset1">
			<data strides="1, 1" dilations="1, 1" pads_begin="1, 1" pads_end="1, 1" auto_pad="explicit" />
			<input>
				<port id="0" precision="FP32">
					<dim>1</dim>
					<dim>18</dim>
					<dim>16</dim>
					<dim>16</dim>
				</port>
				<port id="1" precision="FP32">
					<dim>18</dim>
					<dim>18</dim>
					<dim>3</dim>
					<dim>3</dim>
				</port>
			</input>
			<output>
				<port id="2" precision="FP32">
					<dim>1</dim>
					<dim>18</dim>
					<dim>16</dim>
					<dim>16</dim>
				</port>
			</output>
		</layer>
		<layer id="171" name="Constant_81829_compressed" type="Const" version="opset1">
			<data element_type="f16" shape="1, 18, 1, 1" offset="776160" size="36" />
			<output>
				<port id="0" precision="FP16">
					<dim>1</dim>
					<dim>18</dim>
					<dim>1</dim>
					<dim>1</dim>
				</port>
			</output>
		</layer>
		<layer id="172" name="Constant_81829" type="Convert" version="opset1">
			<data destination_type="f32" />
			<rt_info>
				<attribute name="decompression" version="0" />
			</rt_info>
			<input>
				<port id="0" precision="FP16">
					<dim>1</dim>
					<dim>18</dim>
					<dim>1</dim>
					<dim>1</dim>
				</port>
			</input>
			<output>
				<port id="1" precision="FP32">
					<dim>1</dim>
					<dim>18</dim>
					<dim>1</dim>
					<dim>1</dim>
				</port>
			</output>
		</layer>
		<layer id="173" name="BatchNormalization_79" type="Add" version="opset1">
			<data auto_broadcast="numpy" />
			<input>
				<port id="0" precision="FP32">
					<dim>1</dim>
					<dim>18</dim>
					<dim>16</dim>
					<dim>16</dim>
				</port>
				<port id="1" precision="FP32">
					<dim>1</dim>
					<dim>18</dim>
					<dim>1</dim>
					<dim>1</dim>
				</port>
			</input>
			<output>
				<port id="2" precision="FP32" names="1919">
					<dim>1</dim>
					<dim>18</dim>
					<dim>16</dim>
					<dim>16</dim>
				</port>
			</output>
		</layer>
		<layer id="174" name="Add_80" type="Add" version="opset1">
			<data auto_broadcast="numpy" />
			<input>
				<port id="0" precision="FP32">
					<dim>1</dim>
					<dim>18</dim>
					<dim>16</dim>
					<dim>16</dim>
				</port>
				<port id="1" precision="FP32">
					<dim>1</dim>
					<dim>18</dim>
					<dim>16</dim>
					<dim>16</dim>
				</port>
			</input>
			<output>
				<port id="2" precision="FP32" names="1920">
					<dim>1</dim>
					<dim>18</dim>
					<dim>16</dim>
					<dim>16</dim>
				</port>
			</output>
		</layer>
		<layer id="175" name="Relu_81" type="ReLU" version="opset1">
			<input>
				<port id="0" precision="FP32">
					<dim>1</dim>
					<dim>18</dim>
					<dim>16</dim>
					<dim>16</dim>
				</port>
			</input>
			<output>
				<port id="1" precision="FP32" names="1921,1951">
					<dim>1</dim>
					<dim>18</dim>
					<dim>16</dim>
					<dim>16</dim>
				</port>
			</output>
		</layer>
		<layer id="176" name="Multiply_84037_compressed" type="Const" version="opset1">
			<data element_type="f16" shape="36, 256, 3, 3" offset="776196" size="165888" />
			<output>
				<port id="0" precision="FP16">
					<dim>36</dim>
					<dim>256</dim>
					<dim>3</dim>
					<dim>3</dim>
				</port>
			</output>
		</layer>
		<layer id="177" name="Multiply_84037" type="Convert" version="opset1">
			<data destination_type="f32" />
			<rt_info>
				<attribute name="decompression" version="0" />
			</rt_info>
			<input>
				<port id="0" precision="FP16">
					<dim>36</dim>
					<dim>256</dim>
					<dim>3</dim>
					<dim>3</dim>
				</port>
			</input>
			<output>
				<port id="1" precision="FP32">
					<dim>36</dim>
					<dim>256</dim>
					<dim>3</dim>
					<dim>3</dim>
				</port>
			</output>
		</layer>
		<layer id="178" name="Multiply_81831" type="Convolution" version="opset1">
			<data strides="2, 2" dilations="1, 1" pads_begin="1, 1" pads_end="1, 1" auto_pad="explicit" />
			<input>
				<port id="0" precision="FP32">
					<dim>1</dim>
					<dim>256</dim>
					<dim>16</dim>
					<dim>16</dim>
				</port>
				<port id="1" precision="FP32">
					<dim>36</dim>
					<dim>256</dim>
					<dim>3</dim>
					<dim>3</dim>
				</port>
			</input>
			<output>
				<port id="2" precision="FP32">
					<dim>1</dim>
					<dim>36</dim>
					<dim>8</dim>
					<dim>8</dim>
				</port>
			</output>
		</layer>
		<layer id="179" name="Constant_81836_compressed" type="Const" version="opset1">
			<data element_type="f16" shape="1, 36, 1, 1" offset="942084" size="72" />
			<output>
				<port id="0" precision="FP16">
					<dim>1</dim>
					<dim>36</dim>
					<dim>1</dim>
					<dim>1</dim>
				</port>
			</output>
		</layer>
		<layer id="180" name="Constant_81836" type="Convert" version="opset1">
			<data destination_type="f32" />
			<rt_info>
				<attribute name="decompression" version="0" />
			</rt_info>
			<input>
				<port id="0" precision="FP16">
					<dim>1</dim>
					<dim>36</dim>
					<dim>1</dim>
					<dim>1</dim>
				</port>
			</input>
			<output>
				<port id="1" precision="FP32">
					<dim>1</dim>
					<dim>36</dim>
					<dim>1</dim>
					<dim>1</dim>
				</port>
			</output>
		</layer>
		<layer id="181" name="BatchNormalization_52" type="Add" version="opset1">
			<data auto_broadcast="numpy" />
			<input>
				<port id="0" precision="FP32">
					<dim>1</dim>
					<dim>36</dim>
					<dim>8</dim>
					<dim>8</dim>
				</port>
				<port id="1" precision="FP32">
					<dim>1</dim>
					<dim>36</dim>
					<dim>1</dim>
					<dim>1</dim>
				</port>
			</input>
			<output>
				<port id="2" precision="FP32" names="1892">
					<dim>1</dim>
					<dim>36</dim>
					<dim>8</dim>
					<dim>8</dim>
				</port>
			</output>
		</layer>
		<layer id="182" name="Relu_53" type="ReLU" version="opset1">
			<input>
				<port id="0" precision="FP32">
					<dim>1</dim>
					<dim>36</dim>
					<dim>8</dim>
					<dim>8</dim>
				</port>
			</input>
			<output>
				<port id="1" precision="FP32" names="1893">
					<dim>1</dim>
					<dim>36</dim>
					<dim>8</dim>
					<dim>8</dim>
				</port>
			</output>
		</layer>
		<layer id="183" name="Multiply_84046_compressed" type="Const" version="opset1">
			<data element_type="f16" shape="36, 36, 3, 3" offset="942156" size="23328" />
			<output>
				<port id="0" precision="FP16">
					<dim>36</dim>
					<dim>36</dim>
					<dim>3</dim>
					<dim>3</dim>
				</port>
			</output>
		</layer>
		<layer id="184" name="Multiply_84046" type="Convert" version="opset1">
			<data destination_type="f32" />
			<rt_info>
				<attribute name="decompression" version="0" />
			</rt_info>
			<input>
				<port id="0" precision="FP16">
					<dim>36</dim>
					<dim>36</dim>
					<dim>3</dim>
					<dim>3</dim>
				</port>
			</input>
			<output>
				<port id="1" precision="FP32">
					<dim>36</dim>
					<dim>36</dim>
					<dim>3</dim>
					<dim>3</dim>
				</port>
			</output>
		</layer>
		<layer id="185" name="Multiply_81838" type="Convolution" version="opset1">
			<data strides="1, 1" dilations="1, 1" pads_begin="1, 1" pads_end="1, 1" auto_pad="explicit" />
			<input>
				<port id="0" precision="FP32">
					<dim>1</dim>
					<dim>36</dim>
					<dim>8</dim>
					<dim>8</dim>
				</port>
				<port id="1" precision="FP32">
					<dim>36</dim>
					<dim>36</dim>
					<dim>3</dim>
					<dim>3</dim>
				</port>
			</input>
			<output>
				<port id="2" precision="FP32">
					<dim>1</dim>
					<dim>36</dim>
					<dim>8</dim>
					<dim>8</dim>
				</port>
			</output>
		</layer>
		<layer id="186" name="Constant_81843_compressed" type="Const" version="opset1">
			<data element_type="f16" shape="1, 36, 1, 1" offset="965484" size="72" />
			<output>
				<port id="0" precision="FP16">
					<dim>1</dim>
					<dim>36</dim>
					<dim>1</dim>
					<dim>1</dim>
				</port>
			</output>
		</layer>
		<layer id="187" name="Constant_81843" type="Convert" version="opset1">
			<data destination_type="f32" />
			<rt_info>
				<attribute name="decompression" version="0" />
			</rt_info>
			<input>
				<port id="0" precision="FP16">
					<dim>1</dim>
					<dim>36</dim>
					<dim>1</dim>
					<dim>1</dim>
				</port>
			</input>
			<output>
				<port id="1" precision="FP32">
					<dim>1</dim>
					<dim>36</dim>
					<dim>1</dim>
					<dim>1</dim>
				</port>
			</output>
		</layer>
		<layer id="188" name="BatchNormalization_83" type="Add" version="opset1">
			<data auto_broadcast="numpy" />
			<input>
				<port id="0" precision="FP32">
					<dim>1</dim>
					<dim>36</dim>
					<dim>8</dim>
					<dim>8</dim>
				</port>
				<port id="1" precision="FP32">
					<dim>1</dim>
					<dim>36</dim>
					<dim>1</dim>
					<dim>1</dim>
				</port>
			</input>
			<output>
				<port id="2" precision="FP32" names="1923">
					<dim>1</dim>
					<dim>36</dim>
					<dim>8</dim>
					<dim>8</dim>
				</port>
			</output>
		</layer>
		<layer id="189" name="Relu_84" type="ReLU" version="opset1">
			<input>
				<port id="0" precision="FP32">
					<dim>1</dim>
					<dim>36</dim>
					<dim>8</dim>
					<dim>8</dim>
				</port>
			</input>
			<output>
				<port id="1" precision="FP32" names="1924">
					<dim>1</dim>
					<dim>36</dim>
					<dim>8</dim>
					<dim>8</dim>
				</port>
			</output>
		</layer>
		<layer id="190" name="Multiply_84055_compressed" type="Const" version="opset1">
			<data element_type="f16" shape="36, 36, 3, 3" offset="965556" size="23328" />
			<output>
				<port id="0" precision="FP16">
					<dim>36</dim>
					<dim>36</dim>
					<dim>3</dim>
					<dim>3</dim>
				</port>
			</output>
		</layer>
		<layer id="191" name="Multiply_84055" type="Convert" version="opset1">
			<data destination_type="f32" />
			<rt_info>
				<attribute name="decompression" version="0" />
			</rt_info>
			<input>
				<port id="0" precision="FP16">
					<dim>36</dim>
					<dim>36</dim>
					<dim>3</dim>
					<dim>3</dim>
				</port>
			</input>
			<output>
				<port id="1" precision="FP32">
					<dim>36</dim>
					<dim>36</dim>
					<dim>3</dim>
					<dim>3</dim>
				</port>
			</output>
		</layer>
		<layer id="192" name="Multiply_81845" type="Convolution" version="opset1">
			<data strides="1, 1" dilations="1, 1" pads_begin="1, 1" pads_end="1, 1" auto_pad="explicit" />
			<input>
				<port id="0" precision="FP32">
					<dim>1</dim>
					<dim>36</dim>
					<dim>8</dim>
					<dim>8</dim>
				</port>
				<port id="1" precision="FP32">
					<dim>36</dim>
					<dim>36</dim>
					<dim>3</dim>
					<dim>3</dim>
				</port>
			</input>
			<output>
				<port id="2" precision="FP32">
					<dim>1</dim>
					<dim>36</dim>
					<dim>8</dim>
					<dim>8</dim>
				</port>
			</output>
		</layer>
		<layer id="193" name="Constant_81850_compressed" type="Const" version="opset1">
			<data element_type="f16" shape="1, 36, 1, 1" offset="988884" size="72" />
			<output>
				<port id="0" precision="FP16">
					<dim>1</dim>
					<dim>36</dim>
					<dim>1</dim>
					<dim>1</dim>
				</port>
			</output>
		</layer>
		<layer id="194" name="Constant_81850" type="Convert" version="opset1">
			<data destination_type="f32" />
			<rt_info>
				<attribute name="decompression" version="0" />
			</rt_info>
			<input>
				<port id="0" precision="FP16">
					<dim>1</dim>
					<dim>36</dim>
					<dim>1</dim>
					<dim>1</dim>
				</port>
			</input>
			<output>
				<port id="1" precision="FP32">
					<dim>1</dim>
					<dim>36</dim>
					<dim>1</dim>
					<dim>1</dim>
				</port>
			</output>
		</layer>
		<layer id="195" name="BatchNormalization_86" type="Add" version="opset1">
			<data auto_broadcast="numpy" />
			<input>
				<port id="0" precision="FP32">
					<dim>1</dim>
					<dim>36</dim>
					<dim>8</dim>
					<dim>8</dim>
				</port>
				<port id="1" precision="FP32">
					<dim>1</dim>
					<dim>36</dim>
					<dim>1</dim>
					<dim>1</dim>
				</port>
			</input>
			<output>
				<port id="2" precision="FP32" names="1926">
					<dim>1</dim>
					<dim>36</dim>
					<dim>8</dim>
					<dim>8</dim>
				</port>
			</output>
		</layer>
		<layer id="196" name="Add_87" type="Add" version="opset1">
			<data auto_broadcast="numpy" />
			<input>
				<port id="0" precision="FP32">
					<dim>1</dim>
					<dim>36</dim>
					<dim>8</dim>
					<dim>8</dim>
				</port>
				<port id="1" precision="FP32">
					<dim>1</dim>
					<dim>36</dim>
					<dim>8</dim>
					<dim>8</dim>
				</port>
			</input>
			<output>
				<port id="2" precision="FP32" names="1927">
					<dim>1</dim>
					<dim>36</dim>
					<dim>8</dim>
					<dim>8</dim>
				</port>
			</output>
		</layer>
		<layer id="197" name="Relu_88" type="ReLU" version="opset1">
			<input>
				<port id="0" precision="FP32">
					<dim>1</dim>
					<dim>36</dim>
					<dim>8</dim>
					<dim>8</dim>
				</port>
			</input>
			<output>
				<port id="1" precision="FP32" names="1928">
					<dim>1</dim>
					<dim>36</dim>
					<dim>8</dim>
					<dim>8</dim>
				</port>
			</output>
		</layer>
		<layer id="198" name="Multiply_84064_compressed" type="Const" version="opset1">
			<data element_type="f16" shape="36, 36, 3, 3" offset="988956" size="23328" />
			<output>
				<port id="0" precision="FP16">
					<dim>36</dim>
					<dim>36</dim>
					<dim>3</dim>
					<dim>3</dim>
				</port>
			</output>
		</layer>
		<layer id="199" name="Multiply_84064" type="Convert" version="opset1">
			<data destination_type="f32" />
			<rt_info>
				<attribute name="decompression" version="0" />
			</rt_info>
			<input>
				<port id="0" precision="FP16">
					<dim>36</dim>
					<dim>36</dim>
					<dim>3</dim>
					<dim>3</dim>
				</port>
			</input>
			<output>
				<port id="1" precision="FP32">
					<dim>36</dim>
					<dim>36</dim>
					<dim>3</dim>
					<dim>3</dim>
				</port>
			</output>
		</layer>
		<layer id="200" name="Multiply_81852" type="Convolution" version="opset1">
			<data strides="1, 1" dilations="1, 1" pads_begin="1, 1" pads_end="1, 1" auto_pad="explicit" />
			<input>
				<port id="0" precision="FP32">
					<dim>1</dim>
					<dim>36</dim>
					<dim>8</dim>
					<dim>8</dim>
				</port>
				<port id="1" precision="FP32">
					<dim>36</dim>
					<dim>36</dim>
					<dim>3</dim>
					<dim>3</dim>
				</port>
			</input>
			<output>
				<port id="2" precision="FP32">
					<dim>1</dim>
					<dim>36</dim>
					<dim>8</dim>
					<dim>8</dim>
				</port>
			</output>
		</layer>
		<layer id="201" name="Constant_81857_compressed" type="Const" version="opset1">
			<data element_type="f16" shape="1, 36, 1, 1" offset="1012284" size="72" />
			<output>
				<port id="0" precision="FP16">
					<dim>1</dim>
					<dim>36</dim>
					<dim>1</dim>
					<dim>1</dim>
				</port>
			</output>
		</layer>
		<layer id="202" name="Constant_81857" type="Convert" version="opset1">
			<data destination_type="f32" />
			<rt_info>
				<attribute name="decompression" version="0" />
			</rt_info>
			<input>
				<port id="0" precision="FP16">
					<dim>1</dim>
					<dim>36</dim>
					<dim>1</dim>
					<dim>1</dim>
				</port>
			</input>
			<output>
				<port id="1" precision="FP32">
					<dim>1</dim>
					<dim>36</dim>
					<dim>1</dim>
					<dim>1</dim>
				</port>
			</output>
		</layer>
		<layer id="203" name="BatchNormalization_90" type="Add" version="opset1">
			<data auto_broadcast="numpy" />
			<input>
				<port id="0" precision="FP32">
					<dim>1</dim>
					<dim>36</dim>
					<dim>8</dim>
					<dim>8</dim>
				</port>
				<port id="1" precision="FP32">
					<dim>1</dim>
					<dim>36</dim>
					<dim>1</dim>
					<dim>1</dim>
				</port>
			</input>
			<output>
				<port id="2" precision="FP32" names="1930">
					<dim>1</dim>
					<dim>36</dim>
					<dim>8</dim>
					<dim>8</dim>
				</port>
			</output>
		</layer>
		<layer id="204" name="Relu_91" type="ReLU" version="opset1">
			<input>
				<port id="0" precision="FP32">
					<dim>1</dim>
					<dim>36</dim>
					<dim>8</dim>
					<dim>8</dim>
				</port>
			</input>
			<output>
				<port id="1" precision="FP32" names="1931">
					<dim>1</dim>
					<dim>36</dim>
					<dim>8</dim>
					<dim>8</dim>
				</port>
			</output>
		</layer>
		<layer id="205" name="Multiply_84073_compressed" type="Const" version="opset1">
			<data element_type="f16" shape="36, 36, 3, 3" offset="1012356" size="23328" />
			<output>
				<port id="0" precision="FP16">
					<dim>36</dim>
					<dim>36</dim>
					<dim>3</dim>
					<dim>3</dim>
				</port>
			</output>
		</layer>
		<layer id="206" name="Multiply_84073" type="Convert" version="opset1">
			<data destination_type="f32" />
			<rt_info>
				<attribute name="decompression" version="0" />
			</rt_info>
			<input>
				<port id="0" precision="FP16">
					<dim>36</dim>
					<dim>36</dim>
					<dim>3</dim>
					<dim>3</dim>
				</port>
			</input>
			<output>
				<port id="1" precision="FP32">
					<dim>36</dim>
					<dim>36</dim>
					<dim>3</dim>
					<dim>3</dim>
				</port>
			</output>
		</layer>
		<layer id="207" name="Multiply_81859" type="Convolution" version="opset1">
			<data strides="1, 1" dilations="1, 1" pads_begin="1, 1" pads_end="1, 1" auto_pad="explicit" />
			<input>
				<port id="0" precision="FP32">
					<dim>1</dim>
					<dim>36</dim>
					<dim>8</dim>
					<dim>8</dim>
				</port>
				<port id="1" precision="FP32">
					<dim>36</dim>
					<dim>36</dim>
					<dim>3</dim>
					<dim>3</dim>
				</port>
			</input>
			<output>
				<port id="2" precision="FP32">
					<dim>1</dim>
					<dim>36</dim>
					<dim>8</dim>
					<dim>8</dim>
				</port>
			</output>
		</layer>
		<layer id="208" name="Constant_81864_compressed" type="Const" version="opset1">
			<data element_type="f16" shape="1, 36, 1, 1" offset="1035684" size="72" />
			<output>
				<port id="0" precision="FP16">
					<dim>1</dim>
					<dim>36</dim>
					<dim>1</dim>
					<dim>1</dim>
				</port>
			</output>
		</layer>
		<layer id="209" name="Constant_81864" type="Convert" version="opset1">
			<data destination_type="f32" />
			<rt_info>
				<attribute name="decompression" version="0" />
			</rt_info>
			<input>
				<port id="0" precision="FP16">
					<dim>1</dim>
					<dim>36</dim>
					<dim>1</dim>
					<dim>1</dim>
				</port>
			</input>
			<output>
				<port id="1" precision="FP32">
					<dim>1</dim>
					<dim>36</dim>
					<dim>1</dim>
					<dim>1</dim>
				</port>
			</output>
		</layer>
		<layer id="210" name="BatchNormalization_93" type="Add" version="opset1">
			<data auto_broadcast="numpy" />
			<input>
				<port id="0" precision="FP32">
					<dim>1</dim>
					<dim>36</dim>
					<dim>8</dim>
					<dim>8</dim>
				</port>
				<port id="1" precision="FP32">
					<dim>1</dim>
					<dim>36</dim>
					<dim>1</dim>
					<dim>1</dim>
				</port>
			</input>
			<output>
				<port id="2" precision="FP32" names="1933">
					<dim>1</dim>
					<dim>36</dim>
					<dim>8</dim>
					<dim>8</dim>
				</port>
			</output>
		</layer>
		<layer id="211" name="Add_94" type="Add" version="opset1">
			<data auto_broadcast="numpy" />
			<input>
				<port id="0" precision="FP32">
					<dim>1</dim>
					<dim>36</dim>
					<dim>8</dim>
					<dim>8</dim>
				</port>
				<port id="1" precision="FP32">
					<dim>1</dim>
					<dim>36</dim>
					<dim>8</dim>
					<dim>8</dim>
				</port>
			</input>
			<output>
				<port id="2" precision="FP32" names="1934">
					<dim>1</dim>
					<dim>36</dim>
					<dim>8</dim>
					<dim>8</dim>
				</port>
			</output>
		</layer>
		<layer id="212" name="Relu_95" type="ReLU" version="opset1">
			<input>
				<port id="0" precision="FP32">
					<dim>1</dim>
					<dim>36</dim>
					<dim>8</dim>
					<dim>8</dim>
				</port>
			</input>
			<output>
				<port id="1" precision="FP32" names="1935">
					<dim>1</dim>
					<dim>36</dim>
					<dim>8</dim>
					<dim>8</dim>
				</port>
			</output>
		</layer>
		<layer id="213" name="Multiply_84082_compressed" type="Const" version="opset1">
			<data element_type="f16" shape="36, 36, 3, 3" offset="1035756" size="23328" />
			<output>
				<port id="0" precision="FP16">
					<dim>36</dim>
					<dim>36</dim>
					<dim>3</dim>
					<dim>3</dim>
				</port>
			</output>
		</layer>
		<layer id="214" name="Multiply_84082" type="Convert" version="opset1">
			<data destination_type="f32" />
			<rt_info>
				<attribute name="decompression" version="0" />
			</rt_info>
			<input>
				<port id="0" precision="FP16">
					<dim>36</dim>
					<dim>36</dim>
					<dim>3</dim>
					<dim>3</dim>
				</port>
			</input>
			<output>
				<port id="1" precision="FP32">
					<dim>36</dim>
					<dim>36</dim>
					<dim>3</dim>
					<dim>3</dim>
				</port>
			</output>
		</layer>
		<layer id="215" name="Multiply_81866" type="Convolution" version="opset1">
			<data strides="1, 1" dilations="1, 1" pads_begin="1, 1" pads_end="1, 1" auto_pad="explicit" />
			<input>
				<port id="0" precision="FP32">
					<dim>1</dim>
					<dim>36</dim>
					<dim>8</dim>
					<dim>8</dim>
				</port>
				<port id="1" precision="FP32">
					<dim>36</dim>
					<dim>36</dim>
					<dim>3</dim>
					<dim>3</dim>
				</port>
			</input>
			<output>
				<port id="2" precision="FP32">
					<dim>1</dim>
					<dim>36</dim>
					<dim>8</dim>
					<dim>8</dim>
				</port>
			</output>
		</layer>
		<layer id="216" name="Constant_81871_compressed" type="Const" version="opset1">
			<data element_type="f16" shape="1, 36, 1, 1" offset="1059084" size="72" />
			<output>
				<port id="0" precision="FP16">
					<dim>1</dim>
					<dim>36</dim>
					<dim>1</dim>
					<dim>1</dim>
				</port>
			</output>
		</layer>
		<layer id="217" name="Constant_81871" type="Convert" version="opset1">
			<data destination_type="f32" />
			<rt_info>
				<attribute name="decompression" version="0" />
			</rt_info>
			<input>
				<port id="0" precision="FP16">
					<dim>1</dim>
					<dim>36</dim>
					<dim>1</dim>
					<dim>1</dim>
				</port>
			</input>
			<output>
				<port id="1" precision="FP32">
					<dim>1</dim>
					<dim>36</dim>
					<dim>1</dim>
					<dim>1</dim>
				</port>
			</output>
		</layer>
		<layer id="218" name="BatchNormalization_97" type="Add" version="opset1">
			<data auto_broadcast="numpy" />
			<input>
				<port id="0" precision="FP32">
					<dim>1</dim>
					<dim>36</dim>
					<dim>8</dim>
					<dim>8</dim>
				</port>
				<port id="1" precision="FP32">
					<dim>1</dim>
					<dim>36</dim>
					<dim>1</dim>
					<dim>1</dim>
				</port>
			</input>
			<output>
				<port id="2" precision="FP32" names="1937">
					<dim>1</dim>
					<dim>36</dim>
					<dim>8</dim>
					<dim>8</dim>
				</port>
			</output>
		</layer>
		<layer id="219" name="Relu_98" type="ReLU" version="opset1">
			<input>
				<port id="0" precision="FP32">
					<dim>1</dim>
					<dim>36</dim>
					<dim>8</dim>
					<dim>8</dim>
				</port>
			</input>
			<output>
				<port id="1" precision="FP32" names="1938">
					<dim>1</dim>
					<dim>36</dim>
					<dim>8</dim>
					<dim>8</dim>
				</port>
			</output>
		</layer>
		<layer id="220" name="Multiply_84091_compressed" type="Const" version="opset1">
			<data element_type="f16" shape="36, 36, 3, 3" offset="1059156" size="23328" />
			<output>
				<port id="0" precision="FP16">
					<dim>36</dim>
					<dim>36</dim>
					<dim>3</dim>
					<dim>3</dim>
				</port>
			</output>
		</layer>
		<layer id="221" name="Multiply_84091" type="Convert" version="opset1">
			<data destination_type="f32" />
			<rt_info>
				<attribute name="decompression" version="0" />
			</rt_info>
			<input>
				<port id="0" precision="FP16">
					<dim>36</dim>
					<dim>36</dim>
					<dim>3</dim>
					<dim>3</dim>
				</port>
			</input>
			<output>
				<port id="1" precision="FP32">
					<dim>36</dim>
					<dim>36</dim>
					<dim>3</dim>
					<dim>3</dim>
				</port>
			</output>
		</layer>
		<layer id="222" name="Multiply_81873" type="Convolution" version="opset1">
			<data strides="1, 1" dilations="1, 1" pads_begin="1, 1" pads_end="1, 1" auto_pad="explicit" />
			<input>
				<port id="0" precision="FP32">
					<dim>1</dim>
					<dim>36</dim>
					<dim>8</dim>
					<dim>8</dim>
				</port>
				<port id="1" precision="FP32">
					<dim>36</dim>
					<dim>36</dim>
					<dim>3</dim>
					<dim>3</dim>
				</port>
			</input>
			<output>
				<port id="2" precision="FP32">
					<dim>1</dim>
					<dim>36</dim>
					<dim>8</dim>
					<dim>8</dim>
				</port>
			</output>
		</layer>
		<layer id="223" name="Constant_81878_compressed" type="Const" version="opset1">
			<data element_type="f16" shape="1, 36, 1, 1" offset="1082484" size="72" />
			<output>
				<port id="0" precision="FP16">
					<dim>1</dim>
					<dim>36</dim>
					<dim>1</dim>
					<dim>1</dim>
				</port>
			</output>
		</layer>
		<layer id="224" name="Constant_81878" type="Convert" version="opset1">
			<data destination_type="f32" />
			<rt_info>
				<attribute name="decompression" version="0" />
			</rt_info>
			<input>
				<port id="0" precision="FP16">
					<dim>1</dim>
					<dim>36</dim>
					<dim>1</dim>
					<dim>1</dim>
				</port>
			</input>
			<output>
				<port id="1" precision="FP32">
					<dim>1</dim>
					<dim>36</dim>
					<dim>1</dim>
					<dim>1</dim>
				</port>
			</output>
		</layer>
		<layer id="225" name="BatchNormalization_100" type="Add" version="opset1">
			<data auto_broadcast="numpy" />
			<input>
				<port id="0" precision="FP32">
					<dim>1</dim>
					<dim>36</dim>
					<dim>8</dim>
					<dim>8</dim>
				</port>
				<port id="1" precision="FP32">
					<dim>1</dim>
					<dim>36</dim>
					<dim>1</dim>
					<dim>1</dim>
				</port>
			</input>
			<output>
				<port id="2" precision="FP32" names="1940">
					<dim>1</dim>
					<dim>36</dim>
					<dim>8</dim>
					<dim>8</dim>
				</port>
			</output>
		</layer>
		<layer id="226" name="Add_101" type="Add" version="opset1">
			<data auto_broadcast="numpy" />
			<input>
				<port id="0" precision="FP32">
					<dim>1</dim>
					<dim>36</dim>
					<dim>8</dim>
					<dim>8</dim>
				</port>
				<port id="1" precision="FP32">
					<dim>1</dim>
					<dim>36</dim>
					<dim>8</dim>
					<dim>8</dim>
				</port>
			</input>
			<output>
				<port id="2" precision="FP32" names="1941">
					<dim>1</dim>
					<dim>36</dim>
					<dim>8</dim>
					<dim>8</dim>
				</port>
			</output>
		</layer>
		<layer id="227" name="Relu_102" type="ReLU" version="opset1">
			<input>
				<port id="0" precision="FP32">
					<dim>1</dim>
					<dim>36</dim>
					<dim>8</dim>
					<dim>8</dim>
				</port>
			</input>
			<output>
				<port id="1" precision="FP32" names="1942">
					<dim>1</dim>
					<dim>36</dim>
					<dim>8</dim>
					<dim>8</dim>
				</port>
			</output>
		</layer>
		<layer id="228" name="Multiply_84100_compressed" type="Const" version="opset1">
			<data element_type="f16" shape="36, 36, 3, 3" offset="1082556" size="23328" />
			<output>
				<port id="0" precision="FP16">
					<dim>36</dim>
					<dim>36</dim>
					<dim>3</dim>
					<dim>3</dim>
				</port>
			</output>
		</layer>
		<layer id="229" name="Multiply_84100" type="Convert" version="opset1">
			<data destination_type="f32" />
			<rt_info>
				<attribute name="decompression" version="0" />
			</rt_info>
			<input>
				<port id="0" precision="FP16">
					<dim>36</dim>
					<dim>36</dim>
					<dim>3</dim>
					<dim>3</dim>
				</port>
			</input>
			<output>
				<port id="1" precision="FP32">
					<dim>36</dim>
					<dim>36</dim>
					<dim>3</dim>
					<dim>3</dim>
				</port>
			</output>
		</layer>
		<layer id="230" name="Multiply_81880" type="Convolution" version="opset1">
			<data strides="1, 1" dilations="1, 1" pads_begin="1, 1" pads_end="1, 1" auto_pad="explicit" />
			<input>
				<port id="0" precision="FP32">
					<dim>1</dim>
					<dim>36</dim>
					<dim>8</dim>
					<dim>8</dim>
				</port>
				<port id="1" precision="FP32">
					<dim>36</dim>
					<dim>36</dim>
					<dim>3</dim>
					<dim>3</dim>
				</port>
			</input>
			<output>
				<port id="2" precision="FP32">
					<dim>1</dim>
					<dim>36</dim>
					<dim>8</dim>
					<dim>8</dim>
				</port>
			</output>
		</layer>
		<layer id="231" name="Constant_81885_compressed" type="Const" version="opset1">
			<data element_type="f16" shape="1, 36, 1, 1" offset="1105884" size="72" />
			<output>
				<port id="0" precision="FP16">
					<dim>1</dim>
					<dim>36</dim>
					<dim>1</dim>
					<dim>1</dim>
				</port>
			</output>
		</layer>
		<layer id="232" name="Constant_81885" type="Convert" version="opset1">
			<data destination_type="f32" />
			<rt_info>
				<attribute name="decompression" version="0" />
			</rt_info>
			<input>
				<port id="0" precision="FP16">
					<dim>1</dim>
					<dim>36</dim>
					<dim>1</dim>
					<dim>1</dim>
				</port>
			</input>
			<output>
				<port id="1" precision="FP32">
					<dim>1</dim>
					<dim>36</dim>
					<dim>1</dim>
					<dim>1</dim>
				</port>
			</output>
		</layer>
		<layer id="233" name="BatchNormalization_104" type="Add" version="opset1">
			<data auto_broadcast="numpy" />
			<input>
				<port id="0" precision="FP32">
					<dim>1</dim>
					<dim>36</dim>
					<dim>8</dim>
					<dim>8</dim>
				</port>
				<port id="1" precision="FP32">
					<dim>1</dim>
					<dim>36</dim>
					<dim>1</dim>
					<dim>1</dim>
				</port>
			</input>
			<output>
				<port id="2" precision="FP32" names="1944">
					<dim>1</dim>
					<dim>36</dim>
					<dim>8</dim>
					<dim>8</dim>
				</port>
			</output>
		</layer>
		<layer id="234" name="Relu_105" type="ReLU" version="opset1">
			<input>
				<port id="0" precision="FP32">
					<dim>1</dim>
					<dim>36</dim>
					<dim>8</dim>
					<dim>8</dim>
				</port>
			</input>
			<output>
				<port id="1" precision="FP32" names="1945">
					<dim>1</dim>
					<dim>36</dim>
					<dim>8</dim>
					<dim>8</dim>
				</port>
			</output>
		</layer>
		<layer id="235" name="Multiply_84109_compressed" type="Const" version="opset1">
			<data element_type="f16" shape="36, 36, 3, 3" offset="1105956" size="23328" />
			<output>
				<port id="0" precision="FP16">
					<dim>36</dim>
					<dim>36</dim>
					<dim>3</dim>
					<dim>3</dim>
				</port>
			</output>
		</layer>
		<layer id="236" name="Multiply_84109" type="Convert" version="opset1">
			<data destination_type="f32" />
			<rt_info>
				<attribute name="decompression" version="0" />
			</rt_info>
			<input>
				<port id="0" precision="FP16">
					<dim>36</dim>
					<dim>36</dim>
					<dim>3</dim>
					<dim>3</dim>
				</port>
			</input>
			<output>
				<port id="1" precision="FP32">
					<dim>36</dim>
					<dim>36</dim>
					<dim>3</dim>
					<dim>3</dim>
				</port>
			</output>
		</layer>
		<layer id="237" name="Multiply_81887" type="Convolution" version="opset1">
			<data strides="1, 1" dilations="1, 1" pads_begin="1, 1" pads_end="1, 1" auto_pad="explicit" />
			<input>
				<port id="0" precision="FP32">
					<dim>1</dim>
					<dim>36</dim>
					<dim>8</dim>
					<dim>8</dim>
				</port>
				<port id="1" precision="FP32">
					<dim>36</dim>
					<dim>36</dim>
					<dim>3</dim>
					<dim>3</dim>
				</port>
			</input>
			<output>
				<port id="2" precision="FP32">
					<dim>1</dim>
					<dim>36</dim>
					<dim>8</dim>
					<dim>8</dim>
				</port>
			</output>
		</layer>
		<layer id="238" name="Constant_81892_compressed" type="Const" version="opset1">
			<data element_type="f16" shape="1, 36, 1, 1" offset="1129284" size="72" />
			<output>
				<port id="0" precision="FP16">
					<dim>1</dim>
					<dim>36</dim>
					<dim>1</dim>
					<dim>1</dim>
				</port>
			</output>
		</layer>
		<layer id="239" name="Constant_81892" type="Convert" version="opset1">
			<data destination_type="f32" />
			<rt_info>
				<attribute name="decompression" version="0" />
			</rt_info>
			<input>
				<port id="0" precision="FP16">
					<dim>1</dim>
					<dim>36</dim>
					<dim>1</dim>
					<dim>1</dim>
				</port>
			</input>
			<output>
				<port id="1" precision="FP32">
					<dim>1</dim>
					<dim>36</dim>
					<dim>1</dim>
					<dim>1</dim>
				</port>
			</output>
		</layer>
		<layer id="240" name="BatchNormalization_107" type="Add" version="opset1">
			<data auto_broadcast="numpy" />
			<input>
				<port id="0" precision="FP32">
					<dim>1</dim>
					<dim>36</dim>
					<dim>8</dim>
					<dim>8</dim>
				</port>
				<port id="1" precision="FP32">
					<dim>1</dim>
					<dim>36</dim>
					<dim>1</dim>
					<dim>1</dim>
				</port>
			</input>
			<output>
				<port id="2" precision="FP32" names="1947">
					<dim>1</dim>
					<dim>36</dim>
					<dim>8</dim>
					<dim>8</dim>
				</port>
			</output>
		</layer>
		<layer id="241" name="Add_108" type="Add" version="opset1">
			<data auto_broadcast="numpy" />
			<input>
				<port id="0" precision="FP32">
					<dim>1</dim>
					<dim>36</dim>
					<dim>8</dim>
					<dim>8</dim>
				</port>
				<port id="1" precision="FP32">
					<dim>1</dim>
					<dim>36</dim>
					<dim>8</dim>
					<dim>8</dim>
				</port>
			</input>
			<output>
				<port id="2" precision="FP32" names="1948">
					<dim>1</dim>
					<dim>36</dim>
					<dim>8</dim>
					<dim>8</dim>
				</port>
			</output>
		</layer>
		<layer id="242" name="Relu_109" type="ReLU" version="opset1">
			<input>
				<port id="0" precision="FP32">
					<dim>1</dim>
					<dim>36</dim>
					<dim>8</dim>
					<dim>8</dim>
				</port>
			</input>
			<output>
				<port id="1" precision="FP32" names="1949">
					<dim>1</dim>
					<dim>36</dim>
					<dim>8</dim>
					<dim>8</dim>
				</port>
			</output>
		</layer>
		<layer id="243" name="Multiply_84118_compressed" type="Const" version="opset1">
			<data element_type="f16" shape="18, 36, 1, 1" offset="1129356" size="1296" />
			<output>
				<port id="0" precision="FP16">
					<dim>18</dim>
					<dim>36</dim>
					<dim>1</dim>
					<dim>1</dim>
				</port>
			</output>
		</layer>
		<layer id="244" name="Multiply_84118" type="Convert" version="opset1">
			<data destination_type="f32" />
			<rt_info>
				<attribute name="decompression" version="0" />
			</rt_info>
			<input>
				<port id="0" precision="FP16">
					<dim>18</dim>
					<dim>36</dim>
					<dim>1</dim>
					<dim>1</dim>
				</port>
			</input>
			<output>
				<port id="1" precision="FP32">
					<dim>18</dim>
					<dim>36</dim>
					<dim>1</dim>
					<dim>1</dim>
				</port>
			</output>
		</layer>
		<layer id="245" name="Multiply_81894" type="Convolution" version="opset1">
			<data strides="1, 1" dilations="1, 1" pads_begin="0, 0" pads_end="0, 0" auto_pad="explicit" />
			<input>
				<port id="0" precision="FP32">
					<dim>1</dim>
					<dim>36</dim>
					<dim>8</dim>
					<dim>8</dim>
				</port>
				<port id="1" precision="FP32">
					<dim>18</dim>
					<dim>36</dim>
					<dim>1</dim>
					<dim>1</dim>
				</port>
			</input>
			<output>
				<port id="2" precision="FP32">
					<dim>1</dim>
					<dim>18</dim>
					<dim>8</dim>
					<dim>8</dim>
				</port>
			</output>
		</layer>
		<layer id="246" name="Constant_81899_compressed" type="Const" version="opset1">
			<data element_type="f16" shape="1, 18, 1, 1" offset="1130652" size="36" />
			<output>
				<port id="0" precision="FP16">
					<dim>1</dim>
					<dim>18</dim>
					<dim>1</dim>
					<dim>1</dim>
				</port>
			</output>
		</layer>
		<layer id="247" name="Constant_81899" type="Convert" version="opset1">
			<data destination_type="f32" />
			<rt_info>
				<attribute name="decompression" version="0" />
			</rt_info>
			<input>
				<port id="0" precision="FP16">
					<dim>1</dim>
					<dim>18</dim>
					<dim>1</dim>
					<dim>1</dim>
				</port>
			</input>
			<output>
				<port id="1" precision="FP32">
					<dim>1</dim>
					<dim>18</dim>
					<dim>1</dim>
					<dim>1</dim>
				</port>
			</output>
		</layer>
		<layer id="248" name="BatchNormalization_113" type="Add" version="opset1">
			<data auto_broadcast="numpy" />
			<input>
				<port id="0" precision="FP32">
					<dim>1</dim>
					<dim>18</dim>
					<dim>8</dim>
					<dim>8</dim>
				</port>
				<port id="1" precision="FP32">
					<dim>1</dim>
					<dim>18</dim>
					<dim>1</dim>
					<dim>1</dim>
				</port>
			</input>
			<output>
				<port id="2" precision="FP32" names="1953">
					<dim>1</dim>
					<dim>18</dim>
					<dim>8</dim>
					<dim>8</dim>
				</port>
			</output>
		</layer>
		<layer id="249" name="Shape_134" type="ShapeOf" version="opset3">
			<data output_type="i64" />
			<input>
				<port id="0" precision="FP32">
					<dim>1</dim>
					<dim>18</dim>
					<dim>8</dim>
					<dim>8</dim>
				</port>
			</input>
			<output>
				<port id="1" precision="I64" names="1954,1962,1974">
					<dim>4</dim>
				</port>
			</output>
		</layer>
		<layer id="250" name="Constant_136" type="Const" version="opset1">
			<data element_type="i64" shape="1" offset="1130688" size="8" />
			<output>
				<port id="0" precision="I64" names="1976">
					<dim>1</dim>
				</port>
			</output>
		</layer>
		<layer id="251" name="Constant_137" type="Const" version="opset1">
			<data element_type="i64" shape="1" offset="1130696" size="8" />
			<output>
				<port id="0" precision="I64" names="1977">
					<dim>1</dim>
				</port>
			</output>
		</layer>
		<layer id="252" name="Broadcast_1716" type="Const" version="opset1">
			<data element_type="i64" shape="1" offset="1130704" size="8" />
			<output>
				<port id="0" precision="I64">
					<dim>1</dim>
				</port>
			</output>
		</layer>
		<layer id="253" name="Slice_138" type="StridedSlice" version="opset1">
			<data begin_mask="0" end_mask="0" new_axis_mask="" shrink_axis_mask="" ellipsis_mask="" />
			<input>
				<port id="0" precision="I64">
					<dim>4</dim>
				</port>
				<port id="1" precision="I64">
					<dim>1</dim>
				</port>
				<port id="2" precision="I64">
					<dim>1</dim>
				</port>
				<port id="3" precision="I64">
					<dim>1</dim>
				</port>
			</input>
			<output>
				<port id="4" precision="I64" names="1978">
					<dim>2</dim>
				</port>
			</output>
		</layer>
		<layer id="254" name="Constant_115" type="Const" version="opset1">
			<data element_type="i64" shape="" offset="1130696" size="8" />
			<output>
				<port id="0" precision="I64" names="1955" />
			</output>
		</layer>
		<layer id="255" name="Constant_1688" type="Const" version="opset1">
			<data element_type="i64" shape="" offset="1130688" size="8" />
			<output>
				<port id="0" precision="I64" />
			</output>
		</layer>
		<layer id="256" name="Gather_116" type="Gather" version="opset8">
			<data batch_dims="0" />
			<input>
				<port id="0" precision="I64">
					<dim>4</dim>
				</port>
				<port id="1" precision="I64" />
				<port id="2" precision="I64" />
			</input>
			<output>
				<port id="3" precision="I64" names="1956" />
			</output>
		</layer>
		<layer id="257" name="Cast_117" type="Convert" version="opset1">
			<data destination_type="f32" />
			<input>
				<port id="0" precision="I64" />
			</input>
			<output>
				<port id="1" precision="FP32" names="1957" />
			</output>
		</layer>
		<layer id="258" name="Constant_118" type="Const" version="opset1">
			<data element_type="f32" shape="" offset="1130712" size="4" />
			<output>
				<port id="0" precision="FP32" names="1958" />
			</output>
		</layer>
		<layer id="259" name="Mul_119" type="Multiply" version="opset1">
			<data auto_broadcast="numpy" />
			<input>
				<port id="0" precision="FP32" />
				<port id="1" precision="FP32" />
			</input>
			<output>
				<port id="2" precision="FP32" names="1959,1960" />
			</output>
		</layer>
		<layer id="260" name="Floor_121" type="Floor" version="opset1">
			<input>
				<port id="0" precision="FP32" />
			</input>
			<output>
				<port id="1" precision="FP32" names="1961" />
			</output>
		</layer>
		<layer id="261" name="Constant_1704" type="Const" version="opset1">
			<data element_type="i64" shape="1" offset="1130688" size="8" />
			<output>
				<port id="0" precision="I64">
					<dim>1</dim>
				</port>
			</output>
		</layer>
		<layer id="262" name="Unsqueeze_130" type="Unsqueeze" version="opset1">
			<input>
				<port id="0" precision="FP32" />
				<port id="1" precision="I64">
					<dim>1</dim>
				</port>
			</input>
			<output>
				<port id="2" precision="FP32" names="1970">
					<dim>1</dim>
				</port>
			</output>
		</layer>
		<layer id="263" name="Constant_123" type="Const" version="opset1">
			<data element_type="i64" shape="" offset="1130716" size="8" />
			<output>
				<port id="0" precision="I64" names="1963" />
			</output>
		</layer>
		<layer id="264" name="Constant_1697" type="Const" version="opset1">
			<data element_type="i64" shape="" offset="1130688" size="8" />
			<output>
				<port id="0" precision="I64" />
			</output>
		</layer>
		<layer id="265" name="Gather_124" type="Gather" version="opset8">
			<data batch_dims="0" />
			<input>
				<port id="0" precision="I64">
					<dim>4</dim>
				</port>
				<port id="1" precision="I64" />
				<port id="2" precision="I64" />
			</input>
			<output>
				<port id="3" precision="I64" names="1964" />
			</output>
		</layer>
		<layer id="266" name="Cast_125" type="Convert" version="opset1">
			<data destination_type="f32" />
			<input>
				<port id="0" precision="I64" />
			</input>
			<output>
				<port id="1" precision="FP32" names="1965" />
			</output>
		</layer>
		<layer id="267" name="Constant_126" type="Const" version="opset1">
			<data element_type="f32" shape="" offset="1130712" size="4" />
			<output>
				<port id="0" precision="FP32" names="1966" />
			</output>
		</layer>
		<layer id="268" name="Mul_127" type="Multiply" version="opset1">
			<data auto_broadcast="numpy" />
			<input>
				<port id="0" precision="FP32" />
				<port id="1" precision="FP32" />
			</input>
			<output>
				<port id="2" precision="FP32" names="1967,1968" />
			</output>
		</layer>
		<layer id="269" name="Floor_129" type="Floor" version="opset1">
			<input>
				<port id="0" precision="FP32" />
			</input>
			<output>
				<port id="1" precision="FP32" names="1969" />
			</output>
		</layer>
		<layer id="270" name="Constant_1706" type="Const" version="opset1">
			<data element_type="i64" shape="1" offset="1130688" size="8" />
			<output>
				<port id="0" precision="I64">
					<dim>1</dim>
				</port>
			</output>
		</layer>
		<layer id="271" name="Unsqueeze_131" type="Unsqueeze" version="opset1">
			<input>
				<port id="0" precision="FP32" />
				<port id="1" precision="I64">
					<dim>1</dim>
				</port>
			</input>
			<output>
				<port id="2" precision="FP32" names="1971">
					<dim>1</dim>
				</port>
			</output>
		</layer>
		<layer id="272" name="Concat_132" type="Concat" version="opset1">
			<data axis="0" />
			<input>
				<port id="0" precision="FP32">
					<dim>1</dim>
				</port>
				<port id="1" precision="FP32">
					<dim>1</dim>
				</port>
			</input>
			<output>
				<port id="2" precision="FP32" names="1972">
					<dim>2</dim>
				</port>
			</output>
		</layer>
		<layer id="273" name="Cast_139" type="Convert" version="opset1">
			<data destination_type="i64" />
			<input>
				<port id="0" precision="FP32">
					<dim>2</dim>
				</port>
			</input>
			<output>
				<port id="1" precision="I64" names="1979">
					<dim>2</dim>
				</port>
			</output>
		</layer>
		<layer id="274" name="Concat_140" type="Concat" version="opset1">
			<data axis="0" />
			<input>
				<port id="0" precision="I64">
					<dim>2</dim>
				</port>
				<port id="1" precision="I64">
					<dim>2</dim>
				</port>
			</input>
			<output>
				<port id="2" precision="I64" names="1980">
					<dim>4</dim>
				</port>
			</output>
		</layer>
		<layer id="275" name="Convert_1738" type="Convert" version="opset1">
			<data destination_type="f32" />
			<input>
				<port id="0" precision="I64">
					<dim>4</dim>
				</port>
			</input>
			<output>
				<port id="1" precision="FP32">
					<dim>4</dim>
				</port>
			</output>
		</layer>
		<layer id="276" name="Convert_1737" type="Convert" version="opset1">
			<data destination_type="f32" />
			<input>
				<port id="0" precision="I64">
					<dim>4</dim>
				</port>
			</input>
			<output>
				<port id="1" precision="FP32">
					<dim>4</dim>
				</port>
			</output>
		</layer>
		<layer id="277" name="Divide_1739" type="Divide" version="opset1">
			<data auto_broadcast="numpy" m_pythondiv="true" />
			<input>
				<port id="0" precision="FP32">
					<dim>4</dim>
				</port>
				<port id="1" precision="FP32">
					<dim>4</dim>
				</port>
			</input>
			<output>
				<port id="2" precision="FP32">
					<dim>4</dim>
				</port>
			</output>
		</layer>
		<layer id="278" name="Constant_94274" type="Const" version="opset1">
			<data element_type="f32" shape="1" offset="1130724" size="4" />
			<output>
				<port id="0" precision="FP32">
					<dim>1</dim>
				</port>
			</output>
		</layer>
		<layer id="279" name="Add_1741" type="Add" version="opset1">
			<data auto_broadcast="numpy" />
			<input>
				<port id="0" precision="FP32">
					<dim>4</dim>
				</port>
				<port id="1" precision="FP32">
					<dim>1</dim>
				</port>
			</input>
			<output>
				<port id="2" precision="FP32">
					<dim>4</dim>
				</port>
			</output>
		</layer>
		<layer id="280" name="Resize_142" type="Interpolate" version="opset4">
			<data mode="linear_onnx" shape_calculation_mode="sizes" coordinate_transformation_mode="pytorch_half_pixel" nearest_mode="floor" antialias="false" pads_begin="0, 0, 0, 0" pads_end="0, 0, 0, 0" cube_coeff="-0.75" />
			<input>
				<port id="0" precision="FP32">
					<dim>1</dim>
					<dim>18</dim>
					<dim>8</dim>
					<dim>8</dim>
				</port>
				<port id="1" precision="I64">
					<dim>4</dim>
				</port>
				<port id="2" precision="FP32">
					<dim>4</dim>
				</port>
			</input>
			<output>
				<port id="3" precision="FP32" names="1982">
					<dim>1</dim>
					<dim>18</dim>
					<dim>16</dim>
					<dim>16</dim>
				</port>
			</output>
		</layer>
		<layer id="281" name="Add_143" type="Add" version="opset1">
			<data auto_broadcast="numpy" />
			<input>
				<port id="0" precision="FP32">
					<dim>1</dim>
					<dim>18</dim>
					<dim>16</dim>
					<dim>16</dim>
				</port>
				<port id="1" precision="FP32">
					<dim>1</dim>
					<dim>18</dim>
					<dim>16</dim>
					<dim>16</dim>
				</port>
			</input>
			<output>
				<port id="2" precision="FP32" names="1983">
					<dim>1</dim>
					<dim>18</dim>
					<dim>16</dim>
					<dim>16</dim>
				</port>
			</output>
		</layer>
		<layer id="282" name="Relu_144" type="ReLU" version="opset1">
			<input>
				<port id="0" precision="FP32">
					<dim>1</dim>
					<dim>18</dim>
					<dim>16</dim>
					<dim>16</dim>
				</port>
			</input>
			<output>
				<port id="1" precision="FP32" names="1984">
					<dim>1</dim>
					<dim>18</dim>
					<dim>16</dim>
					<dim>16</dim>
				</port>
			</output>
		</layer>
		<layer id="283" name="Multiply_84127_compressed" type="Const" version="opset1">
			<data element_type="f16" shape="18, 18, 3, 3" offset="1130728" size="5832" />
			<output>
				<port id="0" precision="FP16">
					<dim>18</dim>
					<dim>18</dim>
					<dim>3</dim>
					<dim>3</dim>
				</port>
			</output>
		</layer>
		<layer id="284" name="Multiply_84127" type="Convert" version="opset1">
			<data destination_type="f32" />
			<rt_info>
				<attribute name="decompression" version="0" />
			</rt_info>
			<input>
				<port id="0" precision="FP16">
					<dim>18</dim>
					<dim>18</dim>
					<dim>3</dim>
					<dim>3</dim>
				</port>
			</input>
			<output>
				<port id="1" precision="FP32">
					<dim>18</dim>
					<dim>18</dim>
					<dim>3</dim>
					<dim>3</dim>
				</port>
			</output>
		</layer>
		<layer id="285" name="Multiply_81901" type="Convolution" version="opset1">
			<data strides="1, 1" dilations="1, 1" pads_begin="1, 1" pads_end="1, 1" auto_pad="explicit" />
			<input>
				<port id="0" precision="FP32">
					<dim>1</dim>
					<dim>18</dim>
					<dim>16</dim>
					<dim>16</dim>
				</port>
				<port id="1" precision="FP32">
					<dim>18</dim>
					<dim>18</dim>
					<dim>3</dim>
					<dim>3</dim>
				</port>
			</input>
			<output>
				<port id="2" precision="FP32">
					<dim>1</dim>
					<dim>18</dim>
					<dim>16</dim>
					<dim>16</dim>
				</port>
			</output>
		</layer>
		<layer id="286" name="Constant_81906_compressed" type="Const" version="opset1">
			<data element_type="f16" shape="1, 18, 1, 1" offset="1136560" size="36" />
			<output>
				<port id="0" precision="FP16">
					<dim>1</dim>
					<dim>18</dim>
					<dim>1</dim>
					<dim>1</dim>
				</port>
			</output>
		</layer>
		<layer id="287" name="Constant_81906" type="Convert" version="opset1">
			<data destination_type="f32" />
			<rt_info>
				<attribute name="decompression" version="0" />
			</rt_info>
			<input>
				<port id="0" precision="FP16">
					<dim>1</dim>
					<dim>18</dim>
					<dim>1</dim>
					<dim>1</dim>
				</port>
			</input>
			<output>
				<port id="1" precision="FP32">
					<dim>1</dim>
					<dim>18</dim>
					<dim>1</dim>
					<dim>1</dim>
				</port>
			</output>
		</layer>
		<layer id="288" name="BatchNormalization_153" type="Add" version="opset1">
			<data auto_broadcast="numpy" />
			<input>
				<port id="0" precision="FP32">
					<dim>1</dim>
					<dim>18</dim>
					<dim>16</dim>
					<dim>16</dim>
				</port>
				<port id="1" precision="FP32">
					<dim>1</dim>
					<dim>18</dim>
					<dim>1</dim>
					<dim>1</dim>
				</port>
			</input>
			<output>
				<port id="2" precision="FP32" names="1993">
					<dim>1</dim>
					<dim>18</dim>
					<dim>16</dim>
					<dim>16</dim>
				</port>
			</output>
		</layer>
		<layer id="289" name="Relu_154" type="ReLU" version="opset1">
			<input>
				<port id="0" precision="FP32">
					<dim>1</dim>
					<dim>18</dim>
					<dim>16</dim>
					<dim>16</dim>
				</port>
			</input>
			<output>
				<port id="1" precision="FP32" names="1994">
					<dim>1</dim>
					<dim>18</dim>
					<dim>16</dim>
					<dim>16</dim>
				</port>
			</output>
		</layer>
		<layer id="290" name="Multiply_84136_compressed" type="Const" version="opset1">
			<data element_type="f16" shape="18, 18, 3, 3" offset="1136596" size="5832" />
			<output>
				<port id="0" precision="FP16">
					<dim>18</dim>
					<dim>18</dim>
					<dim>3</dim>
					<dim>3</dim>
				</port>
			</output>
		</layer>
		<layer id="291" name="Multiply_84136" type="Convert" version="opset1">
			<data destination_type="f32" />
			<rt_info>
				<attribute name="decompression" version="0" />
			</rt_info>
			<input>
				<port id="0" precision="FP16">
					<dim>18</dim>
					<dim>18</dim>
					<dim>3</dim>
					<dim>3</dim>
				</port>
			</input>
			<output>
				<port id="1" precision="FP32">
					<dim>18</dim>
					<dim>18</dim>
					<dim>3</dim>
					<dim>3</dim>
				</port>
			</output>
		</layer>
		<layer id="292" name="Multiply_81908" type="Convolution" version="opset1">
			<data strides="1, 1" dilations="1, 1" pads_begin="1, 1" pads_end="1, 1" auto_pad="explicit" />
			<input>
				<port id="0" precision="FP32">
					<dim>1</dim>
					<dim>18</dim>
					<dim>16</dim>
					<dim>16</dim>
				</port>
				<port id="1" precision="FP32">
					<dim>18</dim>
					<dim>18</dim>
					<dim>3</dim>
					<dim>3</dim>
				</port>
			</input>
			<output>
				<port id="2" precision="FP32">
					<dim>1</dim>
					<dim>18</dim>
					<dim>16</dim>
					<dim>16</dim>
				</port>
			</output>
		</layer>
		<layer id="293" name="Constant_81913_compressed" type="Const" version="opset1">
			<data element_type="f16" shape="1, 18, 1, 1" offset="1142428" size="36" />
			<output>
				<port id="0" precision="FP16">
					<dim>1</dim>
					<dim>18</dim>
					<dim>1</dim>
					<dim>1</dim>
				</port>
			</output>
		</layer>
		<layer id="294" name="Constant_81913" type="Convert" version="opset1">
			<data destination_type="f32" />
			<rt_info>
				<attribute name="decompression" version="0" />
			</rt_info>
			<input>
				<port id="0" precision="FP16">
					<dim>1</dim>
					<dim>18</dim>
					<dim>1</dim>
					<dim>1</dim>
				</port>
			</input>
			<output>
				<port id="1" precision="FP32">
					<dim>1</dim>
					<dim>18</dim>
					<dim>1</dim>
					<dim>1</dim>
				</port>
			</output>
		</layer>
		<layer id="295" name="BatchNormalization_156" type="Add" version="opset1">
			<data auto_broadcast="numpy" />
			<input>
				<port id="0" precision="FP32">
					<dim>1</dim>
					<dim>18</dim>
					<dim>16</dim>
					<dim>16</dim>
				</port>
				<port id="1" precision="FP32">
					<dim>1</dim>
					<dim>18</dim>
					<dim>1</dim>
					<dim>1</dim>
				</port>
			</input>
			<output>
				<port id="2" precision="FP32" names="1996">
					<dim>1</dim>
					<dim>18</dim>
					<dim>16</dim>
					<dim>16</dim>
				</port>
			</output>
		</layer>
		<layer id="296" name="Add_157" type="Add" version="opset1">
			<data auto_broadcast="numpy" />
			<input>
				<port id="0" precision="FP32">
					<dim>1</dim>
					<dim>18</dim>
					<dim>16</dim>
					<dim>16</dim>
				</port>
				<port id="1" precision="FP32">
					<dim>1</dim>
					<dim>18</dim>
					<dim>16</dim>
					<dim>16</dim>
				</port>
			</input>
			<output>
				<port id="2" precision="FP32" names="1997">
					<dim>1</dim>
					<dim>18</dim>
					<dim>16</dim>
					<dim>16</dim>
				</port>
			</output>
		</layer>
		<layer id="297" name="Relu_158" type="ReLU" version="opset1">
			<input>
				<port id="0" precision="FP32">
					<dim>1</dim>
					<dim>18</dim>
					<dim>16</dim>
					<dim>16</dim>
				</port>
			</input>
			<output>
				<port id="1" precision="FP32" names="1998">
					<dim>1</dim>
					<dim>18</dim>
					<dim>16</dim>
					<dim>16</dim>
				</port>
			</output>
		</layer>
		<layer id="298" name="Multiply_84145_compressed" type="Const" version="opset1">
			<data element_type="f16" shape="18, 18, 3, 3" offset="1142464" size="5832" />
			<output>
				<port id="0" precision="FP16">
					<dim>18</dim>
					<dim>18</dim>
					<dim>3</dim>
					<dim>3</dim>
				</port>
			</output>
		</layer>
		<layer id="299" name="Multiply_84145" type="Convert" version="opset1">
			<data destination_type="f32" />
			<rt_info>
				<attribute name="decompression" version="0" />
			</rt_info>
			<input>
				<port id="0" precision="FP16">
					<dim>18</dim>
					<dim>18</dim>
					<dim>3</dim>
					<dim>3</dim>
				</port>
			</input>
			<output>
				<port id="1" precision="FP32">
					<dim>18</dim>
					<dim>18</dim>
					<dim>3</dim>
					<dim>3</dim>
				</port>
			</output>
		</layer>
		<layer id="300" name="Multiply_81915" type="Convolution" version="opset1">
			<data strides="1, 1" dilations="1, 1" pads_begin="1, 1" pads_end="1, 1" auto_pad="explicit" />
			<input>
				<port id="0" precision="FP32">
					<dim>1</dim>
					<dim>18</dim>
					<dim>16</dim>
					<dim>16</dim>
				</port>
				<port id="1" precision="FP32">
					<dim>18</dim>
					<dim>18</dim>
					<dim>3</dim>
					<dim>3</dim>
				</port>
			</input>
			<output>
				<port id="2" precision="FP32">
					<dim>1</dim>
					<dim>18</dim>
					<dim>16</dim>
					<dim>16</dim>
				</port>
			</output>
		</layer>
		<layer id="301" name="Constant_81920_compressed" type="Const" version="opset1">
			<data element_type="f16" shape="1, 18, 1, 1" offset="1148296" size="36" />
			<output>
				<port id="0" precision="FP16">
					<dim>1</dim>
					<dim>18</dim>
					<dim>1</dim>
					<dim>1</dim>
				</port>
			</output>
		</layer>
		<layer id="302" name="Constant_81920" type="Convert" version="opset1">
			<data destination_type="f32" />
			<rt_info>
				<attribute name="decompression" version="0" />
			</rt_info>
			<input>
				<port id="0" precision="FP16">
					<dim>1</dim>
					<dim>18</dim>
					<dim>1</dim>
					<dim>1</dim>
				</port>
			</input>
			<output>
				<port id="1" precision="FP32">
					<dim>1</dim>
					<dim>18</dim>
					<dim>1</dim>
					<dim>1</dim>
				</port>
			</output>
		</layer>
		<layer id="303" name="BatchNormalization_160" type="Add" version="opset1">
			<data auto_broadcast="numpy" />
			<input>
				<port id="0" precision="FP32">
					<dim>1</dim>
					<dim>18</dim>
					<dim>16</dim>
					<dim>16</dim>
				</port>
				<port id="1" precision="FP32">
					<dim>1</dim>
					<dim>18</dim>
					<dim>1</dim>
					<dim>1</dim>
				</port>
			</input>
			<output>
				<port id="2" precision="FP32" names="2000">
					<dim>1</dim>
					<dim>18</dim>
					<dim>16</dim>
					<dim>16</dim>
				</port>
			</output>
		</layer>
		<layer id="304" name="Relu_161" type="ReLU" version="opset1">
			<input>
				<port id="0" precision="FP32">
					<dim>1</dim>
					<dim>18</dim>
					<dim>16</dim>
					<dim>16</dim>
				</port>
			</input>
			<output>
				<port id="1" precision="FP32" names="2001">
					<dim>1</dim>
					<dim>18</dim>
					<dim>16</dim>
					<dim>16</dim>
				</port>
			</output>
		</layer>
		<layer id="305" name="Multiply_84154_compressed" type="Const" version="opset1">
			<data element_type="f16" shape="18, 18, 3, 3" offset="1148332" size="5832" />
			<output>
				<port id="0" precision="FP16">
					<dim>18</dim>
					<dim>18</dim>
					<dim>3</dim>
					<dim>3</dim>
				</port>
			</output>
		</layer>
		<layer id="306" name="Multiply_84154" type="Convert" version="opset1">
			<data destination_type="f32" />
			<rt_info>
				<attribute name="decompression" version="0" />
			</rt_info>
			<input>
				<port id="0" precision="FP16">
					<dim>18</dim>
					<dim>18</dim>
					<dim>3</dim>
					<dim>3</dim>
				</port>
			</input>
			<output>
				<port id="1" precision="FP32">
					<dim>18</dim>
					<dim>18</dim>
					<dim>3</dim>
					<dim>3</dim>
				</port>
			</output>
		</layer>
		<layer id="307" name="Multiply_81922" type="Convolution" version="opset1">
			<data strides="1, 1" dilations="1, 1" pads_begin="1, 1" pads_end="1, 1" auto_pad="explicit" />
			<input>
				<port id="0" precision="FP32">
					<dim>1</dim>
					<dim>18</dim>
					<dim>16</dim>
					<dim>16</dim>
				</port>
				<port id="1" precision="FP32">
					<dim>18</dim>
					<dim>18</dim>
					<dim>3</dim>
					<dim>3</dim>
				</port>
			</input>
			<output>
				<port id="2" precision="FP32">
					<dim>1</dim>
					<dim>18</dim>
					<dim>16</dim>
					<dim>16</dim>
				</port>
			</output>
		</layer>
		<layer id="308" name="Constant_81927_compressed" type="Const" version="opset1">
			<data element_type="f16" shape="1, 18, 1, 1" offset="1154164" size="36" />
			<output>
				<port id="0" precision="FP16">
					<dim>1</dim>
					<dim>18</dim>
					<dim>1</dim>
					<dim>1</dim>
				</port>
			</output>
		</layer>
		<layer id="309" name="Constant_81927" type="Convert" version="opset1">
			<data destination_type="f32" />
			<rt_info>
				<attribute name="decompression" version="0" />
			</rt_info>
			<input>
				<port id="0" precision="FP16">
					<dim>1</dim>
					<dim>18</dim>
					<dim>1</dim>
					<dim>1</dim>
				</port>
			</input>
			<output>
				<port id="1" precision="FP32">
					<dim>1</dim>
					<dim>18</dim>
					<dim>1</dim>
					<dim>1</dim>
				</port>
			</output>
		</layer>
		<layer id="310" name="BatchNormalization_163" type="Add" version="opset1">
			<data auto_broadcast="numpy" />
			<input>
				<port id="0" precision="FP32">
					<dim>1</dim>
					<dim>18</dim>
					<dim>16</dim>
					<dim>16</dim>
				</port>
				<port id="1" precision="FP32">
					<dim>1</dim>
					<dim>18</dim>
					<dim>1</dim>
					<dim>1</dim>
				</port>
			</input>
			<output>
				<port id="2" precision="FP32" names="2003">
					<dim>1</dim>
					<dim>18</dim>
					<dim>16</dim>
					<dim>16</dim>
				</port>
			</output>
		</layer>
		<layer id="311" name="Add_164" type="Add" version="opset1">
			<data auto_broadcast="numpy" />
			<input>
				<port id="0" precision="FP32">
					<dim>1</dim>
					<dim>18</dim>
					<dim>16</dim>
					<dim>16</dim>
				</port>
				<port id="1" precision="FP32">
					<dim>1</dim>
					<dim>18</dim>
					<dim>16</dim>
					<dim>16</dim>
				</port>
			</input>
			<output>
				<port id="2" precision="FP32" names="2004">
					<dim>1</dim>
					<dim>18</dim>
					<dim>16</dim>
					<dim>16</dim>
				</port>
			</output>
		</layer>
		<layer id="312" name="Relu_165" type="ReLU" version="opset1">
			<input>
				<port id="0" precision="FP32">
					<dim>1</dim>
					<dim>18</dim>
					<dim>16</dim>
					<dim>16</dim>
				</port>
			</input>
			<output>
				<port id="1" precision="FP32" names="2005">
					<dim>1</dim>
					<dim>18</dim>
					<dim>16</dim>
					<dim>16</dim>
				</port>
			</output>
		</layer>
		<layer id="313" name="Multiply_84163_compressed" type="Const" version="opset1">
			<data element_type="f16" shape="18, 18, 3, 3" offset="1154200" size="5832" />
			<output>
				<port id="0" precision="FP16">
					<dim>18</dim>
					<dim>18</dim>
					<dim>3</dim>
					<dim>3</dim>
				</port>
			</output>
		</layer>
		<layer id="314" name="Multiply_84163" type="Convert" version="opset1">
			<data destination_type="f32" />
			<rt_info>
				<attribute name="decompression" version="0" />
			</rt_info>
			<input>
				<port id="0" precision="FP16">
					<dim>18</dim>
					<dim>18</dim>
					<dim>3</dim>
					<dim>3</dim>
				</port>
			</input>
			<output>
				<port id="1" precision="FP32">
					<dim>18</dim>
					<dim>18</dim>
					<dim>3</dim>
					<dim>3</dim>
				</port>
			</output>
		</layer>
		<layer id="315" name="Multiply_81929" type="Convolution" version="opset1">
			<data strides="1, 1" dilations="1, 1" pads_begin="1, 1" pads_end="1, 1" auto_pad="explicit" />
			<input>
				<port id="0" precision="FP32">
					<dim>1</dim>
					<dim>18</dim>
					<dim>16</dim>
					<dim>16</dim>
				</port>
				<port id="1" precision="FP32">
					<dim>18</dim>
					<dim>18</dim>
					<dim>3</dim>
					<dim>3</dim>
				</port>
			</input>
			<output>
				<port id="2" precision="FP32">
					<dim>1</dim>
					<dim>18</dim>
					<dim>16</dim>
					<dim>16</dim>
				</port>
			</output>
		</layer>
		<layer id="316" name="Constant_81934_compressed" type="Const" version="opset1">
			<data element_type="f16" shape="1, 18, 1, 1" offset="1160032" size="36" />
			<output>
				<port id="0" precision="FP16">
					<dim>1</dim>
					<dim>18</dim>
					<dim>1</dim>
					<dim>1</dim>
				</port>
			</output>
		</layer>
		<layer id="317" name="Constant_81934" type="Convert" version="opset1">
			<data destination_type="f32" />
			<rt_info>
				<attribute name="decompression" version="0" />
			</rt_info>
			<input>
				<port id="0" precision="FP16">
					<dim>1</dim>
					<dim>18</dim>
					<dim>1</dim>
					<dim>1</dim>
				</port>
			</input>
			<output>
				<port id="1" precision="FP32">
					<dim>1</dim>
					<dim>18</dim>
					<dim>1</dim>
					<dim>1</dim>
				</port>
			</output>
		</layer>
		<layer id="318" name="BatchNormalization_167" type="Add" version="opset1">
			<data auto_broadcast="numpy" />
			<input>
				<port id="0" precision="FP32">
					<dim>1</dim>
					<dim>18</dim>
					<dim>16</dim>
					<dim>16</dim>
				</port>
				<port id="1" precision="FP32">
					<dim>1</dim>
					<dim>18</dim>
					<dim>1</dim>
					<dim>1</dim>
				</port>
			</input>
			<output>
				<port id="2" precision="FP32" names="2007">
					<dim>1</dim>
					<dim>18</dim>
					<dim>16</dim>
					<dim>16</dim>
				</port>
			</output>
		</layer>
		<layer id="319" name="Relu_168" type="ReLU" version="opset1">
			<input>
				<port id="0" precision="FP32">
					<dim>1</dim>
					<dim>18</dim>
					<dim>16</dim>
					<dim>16</dim>
				</port>
			</input>
			<output>
				<port id="1" precision="FP32" names="2008">
					<dim>1</dim>
					<dim>18</dim>
					<dim>16</dim>
					<dim>16</dim>
				</port>
			</output>
		</layer>
		<layer id="320" name="Multiply_84172_compressed" type="Const" version="opset1">
			<data element_type="f16" shape="18, 18, 3, 3" offset="1160068" size="5832" />
			<output>
				<port id="0" precision="FP16">
					<dim>18</dim>
					<dim>18</dim>
					<dim>3</dim>
					<dim>3</dim>
				</port>
			</output>
		</layer>
		<layer id="321" name="Multiply_84172" type="Convert" version="opset1">
			<data destination_type="f32" />
			<rt_info>
				<attribute name="decompression" version="0" />
			</rt_info>
			<input>
				<port id="0" precision="FP16">
					<dim>18</dim>
					<dim>18</dim>
					<dim>3</dim>
					<dim>3</dim>
				</port>
			</input>
			<output>
				<port id="1" precision="FP32">
					<dim>18</dim>
					<dim>18</dim>
					<dim>3</dim>
					<dim>3</dim>
				</port>
			</output>
		</layer>
		<layer id="322" name="Multiply_81936" type="Convolution" version="opset1">
			<data strides="1, 1" dilations="1, 1" pads_begin="1, 1" pads_end="1, 1" auto_pad="explicit" />
			<input>
				<port id="0" precision="FP32">
					<dim>1</dim>
					<dim>18</dim>
					<dim>16</dim>
					<dim>16</dim>
				</port>
				<port id="1" precision="FP32">
					<dim>18</dim>
					<dim>18</dim>
					<dim>3</dim>
					<dim>3</dim>
				</port>
			</input>
			<output>
				<port id="2" precision="FP32">
					<dim>1</dim>
					<dim>18</dim>
					<dim>16</dim>
					<dim>16</dim>
				</port>
			</output>
		</layer>
		<layer id="323" name="Constant_81941_compressed" type="Const" version="opset1">
			<data element_type="f16" shape="1, 18, 1, 1" offset="1165900" size="36" />
			<output>
				<port id="0" precision="FP16">
					<dim>1</dim>
					<dim>18</dim>
					<dim>1</dim>
					<dim>1</dim>
				</port>
			</output>
		</layer>
		<layer id="324" name="Constant_81941" type="Convert" version="opset1">
			<data destination_type="f32" />
			<rt_info>
				<attribute name="decompression" version="0" />
			</rt_info>
			<input>
				<port id="0" precision="FP16">
					<dim>1</dim>
					<dim>18</dim>
					<dim>1</dim>
					<dim>1</dim>
				</port>
			</input>
			<output>
				<port id="1" precision="FP32">
					<dim>1</dim>
					<dim>18</dim>
					<dim>1</dim>
					<dim>1</dim>
				</port>
			</output>
		</layer>
		<layer id="325" name="BatchNormalization_170" type="Add" version="opset1">
			<data auto_broadcast="numpy" />
			<input>
				<port id="0" precision="FP32">
					<dim>1</dim>
					<dim>18</dim>
					<dim>16</dim>
					<dim>16</dim>
				</port>
				<port id="1" precision="FP32">
					<dim>1</dim>
					<dim>18</dim>
					<dim>1</dim>
					<dim>1</dim>
				</port>
			</input>
			<output>
				<port id="2" precision="FP32" names="2010">
					<dim>1</dim>
					<dim>18</dim>
					<dim>16</dim>
					<dim>16</dim>
				</port>
			</output>
		</layer>
		<layer id="326" name="Add_171" type="Add" version="opset1">
			<data auto_broadcast="numpy" />
			<input>
				<port id="0" precision="FP32">
					<dim>1</dim>
					<dim>18</dim>
					<dim>16</dim>
					<dim>16</dim>
				</port>
				<port id="1" precision="FP32">
					<dim>1</dim>
					<dim>18</dim>
					<dim>16</dim>
					<dim>16</dim>
				</port>
			</input>
			<output>
				<port id="2" precision="FP32" names="2011">
					<dim>1</dim>
					<dim>18</dim>
					<dim>16</dim>
					<dim>16</dim>
				</port>
			</output>
		</layer>
		<layer id="327" name="Relu_172" type="ReLU" version="opset1">
			<input>
				<port id="0" precision="FP32">
					<dim>1</dim>
					<dim>18</dim>
					<dim>16</dim>
					<dim>16</dim>
				</port>
			</input>
			<output>
				<port id="1" precision="FP32" names="2012">
					<dim>1</dim>
					<dim>18</dim>
					<dim>16</dim>
					<dim>16</dim>
				</port>
			</output>
		</layer>
		<layer id="328" name="Multiply_84181_compressed" type="Const" version="opset1">
			<data element_type="f16" shape="18, 18, 3, 3" offset="1165936" size="5832" />
			<output>
				<port id="0" precision="FP16">
					<dim>18</dim>
					<dim>18</dim>
					<dim>3</dim>
					<dim>3</dim>
				</port>
			</output>
		</layer>
		<layer id="329" name="Multiply_84181" type="Convert" version="opset1">
			<data destination_type="f32" />
			<rt_info>
				<attribute name="decompression" version="0" />
			</rt_info>
			<input>
				<port id="0" precision="FP16">
					<dim>18</dim>
					<dim>18</dim>
					<dim>3</dim>
					<dim>3</dim>
				</port>
			</input>
			<output>
				<port id="1" precision="FP32">
					<dim>18</dim>
					<dim>18</dim>
					<dim>3</dim>
					<dim>3</dim>
				</port>
			</output>
		</layer>
		<layer id="330" name="Multiply_81943" type="Convolution" version="opset1">
			<data strides="1, 1" dilations="1, 1" pads_begin="1, 1" pads_end="1, 1" auto_pad="explicit" />
			<input>
				<port id="0" precision="FP32">
					<dim>1</dim>
					<dim>18</dim>
					<dim>16</dim>
					<dim>16</dim>
				</port>
				<port id="1" precision="FP32">
					<dim>18</dim>
					<dim>18</dim>
					<dim>3</dim>
					<dim>3</dim>
				</port>
			</input>
			<output>
				<port id="2" precision="FP32">
					<dim>1</dim>
					<dim>18</dim>
					<dim>16</dim>
					<dim>16</dim>
				</port>
			</output>
		</layer>
		<layer id="331" name="Constant_81948_compressed" type="Const" version="opset1">
			<data element_type="f16" shape="1, 18, 1, 1" offset="1171768" size="36" />
			<output>
				<port id="0" precision="FP16">
					<dim>1</dim>
					<dim>18</dim>
					<dim>1</dim>
					<dim>1</dim>
				</port>
			</output>
		</layer>
		<layer id="332" name="Constant_81948" type="Convert" version="opset1">
			<data destination_type="f32" />
			<rt_info>
				<attribute name="decompression" version="0" />
			</rt_info>
			<input>
				<port id="0" precision="FP16">
					<dim>1</dim>
					<dim>18</dim>
					<dim>1</dim>
					<dim>1</dim>
				</port>
			</input>
			<output>
				<port id="1" precision="FP32">
					<dim>1</dim>
					<dim>18</dim>
					<dim>1</dim>
					<dim>1</dim>
				</port>
			</output>
		</layer>
		<layer id="333" name="BatchNormalization_174" type="Add" version="opset1">
			<data auto_broadcast="numpy" />
			<input>
				<port id="0" precision="FP32">
					<dim>1</dim>
					<dim>18</dim>
					<dim>16</dim>
					<dim>16</dim>
				</port>
				<port id="1" precision="FP32">
					<dim>1</dim>
					<dim>18</dim>
					<dim>1</dim>
					<dim>1</dim>
				</port>
			</input>
			<output>
				<port id="2" precision="FP32" names="2014">
					<dim>1</dim>
					<dim>18</dim>
					<dim>16</dim>
					<dim>16</dim>
				</port>
			</output>
		</layer>
		<layer id="334" name="Relu_175" type="ReLU" version="opset1">
			<input>
				<port id="0" precision="FP32">
					<dim>1</dim>
					<dim>18</dim>
					<dim>16</dim>
					<dim>16</dim>
				</port>
			</input>
			<output>
				<port id="1" precision="FP32" names="2015">
					<dim>1</dim>
					<dim>18</dim>
					<dim>16</dim>
					<dim>16</dim>
				</port>
			</output>
		</layer>
		<layer id="335" name="Multiply_84190_compressed" type="Const" version="opset1">
			<data element_type="f16" shape="18, 18, 3, 3" offset="1171804" size="5832" />
			<output>
				<port id="0" precision="FP16">
					<dim>18</dim>
					<dim>18</dim>
					<dim>3</dim>
					<dim>3</dim>
				</port>
			</output>
		</layer>
		<layer id="336" name="Multiply_84190" type="Convert" version="opset1">
			<data destination_type="f32" />
			<rt_info>
				<attribute name="decompression" version="0" />
			</rt_info>
			<input>
				<port id="0" precision="FP16">
					<dim>18</dim>
					<dim>18</dim>
					<dim>3</dim>
					<dim>3</dim>
				</port>
			</input>
			<output>
				<port id="1" precision="FP32">
					<dim>18</dim>
					<dim>18</dim>
					<dim>3</dim>
					<dim>3</dim>
				</port>
			</output>
		</layer>
		<layer id="337" name="Multiply_81950" type="Convolution" version="opset1">
			<data strides="1, 1" dilations="1, 1" pads_begin="1, 1" pads_end="1, 1" auto_pad="explicit" />
			<input>
				<port id="0" precision="FP32">
					<dim>1</dim>
					<dim>18</dim>
					<dim>16</dim>
					<dim>16</dim>
				</port>
				<port id="1" precision="FP32">
					<dim>18</dim>
					<dim>18</dim>
					<dim>3</dim>
					<dim>3</dim>
				</port>
			</input>
			<output>
				<port id="2" precision="FP32">
					<dim>1</dim>
					<dim>18</dim>
					<dim>16</dim>
					<dim>16</dim>
				</port>
			</output>
		</layer>
		<layer id="338" name="Constant_81955_compressed" type="Const" version="opset1">
			<data element_type="f16" shape="1, 18, 1, 1" offset="1177636" size="36" />
			<output>
				<port id="0" precision="FP16">
					<dim>1</dim>
					<dim>18</dim>
					<dim>1</dim>
					<dim>1</dim>
				</port>
			</output>
		</layer>
		<layer id="339" name="Constant_81955" type="Convert" version="opset1">
			<data destination_type="f32" />
			<rt_info>
				<attribute name="decompression" version="0" />
			</rt_info>
			<input>
				<port id="0" precision="FP16">
					<dim>1</dim>
					<dim>18</dim>
					<dim>1</dim>
					<dim>1</dim>
				</port>
			</input>
			<output>
				<port id="1" precision="FP32">
					<dim>1</dim>
					<dim>18</dim>
					<dim>1</dim>
					<dim>1</dim>
				</port>
			</output>
		</layer>
		<layer id="340" name="BatchNormalization_177" type="Add" version="opset1">
			<data auto_broadcast="numpy" />
			<input>
				<port id="0" precision="FP32">
					<dim>1</dim>
					<dim>18</dim>
					<dim>16</dim>
					<dim>16</dim>
				</port>
				<port id="1" precision="FP32">
					<dim>1</dim>
					<dim>18</dim>
					<dim>1</dim>
					<dim>1</dim>
				</port>
			</input>
			<output>
				<port id="2" precision="FP32" names="2017">
					<dim>1</dim>
					<dim>18</dim>
					<dim>16</dim>
					<dim>16</dim>
				</port>
			</output>
		</layer>
		<layer id="341" name="Add_178" type="Add" version="opset1">
			<data auto_broadcast="numpy" />
			<input>
				<port id="0" precision="FP32">
					<dim>1</dim>
					<dim>18</dim>
					<dim>16</dim>
					<dim>16</dim>
				</port>
				<port id="1" precision="FP32">
					<dim>1</dim>
					<dim>18</dim>
					<dim>16</dim>
					<dim>16</dim>
				</port>
			</input>
			<output>
				<port id="2" precision="FP32" names="2018">
					<dim>1</dim>
					<dim>18</dim>
					<dim>16</dim>
					<dim>16</dim>
				</port>
			</output>
		</layer>
		<layer id="342" name="Relu_179" type="ReLU" version="opset1">
…
		<edge from-layer="2698" from-port="1" to-layer="2712" to-port="1" />
		<edge from-layer="2698" from-port="1" to-layer="2701" to-port="0" />
		<edge from-layer="2699" from-port="0" to-layer="2700" to-port="0" />
		<edge from-layer="2700" from-port="1" to-layer="2701" to-port="1" />
		<edge from-layer="2701" from-port="2" to-layer="2704" to-port="0" />
		<edge from-layer="2702" from-port="0" to-layer="2703" to-port="0" />
		<edge from-layer="2703" from-port="1" to-layer="2704" to-port="1" />
		<edge from-layer="2704" from-port="2" to-layer="2705" to-port="0" />
		<edge from-layer="2705" from-port="1" to-layer="2708" to-port="0" />
		<edge from-layer="2706" from-port="0" to-layer="2707" to-port="0" />
		<edge from-layer="2707" from-port="1" to-layer="2708" to-port="1" />
		<edge from-layer="2708" from-port="2" to-layer="2711" to-port="0" />
		<edge from-layer="2709" from-port="0" to-layer="2710" to-port="0" />
		<edge from-layer="2710" from-port="1" to-layer="2711" to-port="1" />
		<edge from-layer="2711" from-port="2" to-layer="2712" to-port="0" />
		<edge from-layer="2712" from-port="2" to-layer="2713" to-port="0" />
		<edge from-layer="2713" from-port="1" to-layer="2727" to-port="1" />
		<edge from-layer="2713" from-port="1" to-layer="2716" to-port="0" />
		<edge from-layer="2714" from-port="0" to-layer="2715" to-port="0" />
		<edge from-layer="2715" from-port="1" to-layer="2716" to-port="1" />
		<edge from-layer="2716" from-port="2" to-layer="2719" to-port="0" />
		<edge from-layer="2717" from-port="0" to-layer="2718" to-port="0" />
		<edge from-layer="2718" from-port="1" to-layer="2719" to-port="1" />
		<edge from-layer="2719" from-port="2" to-layer="2720" to-port="0" />
		<edge from-layer="2720" from-port="1" to-layer="2723" to-port="0" />
		<edge from-layer="2721" from-port="0" to-layer="2722" to-port="0" />
		<edge from-layer="2722" from-port="1" to-layer="2723" to-port="1" />
		<edge from-layer="2723" from-port="2" to-layer="2726" to-port="0" />
		<edge from-layer="2724" from-port="0" to-layer="2725" to-port="0" />
		<edge from-layer="2725" from-port="1" to-layer="2726" to-port="1" />
		<edge from-layer="2726" from-port="2" to-layer="2727" to-port="0" />
		<edge from-layer="2727" from-port="2" to-layer="2728" to-port="0" />
		<edge from-layer="2728" from-port="1" to-layer="3279" to-port="0" />
		<edge from-layer="2728" from-port="1" to-layer="3198" to-port="0" />
		<edge from-layer="2728" from-port="1" to-layer="3090" to-port="1" />
		<edge from-layer="2728" from-port="1" to-layer="2731" to-port="0" />
		<edge from-layer="2729" from-port="0" to-layer="2730" to-port="0" />
		<edge from-layer="2730" from-port="1" to-layer="2731" to-port="1" />
		<edge from-layer="2731" from-port="2" to-layer="2734" to-port="0" />
		<edge from-layer="2732" from-port="0" to-layer="2733" to-port="0" />
		<edge from-layer="2733" from-port="1" to-layer="2734" to-port="1" />
		<edge from-layer="2734" from-port="2" to-layer="2735" to-port="0" />
		<edge from-layer="2734" from-port="2" to-layer="2766" to-port="0" />
		<edge from-layer="2735" from-port="1" to-layer="2742" to-port="0" />
		<edge from-layer="2735" from-port="1" to-layer="2739" to-port="0" />
		<edge from-layer="2735" from-port="1" to-layer="2762" to-port="0" />
		<edge from-layer="2735" from-port="1" to-layer="2751" to-port="0" />
		<edge from-layer="2736" from-port="0" to-layer="2739" to-port="1" />
		<edge from-layer="2737" from-port="0" to-layer="2739" to-port="2" />
		<edge from-layer="2738" from-port="0" to-layer="2739" to-port="3" />
		<edge from-layer="2739" from-port="4" to-layer="2760" to-port="0" />
		<edge from-layer="2740" from-port="0" to-layer="2742" to-port="1" />
		<edge from-layer="2741" from-port="0" to-layer="2742" to-port="2" />
		<edge from-layer="2742" from-port="3" to-layer="2743" to-port="0" />
		<edge from-layer="2743" from-port="1" to-layer="2745" to-port="0" />
		<edge from-layer="2744" from-port="0" to-layer="2745" to-port="1" />
		<edge from-layer="2745" from-port="2" to-layer="2746" to-port="0" />
		<edge from-layer="2746" from-port="1" to-layer="2748" to-port="0" />
		<edge from-layer="2747" from-port="0" to-layer="2748" to-port="1" />
		<edge from-layer="2748" from-port="2" to-layer="2758" to-port="0" />
		<edge from-layer="2749" from-port="0" to-layer="2751" to-port="1" />
		<edge from-layer="2750" from-port="0" to-layer="2751" to-port="2" />
		<edge from-layer="2751" from-port="3" to-layer="2752" to-port="0" />
		<edge from-layer="2752" from-port="1" to-layer="2754" to-port="0" />
		<edge from-layer="2753" from-port="0" to-layer="2754" to-port="1" />
		<edge from-layer="2754" from-port="2" to-layer="2755" to-port="0" />
		<edge from-layer="2755" from-port="1" to-layer="2757" to-port="0" />
		<edge from-layer="2756" from-port="0" to-layer="2757" to-port="1" />
		<edge from-layer="2757" from-port="2" to-layer="2758" to-port="1" />
		<edge from-layer="2758" from-port="2" to-layer="2759" to-port="0" />
		<edge from-layer="2759" from-port="1" to-layer="2760" to-port="1" />
		<edge from-layer="2760" from-port="2" to-layer="2766" to-port="1" />
		<edge from-layer="2760" from-port="2" to-layer="2761" to-port="0" />
		<edge from-layer="2761" from-port="1" to-layer="2763" to-port="0" />
		<edge from-layer="2762" from-port="1" to-layer="2763" to-port="1" />
		<edge from-layer="2763" from-port="2" to-layer="2765" to-port="0" />
		<edge from-layer="2764" from-port="0" to-layer="2765" to-port="1" />
		<edge from-layer="2765" from-port="2" to-layer="2766" to-port="2" />
		<edge from-layer="2766" from-port="3" to-layer="2767" to-port="1" />
		<edge from-layer="2767" from-port="2" to-layer="2927" to-port="0" />
		<edge from-layer="2768" from-port="0" to-layer="2769" to-port="0" />
		<edge from-layer="2769" from-port="1" to-layer="2770" to-port="1" />
		<edge from-layer="2770" from-port="2" to-layer="2773" to-port="0" />
		<edge from-layer="2771" from-port="0" to-layer="2772" to-port="0" />
		<edge from-layer="2772" from-port="1" to-layer="2773" to-port="1" />
		<edge from-layer="2773" from-port="2" to-layer="2774" to-port="0" />
		<edge from-layer="2774" from-port="1" to-layer="2777" to-port="0" />
		<edge from-layer="2775" from-port="0" to-layer="2776" to-port="0" />
		<edge from-layer="2776" from-port="1" to-layer="2777" to-port="1" />
		<edge from-layer="2777" from-port="2" to-layer="2780" to-port="0" />
		<edge from-layer="2778" from-port="0" to-layer="2779" to-port="0" />
		<edge from-layer="2779" from-port="1" to-layer="2780" to-port="1" />
		<edge from-layer="2780" from-port="2" to-layer="2787" to-port="0" />
		<edge from-layer="2781" from-port="0" to-layer="2782" to-port="0" />
		<edge from-layer="2782" from-port="1" to-layer="2783" to-port="1" />
		<edge from-layer="2783" from-port="2" to-layer="2786" to-port="0" />
		<edge from-layer="2784" from-port="0" to-layer="2785" to-port="0" />
		<edge from-layer="2785" from-port="1" to-layer="2786" to-port="1" />
		<edge from-layer="2786" from-port="2" to-layer="2787" to-port="1" />
		<edge from-layer="2787" from-port="2" to-layer="2788" to-port="0" />
		<edge from-layer="2788" from-port="2" to-layer="2827" to-port="0" />
		<edge from-layer="2789" from-port="0" to-layer="2790" to-port="0" />
		<edge from-layer="2790" from-port="1" to-layer="2791" to-port="1" />
		<edge from-layer="2791" from-port="2" to-layer="2794" to-port="0" />
		<edge from-layer="2792" from-port="0" to-layer="2793" to-port="0" />
		<edge from-layer="2793" from-port="1" to-layer="2794" to-port="1" />
		<edge from-layer="2794" from-port="2" to-layer="2795" to-port="0" />
		<edge from-layer="2794" from-port="2" to-layer="2826" to-port="0" />
		<edge from-layer="2795" from-port="1" to-layer="2799" to-port="0" />
		<edge from-layer="2795" from-port="1" to-layer="2822" to-port="0" />
		<edge from-layer="2795" from-port="1" to-layer="2802" to-port="0" />
		<edge from-layer="2795" from-port="1" to-layer="2811" to-port="0" />
		<edge from-layer="2796" from-port="0" to-layer="2799" to-port="1" />
		<edge from-layer="2797" from-port="0" to-layer="2799" to-port="2" />
		<edge from-layer="2798" from-port="0" to-layer="2799" to-port="3" />
		<edge from-layer="2799" from-port="4" to-layer="2820" to-port="0" />
		<edge from-layer="2800" from-port="0" to-layer="2802" to-port="1" />
		<edge from-layer="2801" from-port="0" to-layer="2802" to-port="2" />
		<edge from-layer="2802" from-port="3" to-layer="2803" to-port="0" />
		<edge from-layer="2803" from-port="1" to-layer="2805" to-port="0" />
		<edge from-layer="2804" from-port="0" to-layer="2805" to-port="1" />
		<edge from-layer="2805" from-port="2" to-layer="2806" to-port="0" />
		<edge from-layer="2806" from-port="1" to-layer="2808" to-port="0" />
		<edge from-layer="2807" from-port="0" to-layer="2808" to-port="1" />
		<edge from-layer="2808" from-port="2" to-layer="2818" to-port="0" />
		<edge from-layer="2809" from-port="0" to-layer="2811" to-port="1" />
		<edge from-layer="2810" from-port="0" to-layer="2811" to-port="2" />
		<edge from-layer="2811" from-port="3" to-layer="2812" to-port="0" />
		<edge from-layer="2812" from-port="1" to-layer="2814" to-port="0" />
		<edge from-layer="2813" from-port="0" to-layer="2814" to-port="1" />
		<edge from-layer="2814" from-port="2" to-layer="2815" to-port="0" />
		<edge from-layer="2815" from-port="1" to-layer="2817" to-port="0" />
		<edge from-layer="2816" from-port="0" to-layer="2817" to-port="1" />
		<edge from-layer="2817" from-port="2" to-layer="2818" to-port="1" />
		<edge from-layer="2818" from-port="2" to-layer="2819" to-port="0" />
		<edge from-layer="2819" from-port="1" to-layer="2820" to-port="1" />
		<edge from-layer="2820" from-port="2" to-layer="2826" to-port="1" />
		<edge from-layer="2820" from-port="2" to-layer="2821" to-port="0" />
		<edge from-layer="2821" from-port="1" to-layer="2823" to-port="0" />
		<edge from-layer="2822" from-port="1" to-layer="2823" to-port="1" />
		<edge from-layer="2823" from-port="2" to-layer="2825" to-port="0" />
		<edge from-layer="2824" from-port="0" to-layer="2825" to-port="1" />
		<edge from-layer="2825" from-port="2" to-layer="2826" to-port="2" />
		<edge from-layer="2826" from-port="3" to-layer="2827" to-port="1" />
		<edge from-layer="2827" from-port="2" to-layer="2828" to-port="0" />
		<edge from-layer="2828" from-port="1" to-layer="2842" to-port="1" />
		<edge from-layer="2828" from-port="1" to-layer="2831" to-port="0" />
		<edge from-layer="2829" from-port="0" to-layer="2830" to-port="0" />
		<edge from-layer="2830" from-port="1" to-layer="2831" to-port="1" />
		<edge from-layer="2831" from-port="2" to-layer="2834" to-port="0" />
		<edge from-layer="2832" from-port="0" to-layer="2833" to-port="0" />
		<edge from-layer="2833" from-port="1" to-layer="2834" to-port="1" />
		<edge from-layer="2834" from-port="2" to-layer="2835" to-port="0" />
		<edge from-layer="2835" from-port="1" to-layer="2838" to-port="0" />
		<edge from-layer="2836" from-port="0" to-layer="2837" to-port="0" />
		<edge from-layer="2837" from-port="1" to-layer="2838" to-port="1" />
		<edge from-layer="2838" from-port="2" to-layer="2841" to-port="0" />
		<edge from-layer="2839" from-port="0" to-layer="2840" to-port="0" />
		<edge from-layer="2840" from-port="1" to-layer="2841" to-port="1" />
		<edge from-layer="2841" from-port="2" to-layer="2842" to-port="0" />
		<edge from-layer="2842" from-port="2" to-layer="2843" to-port="0" />
		<edge from-layer="2843" from-port="1" to-layer="2846" to-port="0" />
		<edge from-layer="2843" from-port="1" to-layer="2857" to-port="1" />
		<edge from-layer="2844" from-port="0" to-layer="2845" to-port="0" />
		<edge from-layer="2845" from-port="1" to-layer="2846" to-port="1" />
		<edge from-layer="2846" from-port="2" to-layer="2849" to-port="0" />
		<edge from-layer="2847" from-port="0" to-layer="2848" to-port="0" />
		<edge from-layer="2848" from-port="1" to-layer="2849" to-port="1" />
		<edge from-layer="2849" from-port="2" to-layer="2850" to-port="0" />
		<edge from-layer="2850" from-port="1" to-layer="2853" to-port="0" />
		<edge from-layer="2851" from-port="0" to-layer="2852" to-port="0" />
		<edge from-layer="2852" from-port="1" to-layer="2853" to-port="1" />
		<edge from-layer="2853" from-port="2" to-layer="2856" to-port="0" />
		<edge from-layer="2854" from-port="0" to-layer="2855" to-port="0" />
		<edge from-layer="2855" from-port="1" to-layer="2856" to-port="1" />
		<edge from-layer="2856" from-port="2" to-layer="2857" to-port="0" />
		<edge from-layer="2857" from-port="2" to-layer="2858" to-port="0" />
		<edge from-layer="2858" from-port="1" to-layer="2872" to-port="1" />
		<edge from-layer="2858" from-port="1" to-layer="2861" to-port="0" />
		<edge from-layer="2859" from-port="0" to-layer="2860" to-port="0" />
		<edge from-layer="2860" from-port="1" to-layer="2861" to-port="1" />
		<edge from-layer="2861" from-port="2" to-layer="2864" to-port="0" />
		<edge from-layer="2862" from-port="0" to-layer="2863" to-port="0" />
		<edge from-layer="2863" from-port="1" to-layer="2864" to-port="1" />
		<edge from-layer="2864" from-port="2" to-layer="2865" to-port="0" />
		<edge from-layer="2865" from-port="1" to-layer="2868" to-port="0" />
		<edge from-layer="2866" from-port="0" to-layer="2867" to-port="0" />
		<edge from-layer="2867" from-port="1" to-layer="2868" to-port="1" />
		<edge from-layer="2868" from-port="2" to-layer="2871" to-port="0" />
		<edge from-layer="2869" from-port="0" to-layer="2870" to-port="0" />
		<edge from-layer="2870" from-port="1" to-layer="2871" to-port="1" />
		<edge from-layer="2871" from-port="2" to-layer="2872" to-port="0" />
		<edge from-layer="2872" from-port="2" to-layer="2873" to-port="0" />
		<edge from-layer="2873" from-port="1" to-layer="2876" to-port="0" />
		<edge from-layer="2873" from-port="1" to-layer="2887" to-port="1" />
		<edge from-layer="2874" from-port="0" to-layer="2875" to-port="0" />
		<edge from-layer="2875" from-port="1" to-layer="2876" to-port="1" />
		<edge from-layer="2876" from-port="2" to-layer="2879" to-port="0" />
		<edge from-layer="2877" from-port="0" to-layer="2878" to-port="0" />
		<edge from-layer="2878" from-port="1" to-layer="2879" to-port="1" />
		<edge from-layer="2879" from-port="2" to-layer="2880" to-port="0" />
		<edge from-layer="2880" from-port="1" to-layer="2883" to-port="0" />
		<edge from-layer="2881" from-port="0" to-layer="2882" to-port="0" />
		<edge from-layer="2882" from-port="1" to-layer="2883" to-port="1" />
		<edge from-layer="2883" from-port="2" to-layer="2886" to-port="0" />
		<edge from-layer="2884" from-port="0" to-layer="2885" to-port="0" />
		<edge from-layer="2885" from-port="1" to-layer="2886" to-port="1" />
		<edge from-layer="2886" from-port="2" to-layer="2887" to-port="0" />
		<edge from-layer="2887" from-port="2" to-layer="2888" to-port="0" />
		<edge from-layer="2888" from-port="1" to-layer="2891" to-port="0" />
		<edge from-layer="2888" from-port="1" to-layer="3093" to-port="0" />
		<edge from-layer="2888" from-port="1" to-layer="3293" to-port="0" />
		<edge from-layer="2888" from-port="1" to-layer="3203" to-port="1" />
		<edge from-layer="2889" from-port="0" to-layer="2890" to-port="0" />
		<edge from-layer="2890" from-port="1" to-layer="2891" to-port="1" />
		<edge from-layer="2891" from-port="2" to-layer="2894" to-port="0" />
		<edge from-layer="2892" from-port="0" to-layer="2893" to-port="0" />
		<edge from-layer="2893" from-port="1" to-layer="2894" to-port="1" />
		<edge from-layer="2894" from-port="2" to-layer="2926" to-port="0" />
		<edge from-layer="2894" from-port="2" to-layer="2895" to-port="0" />
		<edge from-layer="2895" from-port="1" to-layer="2911" to-port="0" />
		<edge from-layer="2895" from-port="1" to-layer="2899" to-port="0" />
		<edge from-layer="2895" from-port="1" to-layer="2922" to-port="0" />
		<edge from-layer="2895" from-port="1" to-layer="2902" to-port="0" />
		<edge from-layer="2896" from-port="0" to-layer="2899" to-port="1" />
		<edge from-layer="2897" from-port="0" to-layer="2899" to-port="2" />
		<edge from-layer="2898" from-port="0" to-layer="2899" to-port="3" />
		<edge from-layer="2899" from-port="4" to-layer="2920" to-port="0" />
		<edge from-layer="2900" from-port="0" to-layer="2902" to-port="1" />
		<edge from-layer="2901" from-port="0" to-layer="2902" to-port="2" />
		<edge from-layer="2902" from-port="3" to-layer="2903" to-port="0" />
		<edge from-layer="2903" from-port="1" to-layer="2905" to-port="0" />
		<edge from-layer="2904" from-port="0" to-layer="2905" to-port="1" />
		<edge from-layer="2905" from-port="2" to-layer="2906" to-port="0" />
		<edge from-layer="2906" from-port="1" to-layer="2908" to-port="0" />
		<edge from-layer="2907" from-port="0" to-layer="2908" to-port="1" />
		<edge from-layer="2908" from-port="2" to-layer="2918" to-port="0" />
		<edge from-layer="2909" from-port="0" to-layer="2911" to-port="1" />
		<edge from-layer="2910" from-port="0" to-layer="2911" to-port="2" />
		<edge from-layer="2911" from-port="3" to-layer="2912" to-port="0" />
		<edge from-layer="2912" from-port="1" to-layer="2914" to-port="0" />
		<edge from-layer="2913" from-port="0" to-layer="2914" to-port="1" />
		<edge from-layer="2914" from-port="2" to-layer="2915" to-port="0" />
		<edge from-layer="2915" from-port="1" to-layer="2917" to-port="0" />
		<edge from-layer="2916" from-port="0" to-layer="2917" to-port="1" />
		<edge from-layer="2917" from-port="2" to-layer="2918" to-port="1" />
		<edge from-layer="2918" from-port="2" to-layer="2919" to-port="0" />
		<edge from-layer="2919" from-port="1" to-layer="2920" to-port="1" />
		<edge from-layer="2920" from-port="2" to-layer="2921" to-port="0" />
		<edge from-layer="2920" from-port="2" to-layer="2926" to-port="1" />
		<edge from-layer="2921" from-port="1" to-layer="2923" to-port="0" />
		<edge from-layer="2922" from-port="1" to-layer="2923" to-port="1" />
		<edge from-layer="2923" from-port="2" to-layer="2925" to-port="0" />
		<edge from-layer="2924" from-port="0" to-layer="2925" to-port="1" />
		<edge from-layer="2925" from-port="2" to-layer="2926" to-port="2" />
		<edge from-layer="2926" from-port="3" to-layer="2927" to-port="1" />
		<edge from-layer="2927" from-port="2" to-layer="3069" to-port="0" />
		<edge from-layer="2928" from-port="0" to-layer="2929" to-port="0" />
		<edge from-layer="2929" from-port="1" to-layer="2930" to-port="1" />
		<edge from-layer="2930" from-port="2" to-layer="2933" to-port="0" />
		<edge from-layer="2931" from-port="0" to-layer="2932" to-port="0" />
		<edge from-layer="2932" from-port="1" to-layer="2933" to-port="1" />
		<edge from-layer="2933" from-port="2" to-layer="2934" to-port="0" />
		<edge from-layer="2934" from-port="1" to-layer="2937" to-port="0" />
		<edge from-layer="2935" from-port="0" to-layer="2936" to-port="0" />
		<edge from-layer="2936" from-port="1" to-layer="2937" to-port="1" />
		<edge from-layer="2937" from-port="2" to-layer="2940" to-port="0" />
		<edge from-layer="2938" from-port="0" to-layer="2939" to-port="0" />
		<edge from-layer="2939" from-port="1" to-layer="2940" to-port="1" />
		<edge from-layer="2940" from-port="2" to-layer="2941" to-port="0" />
		<edge from-layer="2941" from-port="1" to-layer="2944" to-port="0" />
		<edge from-layer="2942" from-port="0" to-layer="2943" to-port="0" />
		<edge from-layer="2943" from-port="1" to-layer="2944" to-port="1" />
		<edge from-layer="2944" from-port="2" to-layer="2947" to-port="0" />
		<edge from-layer="2945" from-port="0" to-layer="2946" to-port="0" />
		<edge from-layer="2946" from-port="1" to-layer="2947" to-port="1" />
		<edge from-layer="2947" from-port="2" to-layer="2961" to-port="0" />
		<edge from-layer="2948" from-port="0" to-layer="2949" to-port="0" />
		<edge from-layer="2949" from-port="1" to-layer="2950" to-port="1" />
		<edge from-layer="2950" from-port="2" to-layer="2953" to-port="0" />
		<edge from-layer="2951" from-port="0" to-layer="2952" to-port="0" />
		<edge from-layer="2952" from-port="1" to-layer="2953" to-port="1" />
		<edge from-layer="2953" from-port="2" to-layer="2954" to-port="0" />
		<edge from-layer="2954" from-port="1" to-layer="2957" to-port="0" />
		<edge from-layer="2955" from-port="0" to-layer="2956" to-port="0" />
		<edge from-layer="2956" from-port="1" to-layer="2957" to-port="1" />
		<edge from-layer="2957" from-port="2" to-layer="2960" to-port="0" />
		<edge from-layer="2958" from-port="0" to-layer="2959" to-port="0" />
		<edge from-layer="2959" from-port="1" to-layer="2960" to-port="1" />
		<edge from-layer="2960" from-port="2" to-layer="2961" to-port="1" />
		<edge from-layer="2961" from-port="2" to-layer="2968" to-port="0" />
		<edge from-layer="2962" from-port="0" to-layer="2963" to-port="0" />
		<edge from-layer="2963" from-port="1" to-layer="2964" to-port="1" />
		<edge from-layer="2964" from-port="2" to-layer="2967" to-port="0" />
		<edge from-layer="2965" from-port="0" to-layer="2966" to-port="0" />
		<edge from-layer="2966" from-port="1" to-layer="2967" to-port="1" />
		<edge from-layer="2967" from-port="2" to-layer="2968" to-port="1" />
		<edge from-layer="2968" from-port="2" to-layer="2969" to-port="0" />
		<edge from-layer="2969" from-port="2" to-layer="2970" to-port="0" />
		<edge from-layer="2970" from-port="1" to-layer="2973" to-port="0" />
		<edge from-layer="2970" from-port="1" to-layer="2984" to-port="1" />
		<edge from-layer="2971" from-port="0" to-layer="2972" to-port="0" />
		<edge from-layer="2972" from-port="1" to-layer="2973" to-port="1" />
		<edge from-layer="2973" from-port="2" to-layer="2976" to-port="0" />
		<edge from-layer="2974" from-port="0" to-layer="2975" to-port="0" />
		<edge from-layer="2975" from-port="1" to-layer="2976" to-port="1" />
		<edge from-layer="2976" from-port="2" to-layer="2977" to-port="0" />
		<edge from-layer="2977" from-port="1" to-layer="2980" to-port="0" />
		<edge from-layer="2978" from-port="0" to-layer="2979" to-port="0" />
		<edge from-layer="2979" from-port="1" to-layer="2980" to-port="1" />
		<edge from-layer="2980" from-port="2" to-layer="2983" to-port="0" />
		<edge from-layer="2981" from-port="0" to-layer="2982" to-port="0" />
		<edge from-layer="2982" from-port="1" to-layer="2983" to-port="1" />
		<edge from-layer="2983" from-port="2" to-layer="2984" to-port="0" />
		<edge from-layer="2984" from-port="2" to-layer="2985" to-port="0" />
		<edge from-layer="2985" from-port="1" to-layer="2988" to-port="0" />
		<edge from-layer="2985" from-port="1" to-layer="2999" to-port="1" />
		<edge from-layer="2986" from-port="0" to-layer="2987" to-port="0" />
		<edge from-layer="2987" from-port="1" to-layer="2988" to-port="1" />
		<edge from-layer="2988" from-port="2" to-layer="2991" to-port="0" />
		<edge from-layer="2989" from-port="0" to-layer="2990" to-port="0" />
		<edge from-layer="2990" from-port="1" to-layer="2991" to-port="1" />
		<edge from-layer="2991" from-port="2" to-layer="2992" to-port="0" />
		<edge from-layer="2992" from-port="1" to-layer="2995" to-port="0" />
		<edge from-layer="2993" from-port="0" to-layer="2994" to-port="0" />
		<edge from-layer="2994" from-port="1" to-layer="2995" to-port="1" />
		<edge from-layer="2995" from-port="2" to-layer="2998" to-port="0" />
		<edge from-layer="2996" from-port="0" to-layer="2997" to-port="0" />
		<edge from-layer="2997" from-port="1" to-layer="2998" to-port="1" />
		<edge from-layer="2998" from-port="2" to-layer="2999" to-port="0" />
		<edge from-layer="2999" from-port="2" to-layer="3000" to-port="0" />
		<edge from-layer="3000" from-port="1" to-layer="3014" to-port="1" />
		<edge from-layer="3000" from-port="1" to-layer="3003" to-port="0" />
		<edge from-layer="3001" from-port="0" to-layer="3002" to-port="0" />
		<edge from-layer="3002" from-port="1" to-layer="3003" to-port="1" />
		<edge from-layer="3003" from-port="2" to-layer="3006" to-port="0" />
		<edge from-layer="3004" from-port="0" to-layer="3005" to-port="0" />
		<edge from-layer="3005" from-port="1" to-layer="3006" to-port="1" />
		<edge from-layer="3006" from-port="2" to-layer="3007" to-port="0" />
		<edge from-layer="3007" from-port="1" to-layer="3010" to-port="0" />
		<edge from-layer="3008" from-port="0" to-layer="3009" to-port="0" />
		<edge from-layer="3009" from-port="1" to-layer="3010" to-port="1" />
		<edge from-layer="3010" from-port="2" to-layer="3013" to-port="0" />
		<edge from-layer="3011" from-port="0" to-layer="3012" to-port="0" />
		<edge from-layer="3012" from-port="1" to-layer="3013" to-port="1" />
		<edge from-layer="3013" from-port="2" to-layer="3014" to-port="0" />
		<edge from-layer="3014" from-port="2" to-layer="3015" to-port="0" />
		<edge from-layer="3015" from-port="1" to-layer="3018" to-port="0" />
		<edge from-layer="3015" from-port="1" to-layer="3029" to-port="1" />
		<edge from-layer="3016" from-port="0" to-layer="3017" to-port="0" />
		<edge from-layer="3017" from-port="1" to-layer="3018" to-port="1" />
		<edge from-layer="3018" from-port="2" to-layer="3021" to-port="0" />
		<edge from-layer="3019" from-port="0" to-layer="3020" to-port="0" />
		<edge from-layer="3020" from-port="1" to-layer="3021" to-port="1" />
		<edge from-layer="3021" from-port="2" to-layer="3022" to-port="0" />
		<edge from-layer="3022" from-port="1" to-layer="3025" to-port="0" />
		<edge from-layer="3023" from-port="0" to-layer="3024" to-port="0" />
		<edge from-layer="3024" from-port="1" to-layer="3025" to-port="1" />
		<edge from-layer="3025" from-port="2" to-layer="3028" to-port="0" />
		<edge from-layer="3026" from-port="0" to-layer="3027" to-port="0" />
		<edge from-layer="3027" from-port="1" to-layer="3028" to-port="1" />
		<edge from-layer="3028" from-port="2" to-layer="3029" to-port="0" />
		<edge from-layer="3029" from-port="2" to-layer="3030" to-port="0" />
		<edge from-layer="3030" from-port="1" to-layer="3132" to-port="0" />
		<edge from-layer="3030" from-port="1" to-layer="3033" to-port="0" />
		<edge from-layer="3030" from-port="1" to-layer="3298" to-port="1" />
		<edge from-layer="3030" from-port="1" to-layer="3206" to-port="0" />
		<edge from-layer="3031" from-port="0" to-layer="3032" to-port="0" />
		<edge from-layer="3032" from-port="1" to-layer="3033" to-port="1" />
		<edge from-layer="3033" from-port="2" to-layer="3036" to-port="0" />
		<edge from-layer="3034" from-port="0" to-layer="3035" to-port="0" />
		<edge from-layer="3035" from-port="1" to-layer="3036" to-port="1" />
		<edge from-layer="3036" from-port="2" to-layer="3037" to-port="0" />
		<edge from-layer="3036" from-port="2" to-layer="3068" to-port="0" />
		<edge from-layer="3037" from-port="1" to-layer="3044" to-port="0" />
		<edge from-layer="3037" from-port="1" to-layer="3053" to-port="0" />
		<edge from-layer="3037" from-port="1" to-layer="3041" to-port="0" />
		<edge from-layer="3037" from-port="1" to-layer="3064" to-port="0" />
		<edge from-layer="3038" from-port="0" to-layer="3041" to-port="1" />
		<edge from-layer="3039" from-port="0" to-layer="3041" to-port="2" />
		<edge from-layer="3040" from-port="0" to-layer="3041" to-port="3" />
		<edge from-layer="3041" from-port="4" to-layer="3062" to-port="0" />
		<edge from-layer="3042" from-port="0" to-layer="3044" to-port="1" />
		<edge from-layer="3043" from-port="0" to-layer="3044" to-port="2" />
		<edge from-layer="3044" from-port="3" to-layer="3045" to-port="0" />
		<edge from-layer="3045" from-port="1" to-layer="3047" to-port="0" />
		<edge from-layer="3046" from-port="0" to-layer="3047" to-port="1" />
		<edge from-layer="3047" from-port="2" to-layer="3048" to-port="0" />
		<edge from-layer="3048" from-port="1" to-layer="3050" to-port="0" />
		<edge from-layer="3049" from-port="0" to-layer="3050" to-port="1" />
		<edge from-layer="3050" from-port="2" to-layer="3060" to-port="0" />
		<edge from-layer="3051" from-port="0" to-layer="3053" to-port="1" />
		<edge from-layer="3052" from-port="0" to-layer="3053" to-port="2" />
		<edge from-layer="3053" from-port="3" to-layer="3054" to-port="0" />
		<edge from-layer="3054" from-port="1" to-layer="3056" to-port="0" />
		<edge from-layer="3055" from-port="0" to-layer="3056" to-port="1" />
		<edge from-layer="3056" from-port="2" to-layer="3057" to-port="0" />
		<edge from-layer="3057" from-port="1" to-layer="3059" to-port="0" />
		<edge from-layer="3058" from-port="0" to-layer="3059" to-port="1" />
		<edge from-layer="3059" from-port="2" to-layer="3060" to-port="1" />
		<edge from-layer="3060" from-port="2" to-layer="3061" to-port="0" />
		<edge from-layer="3061" from-port="1" to-layer="3062" to-port="1" />
		<edge from-layer="3062" from-port="2" to-layer="3063" to-port="0" />
		<edge from-layer="3062" from-port="2" to-layer="3068" to-port="1" />
		<edge from-layer="3063" from-port="1" to-layer="3065" to-port="0" />
		<edge from-layer="3064" from-port="1" to-layer="3065" to-port="1" />
		<edge from-layer="3065" from-port="2" to-layer="3067" to-port="0" />
		<edge from-layer="3066" from-port="0" to-layer="3067" to-port="1" />
		<edge from-layer="3067" from-port="2" to-layer="3068" to-port="2" />
		<edge from-layer="3068" from-port="3" to-layer="3069" to-port="1" />
		<edge from-layer="3069" from-port="2" to-layer="3070" to-port="0" />
		<edge from-layer="3070" from-port="1" to-layer="3083" to-port="0" />
		<edge from-layer="3070" from-port="1" to-layer="3071" to-port="0" />
		<edge from-layer="3071" from-port="1" to-layer="3079" to-port="0" />
		<edge from-layer="3071" from-port="1" to-layer="3075" to-port="0" />
		<edge from-layer="3072" from-port="0" to-layer="3075" to-port="1" />
		<edge from-layer="3073" from-port="0" to-layer="3075" to-port="2" />
		<edge from-layer="3074" from-port="0" to-layer="3075" to-port="3" />
		<edge from-layer="3075" from-port="4" to-layer="3077" to-port="0" />
		<edge from-layer="3076" from-port="0" to-layer="3077" to-port="1" />
		<edge from-layer="3077" from-port="2" to-layer="3083" to-port="1" />
		<edge from-layer="3077" from-port="2" to-layer="3078" to-port="0" />
		<edge from-layer="3078" from-port="1" to-layer="3080" to-port="0" />
		<edge from-layer="3079" from-port="1" to-layer="3080" to-port="1" />
		<edge from-layer="3080" from-port="2" to-layer="3082" to-port="0" />
		<edge from-layer="3081" from-port="0" to-layer="3082" to-port="1" />
		<edge from-layer="3082" from-port="2" to-layer="3083" to-port="2" />
		<edge from-layer="3083" from-port="3" to-layer="3313" to-port="0" />
		<edge from-layer="3084" from-port="0" to-layer="3085" to-port="0" />
		<edge from-layer="3085" from-port="1" to-layer="3086" to-port="1" />
		<edge from-layer="3086" from-port="2" to-layer="3089" to-port="0" />
		<edge from-layer="3087" from-port="0" to-layer="3088" to-port="0" />
		<edge from-layer="3088" from-port="1" to-layer="3089" to-port="1" />
		<edge from-layer="3089" from-port="2" to-layer="3090" to-port="0" />
		<edge from-layer="3090" from-port="2" to-layer="3129" to-port="0" />
		<edge from-layer="3091" from-port="0" to-layer="3092" to-port="0" />
		<edge from-layer="3092" from-port="1" to-layer="3093" to-port="1" />
		<edge from-layer="3093" from-port="2" to-layer="3096" to-port="0" />
		<edge from-layer="3094" from-port="0" to-layer="3095" to-port="0" />
		<edge from-layer="3095" from-port="1" to-layer="3096" to-port="1" />
		<edge from-layer="3096" from-port="2" to-layer="3097" to-port="0" />
		<edge from-layer="3096" from-port="2" to-layer="3128" to-port="0" />
		<edge from-layer="3097" from-port="1" to-layer="3124" to-port="0" />
		<edge from-layer="3097" from-port="1" to-layer="3113" to-port="0" />
		<edge from-layer="3097" from-port="1" to-layer="3104" to-port="0" />
		<edge from-layer="3097" from-port="1" to-layer="3101" to-port="0" />
		<edge from-layer="3098" from-port="0" to-layer="3101" to-port="1" />
		<edge from-layer="3099" from-port="0" to-layer="3101" to-port="2" />
		<edge from-layer="3100" from-port="0" to-layer="3101" to-port="3" />
		<edge from-layer="3101" from-port="4" to-layer="3122" to-port="0" />
		<edge from-layer="3102" from-port="0" to-layer="3104" to-port="1" />
		<edge from-layer="3103" from-port="0" to-layer="3104" to-port="2" />
		<edge from-layer="3104" from-port="3" to-layer="3105" to-port="0" />
		<edge from-layer="3105" from-port="1" to-layer="3107" to-port="0" />
		<edge from-layer="3106" from-port="0" to-layer="3107" to-port="1" />
		<edge from-layer="3107" from-port="2" to-layer="3108" to-port="0" />
		<edge from-layer="3108" from-port="1" to-layer="3110" to-port="0" />
		<edge from-layer="3109" from-port="0" to-layer="3110" to-port="1" />
		<edge from-layer="3110" from-port="2" to-layer="3120" to-port="0" />
		<edge from-layer="3111" from-port="0" to-layer="3113" to-port="1" />
		<edge from-layer="3112" from-port="0" to-layer="3113" to-port="2" />
		<edge from-layer="3113" from-port="3" to-layer="3114" to-port="0" />
		<edge from-layer="3114" from-port="1" to-layer="3116" to-port="0" />
		<edge from-layer="3115" from-port="0" to-layer="3116" to-port="1" />
		<edge from-layer="3116" from-port="2" to-layer="3117" to-port="0" />
		<edge from-layer="3117" from-port="1" to-layer="3119" to-port="0" />
		<edge from-layer="3118" from-port="0" to-layer="3119" to-port="1" />
		<edge from-layer="3119" from-port="2" to-layer="3120" to-port="1" />
		<edge from-layer="3120" from-port="2" to-layer="3121" to-port="0" />
		<edge from-layer="3121" from-port="1" to-layer="3122" to-port="1" />
		<edge from-layer="3122" from-port="2" to-layer="3128" to-port="1" />
		<edge from-layer="3122" from-port="2" to-layer="3123" to-port="0" />
		<edge from-layer="3123" from-port="1" to-layer="3125" to-port="0" />
		<edge from-layer="3124" from-port="1" to-layer="3125" to-port="1" />
		<edge from-layer="3125" from-port="2" to-layer="3127" to-port="0" />
		<edge from-layer="3126" from-port="0" to-layer="3127" to-port="1" />
		<edge from-layer="3127" from-port="2" to-layer="3128" to-port="2" />
		<edge from-layer="3128" from-port="3" to-layer="3129" to-port="1" />
		<edge from-layer="3129" from-port="2" to-layer="3168" to-port="0" />
		<edge from-layer="3130" from-port="0" to-layer="3131" to-port="0" />
		<edge from-layer="3131" from-port="1" to-layer="3132" to-port="1" />
		<edge from-layer="3132" from-port="2" to-layer="3135" to-port="0" />
		<edge from-layer="3133" from-port="0" to-layer="3134" to-port="0" />
		<edge from-layer="3134" from-port="1" to-layer="3135" to-port="1" />
		<edge from-layer="3135" from-port="2" to-layer="3136" to-port="0" />
		<edge from-layer="3135" from-port="2" to-layer="3167" to-port="0" />
		<edge from-layer="3136" from-port="1" to-layer="3143" to-port="0" />
		<edge from-layer="3136" from-port="1" to-layer="3152" to-port="0" />
		<edge from-layer="3136" from-port="1" to-layer="3140" to-port="0" />
		<edge from-layer="3136" from-port="1" to-layer="3163" to-port="0" />
		<edge from-layer="3137" from-port="0" to-layer="3140" to-port="1" />
		<edge from-layer="3138" from-port="0" to-layer="3140" to-port="2" />
		<edge from-layer="3139" from-port="0" to-layer="3140" to-port="3" />
		<edge from-layer="3140" from-port="4" to-layer="3161" to-port="0" />
		<edge from-layer="3141" from-port="0" to-layer="3143" to-port="1" />
		<edge from-layer="3142" from-port="0" to-layer="3143" to-port="2" />
		<edge from-layer="3143" from-port="3" to-layer="3144" to-port="0" />
		<edge from-layer="3144" from-port="1" to-layer="3146" to-port="0" />
		<edge from-layer="3145" from-port="0" to-layer="3146" to-port="1" />
		<edge from-layer="3146" from-port="2" to-layer="3147" to-port="0" />
		<edge from-layer="3147" from-port="1" to-layer="3149" to-port="0" />
		<edge from-layer="3148" from-port="0" to-layer="3149" to-port="1" />
		<edge from-layer="3149" from-port="2" to-layer="3159" to-port="0" />
		<edge from-layer="3150" from-port="0" to-layer="3152" to-port="1" />
		<edge from-layer="3151" from-port="0" to-layer="3152" to-port="2" />
		<edge from-layer="3152" from-port="3" to-layer="3153" to-port="0" />
		<edge from-layer="3153" from-port="1" to-layer="3155" to-port="0" />
		<edge from-layer="3154" from-port="0" to-layer="3155" to-port="1" />
		<edge from-layer="3155" from-port="2" to-layer="3156" to-port="0" />
		<edge from-layer="3156" from-port="1" to-layer="3158" to-port="0" />
		<edge from-layer="3157" from-port="0" to-layer="3158" to-port="1" />
		<edge from-layer="3158" from-port="2" to-layer="3159" to-port="1" />
		<edge from-layer="3159" from-port="2" to-layer="3160" to-port="0" />
		<edge from-layer="3160" from-port="1" to-layer="3161" to-port="1" />
		<edge from-layer="3161" from-port="2" to-layer="3162" to-port="0" />
		<edge from-layer="3161" from-port="2" to-layer="3167" to-port="1" />
		<edge from-layer="3162" from-port="1" to-layer="3164" to-port="0" />
		<edge from-layer="3163" from-port="1" to-layer="3164" to-port="1" />
		<edge from-layer="3164" from-port="2" to-layer="3166" to-port="0" />
		<edge from-layer="3165" from-port="0" to-layer="3166" to-port="1" />
		<edge from-layer="3166" from-port="2" to-layer="3167" to-port="2" />
		<edge from-layer="3167" from-port="3" to-layer="3168" to-port="1" />
		<edge from-layer="3168" from-port="2" to-layer="3169" to-port="0" />
		<edge from-layer="3169" from-port="1" to-layer="3170" to-port="0" />
		<edge from-layer="3169" from-port="1" to-layer="3182" to-port="0" />
		<edge from-layer="3170" from-port="1" to-layer="3178" to-port="0" />
		<edge from-layer="3170" from-port="1" to-layer="3174" to-port="0" />
		<edge from-layer="3171" from-port="0" to-layer="3174" to-port="1" />
		<edge from-layer="3172" from-port="0" to-layer="3174" to-port="2" />
		<edge from-layer="3173" from-port="0" to-layer="3174" to-port="3" />
		<edge from-layer="3174" from-port="4" to-layer="3176" to-port="0" />
		<edge from-layer="3175" from-port="0" to-layer="3176" to-port="1" />
		<edge from-layer="3176" from-port="2" to-layer="3182" to-port="1" />
		<edge from-layer="3176" from-port="2" to-layer="3177" to-port="0" />
		<edge from-layer="3177" from-port="1" to-layer="3179" to-port="0" />
		<edge from-layer="3178" from-port="1" to-layer="3179" to-port="1" />
		<edge from-layer="3179" from-port="2" to-layer="3181" to-port="0" />
		<edge from-layer="3180" from-port="0" to-layer="3181" to-port="1" />
		<edge from-layer="3181" from-port="2" to-layer="3182" to-port="2" />
		<edge from-layer="3182" from-port="3" to-layer="3313" to-port="1" />
		<edge from-layer="3183" from-port="0" to-layer="3184" to-port="0" />
		<edge from-layer="3184" from-port="1" to-layer="3185" to-port="1" />
		<edge from-layer="3185" from-port="2" to-layer="3188" to-port="0" />
		<edge from-layer="3186" from-port="0" to-layer="3187" to-port="0" />
		<edge from-layer="3187" from-port="1" to-layer="3188" to-port="1" />
		<edge from-layer="3188" from-port="2" to-layer="3189" to-port="0" />
		<edge from-layer="3189" from-port="1" to-layer="3192" to-port="0" />
		<edge from-layer="3190" from-port="0" to-layer="3191" to-port="0" />
		<edge from-layer="3191" from-port="1" to-layer="3192" to-port="1" />
		<edge from-layer="3192" from-port="2" to-layer="3195" to-port="0" />
		<edge from-layer="3193" from-port="0" to-layer="3194" to-port="0" />
		<edge from-layer="3194" from-port="1" to-layer="3195" to-port="1" />
		<edge from-layer="3195" from-port="2" to-layer="3202" to-port="0" />
		<edge from-layer="3196" from-port="0" to-layer="3197" to-port="0" />
		<edge from-layer="3197" from-port="1" to-layer="3198" to-port="1" />
		<edge from-layer="3198" from-port="2" to-layer="3201" to-port="0" />
		<edge from-layer="3199" from-port="0" to-layer="3200" to-port="0" />
		<edge from-layer="3200" from-port="1" to-layer="3201" to-port="1" />
		<edge from-layer="3201" from-port="2" to-layer="3202" to-port="1" />
		<edge from-layer="3202" from-port="2" to-layer="3203" to-port="0" />
		<edge from-layer="3203" from-port="2" to-layer="3242" to-port="0" />
		<edge from-layer="3204" from-port="0" to-layer="3205" to-port="0" />
		<edge from-layer="3205" from-port="1" to-layer="3206" to-port="1" />
		<edge from-layer="3206" from-port="2" to-layer="3209" to-port="0" />
		<edge from-layer="3207" from-port="0" to-layer="3208" to-port="0" />
		<edge from-layer="3208" from-port="1" to-layer="3209" to-port="1" />
		<edge from-layer="3209" from-port="2" to-layer="3210" to-port="0" />
		<edge from-layer="3209" from-port="2" to-layer="3241" to-port="0" />
		<edge from-layer="3210" from-port="1" to-layer="3237" to-port="0" />
		<edge from-layer="3210" from-port="1" to-layer="3226" to-port="0" />
		<edge from-layer="3210" from-port="1" to-layer="3217" to-port="0" />
		<edge from-layer="3210" from-port="1" to-layer="3214" to-port="0" />
		<edge from-layer="3211" from-port="0" to-layer="3214" to-port="1" />
		<edge from-layer="3212" from-port="0" to-layer="3214" to-port="2" />
		<edge from-layer="3213" from-port="0" to-layer="3214" to-port="3" />
		<edge from-layer="3214" from-port="4" to-layer="3235" to-port="0" />
		<edge from-layer="3215" from-port="0" to-layer="3217" to-port="1" />
		<edge from-layer="3216" from-port="0" to-layer="3217" to-port="2" />
		<edge from-layer="3217" from-port="3" to-layer="3218" to-port="0" />
		<edge from-layer="3218" from-port="1" to-layer="3220" to-port="0" />
		<edge from-layer="3219" from-port="0" to-layer="3220" to-port="1" />
		<edge from-layer="3220" from-port="2" to-layer="3221" to-port="0" />
		<edge from-layer="3221" from-port="1" to-layer="3223" to-port="0" />
		<edge from-layer="3222" from-port="0" to-layer="3223" to-port="1" />
		<edge from-layer="3223" from-port="2" to-layer="3233" to-port="0" />
		<edge from-layer="3224" from-port="0" to-layer="3226" to-port="1" />
		<edge from-layer="3225" from-port="0" to-layer="3226" to-port="2" />
		<edge from-layer="3226" from-port="3" to-layer="3227" to-port="0" />
		<edge from-layer="3227" from-port="1" to-layer="3229" to-port="0" />
		<edge from-layer="3228" from-port="0" to-layer="3229" to-port="1" />
		<edge from-layer="3229" from-port="2" to-layer="3230" to-port="0" />
		<edge from-layer="3230" from-port="1" to-layer="3232" to-port="0" />
		<edge from-layer="3231" from-port="0" to-layer="3232" to-port="1" />
		<edge from-layer="3232" from-port="2" to-layer="3233" to-port="1" />
		<edge from-layer="3233" from-port="2" to-layer="3234" to-port="0" />
		<edge from-layer="3234" from-port="1" to-layer="3235" to-port="1" />
		<edge from-layer="3235" from-port="2" to-layer="3241" to-port="1" />
		<edge from-layer="3235" from-port="2" to-layer="3236" to-port="0" />
		<edge from-layer="3236" from-port="1" to-layer="3238" to-port="0" />
		<edge from-layer="3237" from-port="1" to-layer="3238" to-port="1" />
		<edge from-layer="3238" from-port="2" to-layer="3240" to-port="0" />
		<edge from-layer="3239" from-port="0" to-layer="3240" to-port="1" />
		<edge from-layer="3240" from-port="2" to-layer="3241" to-port="2" />
		<edge from-layer="3241" from-port="3" to-layer="3242" to-port="1" />
		<edge from-layer="3242" from-port="2" to-layer="3243" to-port="0" />
		<edge from-layer="3243" from-port="1" to-layer="3244" to-port="0" />
		<edge from-layer="3243" from-port="1" to-layer="3256" to-port="0" />
		<edge from-layer="3244" from-port="1" to-layer="3252" to-port="0" />
		<edge from-layer="3244" from-port="1" to-layer="3248" to-port="0" />
		<edge from-layer="3245" from-port="0" to-layer="3248" to-port="1" />
		<edge from-layer="3246" from-port="0" to-layer="3248" to-port="2" />
		<edge from-layer="3247" from-port="0" to-layer="3248" to-port="3" />
		<edge from-layer="3248" from-port="4" to-layer="3250" to-port="0" />
		<edge from-layer="3249" from-port="0" to-layer="3250" to-port="1" />
		<edge from-layer="3250" from-port="2" to-layer="3251" to-port="0" />
		<edge from-layer="3250" from-port="2" to-layer="3256" to-port="1" />
		<edge from-layer="3251" from-port="1" to-layer="3253" to-port="0" />
		<edge from-layer="3252" from-port="1" to-layer="3253" to-port="1" />
		<edge from-layer="3253" from-port="2" to-layer="3255" to-port="0" />
		<edge from-layer="3254" from-port="0" to-layer="3255" to-port="1" />
		<edge from-layer="3255" from-port="2" to-layer="3256" to-port="2" />
		<edge from-layer="3256" from-port="3" to-layer="3313" to-port="2" />
		<edge from-layer="3257" from-port="0" to-layer="3258" to-port="0" />
		<edge from-layer="3258" from-port="1" to-layer="3259" to-port="1" />
		<edge from-layer="3259" from-port="2" to-layer="3262" to-port="0" />
		<edge from-layer="3260" from-port="0" to-layer="3261" to-port="0" />
		<edge from-layer="3261" from-port="1" to-layer="3262" to-port="1" />
		<edge from-layer="3262" from-port="2" to-layer="3263" to-port="0" />
		<edge from-layer="3263" from-port="1" to-layer="3266" to-port="0" />
		<edge from-layer="3264" from-port="0" to-layer="3265" to-port="0" />
		<edge from-layer="3265" from-port="1" to-layer="3266" to-port="1" />
		<edge from-layer="3266" from-port="2" to-layer="3269" to-port="0" />
		<edge from-layer="3267" from-port="0" to-layer="3268" to-port="0" />
		<edge from-layer="3268" from-port="1" to-layer="3269" to-port="1" />
		<edge from-layer="3269" from-port="2" to-layer="3270" to-port="0" />
		<edge from-layer="3270" from-port="1" to-layer="3273" to-port="0" />
		<edge from-layer="3271" from-port="0" to-layer="3272" to-port="0" />
		<edge from-layer="3272" from-port="1" to-layer="3273" to-port="1" />
		<edge from-layer="3273" from-port="2" to-layer="3276" to-port="0" />
		<edge from-layer="3274" from-port="0" to-layer="3275" to-port="0" />
		<edge from-layer="3275" from-port="1" to-layer="3276" to-port="1" />
		<edge from-layer="3276" from-port="2" to-layer="3290" to-port="0" />
		<edge from-layer="3277" from-port="0" to-layer="3278" to-port="0" />
		<edge from-layer="3278" from-port="1" to-layer="3279" to-port="1" />
		<edge from-layer="3279" from-port="2" to-layer="3282" to-port="0" />
		<edge from-layer="3280" from-port="0" to-layer="3281" to-port="0" />
		<edge from-layer="3281" from-port="1" to-layer="3282" to-port="1" />
		<edge from-layer="3282" from-port="2" to-layer="3283" to-port="0" />
		<edge from-layer="3283" from-port="1" to-layer="3286" to-port="0" />
		<edge from-layer="3284" from-port="0" to-layer="3285" to-port="0" />
		<edge from-layer="3285" from-port="1" to-layer="3286" to-port="1" />
		<edge from-layer="3286" from-port="2" to-layer="3289" to-port="0" />
		<edge from-layer="3287" from-port="0" to-layer="3288" to-port="0" />
		<edge from-layer="3288" from-port="1" to-layer="3289" to-port="1" />
		<edge from-layer="3289" from-port="2" to-layer="3290" to-port="1" />
		<edge from-layer="3290" from-port="2" to-layer="3297" to-port="0" />
		<edge from-layer="3291" from-port="0" to-layer="3292" to-port="0" />
		<edge from-layer="3292" from-port="1" to-layer="3293" to-port="1" />
		<edge from-layer="3293" from-port="2" to-layer="3296" to-port="0" />
		<edge from-layer="3294" from-port="0" to-layer="3295" to-port="0" />
		<edge from-layer="3295" from-port="1" to-layer="3296" to-port="1" />
		<edge from-layer="3296" from-port="2" to-layer="3297" to-port="1" />
		<edge from-layer="3297" from-port="2" to-layer="3298" to-port="0" />
		<edge from-layer="3298" from-port="2" to-layer="3299" to-port="0" />
		<edge from-layer="3299" from-port="1" to-layer="3312" to-port="0" />
		<edge from-layer="3299" from-port="1" to-layer="3300" to-port="0" />
		<edge from-layer="3300" from-port="1" to-layer="3308" to-port="0" />
		<edge from-layer="3300" from-port="1" to-layer="3304" to-port="0" />
		<edge from-layer="3301" from-port="0" to-layer="3304" to-port="1" />
		<edge from-layer="3302" from-port="0" to-layer="3304" to-port="2" />
		<edge from-layer="3303" from-port="0" to-layer="3304" to-port="3" />
		<edge from-layer="3304" from-port="4" to-layer="3306" to-port="0" />
		<edge from-layer="3305" from-port="0" to-layer="3306" to-port="1" />
		<edge from-layer="3306" from-port="2" to-layer="3312" to-port="1" />
		<edge from-layer="3306" from-port="2" to-layer="3307" to-port="0" />
		<edge from-layer="3307" from-port="1" to-layer="3309" to-port="0" />
		<edge from-layer="3308" from-port="1" to-layer="3309" to-port="1" />
		<edge from-layer="3309" from-port="2" to-layer="3311" to-port="0" />
		<edge from-layer="3310" from-port="0" to-layer="3311" to-port="1" />
		<edge from-layer="3311" from-port="2" to-layer="3312" to-port="2" />
		<edge from-layer="3312" from-port="3" to-layer="3313" to-port="3" />
		<edge from-layer="3313" from-port="4" to-layer="3316" to-port="0" />
		<edge from-layer="3314" from-port="0" to-layer="3315" to-port="0" />
		<edge from-layer="3315" from-port="1" to-layer="3316" to-port="1" />
		<edge from-layer="3316" from-port="2" to-layer="3319" to-port="0" />
		<edge from-layer="3317" from-port="0" to-layer="3318" to-port="0" />
		<edge from-layer="3318" from-port="1" to-layer="3319" to-port="1" />
		<edge from-layer="3319" from-port="2" to-layer="3320" to-port="0" />
		<edge from-layer="3320" from-port="1" to-layer="3323" to-port="0" />
		<edge from-layer="3321" from-port="0" to-layer="3322" to-port="0" />
		<edge from-layer="3322" from-port="1" to-layer="3323" to-port="1" />
		<edge from-layer="3323" from-port="2" to-layer="3326" to-port="0" />
		<edge from-layer="3324" from-port="0" to-layer="3325" to-port="0" />
		<edge from-layer="3325" from-port="1" to-layer="3326" to-port="1" />
		<edge from-layer="3326" from-port="2" to-layer="3327" to-port="0" />
	</edges>
	<rt_info>
		<MO_version value="custom_HEAD_3b86f12c37fa7b35388be509ccabf6c7423268b7" />
		<Runtime_version value="2022.3.0-8987-3b86f12c37f-HEAD" />
		<conversion_parameters>
			<data_type value="FP16" />
			<framework value="onnx" />
			<input value="input.1" />
			<input_model value="DIR/facial-landmarks-98-detection-0001.onnx" />
			<input_shape value="[1,3,64,64]" />
			<layout value="input.1(nchw)" />
			<model_name value="facial-landmarks-98-detection-0001" />
			<output_dir value="DIR" />
			<reverse_input_channels value="True" />
			<scale_values value="input.1[255.0]" />
		</conversion_parameters>
		<legacy_frontend value="False" />
	</rt_info>
</net>
