<?xml version="1.0"?>
<net name="ResMobNet_v4 (LReLU) with single SSD head" version="11">
	<layers>
		<layer id="0" name="data" type="Parameter" version="opset1">
			<data shape="1,3,320,544" element_type="f32" />
			<rt_info>
				<attribute name="old_api_map_element_type" version="0" value="f16" />
			</rt_info>
			<output>
				<port id="0" precision="FP32" names="data">
					<dim>1</dim>
					<dim>3</dim>
					<dim>320</dim>
					<dim>544</dim>
					<rt_info>
						<attribute name="layout" version="0" layout="[N,C,H,W]" />
					</rt_info>
				</port>
			</output>
		</layer>
		<layer id="1" name="data_mul_24444_compressed" type="Const" version="opset1">
			<data element_type="f16" shape="1, 3, 1, 1" offset="0" size="6" />
			<output>
				<port id="0" precision="FP16">
					<dim>1</dim>
					<dim>3</dim>
					<dim>1</dim>
					<dim>1</dim>
				</port>
			</output>
		</layer>
		<layer id="2" name="data_mul_24444" type="Convert" version="opset1">
			<data destination_type="f32" />
			<rt_info>
				<attribute name="decompression" version="0" />
			</rt_info>
			<input>
				<port id="0" precision="FP16">
					<dim>1</dim>
					<dim>3</dim>
					<dim>1</dim>
					<dim>1</dim>
				</port>
			</input>
			<output>
				<port id="1" precision="FP32">
					<dim>1</dim>
					<dim>3</dim>
					<dim>1</dim>
					<dim>1</dim>
				</port>
			</output>
		</layer>
		<layer id="3" name="data/norm/bn/mean/Fused_Mul_" type="Multiply" version="opset1">
			<data auto_broadcast="numpy" />
			<input>
				<port id="0" precision="FP32">
					<dim>1</dim>
					<dim>3</dim>
					<dim>320</dim>
					<dim>544</dim>
				</port>
				<port id="1" precision="FP32">
					<dim>1</dim>
					<dim>3</dim>
					<dim>1</dim>
					<dim>1</dim>
				</port>
			</input>
			<output>
				<port id="2" precision="FP32">
					<dim>1</dim>
					<dim>3</dim>
					<dim>320</dim>
					<dim>544</dim>
				</port>
			</output>
		</layer>
		<layer id="4" name="data_add_24446_compressed" type="Const" version="opset1">
			<data element_type="f16" shape="1, 3, 1, 1" offset="6" size="6" />
			<output>
				<port id="0" precision="FP16">
					<dim>1</dim>
					<dim>3</dim>
					<dim>1</dim>
					<dim>1</dim>
				</port>
			</output>
		</layer>
		<layer id="5" name="data_add_24446" type="Convert" version="opset1">
			<data destination_type="f32" />
			<rt_info>
				<attribute name="decompression" version="0" />
			</rt_info>
			<input>
				<port id="0" precision="FP16">
					<dim>1</dim>
					<dim>3</dim>
					<dim>1</dim>
					<dim>1</dim>
				</port>
			</input>
			<output>
				<port id="1" precision="FP32">
					<dim>1</dim>
					<dim>3</dim>
					<dim>1</dim>
					<dim>1</dim>
				</port>
			</output>
		</layer>
		<layer id="6" name="data/norm/bn/variance/Fused_Add_" type="Add" version="opset1">
			<data auto_broadcast="numpy" />
			<input>
				<port id="0" precision="FP32">
					<dim>1</dim>
					<dim>3</dim>
					<dim>320</dim>
					<dim>544</dim>
				</port>
				<port id="1" precision="FP32">
					<dim>1</dim>
					<dim>3</dim>
					<dim>1</dim>
					<dim>1</dim>
				</port>
			</input>
			<output>
				<port id="2" precision="FP32" names="data/norm/bn">
					<dim>1</dim>
					<dim>3</dim>
					<dim>320</dim>
					<dim>544</dim>
				</port>
			</output>
		</layer>
		<layer id="7" name="init_block1/dim_inc/bn/mean/Fused_Mul__copy_compressed" type="Const" version="opset1">
			<data element_type="f16" shape="32, 3, 3, 3" offset="12" size="1728" />
			<output>
				<port id="0" precision="FP16">
					<dim>32</dim>
					<dim>3</dim>
					<dim>3</dim>
					<dim>3</dim>
				</port>
			</output>
		</layer>
		<layer id="8" name="init_block1/dim_inc/bn/mean/Fused_Mul__copy" type="Convert" version="opset1">
			<data destination_type="f32" />
			<rt_info>
				<attribute name="decompression" version="0" />
			</rt_info>
			<input>
				<port id="0" precision="FP16">
					<dim>32</dim>
					<dim>3</dim>
					<dim>3</dim>
					<dim>3</dim>
				</port>
			</input>
			<output>
				<port id="1" precision="FP32">
					<dim>32</dim>
					<dim>3</dim>
					<dim>3</dim>
					<dim>3</dim>
				</port>
			</output>
		</layer>
		<layer id="9" name="init_block1/dim_inc/conv" type="Convolution" version="opset1">
			<data strides="2, 2" dilations="1, 1" pads_begin="1, 1" pads_end="1, 1" auto_pad="explicit" />
			<input>
				<port id="0" precision="FP32">
					<dim>1</dim>
					<dim>3</dim>
					<dim>320</dim>
					<dim>544</dim>
				</port>
				<port id="1" precision="FP32">
					<dim>32</dim>
					<dim>3</dim>
					<dim>3</dim>
					<dim>3</dim>
				</port>
			</input>
			<output>
				<port id="2" precision="FP32">
					<dim>1</dim>
					<dim>32</dim>
					<dim>160</dim>
					<dim>272</dim>
				</port>
			</output>
		</layer>
		<layer id="10" name="data_add_2444924454_compressed" type="Const" version="opset1">
			<data element_type="f16" shape="1, 32, 1, 1" offset="1740" size="64" />
			<output>
				<port id="0" precision="FP16">
					<dim>1</dim>
					<dim>32</dim>
					<dim>1</dim>
					<dim>1</dim>
				</port>
			</output>
		</layer>
		<layer id="11" name="data_add_2444924454" type="Convert" version="opset1">
			<data destination_type="f32" />
			<rt_info>
				<attribute name="decompression" version="0" />
			</rt_info>
			<input>
				<port id="0" precision="FP16">
					<dim>1</dim>
					<dim>32</dim>
					<dim>1</dim>
					<dim>1</dim>
				</port>
			</input>
			<output>
				<port id="1" precision="FP32">
					<dim>1</dim>
					<dim>32</dim>
					<dim>1</dim>
					<dim>1</dim>
				</port>
			</output>
		</layer>
		<layer id="12" name="init_block1/dim_inc/bn/variance/Fused_Add_" type="Add" version="opset1">
			<data auto_broadcast="numpy" />
			<input>
				<port id="0" precision="FP32">
					<dim>1</dim>
					<dim>32</dim>
					<dim>160</dim>
					<dim>272</dim>
				</port>
				<port id="1" precision="FP32">
					<dim>1</dim>
					<dim>32</dim>
					<dim>1</dim>
					<dim>1</dim>
				</port>
			</input>
			<output>
				<port id="2" precision="FP32" names="init_block1/dim_inc/conv">
					<dim>1</dim>
					<dim>32</dim>
					<dim>160</dim>
					<dim>272</dim>
				</port>
			</output>
		</layer>
		<layer id="13" name="init_block1/dim_inc/fn" type="ReLU" version="opset1">
			<input>
				<port id="0" precision="FP32">
					<dim>1</dim>
					<dim>32</dim>
					<dim>160</dim>
					<dim>272</dim>
				</port>
			</input>
			<output>
				<port id="1" precision="FP32" names="init_block1/dim_inc/conv">
					<dim>1</dim>
					<dim>32</dim>
					<dim>160</dim>
					<dim>272</dim>
				</port>
			</output>
		</layer>
		<layer id="14" name="bottleneck1_1/dim_red/bn/mean/Fused_Mul__copy_compressed" type="Const" version="opset1">
			<data element_type="f16" shape="8, 32, 1, 1" offset="1804" size="512" />
			<output>
				<port id="0" precision="FP16">
					<dim>8</dim>
					<dim>32</dim>
					<dim>1</dim>
					<dim>1</dim>
				</port>
			</output>
		</layer>
		<layer id="15" name="bottleneck1_1/dim_red/bn/mean/Fused_Mul__copy" type="Convert" version="opset1">
			<data destination_type="f32" />
			<rt_info>
				<attribute name="decompression" version="0" />
			</rt_info>
			<input>
				<port id="0" precision="FP16">
					<dim>8</dim>
					<dim>32</dim>
					<dim>1</dim>
					<dim>1</dim>
				</port>
			</input>
			<output>
				<port id="1" precision="FP32">
					<dim>8</dim>
					<dim>32</dim>
					<dim>1</dim>
					<dim>1</dim>
				</port>
			</output>
		</layer>
		<layer id="16" name="bottleneck1_1/dim_red/conv" type="Convolution" version="opset1">
			<data strides="1, 1" dilations="1, 1" pads_begin="0, 0" pads_end="0, 0" auto_pad="explicit" />
			<input>
				<port id="0" precision="FP32">
					<dim>1</dim>
					<dim>32</dim>
					<dim>160</dim>
					<dim>272</dim>
				</port>
				<port id="1" precision="FP32">
					<dim>8</dim>
					<dim>32</dim>
					<dim>1</dim>
					<dim>1</dim>
				</port>
			</input>
			<output>
				<port id="2" precision="FP32">
					<dim>1</dim>
					<dim>8</dim>
					<dim>160</dim>
					<dim>272</dim>
				</port>
			</output>
		</layer>
		<layer id="17" name="data_add_2445724462_compressed" type="Const" version="opset1">
			<data element_type="f16" shape="1, 8, 1, 1" offset="2316" size="16" />
			<output>
				<port id="0" precision="FP16">
					<dim>1</dim>
					<dim>8</dim>
					<dim>1</dim>
					<dim>1</dim>
				</port>
			</output>
		</layer>
		<layer id="18" name="data_add_2445724462" type="Convert" version="opset1">
			<data destination_type="f32" />
			<rt_info>
				<attribute name="decompression" version="0" />
			</rt_info>
			<input>
				<port id="0" precision="FP16">
					<dim>1</dim>
					<dim>8</dim>
					<dim>1</dim>
					<dim>1</dim>
				</port>
			</input>
			<output>
				<port id="1" precision="FP32">
					<dim>1</dim>
					<dim>8</dim>
					<dim>1</dim>
					<dim>1</dim>
				</port>
			</output>
		</layer>
		<layer id="19" name="bottleneck1_1/dim_red/bn/variance/Fused_Add_" type="Add" version="opset1">
			<data auto_broadcast="numpy" />
			<input>
				<port id="0" precision="FP32">
					<dim>1</dim>
					<dim>8</dim>
					<dim>160</dim>
					<dim>272</dim>
				</port>
				<port id="1" precision="FP32">
					<dim>1</dim>
					<dim>8</dim>
					<dim>1</dim>
					<dim>1</dim>
				</port>
			</input>
			<output>
				<port id="2" precision="FP32" names="bottleneck1_1/dim_red/conv">
					<dim>1</dim>
					<dim>8</dim>
					<dim>160</dim>
					<dim>272</dim>
				</port>
			</output>
		</layer>
		<layer id="20" name="bottleneck1_1/dim_red/fn/weights3118840883_compressed" type="Const" version="opset1">
			<data element_type="f16" shape="1" offset="2332" size="2" />
			<output>
				<port id="0" precision="FP16">
					<dim>1</dim>
				</port>
			</output>
		</layer>
		<layer id="21" name="bottleneck1_1/dim_red/fn/weights3118840883" type="Convert" version="opset1">
			<data destination_type="f32" />
			<rt_info>
				<attribute name="decompression" version="0" />
			</rt_info>
			<input>
				<port id="0" precision="FP16">
					<dim>1</dim>
				</port>
			</input>
			<output>
				<port id="1" precision="FP32">
					<dim>1</dim>
				</port>
			</output>
		</layer>
		<layer id="22" name="bottleneck1_1/dim_red/fn" type="PReLU" version="opset1">
			<input>
				<port id="0" precision="FP32">
					<dim>1</dim>
					<dim>8</dim>
					<dim>160</dim>
					<dim>272</dim>
				</port>
				<port id="1" precision="FP32">
					<dim>1</dim>
				</port>
			</input>
			<output>
				<port id="2" precision="FP32" names="bottleneck1_1/dim_red/conv">
					<dim>1</dim>
					<dim>8</dim>
					<dim>160</dim>
					<dim>272</dim>
				</port>
			</output>
		</layer>
		<layer id="23" name="bottleneck1_1/inner/dw1/bn/mean/Fused_Mul__copy_compressed" type="Const" version="opset1">
			<data element_type="f16" shape="8, 1, 1, 3, 3" offset="2334" size="144" />
			<output>
				<port id="0" precision="FP16">
					<dim>8</dim>
					<dim>1</dim>
					<dim>1</dim>
					<dim>3</dim>
					<dim>3</dim>
				</port>
			</output>
		</layer>
		<layer id="24" name="bottleneck1_1/inner/dw1/bn/mean/Fused_Mul__copy" type="Convert" version="opset1">
			<data destination_type="f32" />
			<rt_info>
				<attribute name="decompression" version="0" />
			</rt_info>
			<input>
				<port id="0" precision="FP16">
					<dim>8</dim>
					<dim>1</dim>
					<dim>1</dim>
					<dim>3</dim>
					<dim>3</dim>
				</port>
			</input>
			<output>
				<port id="1" precision="FP32">
					<dim>8</dim>
					<dim>1</dim>
					<dim>1</dim>
					<dim>3</dim>
					<dim>3</dim>
				</port>
			</output>
		</layer>
		<layer id="25" name="bottleneck1_1/inner/dw1/conv" type="GroupConvolution" version="opset1">
			<data strides="1, 1" pads_begin="1, 1" pads_end="1, 1" dilations="1, 1" auto_pad="explicit" />
			<input>
				<port id="0" precision="FP32">
					<dim>1</dim>
					<dim>8</dim>
					<dim>160</dim>
					<dim>272</dim>
				</port>
				<port id="1" precision="FP32">
					<dim>8</dim>
					<dim>1</dim>
					<dim>1</dim>
					<dim>3</dim>
					<dim>3</dim>
				</port>
			</input>
			<output>
				<port id="2" precision="FP32">
					<dim>1</dim>
					<dim>8</dim>
					<dim>160</dim>
					<dim>272</dim>
				</port>
			</output>
		</layer>
		<layer id="26" name="data_add_2446524470_compressed" type="Const" version="opset1">
			<data element_type="f16" shape="1, 8, 1, 1" offset="2478" size="16" />
			<output>
				<port id="0" precision="FP16">
					<dim>1</dim>
					<dim>8</dim>
					<dim>1</dim>
					<dim>1</dim>
				</port>
			</output>
		</layer>
		<layer id="27" name="data_add_2446524470" type="Convert" version="opset1">
			<data destination_type="f32" />
			<rt_info>
				<attribute name="decompression" version="0" />
			</rt_info>
			<input>
				<port id="0" precision="FP16">
					<dim>1</dim>
					<dim>8</dim>
					<dim>1</dim>
					<dim>1</dim>
				</port>
			</input>
			<output>
				<port id="1" precision="FP32">
					<dim>1</dim>
					<dim>8</dim>
					<dim>1</dim>
					<dim>1</dim>
				</port>
			</output>
		</layer>
		<layer id="28" name="bottleneck1_1/inner/dw1/bn/variance/Fused_Add_" type="Add" version="opset1">
			<data auto_broadcast="numpy" />
			<input>
				<port id="0" precision="FP32">
					<dim>1</dim>
					<dim>8</dim>
					<dim>160</dim>
					<dim>272</dim>
				</port>
				<port id="1" precision="FP32">
					<dim>1</dim>
					<dim>8</dim>
					<dim>1</dim>
					<dim>1</dim>
				</port>
			</input>
			<output>
				<port id="2" precision="FP32" names="bottleneck1_1/inner/dw1/conv">
					<dim>1</dim>
					<dim>8</dim>
					<dim>160</dim>
					<dim>272</dim>
				</port>
			</output>
		</layer>
		<layer id="29" name="bottleneck1_1/inner/dw1/fn/weights3124840682_compressed" type="Const" version="opset1">
			<data element_type="f16" shape="1" offset="2332" size="2" />
			<output>
				<port id="0" precision="FP16">
					<dim>1</dim>
				</port>
			</output>
		</layer>
		<layer id="30" name="bottleneck1_1/inner/dw1/fn/weights3124840682" type="Convert" version="opset1">
			<data destination_type="f32" />
			<rt_info>
				<attribute name="decompression" version="0" />
			</rt_info>
			<input>
				<port id="0" precision="FP16">
					<dim>1</dim>
				</port>
			</input>
			<output>
				<port id="1" precision="FP32">
					<dim>1</dim>
				</port>
			</output>
		</layer>
		<layer id="31" name="bottleneck1_1/inner/dw1/fn" type="PReLU" version="opset1">
			<input>
				<port id="0" precision="FP32">
					<dim>1</dim>
					<dim>8</dim>
					<dim>160</dim>
					<dim>272</dim>
				</port>
				<port id="1" precision="FP32">
					<dim>1</dim>
				</port>
			</input>
			<output>
				<port id="2" precision="FP32" names="bottleneck1_1/inner/dw1/conv">
					<dim>1</dim>
					<dim>8</dim>
					<dim>160</dim>
					<dim>272</dim>
				</port>
			</output>
		</layer>
		<layer id="32" name="bottleneck1_1/dim_inc/bn/mean/Fused_Mul__copy_compressed" type="Const" version="opset1">
			<data element_type="f16" shape="32, 8, 1, 1" offset="2494" size="512" />
			<output>
				<port id="0" precision="FP16">
					<dim>32</dim>
					<dim>8</dim>
					<dim>1</dim>
					<dim>1</dim>
				</port>
			</output>
		</layer>
		<layer id="33" name="bottleneck1_1/dim_inc/bn/mean/Fused_Mul__copy" type="Convert" version="opset1">
			<data destination_type="f32" />
			<rt_info>
				<attribute name="decompression" version="0" />
			</rt_info>
			<input>
				<port id="0" precision="FP16">
					<dim>32</dim>
					<dim>8</dim>
					<dim>1</dim>
					<dim>1</dim>
				</port>
			</input>
			<output>
				<port id="1" precision="FP32">
					<dim>32</dim>
					<dim>8</dim>
					<dim>1</dim>
					<dim>1</dim>
				</port>
			</output>
		</layer>
		<layer id="34" name="bottleneck1_1/dim_inc/conv" type="Convolution" version="opset1">
			<data strides="1, 1" dilations="1, 1" pads_begin="0, 0" pads_end="0, 0" auto_pad="explicit" />
			<input>
				<port id="0" precision="FP32">
					<dim>1</dim>
					<dim>8</dim>
					<dim>160</dim>
					<dim>272</dim>
				</port>
				<port id="1" precision="FP32">
					<dim>32</dim>
					<dim>8</dim>
					<dim>1</dim>
					<dim>1</dim>
				</port>
			</input>
			<output>
				<port id="2" precision="FP32">
					<dim>1</dim>
					<dim>32</dim>
					<dim>160</dim>
					<dim>272</dim>
				</port>
			</output>
		</layer>
		<layer id="35" name="data_add_2447324478_compressed" type="Const" version="opset1">
			<data element_type="f16" shape="1, 32, 1, 1" offset="3006" size="64" />
			<output>
				<port id="0" precision="FP16">
					<dim>1</dim>
					<dim>32</dim>
					<dim>1</dim>
					<dim>1</dim>
				</port>
			</output>
		</layer>
		<layer id="36" name="data_add_2447324478" type="Convert" version="opset1">
			<data destination_type="f32" />
			<rt_info>
				<attribute name="decompression" version="0" />
			</rt_info>
			<input>
				<port id="0" precision="FP16">
					<dim>1</dim>
					<dim>32</dim>
					<dim>1</dim>
					<dim>1</dim>
				</port>
			</input>
			<output>
				<port id="1" precision="FP32">
					<dim>1</dim>
					<dim>32</dim>
					<dim>1</dim>
					<dim>1</dim>
				</port>
			</output>
		</layer>
		<layer id="37" name="bottleneck1_1/dim_inc/bn/variance/Fused_Add_" type="Add" version="opset1">
			<data auto_broadcast="numpy" />
			<input>
				<port id="0" precision="FP32">
					<dim>1</dim>
					<dim>32</dim>
					<dim>160</dim>
					<dim>272</dim>
				</port>
				<port id="1" precision="FP32">
					<dim>1</dim>
					<dim>32</dim>
					<dim>1</dim>
					<dim>1</dim>
				</port>
			</input>
			<output>
				<port id="2" precision="FP32" names="bottleneck1_1/dim_inc/conv">
					<dim>1</dim>
					<dim>32</dim>
					<dim>160</dim>
					<dim>272</dim>
				</port>
			</output>
		</layer>
		<layer id="38" name="bottleneck1_1/add" type="Add" version="opset1">
			<data auto_broadcast="numpy" />
			<input>
				<port id="0" precision="FP32">
					<dim>1</dim>
					<dim>32</dim>
					<dim>160</dim>
					<dim>272</dim>
				</port>
				<port id="1" precision="FP32">
					<dim>1</dim>
					<dim>32</dim>
					<dim>160</dim>
					<dim>272</dim>
				</port>
			</input>
			<output>
				<port id="2" precision="FP32" names="bottleneck1_1/add">
					<dim>1</dim>
					<dim>32</dim>
					<dim>160</dim>
					<dim>272</dim>
				</port>
			</output>
		</layer>
		<layer id="39" name="bottleneck1_1/fn/weights3110440151_compressed" type="Const" version="opset1">
			<data element_type="f16" shape="1" offset="2332" size="2" />
			<output>
				<port id="0" precision="FP16">
					<dim>1</dim>
				</port>
			</output>
		</layer>
		<layer id="40" name="bottleneck1_1/fn/weights3110440151" type="Convert" version="opset1">
			<data destination_type="f32" />
			<rt_info>
				<attribute name="decompression" version="0" />
			</rt_info>
			<input>
				<port id="0" precision="FP16">
					<dim>1</dim>
				</port>
			</input>
			<output>
				<port id="1" precision="FP32">
					<dim>1</dim>
				</port>
			</output>
		</layer>
		<layer id="41" name="bottleneck1_1/fn" type="PReLU" version="opset1">
			<input>
				<port id="0" precision="FP32">
					<dim>1</dim>
					<dim>32</dim>
					<dim>160</dim>
					<dim>272</dim>
				</port>
				<port id="1" precision="FP32">
					<dim>1</dim>
				</port>
			</input>
			<output>
				<port id="2" precision="FP32" names="bottleneck1_1/add">
					<dim>1</dim>
					<dim>32</dim>
					<dim>160</dim>
					<dim>272</dim>
				</port>
			</output>
		</layer>
		<layer id="42" name="bottleneck1_2/dim_red/bn/mean/Fused_Mul__copy_compressed" type="Const" version="opset1">
			<data element_type="f16" shape="8, 32, 1, 1" offset="3070" size="512" />
			<output>
				<port id="0" precision="FP16">
					<dim>8</dim>
					<dim>32</dim>
					<dim>1</dim>
					<dim>1</dim>
				</port>
			</output>
		</layer>
		<layer id="43" name="bottleneck1_2/dim_red/bn/mean/Fused_Mul__copy" type="Convert" version="opset1">
			<data destination_type="f32" />
			<rt_info>
				<attribute name="decompression" version="0" />
			</rt_info>
			<input>
				<port id="0" precision="FP16">
					<dim>8</dim>
					<dim>32</dim>
					<dim>1</dim>
					<dim>1</dim>
				</port>
			</input>
			<output>
				<port id="1" precision="FP32">
					<dim>8</dim>
					<dim>32</dim>
					<dim>1</dim>
					<dim>1</dim>
				</port>
			</output>
		</layer>
		<layer id="44" name="bottleneck1_2/dim_red/conv" type="Convolution" version="opset1">
			<data strides="1, 1" dilations="1, 1" pads_begin="0, 0" pads_end="0, 0" auto_pad="explicit" />
			<input>
				<port id="0" precision="FP32">
					<dim>1</dim>
					<dim>32</dim>
					<dim>160</dim>
					<dim>272</dim>
				</port>
				<port id="1" precision="FP32">
					<dim>8</dim>
					<dim>32</dim>
					<dim>1</dim>
					<dim>1</dim>
				</port>
			</input>
			<output>
				<port id="2" precision="FP32">
					<dim>1</dim>
					<dim>8</dim>
					<dim>160</dim>
					<dim>272</dim>
				</port>
			</output>
		</layer>
		<layer id="45" name="data_add_2448124486_compressed" type="Const" version="opset1">
			<data element_type="f16" shape="1, 8, 1, 1" offset="3582" size="16" />
			<output>
				<port id="0" precision="FP16">
					<dim>1</dim>
					<dim>8</dim>
					<dim>1</dim>
					<dim>1</dim>
				</port>
			</output>
		</layer>
		<layer id="46" name="data_add_2448124486" type="Convert" version="opset1">
			<data destination_type="f32" />
			<rt_info>
				<attribute name="decompression" version="0" />
			</rt_info>
			<input>
				<port id="0" precision="FP16">
					<dim>1</dim>
					<dim>8</dim>
					<dim>1</dim>
					<dim>1</dim>
				</port>
			</input>
			<output>
				<port id="1" precision="FP32">
					<dim>1</dim>
					<dim>8</dim>
					<dim>1</dim>
					<dim>1</dim>
				</port>
			</output>
		</layer>
		<layer id="47" name="bottleneck1_2/dim_red/bn/variance/Fused_Add_" type="Add" version="opset1">
			<data auto_broadcast="numpy" />
			<input>
				<port id="0" precision="FP32">
					<dim>1</dim>
					<dim>8</dim>
					<dim>160</dim>
					<dim>272</dim>
				</port>
				<port id="1" precision="FP32">
					<dim>1</dim>
					<dim>8</dim>
					<dim>1</dim>
					<dim>1</dim>
				</port>
			</input>
			<output>
				<port id="2" precision="FP32" names="bottleneck1_2/dim_red/conv">
					<dim>1</dim>
					<dim>8</dim>
					<dim>160</dim>
					<dim>272</dim>
				</port>
			</output>
		</layer>
		<layer id="48" name="bottleneck1_2/dim_red/fn/weights3087640226_compressed" type="Const" version="opset1">
			<data element_type="f16" shape="1" offset="2332" size="2" />
			<output>
				<port id="0" precision="FP16">
					<dim>1</dim>
				</port>
			</output>
		</layer>
		<layer id="49" name="bottleneck1_2/dim_red/fn/weights3087640226" type="Convert" version="opset1">
			<data destination_type="f32" />
			<rt_info>
				<attribute name="decompression" version="0" />
			</rt_info>
			<input>
				<port id="0" precision="FP16">
					<dim>1</dim>
				</port>
			</input>
			<output>
				<port id="1" precision="FP32">
					<dim>1</dim>
				</port>
			</output>
		</layer>
		<layer id="50" name="bottleneck1_2/dim_red/fn" type="PReLU" version="opset1">
			<input>
				<port id="0" precision="FP32">
					<dim>1</dim>
					<dim>8</dim>
					<dim>160</dim>
					<dim>272</dim>
				</port>
				<port id="1" precision="FP32">
					<dim>1</dim>
				</port>
			</input>
			<output>
				<port id="2" precision="FP32" names="bottleneck1_2/dim_red/conv">
					<dim>1</dim>
					<dim>8</dim>
					<dim>160</dim>
					<dim>272</dim>
				</port>
			</output>
		</layer>
		<layer id="51" name="bottleneck1_2/inner/dw1/bn/mean/Fused_Mul__copy_compressed" type="Const" version="opset1">
			<data element_type="f16" shape="8, 1, 1, 3, 3" offset="3598" size="144" />
			<output>
				<port id="0" precision="FP16">
					<dim>8</dim>
					<dim>1</dim>
					<dim>1</dim>
					<dim>3</dim>
					<dim>3</dim>
				</port>
			</output>
		</layer>
		<layer id="52" name="bottleneck1_2/inner/dw1/bn/mean/Fused_Mul__copy" type="Convert" version="opset1">
			<data destination_type="f32" />
			<rt_info>
				<attribute name="decompression" version="0" />
			</rt_info>
			<input>
				<port id="0" precision="FP16">
					<dim>8</dim>
					<dim>1</dim>
					<dim>1</dim>
					<dim>3</dim>
					<dim>3</dim>
				</port>
			</input>
			<output>
				<port id="1" precision="FP32">
					<dim>8</dim>
					<dim>1</dim>
					<dim>1</dim>
					<dim>3</dim>
					<dim>3</dim>
				</port>
			</output>
		</layer>
		<layer id="53" name="bottleneck1_2/inner/dw1/conv" type="GroupConvolution" version="opset1">
			<data strides="1, 1" pads_begin="1, 1" pads_end="1, 1" dilations="1, 1" auto_pad="explicit" />
			<input>
				<port id="0" precision="FP32">
					<dim>1</dim>
					<dim>8</dim>
					<dim>160</dim>
					<dim>272</dim>
				</port>
				<port id="1" precision="FP32">
					<dim>8</dim>
					<dim>1</dim>
					<dim>1</dim>
					<dim>3</dim>
					<dim>3</dim>
				</port>
			</input>
			<output>
				<port id="2" precision="FP32">
					<dim>1</dim>
					<dim>8</dim>
					<dim>160</dim>
					<dim>272</dim>
				</port>
			</output>
		</layer>
		<layer id="54" name="data_add_2448924494_compressed" type="Const" version="opset1">
			<data element_type="f16" shape="1, 8, 1, 1" offset="3742" size="16" />
			<output>
				<port id="0" precision="FP16">
					<dim>1</dim>
					<dim>8</dim>
					<dim>1</dim>
					<dim>1</dim>
				</port>
			</output>
		</layer>
		<layer id="55" name="data_add_2448924494" type="Convert" version="opset1">
			<data destination_type="f32" />
			<rt_info>
				<attribute name="decompression" version="0" />
			</rt_info>
			<input>
				<port id="0" precision="FP16">
					<dim>1</dim>
					<dim>8</dim>
					<dim>1</dim>
					<dim>1</dim>
				</port>
			</input>
			<output>
				<port id="1" precision="FP32">
					<dim>1</dim>
					<dim>8</dim>
					<dim>1</dim>
					<dim>1</dim>
				</port>
			</output>
		</layer>
		<layer id="56" name="bottleneck1_2/inner/dw1/bn/variance/Fused_Add_" type="Add" version="opset1">
			<data auto_broadcast="numpy" />
			<input>
				<port id="0" precision="FP32">
					<dim>1</dim>
					<dim>8</dim>
					<dim>160</dim>
					<dim>272</dim>
				</port>
				<port id="1" precision="FP32">
					<dim>1</dim>
					<dim>8</dim>
					<dim>1</dim>
					<dim>1</dim>
				</port>
			</input>
			<output>
				<port id="2" precision="FP32" names="bottleneck1_2/inner/dw1/conv">
					<dim>1</dim>
					<dim>8</dim>
					<dim>160</dim>
					<dim>272</dim>
				</port>
			</output>
		</layer>
		<layer id="57" name="bottleneck1_2/inner/dw1/fn/weights3091240988_compressed" type="Const" version="opset1">
			<data element_type="f16" shape="1" offset="2332" size="2" />
			<output>
				<port id="0" precision="FP16">
					<dim>1</dim>
				</port>
			</output>
		</layer>
		<layer id="58" name="bottleneck1_2/inner/dw1/fn/weights3091240988" type="Convert" version="opset1">
			<data destination_type="f32" />
			<rt_info>
				<attribute name="decompression" version="0" />
			</rt_info>
			<input>
				<port id="0" precision="FP16">
					<dim>1</dim>
				</port>
			</input>
			<output>
				<port id="1" precision="FP32">
					<dim>1</dim>
				</port>
			</output>
		</layer>
		<layer id="59" name="bottleneck1_2/inner/dw1/fn" type="PReLU" version="opset1">
			<input>
				<port id="0" precision="FP32">
					<dim>1</dim>
					<dim>8</dim>
					<dim>160</dim>
					<dim>272</dim>
				</port>
				<port id="1" precision="FP32">
					<dim>1</dim>
				</port>
			</input>
			<output>
				<port id="2" precision="FP32" names="bottleneck1_2/inner/dw1/conv">
					<dim>1</dim>
					<dim>8</dim>
					<dim>160</dim>
					<dim>272</dim>
				</port>
			</output>
		</layer>
		<layer id="60" name="bottleneck1_2/dim_inc/bn/mean/Fused_Mul__copy_compressed" type="Const" version="opset1">
			<data element_type="f16" shape="32, 8, 1, 1" offset="3758" size="512" />
			<output>
				<port id="0" precision="FP16">
					<dim>32</dim>
					<dim>8</dim>
					<dim>1</dim>
					<dim>1</dim>
				</port>
			</output>
		</layer>
		<layer id="61" name="bottleneck1_2/dim_inc/bn/mean/Fused_Mul__copy" type="Convert" version="opset1">
			<data destination_type="f32" />
			<rt_info>
				<attribute name="decompression" version="0" />
			</rt_info>
			<input>
				<port id="0" precision="FP16">
					<dim>32</dim>
					<dim>8</dim>
					<dim>1</dim>
					<dim>1</dim>
				</port>
			</input>
			<output>
				<port id="1" precision="FP32">
					<dim>32</dim>
					<dim>8</dim>
					<dim>1</dim>
					<dim>1</dim>
				</port>
			</output>
		</layer>
		<layer id="62" name="bottleneck1_2/dim_inc/conv" type="Convolution" version="opset1">
			<data strides="1, 1" dilations="1, 1" pads_begin="0, 0" pads_end="0, 0" auto_pad="explicit" />
			<input>
				<port id="0" precision="FP32">
					<dim>1</dim>
					<dim>8</dim>
					<dim>160</dim>
					<dim>272</dim>
				</port>
				<port id="1" precision="FP32">
					<dim>32</dim>
					<dim>8</dim>
					<dim>1</dim>
					<dim>1</dim>
				</port>
			</input>
			<output>
				<port id="2" precision="FP32">
					<dim>1</dim>
					<dim>32</dim>
					<dim>160</dim>
					<dim>272</dim>
				</port>
			</output>
		</layer>
		<layer id="63" name="data_add_2449724502_compressed" type="Const" version="opset1">
			<data element_type="f16" shape="1, 32, 1, 1" offset="4270" size="64" />
			<output>
				<port id="0" precision="FP16">
					<dim>1</dim>
					<dim>32</dim>
					<dim>1</dim>
					<dim>1</dim>
				</port>
			</output>
		</layer>
		<layer id="64" name="data_add_2449724502" type="Convert" version="opset1">
			<data destination_type="f32" />
			<rt_info>
				<attribute name="decompression" version="0" />
			</rt_info>
			<input>
				<port id="0" precision="FP16">
					<dim>1</dim>
					<dim>32</dim>
					<dim>1</dim>
					<dim>1</dim>
				</port>
			</input>
			<output>
				<port id="1" precision="FP32">
					<dim>1</dim>
					<dim>32</dim>
					<dim>1</dim>
					<dim>1</dim>
				</port>
			</output>
		</layer>
		<layer id="65" name="bottleneck1_2/dim_inc/bn/variance/Fused_Add_" type="Add" version="opset1">
			<data auto_broadcast="numpy" />
			<input>
				<port id="0" precision="FP32">
					<dim>1</dim>
					<dim>32</dim>
					<dim>160</dim>
					<dim>272</dim>
				</port>
				<port id="1" precision="FP32">
					<dim>1</dim>
					<dim>32</dim>
					<dim>1</dim>
					<dim>1</dim>
				</port>
			</input>
			<output>
				<port id="2" precision="FP32" names="bottleneck1_2/dim_inc/conv">
					<dim>1</dim>
					<dim>32</dim>
					<dim>160</dim>
					<dim>272</dim>
				</port>
			</output>
		</layer>
		<layer id="66" name="bottleneck1_2/add" type="Add" version="opset1">
			<data auto_broadcast="numpy" />
			<input>
				<port id="0" precision="FP32">
					<dim>1</dim>
					<dim>32</dim>
					<dim>160</dim>
					<dim>272</dim>
				</port>
				<port id="1" precision="FP32">
					<dim>1</dim>
					<dim>32</dim>
					<dim>160</dim>
					<dim>272</dim>
				</port>
			</input>
			<output>
				<port id="2" precision="FP32" names="bottleneck1_2/add">
					<dim>1</dim>
					<dim>32</dim>
					<dim>160</dim>
					<dim>272</dim>
				</port>
			</output>
		</layer>
		<layer id="67" name="bottleneck1_2/fn/weights3116840808_compressed" type="Const" version="opset1">
			<data element_type="f16" shape="1" offset="2332" size="2" />
			<output>
				<port id="0" precision="FP16">
					<dim>1</dim>
				</port>
			</output>
		</layer>
		<layer id="68" name="bottleneck1_2/fn/weights3116840808" type="Convert" version="opset1">
			<data destination_type="f32" />
			<rt_info>
				<attribute name="decompression" version="0" />
			</rt_info>
			<input>
				<port id="0" precision="FP16">
					<dim>1</dim>
				</port>
			</input>
			<output>
				<port id="1" precision="FP32">
					<dim>1</dim>
				</port>
			</output>
		</layer>
		<layer id="69" name="bottleneck1_2/fn" type="PReLU" version="opset1">
			<input>
				<port id="0" precision="FP32">
					<dim>1</dim>
					<dim>32</dim>
					<dim>160</dim>
					<dim>272</dim>
				</port>
				<port id="1" precision="FP32">
					<dim>1</dim>
				</port>
			</input>
			<output>
				<port id="2" precision="FP32" names="bottleneck1_2/add">
					<dim>1</dim>
					<dim>32</dim>
					<dim>160</dim>
					<dim>272</dim>
				</port>
			</output>
		</layer>
		<layer id="70" name="bottleneck1_3/dim_red/bn/mean/Fused_Mul__copy_compressed" type="Const" version="opset1">
			<data element_type="f16" shape="8, 32, 1, 1" offset="4334" size="512" />
			<output>
				<port id="0" precision="FP16">
					<dim>8</dim>
					<dim>32</dim>
					<dim>1</dim>
					<dim>1</dim>
				</port>
			</output>
		</layer>
		<layer id="71" name="bottleneck1_3/dim_red/bn/mean/Fused_Mul__copy" type="Convert" version="opset1">
			<data destination_type="f32" />
			<rt_info>
				<attribute name="decompression" version="0" />
			</rt_info>
			<input>
				<port id="0" precision="FP16">
					<dim>8</dim>
					<dim>32</dim>
					<dim>1</dim>
					<dim>1</dim>
				</port>
			</input>
			<output>
				<port id="1" precision="FP32">
					<dim>8</dim>
					<dim>32</dim>
					<dim>1</dim>
					<dim>1</dim>
				</port>
			</output>
		</layer>
		<layer id="72" name="bottleneck1_3/dim_red/conv" type="Convolution" version="opset1">
			<data strides="1, 1" dilations="1, 1" pads_begin="0, 0" pads_end="0, 0" auto_pad="explicit" />
			<input>
				<port id="0" precision="FP32">
					<dim>1</dim>
					<dim>32</dim>
					<dim>160</dim>
					<dim>272</dim>
				</port>
				<port id="1" precision="FP32">
					<dim>8</dim>
					<dim>32</dim>
					<dim>1</dim>
					<dim>1</dim>
				</port>
			</input>
			<output>
				<port id="2" precision="FP32">
					<dim>1</dim>
					<dim>8</dim>
					<dim>160</dim>
					<dim>272</dim>
				</port>
			</output>
		</layer>
		<layer id="73" name="data_add_2450524510_compressed" type="Const" version="opset1">
			<data element_type="f16" shape="1, 8, 1, 1" offset="4846" size="16" />
			<output>
				<port id="0" precision="FP16">
					<dim>1</dim>
					<dim>8</dim>
					<dim>1</dim>
					<dim>1</dim>
				</port>
			</output>
		</layer>
		<layer id="74" name="data_add_2450524510" type="Convert" version="opset1">
			<data destination_type="f32" />
			<rt_info>
				<attribute name="decompression" version="0" />
			</rt_info>
			<input>
				<port id="0" precision="FP16">
					<dim>1</dim>
					<dim>8</dim>
					<dim>1</dim>
					<dim>1</dim>
				</port>
			</input>
			<output>
				<port id="1" precision="FP32">
					<dim>1</dim>
					<dim>8</dim>
					<dim>1</dim>
					<dim>1</dim>
				</port>
			</output>
		</layer>
		<layer id="75" name="bottleneck1_3/dim_red/bn/variance/Fused_Add_" type="Add" version="opset1">
			<data auto_broadcast="numpy" />
			<input>
				<port id="0" precision="FP32">
					<dim>1</dim>
					<dim>8</dim>
					<dim>160</dim>
					<dim>272</dim>
				</port>
				<port id="1" precision="FP32">
					<dim>1</dim>
					<dim>8</dim>
					<dim>1</dim>
					<dim>1</dim>
				</port>
			</input>
			<output>
				<port id="2" precision="FP32" names="bottleneck1_3/dim_red/conv">
					<dim>1</dim>
					<dim>8</dim>
					<dim>160</dim>
					<dim>272</dim>
				</port>
			</output>
		</layer>
		<layer id="76" name="bottleneck1_3/dim_red/fn/weights3090840775_compressed" type="Const" version="opset1">
			<data element_type="f16" shape="1" offset="2332" size="2" />
			<output>
				<port id="0" precision="FP16">
					<dim>1</dim>
				</port>
			</output>
		</layer>
		<layer id="77" name="bottleneck1_3/dim_red/fn/weights3090840775" type="Convert" version="opset1">
			<data destination_type="f32" />
			<rt_info>
				<attribute name="decompression" version="0" />
			</rt_info>
			<input>
				<port id="0" precision="FP16">
					<dim>1</dim>
				</port>
			</input>
			<output>
				<port id="1" precision="FP32">
					<dim>1</dim>
				</port>
			</output>
		</layer>
		<layer id="78" name="bottleneck1_3/dim_red/fn" type="PReLU" version="opset1">
			<input>
				<port id="0" precision="FP32">
					<dim>1</dim>
					<dim>8</dim>
					<dim>160</dim>
					<dim>272</dim>
				</port>
				<port id="1" precision="FP32">
					<dim>1</dim>
				</port>
			</input>
			<output>
				<port id="2" precision="FP32" names="bottleneck1_3/dim_red/conv">
					<dim>1</dim>
					<dim>8</dim>
					<dim>160</dim>
					<dim>272</dim>
				</port>
			</output>
		</layer>
		<layer id="79" name="bottleneck1_3/inner/dw1/bn/mean/Fused_Mul__copy_compressed" type="Const" version="opset1">
			<data element_type="f16" shape="8, 1, 1, 3, 3" offset="4862" size="144" />
			<output>
				<port id="0" precision="FP16">
					<dim>8</dim>
					<dim>1</dim>
					<dim>1</dim>
					<dim>3</dim>
					<dim>3</dim>
				</port>
			</output>
		</layer>
		<layer id="80" name="bottleneck1_3/inner/dw1/bn/mean/Fused_Mul__copy" type="Convert" version="opset1">
			<data destination_type="f32" />
			<rt_info>
				<attribute name="decompression" version="0" />
			</rt_info>
			<input>
				<port id="0" precision="FP16">
					<dim>8</dim>
					<dim>1</dim>
					<dim>1</dim>
					<dim>3</dim>
					<dim>3</dim>
				</port>
			</input>
			<output>
				<port id="1" precision="FP32">
					<dim>8</dim>
					<dim>1</dim>
					<dim>1</dim>
					<dim>3</dim>
					<dim>3</dim>
				</port>
			</output>
		</layer>
		<layer id="81" name="bottleneck1_3/inner/dw1/conv" type="GroupConvolution" version="opset1">
			<data strides="1, 1" pads_begin="1, 1" pads_end="1, 1" dilations="1, 1" auto_pad="explicit" />
			<input>
				<port id="0" precision="FP32">
					<dim>1</dim>
					<dim>8</dim>
					<dim>160</dim>
					<dim>272</dim>
				</port>
				<port id="1" precision="FP32">
					<dim>8</dim>
					<dim>1</dim>
					<dim>1</dim>
					<dim>3</dim>
					<dim>3</dim>
				</port>
			</input>
			<output>
				<port id="2" precision="FP32">
					<dim>1</dim>
					<dim>8</dim>
					<dim>160</dim>
					<dim>272</dim>
				</port>
			</output>
		</layer>
		<layer id="82" name="data_add_2451324518_compressed" type="Const" version="opset1">
			<data element_type="f16" shape="1, 8, 1, 1" offset="5006" size="16" />
			<output>
				<port id="0" precision="FP16">
					<dim>1</dim>
					<dim>8</dim>
					<dim>1</dim>
					<dim>1</dim>
				</port>
			</output>
		</layer>
		<layer id="83" name="data_add_2451324518" type="Convert" version="opset1">
			<data destination_type="f32" />
			<rt_info>
				<attribute name="decompression" version="0" />
			</rt_info>
			<input>
				<port id="0" precision="FP16">
					<dim>1</dim>
					<dim>8</dim>
					<dim>1</dim>
					<dim>1</dim>
				</port>
			</input>
			<output>
				<port id="1" precision="FP32">
					<dim>1</dim>
					<dim>8</dim>
					<dim>1</dim>
					<dim>1</dim>
				</port>
			</output>
		</layer>
		<layer id="84" name="bottleneck1_3/inner/dw1/bn/variance/Fused_Add_" type="Add" version="opset1">
			<data auto_broadcast="numpy" />
			<input>
				<port id="0" precision="FP32">
					<dim>1</dim>
					<dim>8</dim>
					<dim>160</dim>
					<dim>272</dim>
				</port>
				<port id="1" precision="FP32">
					<dim>1</dim>
					<dim>8</dim>
					<dim>1</dim>
					<dim>1</dim>
				</port>
			</input>
			<output>
				<port id="2" precision="FP32" names="bottleneck1_3/inner/dw1/conv">
					<dim>1</dim>
					<dim>8</dim>
					<dim>160</dim>
					<dim>272</dim>
				</port>
			</output>
		</layer>
		<layer id="85" name="bottleneck1_3/inner/dw1/fn/weights3125640871_compressed" type="Const" version="opset1">
			<data element_type="f16" shape="1" offset="2332" size="2" />
			<output>
				<port id="0" precision="FP16">
					<dim>1</dim>
				</port>
			</output>
		</layer>
		<layer id="86" name="bottleneck1_3/inner/dw1/fn/weights3125640871" type="Convert" version="opset1">
			<data destination_type="f32" />
			<rt_info>
				<attribute name="decompression" version="0" />
			</rt_info>
			<input>
				<port id="0" precision="FP16">
					<dim>1</dim>
				</port>
			</input>
			<output>
				<port id="1" precision="FP32">
					<dim>1</dim>
				</port>
			</output>
		</layer>
		<layer id="87" name="bottleneck1_3/inner/dw1/fn" type="PReLU" version="opset1">
			<input>
				<port id="0" precision="FP32">
					<dim>1</dim>
					<dim>8</dim>
					<dim>160</dim>
					<dim>272</dim>
				</port>
				<port id="1" precision="FP32">
					<dim>1</dim>
				</port>
			</input>
			<output>
				<port id="2" precision="FP32" names="bottleneck1_3/inner/dw1/conv">
					<dim>1</dim>
					<dim>8</dim>
					<dim>160</dim>
					<dim>272</dim>
				</port>
			</output>
		</layer>
		<layer id="88" name="bottleneck1_3/dim_inc/bn/mean/Fused_Mul__copy_compressed" type="Const" version="opset1">
			<data element_type="f16" shape="32, 8, 1, 1" offset="5022" size="512" />
			<output>
				<port id="0" precision="FP16">
					<dim>32</dim>
					<dim>8</dim>
					<dim>1</dim>
					<dim>1</dim>
				</port>
			</output>
		</layer>
		<layer id="89" name="bottleneck1_3/dim_inc/bn/mean/Fused_Mul__copy" type="Convert" version="opset1">
			<data destination_type="f32" />
			<rt_info>
				<attribute name="decompression" version="0" />
			</rt_info>
			<input>
				<port id="0" precision="FP16">
					<dim>32</dim>
					<dim>8</dim>
					<dim>1</dim>
					<dim>1</dim>
				</port>
			</input>
			<output>
				<port id="1" precision="FP32">
					<dim>32</dim>
					<dim>8</dim>
					<dim>1</dim>
					<dim>1</dim>
				</port>
			</output>
		</layer>
		<layer id="90" name="bottleneck1_3/dim_inc/conv" type="Convolution" version="opset1">
			<data strides="1, 1" dilations="1, 1" pads_begin="0, 0" pads_end="0, 0" auto_pad="explicit" />
			<input>
				<port id="0" precision="FP32">
					<dim>1</dim>
					<dim>8</dim>
					<dim>160</dim>
					<dim>272</dim>
				</port>
				<port id="1" precision="FP32">
					<dim>32</dim>
					<dim>8</dim>
					<dim>1</dim>
					<dim>1</dim>
				</port>
			</input>
			<output>
				<port id="2" precision="FP32">
					<dim>1</dim>
					<dim>32</dim>
					<dim>160</dim>
					<dim>272</dim>
				</port>
			</output>
		</layer>
		<layer id="91" name="data_add_2452124526_compressed" type="Const" version="opset1">
			<data element_type="f16" shape="1, 32, 1, 1" offset="5534" size="64" />
			<output>
				<port id="0" precision="FP16">
					<dim>1</dim>
					<dim>32</dim>
					<dim>1</dim>
					<dim>1</dim>
				</port>
			</output>
		</layer>
		<layer id="92" name="data_add_2452124526" type="Convert" version="opset1">
			<data destination_type="f32" />
			<rt_info>
				<attribute name="decompression" version="0" />
			</rt_info>
			<input>
				<port id="0" precision="FP16">
					<dim>1</dim>
					<dim>32</dim>
					<dim>1</dim>
					<dim>1</dim>
				</port>
			</input>
			<output>
				<port id="1" precision="FP32">
					<dim>1</dim>
					<dim>32</dim>
					<dim>1</dim>
					<dim>1</dim>
				</port>
			</output>
		</layer>
		<layer id="93" name="bottleneck1_3/dim_inc/bn/variance/Fused_Add_" type="Add" version="opset1">
			<data auto_broadcast="numpy" />
			<input>
				<port id="0" precision="FP32">
					<dim>1</dim>
					<dim>32</dim>
					<dim>160</dim>
					<dim>272</dim>
				</port>
				<port id="1" precision="FP32">
					<dim>1</dim>
					<dim>32</dim>
					<dim>1</dim>
					<dim>1</dim>
				</port>
			</input>
			<output>
				<port id="2" precision="FP32" names="bottleneck1_3/dim_inc/conv">
					<dim>1</dim>
					<dim>32</dim>
					<dim>160</dim>
					<dim>272</dim>
				</port>
			</output>
		</layer>
		<layer id="94" name="bottleneck1_3/add" type="Add" version="opset1">
			<data auto_broadcast="numpy" />
			<input>
				<port id="0" precision="FP32">
					<dim>1</dim>
					<dim>32</dim>
					<dim>160</dim>
					<dim>272</dim>
				</port>
				<port id="1" precision="FP32">
					<dim>1</dim>
					<dim>32</dim>
					<dim>160</dim>
					<dim>272</dim>
				</port>
			</input>
			<output>
				<port id="2" precision="FP32" names="bottleneck1_3/add">
					<dim>1</dim>
					<dim>32</dim>
					<dim>160</dim>
					<dim>272</dim>
				</port>
			</output>
		</layer>
		<layer id="95" name="bottleneck1_3/fn/weights3125240181_compressed" type="Const" version="opset1">
			<data element_type="f16" shape="1" offset="2332" size="2" />
			<output>
				<port id="0" precision="FP16">
					<dim>1</dim>
				</port>
			</output>
		</layer>
		<layer id="96" name="bottleneck1_3/fn/weights3125240181" type="Convert" version="opset1">
			<data destination_type="f32" />
			<rt_info>
				<attribute name="decompression" version="0" />
			</rt_info>
			<input>
				<port id="0" precision="FP16">
					<dim>1</dim>
				</port>
			</input>
			<output>
				<port id="1" precision="FP32">
					<dim>1</dim>
				</port>
			</output>
		</layer>
		<layer id="97" name="bottleneck1_3/fn" type="PReLU" version="opset1">
			<input>
				<port id="0" precision="FP32">
					<dim>1</dim>
					<dim>32</dim>
					<dim>160</dim>
					<dim>272</dim>
				</port>
				<port id="1" precision="FP32">
					<dim>1</dim>
				</port>
			</input>
			<output>
				<port id="2" precision="FP32" names="bottleneck1_3/add">
					<dim>1</dim>
					<dim>32</dim>
					<dim>160</dim>
					<dim>272</dim>
				</port>
			</output>
		</layer>
		<layer id="98" name="bottleneck1_4/dim_red/bn/mean/Fused_Mul__copy_compressed" type="Const" version="opset1">
			<data element_type="f16" shape="8, 32, 1, 1" offset="5598" size="512" />
			<output>
				<port id="0" precision="FP16">
					<dim>8</dim>
					<dim>32</dim>
					<dim>1</dim>
					<dim>1</dim>
				</port>
			</output>
		</layer>
		<layer id="99" name="bottleneck1_4/dim_red/bn/mean/Fused_Mul__copy" type="Convert" version="opset1">
			<data destination_type="f32" />
			<rt_info>
				<attribute name="decompression" version="0" />
			</rt_info>
			<input>
				<port id="0" precision="FP16">
					<dim>8</dim>
					<dim>32</dim>
					<dim>1</dim>
					<dim>1</dim>
				</port>
			</input>
			<output>
				<port id="1" precision="FP32">
					<dim>8</dim>
					<dim>32</dim>
					<dim>1</dim>
					<dim>1</dim>
				</port>
			</output>
		</layer>
		<layer id="100" name="bottleneck1_4/dim_red/conv" type="Convolution" version="opset1">
			<data strides="1, 1" dilations="1, 1" pads_begin="0, 0" pads_end="0, 0" auto_pad="explicit" />
			<input>
				<port id="0" precision="FP32">
					<dim>1</dim>
					<dim>32</dim>
					<dim>160</dim>
					<dim>272</dim>
				</port>
				<port id="1" precision="FP32">
					<dim>8</dim>
					<dim>32</dim>
					<dim>1</dim>
					<dim>1</dim>
				</port>
			</input>
			<output>
				<port id="2" precision="FP32">
					<dim>1</dim>
					<dim>8</dim>
					<dim>160</dim>
					<dim>272</dim>
				</port>
			</output>
		</layer>
		<layer id="101" name="data_add_2452924534_compressed" type="Const" version="opset1">
			<data element_type="f16" shape="1, 8, 1, 1" offset="6110" size="16" />
			<output>
				<port id="0" precision="FP16">
					<dim>1</dim>
					<dim>8</dim>
					<dim>1</dim>
					<dim>1</dim>
				</port>
			</output>
		</layer>
		<layer id="102" name="data_add_2452924534" type="Convert" version="opset1">
			<data destination_type="f32" />
			<rt_info>
				<attribute name="decompression" version="0" />
			</rt_info>
			<input>
				<port id="0" precision="FP16">
					<dim>1</dim>
					<dim>8</dim>
					<dim>1</dim>
					<dim>1</dim>
				</port>
			</input>
			<output>
				<port id="1" precision="FP32">
					<dim>1</dim>
					<dim>8</dim>
					<dim>1</dim>
					<dim>1</dim>
				</port>
			</output>
		</layer>
		<layer id="103" name="bottleneck1_4/dim_red/bn/variance/Fused_Add_" type="Add" version="opset1">
			<data auto_broadcast="numpy" />
			<input>
				<port id="0" precision="FP32">
					<dim>1</dim>
					<dim>8</dim>
					<dim>160</dim>
					<dim>272</dim>
				</port>
				<port id="1" precision="FP32">
					<dim>1</dim>
					<dim>8</dim>
					<dim>1</dim>
					<dim>1</dim>
				</port>
			</input>
			<output>
				<port id="2" precision="FP32" names="bottleneck1_4/dim_red/conv">
					<dim>1</dim>
					<dim>8</dim>
					<dim>160</dim>
					<dim>272</dim>
				</port>
			</output>
		</layer>
		<layer id="104" name="bottleneck1_4/dim_red/fn/weights3090040421_compressed" type="Const" version="opset1">
			<data element_type="f16" shape="1" offset="2332" size="2" />
			<output>
				<port id="0" precision="FP16">
					<dim>1</dim>
				</port>
			</output>
		</layer>
		<layer id="105" name="bottleneck1_4/dim_red/fn/weights3090040421" type="Convert" version="opset1">
			<data destination_type="f32" />
			<rt_info>
				<attribute name="decompression" version="0" />
			</rt_info>
			<input>
				<port id="0" precision="FP16">
					<dim>1</dim>
				</port>
			</input>
			<output>
				<port id="1" precision="FP32">
					<dim>1</dim>
				</port>
			</output>
		</layer>
		<layer id="106" name="bottleneck1_4/dim_red/fn" type="PReLU" version="opset1">
			<input>
				<port id="0" precision="FP32">
					<dim>1</dim>
					<dim>8</dim>
					<dim>160</dim>
					<dim>272</dim>
				</port>
				<port id="1" precision="FP32">
					<dim>1</dim>
				</port>
			</input>
			<output>
				<port id="2" precision="FP32" names="bottleneck1_4/dim_red/conv">
					<dim>1</dim>
					<dim>8</dim>
					<dim>160</dim>
					<dim>272</dim>
				</port>
			</output>
		</layer>
		<layer id="107" name="bottleneck1_4/inner/dw1/bn/mean/Fused_Mul__copy_compressed" type="Const" version="opset1">
			<data element_type="f16" shape="8, 1, 1, 3, 3" offset="6126" size="144" />
			<output>
				<port id="0" precision="FP16">
					<dim>8</dim>
					<dim>1</dim>
					<dim>1</dim>
					<dim>3</dim>
					<dim>3</dim>
				</port>
			</output>
		</layer>
		<layer id="108" name="bottleneck1_4/inner/dw1/bn/mean/Fused_Mul__copy" type="Convert" version="opset1">
			<data destination_type="f32" />
			<rt_info>
				<attribute name="decompression" version="0" />
			</rt_info>
			<input>
				<port id="0" precision="FP16">
					<dim>8</dim>
					<dim>1</dim>
					<dim>1</dim>
					<dim>3</dim>
					<dim>3</dim>
				</port>
			</input>
			<output>
				<port id="1" precision="FP32">
					<dim>8</dim>
					<dim>1</dim>
					<dim>1</dim>
					<dim>3</dim>
					<dim>3</dim>
				</port>
			</output>
		</layer>
		<layer id="109" name="bottleneck1_4/inner/dw1/conv" type="GroupConvolution" version="opset1">
			<data strides="1, 1" pads_begin="1, 1" pads_end="1, 1" dilations="1, 1" auto_pad="explicit" />
			<input>
				<port id="0" precision="FP32">
					<dim>1</dim>
					<dim>8</dim>
					<dim>160</dim>
					<dim>272</dim>
				</port>
				<port id="1" precision="FP32">
					<dim>8</dim>
					<dim>1</dim>
					<dim>1</dim>
					<dim>3</dim>
					<dim>3</dim>
				</port>
			</input>
			<output>
				<port id="2" precision="FP32">
					<dim>1</dim>
					<dim>8</dim>
					<dim>160</dim>
					<dim>272</dim>
				</port>
			</output>
		</layer>
		<layer id="110" name="data_add_2453724542_compressed" type="Const" version="opset1">
			<data element_type="f16" shape="1, 8, 1, 1" offset="6270" size="16" />
			<output>
				<port id="0" precision="FP16">
					<dim>1</dim>
					<dim>8</dim>
					<dim>1</dim>
					<dim>1</dim>
				</port>
			</output>
		</layer>
		<layer id="111" name="data_add_2453724542" type="Convert" version="opset1">
			<data destination_type="f32" />
			<rt_info>
				<attribute name="decompression" version="0" />
			</rt_info>
			<input>
				<port id="0" precision="FP16">
					<dim>1</dim>
					<dim>8</dim>
					<dim>1</dim>
					<dim>1</dim>
				</port>
			</input>
			<output>
				<port id="1" precision="FP32">
					<dim>1</dim>
					<dim>8</dim>
					<dim>1</dim>
					<dim>1</dim>
				</port>
			</output>
		</layer>
		<layer id="112" name="bottleneck1_4/inner/dw1/bn/variance/Fused_Add_" type="Add" version="opset1">
			<data auto_broadcast="numpy" />
			<input>
				<port id="0" precision="FP32">
					<dim>1</dim>
					<dim>8</dim>
					<dim>160</dim>
					<dim>272</dim>
				</port>
				<port id="1" precision="FP32">
					<dim>1</dim>
					<dim>8</dim>
					<dim>1</dim>
					<dim>1</dim>
				</port>
			</input>
			<output>
				<port id="2" precision="FP32" names="bottleneck1_4/inner/dw1/conv">
					<dim>1</dim>
					<dim>8</dim>
					<dim>160</dim>
					<dim>272</dim>
				</port>
			</output>
		</layer>
		<layer id="113" name="bottleneck1_4/inner/dw1/fn/weights3115640109_compressed" type="Const" version="opset1">
			<data element_type="f16" shape="1" offset="2332" size="2" />
			<output>
				<port id="0" precision="FP16">
					<dim>1</dim>
				</port>
			</output>
		</layer>
		<layer id="114" name="bottleneck1_4/inner/dw1/fn/weights3115640109" type="Convert" version="opset1">
			<data destination_type="f32" />
			<rt_info>
				<attribute name="decompression" version="0" />
			</rt_info>
			<input>
				<port id="0" precision="FP16">
					<dim>1</dim>
				</port>
			</input>
			<output>
				<port id="1" precision="FP32">
					<dim>1</dim>
				</port>
			</output>
		</layer>
		<layer id="115" name="bottleneck1_4/inner/dw1/fn" type="PReLU" version="opset1">
			<input>
				<port id="0" precision="FP32">
					<dim>1</dim>
					<dim>8</dim>
					<dim>160</dim>
					<dim>272</dim>
				</port>
				<port id="1" precision="FP32">
					<dim>1</dim>
				</port>
			</input>
			<output>
				<port id="2" precision="FP32" names="bottleneck1_4/inner/dw1/conv">
					<dim>1</dim>
					<dim>8</dim>
					<dim>160</dim>
					<dim>272</dim>
				</port>
			</output>
		</layer>
		<layer id="116" name="bottleneck1_4/dim_inc/bn/mean/Fused_Mul__copy_compressed" type="Const" version="opset1">
			<data element_type="f16" shape="32, 8, 1, 1" offset="6286" size="512" />
			<output>
				<port id="0" precision="FP16">
					<dim>32</dim>
					<dim>8</dim>
					<dim>1</dim>
					<dim>1</dim>
				</port>
			</output>
		</layer>
		<layer id="117" name="bottleneck1_4/dim_inc/bn/mean/Fused_Mul__copy" type="Convert" version="opset1">
			<data destination_type="f32" />
			<rt_info>
				<attribute name="decompression" version="0" />
			</rt_info>
			<input>
				<port id="0" precision="FP16">
					<dim>32</dim>
					<dim>8</dim>
					<dim>1</dim>
					<dim>1</dim>
				</port>
			</input>
			<output>
				<port id="1" precision="FP32">
					<dim>32</dim>
					<dim>8</dim>
					<dim>1</dim>
					<dim>1</dim>
				</port>
			</output>
		</layer>
		<layer id="118" name="bottleneck1_4/dim_inc/conv" type="Convolution" version="opset1">
			<data strides="1, 1" dilations="1, 1" pads_begin="0, 0" pads_end="0, 0" auto_pad="explicit" />
			<input>
				<port id="0" precision="FP32">
					<dim>1</dim>
					<dim>8</dim>
					<dim>160</dim>
					<dim>272</dim>
				</port>
				<port id="1" precision="FP32">
					<dim>32</dim>
					<dim>8</dim>
					<dim>1</dim>
					<dim>1</dim>
				</port>
			</input>
			<output>
				<port id="2" precision="FP32">
					<dim>1</dim>
					<dim>32</dim>
					<dim>160</dim>
					<dim>272</dim>
				</port>
			</output>
		</layer>
		<layer id="119" name="data_add_2454524550_compressed" type="Const" version="opset1">
			<data element_type="f16" shape="1, 32, 1, 1" offset="6798" size="64" />
			<output>
				<port id="0" precision="FP16">
					<dim>1</dim>
					<dim>32</dim>
					<dim>1</dim>
					<dim>1</dim>
				</port>
			</output>
		</layer>
		<layer id="120" name="data_add_2454524550" type="Convert" version="opset1">
			<data destination_type="f32" />
			<rt_info>
				<attribute name="decompression" version="0" />
			</rt_info>
			<input>
				<port id="0" precision="FP16">
					<dim>1</dim>
					<dim>32</dim>
					<dim>1</dim>
					<dim>1</dim>
				</port>
			</input>
			<output>
				<port id="1" precision="FP32">
					<dim>1</dim>
					<dim>32</dim>
					<dim>1</dim>
					<dim>1</dim>
				</port>
			</output>
		</layer>
		<layer id="121" name="bottleneck1_4/dim_inc/bn/variance/Fused_Add_" type="Add" version="opset1">
			<data auto_broadcast="numpy" />
			<input>
				<port id="0" precision="FP32">
					<dim>1</dim>
					<dim>32</dim>
					<dim>160</dim>
					<dim>272</dim>
				</port>
				<port id="1" precision="FP32">
					<dim>1</dim>
					<dim>32</dim>
					<dim>1</dim>
					<dim>1</dim>
				</port>
			</input>
			<output>
				<port id="2" precision="FP32" names="bottleneck1_4/dim_inc/conv">
					<dim>1</dim>
					<dim>32</dim>
					<dim>160</dim>
					<dim>272</dim>
				</port>
			</output>
		</layer>
		<layer id="122" name="bottleneck1_4/add" type="Add" version="opset1">
			<data auto_broadcast="numpy" />
			<input>
				<port id="0" precision="FP32">
					<dim>1</dim>
					<dim>32</dim>
					<dim>160</dim>
					<dim>272</dim>
				</port>
				<port id="1" precision="FP32">
					<dim>1</dim>
					<dim>32</dim>
					<dim>160</dim>
					<dim>272</dim>
				</port>
			</input>
			<output>
				<port id="2" precision="FP32" names="bottleneck1_4/add">
					<dim>1</dim>
					<dim>32</dim>
					<dim>160</dim>
					<dim>272</dim>
				</port>
			</output>
		</layer>
		<layer id="123" name="bottleneck1_4/fn/weights3084440727_compressed" type="Const" version="opset1">
			<data element_type="f16" shape="1" offset="2332" size="2" />
			<output>
				<port id="0" precision="FP16">
					<dim>1</dim>
				</port>
			</output>
		</layer>
		<layer id="124" name="bottleneck1_4/fn/weights3084440727" type="Convert" version="opset1">
			<data destination_type="f32" />
			<rt_info>
				<attribute name="decompression" version="0" />
			</rt_info>
			<input>
				<port id="0" precision="FP16">
					<dim>1</dim>
				</port>
			</input>
			<output>
				<port id="1" precision="FP32">
					<dim>1</dim>
				</port>
			</output>
		</layer>
		<layer id="125" name="bottleneck1_4/fn" type="PReLU" version="opset1">
			<input>
				<port id="0" precision="FP32">
					<dim>1</dim>
					<dim>32</dim>
					<dim>160</dim>
					<dim>272</dim>
				</port>
				<port id="1" precision="FP32">
					<dim>1</dim>
				</port>
			</input>
			<output>
				<port id="2" precision="FP32" names="bottleneck1_4/add">
					<dim>1</dim>
					<dim>32</dim>
					<dim>160</dim>
					<dim>272</dim>
				</port>
			</output>
		</layer>
		<layer id="126" name="bottleneck2_0/skip/pooling" type="MaxPool" version="opset8">
			<data strides="2, 2" dilations="1, 1" pads_begin="0, 0" pads_end="0, 0" kernel="2, 2" rounding_type="ceil" auto_pad="explicit" index_element_type="i64" axis="0" />
			<input>
				<port id="0" precision="FP32">
					<dim>1</dim>
					<dim>32</dim>
					<dim>160</dim>
					<dim>272</dim>
				</port>
			</input>
			<output>
				<port id="1" precision="FP32" names="bottleneck2_0/skip/pooling">
					<dim>1</dim>
					<dim>32</dim>
					<dim>80</dim>
					<dim>136</dim>
				</port>
				<port id="2" precision="I64">
					<dim>1</dim>
					<dim>32</dim>
					<dim>80</dim>
					<dim>136</dim>
				</port>
			</output>
		</layer>
		<layer id="127" name="bottleneck2_0/skip/bn/mean/Fused_Mul__copy_compressed" type="Const" version="opset1">
			<data element_type="f16" shape="64, 32, 1, 1" offset="6862" size="4096" />
			<output>
				<port id="0" precision="FP16">
					<dim>64</dim>
					<dim>32</dim>
					<dim>1</dim>
					<dim>1</dim>
				</port>
			</output>
		</layer>
		<layer id="128" name="bottleneck2_0/skip/bn/mean/Fused_Mul__copy" type="Convert" version="opset1">
			<data destination_type="f32" />
			<rt_info>
				<attribute name="decompression" version="0" />
			</rt_info>
			<input>
				<port id="0" precision="FP16">
					<dim>64</dim>
					<dim>32</dim>
					<dim>1</dim>
					<dim>1</dim>
				</port>
			</input>
			<output>
				<port id="1" precision="FP32">
					<dim>64</dim>
					<dim>32</dim>
					<dim>1</dim>
					<dim>1</dim>
				</port>
			</output>
		</layer>
		<layer id="129" name="bottleneck2_0/skip/conv" type="Convolution" version="opset1">
			<data strides="1, 1" dilations="1, 1" pads_begin="0, 0" pads_end="0, 0" auto_pad="explicit" />
			<input>
				<port id="0" precision="FP32">
					<dim>1</dim>
					<dim>32</dim>
					<dim>80</dim>
					<dim>136</dim>
				</port>
				<port id="1" precision="FP32">
					<dim>64</dim>
					<dim>32</dim>
					<dim>1</dim>
					<dim>1</dim>
				</port>
			</input>
			<output>
				<port id="2" precision="FP32">
					<dim>1</dim>
					<dim>64</dim>
					<dim>80</dim>
					<dim>136</dim>
				</port>
			</output>
		</layer>
		<layer id="130" name="data_add_2455324558_compressed" type="Const" version="opset1">
			<data element_type="f16" shape="1, 64, 1, 1" offset="10958" size="128" />
			<output>
				<port id="0" precision="FP16">
					<dim>1</dim>
					<dim>64</dim>
					<dim>1</dim>
					<dim>1</dim>
				</port>
			</output>
		</layer>
		<layer id="131" name="data_add_2455324558" type="Convert" version="opset1">
			<data destination_type="f32" />
			<rt_info>
				<attribute name="decompression" version="0" />
			</rt_info>
			<input>
				<port id="0" precision="FP16">
					<dim>1</dim>
					<dim>64</dim>
					<dim>1</dim>
					<dim>1</dim>
				</port>
			</input>
			<output>
				<port id="1" precision="FP32">
					<dim>1</dim>
					<dim>64</dim>
					<dim>1</dim>
					<dim>1</dim>
				</port>
			</output>
		</layer>
		<layer id="132" name="bottleneck2_0/skip/bn/variance/Fused_Add_" type="Add" version="opset1">
			<data auto_broadcast="numpy" />
			<input>
				<port id="0" precision="FP32">
					<dim>1</dim>
					<dim>64</dim>
					<dim>80</dim>
					<dim>136</dim>
				</port>
				<port id="1" precision="FP32">
					<dim>1</dim>
					<dim>64</dim>
					<dim>1</dim>
					<dim>1</dim>
				</port>
			</input>
			<output>
				<port id="2" precision="FP32" names="bottleneck2_0/skip/conv">
					<dim>1</dim>
					<dim>64</dim>
					<dim>80</dim>
					<dim>136</dim>
				</port>
			</output>
		</layer>
		<layer id="133" name="bottleneck2_0/dim_red/bn/mean/Fused_Mul__copy_compressed" type="Const" version="opset1">
			<data element_type="f16" shape="16, 32, 1, 1" offset="11086" size="1024" />
			<output>
				<port id="0" precision="FP16">
					<dim>16</dim>
					<dim>32</dim>
					<dim>1</dim>
					<dim>1</dim>
				</port>
			</output>
		</layer>
		<layer id="134" name="bottleneck2_0/dim_red/bn/mean/Fused_Mul__copy" type="Convert" version="opset1">
			<data destination_type="f32" />
			<rt_info>
				<attribute name="decompression" version="0" />
			</rt_info>
			<input>
				<port id="0" precision="FP16">
					<dim>16</dim>
					<dim>32</dim>
					<dim>1</dim>
					<dim>1</dim>
				</port>
			</input>
			<output>
				<port id="1" precision="FP32">
					<dim>16</dim>
					<dim>32</dim>
					<dim>1</dim>
					<dim>1</dim>
				</port>
			</output>
		</layer>
		<layer id="135" name="bottleneck2_0/dim_red/conv" type="Convolution" version="opset1">
			<data strides="1, 1" dilations="1, 1" pads_begin="0, 0" pads_end="0, 0" auto_pad="explicit" />
			<input>
				<port id="0" precision="FP32">
					<dim>1</dim>
					<dim>32</dim>
					<dim>160</dim>
					<dim>272</dim>
				</port>
				<port id="1" precision="FP32">
					<dim>16</dim>
					<dim>32</dim>
					<dim>1</dim>
					<dim>1</dim>
				</port>
			</input>
			<output>
				<port id="2" precision="FP32">
					<dim>1</dim>
					<dim>16</dim>
					<dim>160</dim>
					<dim>272</dim>
				</port>
			</output>
		</layer>
		<layer id="136" name="data_add_2456124566_compressed" type="Const" version="opset1">
			<data element_type="f16" shape="1, 16, 1, 1" offset="12110" size="32" />
			<output>
				<port id="0" precision="FP16">
					<dim>1</dim>
					<dim>16</dim>
					<dim>1</dim>
					<dim>1</dim>
				</port>
			</output>
		</layer>
		<layer id="137" name="data_add_2456124566" type="Convert" version="opset1">
			<data destination_type="f32" />
			<rt_info>
				<attribute name="decompression" version="0" />
			</rt_info>
			<input>
				<port id="0" precision="FP16">
					<dim>1</dim>
					<dim>16</dim>
					<dim>1</dim>
					<dim>1</dim>
				</port>
			</input>
			<output>
				<port id="1" precision="FP32">
					<dim>1</dim>
					<dim>16</dim>
					<dim>1</dim>
					<dim>1</dim>
				</port>
			</output>
		</layer>
		<layer id="138" name="bottleneck2_0/dim_red/bn/variance/Fused_Add_" type="Add" version="opset1">
			<data auto_broadcast="numpy" />
			<input>
				<port id="0" precision="FP32">
					<dim>1</dim>
					<dim>16</dim>
					<dim>160</dim>
					<dim>272</dim>
				</port>
				<port id="1" precision="FP32">
					<dim>1</dim>
					<dim>16</dim>
					<dim>1</dim>
					<dim>1</dim>
				</port>
			</input>
			<output>
				<port id="2" precision="FP32" names="bottleneck2_0/dim_red/conv">
					<dim>1</dim>
					<dim>16</dim>
					<dim>160</dim>
					<dim>272</dim>
				</port>
			</output>
		</layer>
		<layer id="139" name="bottleneck2_0/dim_red/fn/weights3088840604_compressed" type="Const" version="opset1">
			<data element_type="f16" shape="1" offset="2332" size="2" />
			<output>
				<port id="0" precision="FP16">
					<dim>1</dim>
				</port>
			</output>
		</layer>
		<layer id="140" name="bottleneck2_0/dim_red/fn/weights3088840604" type="Convert" version="opset1">
			<data destination_type="f32" />
			<rt_info>
				<attribute name="decompression" version="0" />
			</rt_info>
			<input>
				<port id="0" precision="FP16">
					<dim>1</dim>
				</port>
			</input>
			<output>
				<port id="1" precision="FP32">
					<dim>1</dim>
				</port>
			</output>
		</layer>
		<layer id="141" name="bottleneck2_0/dim_red/fn" type="PReLU" version="opset1">
			<input>
				<port id="0" precision="FP32">
					<dim>1</dim>
					<dim>16</dim>
					<dim>160</dim>
					<dim>272</dim>
				</port>
				<port id="1" precision="FP32">
					<dim>1</dim>
				</port>
			</input>
			<output>
				<port id="2" precision="FP32" names="bottleneck2_0/dim_red/conv">
					<dim>1</dim>
					<dim>16</dim>
					<dim>160</dim>
					<dim>272</dim>
				</port>
			</output>
		</layer>
		<layer id="142" name="bottleneck2_0/inner/dw1/bn/mean/Fused_Mul__copy_compressed" type="Const" version="opset1">
			<data element_type="f16" shape="16, 1, 1, 3, 3" offset="12142" size="288" />
			<output>
				<port id="0" precision="FP16">
					<dim>16</dim>
					<dim>1</dim>
					<dim>1</dim>
					<dim>3</dim>
					<dim>3</dim>
				</port>
			</output>
		</layer>
		<layer id="143" name="bottleneck2_0/inner/dw1/bn/mean/Fused_Mul__copy" type="Convert" version="opset1">
			<data destination_type="f32" />
			<rt_info>
				<attribute name="decompression" version="0" />
			</rt_info>
			<input>
				<port id="0" precision="FP16">
					<dim>16</dim>
					<dim>1</dim>
					<dim>1</dim>
					<dim>3</dim>
					<dim>3</dim>
				</port>
			</input>
			<output>
				<port id="1" precision="FP32">
					<dim>16</dim>
					<dim>1</dim>
					<dim>1</dim>
					<dim>3</dim>
					<dim>3</dim>
				</port>
			</output>
		</layer>
		<layer id="144" name="bottleneck2_0/inner/dw1/conv" type="GroupConvolution" version="opset1">
			<data strides="2, 2" pads_begin="1, 1" pads_end="1, 1" dilations="1, 1" auto_pad="explicit" />
			<input>
				<port id="0" precision="FP32">
					<dim>1</dim>
					<dim>16</dim>
					<dim>160</dim>
					<dim>272</dim>
				</port>
				<port id="1" precision="FP32">
					<dim>16</dim>
					<dim>1</dim>
					<dim>1</dim>
					<dim>3</dim>
					<dim>3</dim>
				</port>
			</input>
			<output>
				<port id="2" precision="FP32">
					<dim>1</dim>
					<dim>16</dim>
					<dim>80</dim>
					<dim>136</dim>
				</port>
			</output>
		</layer>
		<layer id="145" name="data_add_2456924574_compressed" type="Const" version="opset1">
			<data element_type="f16" shape="1, 16, 1, 1" offset="12430" size="32" />
			<output>
				<port id="0" precision="FP16">
					<dim>1</dim>
					<dim>16</dim>
					<dim>1</dim>
					<dim>1</dim>
				</port>
			</output>
		</layer>
		<layer id="146" name="data_add_2456924574" type="Convert" version="opset1">
			<data destination_type="f32" />
			<rt_info>
				<attribute name="decompression" version="0" />
			</rt_info>
			<input>
				<port id="0" precision="FP16">
					<dim>1</dim>
					<dim>16</dim>
					<dim>1</dim>
					<dim>1</dim>
				</port>
			</input>
			<output>
				<port id="1" precision="FP32">
					<dim>1</dim>
					<dim>16</dim>
					<dim>1</dim>
					<dim>1</dim>
				</port>
			</output>
		</layer>
		<layer id="147" name="bottleneck2_0/inner/dw1/bn/variance/Fused_Add_" type="Add" version="opset1">
			<data auto_broadcast="numpy" />
			<input>
				<port id="0" precision="FP32">
					<dim>1</dim>
					<dim>16</dim>
					<dim>80</dim>
					<dim>136</dim>
				</port>
				<port id="1" precision="FP32">
					<dim>1</dim>
					<dim>16</dim>
					<dim>1</dim>
					<dim>1</dim>
				</port>
			</input>
			<output>
				<port id="2" precision="FP32" names="bottleneck2_0/inner/dw1/conv">
					<dim>1</dim>
					<dim>16</dim>
					<dim>80</dim>
					<dim>136</dim>
				</port>
			</output>
		</layer>
		<layer id="148" name="bottleneck2_0/inner/dw1/fn/weights3113641015_compressed" type="Const" version="opset1">
			<data element_type="f16" shape="1" offset="2332" size="2" />
			<output>
				<port id="0" precision="FP16">
					<dim>1</dim>
				</port>
			</output>
		</layer>
		<layer id="149" name="bottleneck2_0/inner/dw1/fn/weights3113641015" type="Convert" version="opset1">
			<data destination_type="f32" />
			<rt_info>
				<attribute name="decompression" version="0" />
			</rt_info>
			<input>
				<port id="0" precision="FP16">
					<dim>1</dim>
				</port>
			</input>
			<output>
				<port id="1" precision="FP32">
					<dim>1</dim>
				</port>
			</output>
		</layer>
		<layer id="150" name="bottleneck2_0/inner/dw1/fn" type="PReLU" version="opset1">
			<input>
				<port id="0" precision="FP32">
					<dim>1</dim>
					<dim>16</dim>
					<dim>80</dim>
					<dim>136</dim>
				</port>
				<port id="1" precision="FP32">
					<dim>1</dim>
				</port>
			</input>
			<output>
				<port id="2" precision="FP32" names="bottleneck2_0/inner/dw1/conv">
					<dim>1</dim>
					<dim>16</dim>
					<dim>80</dim>
					<dim>136</dim>
				</port>
			</output>
		</layer>
		<layer id="151" name="bottleneck2_0/dim_inc/bn/mean/Fused_Mul__copy_compressed" type="Const" version="opset1">
			<data element_type="f16" shape="64, 16, 1, 1" offset="12462" size="2048" />
			<output>
				<port id="0" precision="FP16">
					<dim>64</dim>
					<dim>16</dim>
					<dim>1</dim>
					<dim>1</dim>
				</port>
			</output>
		</layer>
		<layer id="152" name="bottleneck2_0/dim_inc/bn/mean/Fused_Mul__copy" type="Convert" version="opset1">
			<data destination_type="f32" />
			<rt_info>
				<attribute name="decompression" version="0" />
			</rt_info>
			<input>
				<port id="0" precision="FP16">
					<dim>64</dim>
					<dim>16</dim>
					<dim>1</dim>
					<dim>1</dim>
				</port>
			</input>
			<output>
				<port id="1" precision="FP32">
					<dim>64</dim>
					<dim>16</dim>
					<dim>1</dim>
					<dim>1</dim>
				</port>
			</output>
		</layer>
		<layer id="153" name="bottleneck2_0/dim_inc/conv" type="Convolution" version="opset1">
			<data strides="1, 1" dilations="1, 1" pads_begin="0, 0" pads_end="0, 0" auto_pad="explicit" />
			<input>
				<port id="0" precision="FP32">
					<dim>1</dim>
					<dim>16</dim>
					<dim>80</dim>
					<dim>136</dim>
				</port>
				<port id="1" precision="FP32">
					<dim>64</dim>
					<dim>16</dim>
					<dim>1</dim>
					<dim>1</dim>
				</port>
			</input>
			<output>
				<port id="2" precision="FP32">
					<dim>1</dim>
					<dim>64</dim>
					<dim>80</dim>
					<dim>136</dim>
				</port>
			</output>
		</layer>
		<layer id="154" name="data_add_2457724582_compressed" type="Const" version="opset1">
			<data element_type="f16" shape="1, 64, 1, 1" offset="14510" size="128" />
			<output>
				<port id="0" precision="FP16">
					<dim>1</dim>
					<dim>64</dim>
					<dim>1</dim>
					<dim>1</dim>
				</port>
			</output>
		</layer>
		<layer id="155" name="data_add_2457724582" type="Convert" version="opset1">
			<data destination_type="f32" />
			<rt_info>
				<attribute name="decompression" version="0" />
			</rt_info>
			<input>
				<port id="0" precision="FP16">
					<dim>1</dim>
					<dim>64</dim>
					<dim>1</dim>
					<dim>1</dim>
				</port>
			</input>
			<output>
				<port id="1" precision="FP32">
					<dim>1</dim>
					<dim>64</dim>
					<dim>1</dim>
					<dim>1</dim>
				</port>
			</output>
		</layer>
		<layer id="156" name="bottleneck2_0/dim_inc/bn/variance/Fused_Add_" type="Add" version="opset1">
			<data auto_broadcast="numpy" />
			<input>
				<port id="0" precision="FP32">
					<dim>1</dim>
					<dim>64</dim>
					<dim>80</dim>
					<dim>136</dim>
				</port>
				<port id="1" precision="FP32">
					<dim>1</dim>
					<dim>64</dim>
					<dim>1</dim>
					<dim>1</dim>
				</port>
			</input>
			<output>
				<port id="2" precision="FP32" names="bottleneck2_0/dim_inc/conv">
					<dim>1</dim>
					<dim>64</dim>
					<dim>80</dim>
					<dim>136</dim>
				</port>
			</output>
		</layer>
		<layer id="157" name="bottleneck2_0/add" type="Add" version="opset1">
			<data auto_broadcast="numpy" />
			<input>
				<port id="0" precision="FP32">
					<dim>1</dim>
					<dim>64</dim>
					<dim>80</dim>
					<dim>136</dim>
				</port>
				<port id="1" precision="FP32">
					<dim>1</dim>
					<dim>64</dim>
					<dim>80</dim>
					<dim>136</dim>
				</port>
			</input>
			<output>
				<port id="2" precision="FP32" names="bottleneck2_0/add">
					<dim>1</dim>
					<dim>64</dim>
					<dim>80</dim>
					<dim>136</dim>
				</port>
			</output>
		</layer>
		<layer id="158" name="bottleneck2_0/fn/weights3092440361_compressed" type="Const" version="opset1">
			<data element_type="f16" shape="1" offset="2332" size="2" />
			<output>
				<port id="0" precision="FP16">
					<dim>1</dim>
				</port>
			</output>
		</layer>
		<layer id="159" name="bottleneck2_0/fn/weights3092440361" type="Convert" version="opset1">
			<data destination_type="f32" />
			<rt_info>
				<attribute name="decompression" version="0" />
			</rt_info>
			<input>
				<port id="0" precision="FP16">
					<dim>1</dim>
				</port>
			</input>
			<output>
				<port id="1" precision="FP32">
					<dim>1</dim>
				</port>
			</output>
		</layer>
		<layer id="160" name="bottleneck2_0/fn" type="PReLU" version="opset1">
			<input>
				<port id="0" precision="FP32">
					<dim>1</dim>
					<dim>64</dim>
					<dim>80</dim>
					<dim>136</dim>
				</port>
				<port id="1" precision="FP32">
					<dim>1</dim>
				</port>
			</input>
			<output>
				<port id="2" precision="FP32" names="bottleneck2_0/add">
					<dim>1</dim>
					<dim>64</dim>
					<dim>80</dim>
					<dim>136</dim>
				</port>
			</output>
		</layer>
		<layer id="161" name="bottleneck2_1/dim_red/bn/mean/Fused_Mul__copy_compressed" type="Const" version="opset1">
			<data element_type="f16" shape="16, 64, 1, 1" offset="14638" size="2048" />
			<output>
				<port id="0" precision="FP16">
					<dim>16</dim>
					<dim>64</dim>
					<dim>1</dim>
					<dim>1</dim>
				</port>
			</output>
		</layer>
		<layer id="162" name="bottleneck2_1/dim_red/bn/mean/Fused_Mul__copy" type="Convert" version="opset1">
			<data destination_type="f32" />
			<rt_info>
				<attribute name="decompression" version="0" />
			</rt_info>
			<input>
				<port id="0" precision="FP16">
					<dim>16</dim>
					<dim>64</dim>
					<dim>1</dim>
					<dim>1</dim>
				</port>
			</input>
			<output>
				<port id="1" precision="FP32">
					<dim>16</dim>
					<dim>64</dim>
					<dim>1</dim>
					<dim>1</dim>
				</port>
			</output>
		</layer>
		<layer id="163" name="bottleneck2_1/dim_red/conv" type="Convolution" version="opset1">
			<data strides="1, 1" dilations="1, 1" pads_begin="0, 0" pads_end="0, 0" auto_pad="explicit" />
			<input>
				<port id="0" precision="FP32">
					<dim>1</dim>
					<dim>64</dim>
					<dim>80</dim>
					<dim>136</dim>
				</port>
				<port id="1" precision="FP32">
					<dim>16</dim>
					<dim>64</dim>
					<dim>1</dim>
					<dim>1</dim>
				</port>
			</input>
			<output>
				<port id="2" precision="FP32">
					<dim>1</dim>
					<dim>16</dim>
					<dim>80</dim>
					<dim>136</dim>
				</port>
			</output>
		</layer>
		<layer id="164" name="data_add_2458524590_compressed" type="Const" version="opset1">
			<data element_type="f16" shape="1, 16, 1, 1" offset="16686" size="32" />
			<output>
				<port id="0" precision="FP16">
					<dim>1</dim>
					<dim>16</dim>
					<dim>1</dim>
					<dim>1</dim>
				</port>
			</output>
		</layer>
		<layer id="165" name="data_add_2458524590" type="Convert" version="opset1">
			<data destination_type="f32" />
			<rt_info>
				<attribute name="decompression" version="0" />
			</rt_info>
			<input>
				<port id="0" precision="FP16">
					<dim>1</dim>
					<dim>16</dim>
					<dim>1</dim>
					<dim>1</dim>
				</port>
			</input>
			<output>
				<port id="1" precision="FP32">
					<dim>1</dim>
					<dim>16</dim>
					<dim>1</dim>
					<dim>1</dim>
				</port>
			</output>
		</layer>
		<layer id="166" name="bottleneck2_1/dim_red/bn/variance/Fused_Add_" type="Add" version="opset1">
			<data auto_broadcast="numpy" />
			<input>
				<port id="0" precision="FP32">
					<dim>1</dim>
					<dim>16</dim>
					<dim>80</dim>
					<dim>136</dim>
				</port>
				<port id="1" precision="FP32">
					<dim>1</dim>
					<dim>16</dim>
					<dim>1</dim>
					<dim>1</dim>
				</port>
			</input>
			<output>
				<port id="2" precision="FP32" names="bottleneck2_1/dim_red/conv">
					<dim>1</dim>
					<dim>16</dim>
					<dim>80</dim>
					<dim>136</dim>
				</port>
			</output>
		</layer>
		<layer id="167" name="bottleneck2_1/dim_red/fn/weights3084840043_compressed" type="Const" version="opset1">
			<data element_type="f16" shape="1" offset="2332" size="2" />
			<output>
				<port id="0" precision="FP16">
					<dim>1</dim>
				</port>
			</output>
		</layer>
		<layer id="168" name="bottleneck2_1/dim_red/fn/weights3084840043" type="Convert" version="opset1">
			<data destination_type="f32" />
			<rt_info>
				<attribute name="decompression" version="0" />
			</rt_info>
			<input>
				<port id="0" precision="FP16">
					<dim>1</dim>
				</port>
			</input>
			<output>
				<port id="1" precision="FP32">
					<dim>1</dim>
				</port>
			</output>
		</layer>
		<layer id="169" name="bottleneck2_1/dim_red/fn" type="PReLU" version="opset1">
			<input>
				<port id="0" precision="FP32">
					<dim>1</dim>
					<dim>16</dim>
					<dim>80</dim>
					<dim>136</dim>
				</port>
				<port id="1" precision="FP32">
					<dim>1</dim>
				</port>
			</input>
			<output>
				<port id="2" precision="FP32" names="bottleneck2_1/dim_red/conv">
					<dim>1</dim>
					<dim>16</dim>
					<dim>80</dim>
					<dim>136</dim>
				</port>
			</output>
		</layer>
		<layer id="170" name="bottleneck2_1/inner/dw1/bn/mean/Fused_Mul__copy_compressed" type="Const" version="opset1">
			<data element_type="f16" shape="16, 1, 1, 3, 3" offset="16718" size="288" />
			<output>
				<port id="0" precision="FP16">
					<dim>16</dim>
					<dim>1</dim>
					<dim>1</dim>
					<dim>3</dim>
					<dim>3</dim>
				</port>
			</output>
		</layer>
		<layer id="171" name="bottleneck2_1/inner/dw1/bn/mean/Fused_Mul__copy" type="Convert" version="opset1">
			<data destination_type="f32" />
			<rt_info>
				<attribute name="decompression" version="0" />
			</rt_info>
			<input>
				<port id="0" precision="FP16">
					<dim>16</dim>
					<dim>1</dim>
					<dim>1</dim>
					<dim>3</dim>
					<dim>3</dim>
				</port>
			</input>
			<output>
				<port id="1" precision="FP32">
					<dim>16</dim>
					<dim>1</dim>
					<dim>1</dim>
					<dim>3</dim>
					<dim>3</dim>
				</port>
			</output>
		</layer>
		<layer id="172" name="bottleneck2_1/inner/dw1/conv" type="GroupConvolution" version="opset1">
			<data strides="1, 1" pads_begin="1, 1" pads_end="1, 1" dilations="1, 1" auto_pad="explicit" />
			<input>
				<port id="0" precision="FP32">
					<dim>1</dim>
					<dim>16</dim>
					<dim>80</dim>
					<dim>136</dim>
				</port>
				<port id="1" precision="FP32">
					<dim>16</dim>
					<dim>1</dim>
					<dim>1</dim>
					<dim>3</dim>
					<dim>3</dim>
				</port>
			</input>
			<output>
				<port id="2" precision="FP32">
					<dim>1</dim>
					<dim>16</dim>
					<dim>80</dim>
					<dim>136</dim>
				</port>
			</output>
		</layer>
		<layer id="173" name="data_add_2459324598_compressed" type="Const" version="opset1">
			<data element_type="f16" shape="1, 16, 1, 1" offset="17006" size="32" />
			<output>
				<port id="0" precision="FP16">
					<dim>1</dim>
					<dim>16</dim>
					<dim>1</dim>
					<dim>1</dim>
				</port>
			</output>
		</layer>
		<layer id="174" name="data_add_2459324598" type="Convert" version="opset1">
			<data destination_type="f32" />
			<rt_info>
				<attribute name="decompression" version="0" />
			</rt_info>
			<input>
				<port id="0" precision="FP16">
					<dim>1</dim>
					<dim>16</dim>
					<dim>1</dim>
					<dim>1</dim>
				</port>
			</input>
			<output>
				<port id="1" precision="FP32">
					<dim>1</dim>
					<dim>16</dim>
					<dim>1</dim>
					<dim>1</dim>
				</port>
			</output>
		</layer>
		<layer id="175" name="bottleneck2_1/inner/dw1/bn/variance/Fused_Add_" type="Add" version="opset1">
			<data auto_broadcast="numpy" />
			<input>
				<port id="0" precision="FP32">
					<dim>1</dim>
					<dim>16</dim>
					<dim>80</dim>
					<dim>136</dim>
				</port>
				<port id="1" precision="FP32">
					<dim>1</dim>
					<dim>16</dim>
					<dim>1</dim>
					<dim>1</dim>
				</port>
			</input>
			<output>
				<port id="2" precision="FP32" names="bottleneck2_1/inner/dw1/conv">
					<dim>1</dim>
					<dim>16</dim>
					<dim>80</dim>
					<dim>136</dim>
				</port>
			</output>
		</layer>
		<layer id="176" name="bottleneck2_1/inner/dw1/fn/weights3118040412_compressed" type="Const" version="opset1">
			<data element_type="f16" shape="1" offset="2332" size="2" />
			<output>
				<port id="0" precision="FP16">
					<dim>1</dim>
				</port>
			</output>
		</layer>
		<layer id="177" name="bottleneck2_1/inner/dw1/fn/weights3118040412" type="Convert" version="opset1">
			<data destination_type="f32" />
			<rt_info>
				<attribute name="decompression" version="0" />
			</rt_info>
			<input>
				<port id="0" precision="FP16">
					<dim>1</dim>
				</port>
			</input>
			<output>
				<port id="1" precision="FP32">
					<dim>1</dim>
				</port>
			</output>
		</layer>
		<layer id="178" name="bottleneck2_1/inner/dw1/fn" type="PReLU" version="opset1">
			<input>
				<port id="0" precision="FP32">
					<dim>1</dim>
					<dim>16</dim>
					<dim>80</dim>
					<dim>136</dim>
				</port>
				<port id="1" precision="FP32">
					<dim>1</dim>
				</port>
			</input>
			<output>
				<port id="2" precision="FP32" names="bottleneck2_1/inner/dw1/conv">
					<dim>1</dim>
					<dim>16</dim>
					<dim>80</dim>
					<dim>136</dim>
				</port>
			</output>
		</layer>
		<layer id="179" name="bottleneck2_1/dim_inc/bn/mean/Fused_Mul__copy_compressed" type="Const" version="opset1">
			<data element_type="f16" shape="64, 16, 1, 1" offset="17038" size="2048" />
			<output>
				<port id="0" precision="FP16">
					<dim>64</dim>
					<dim>16</dim>
					<dim>1</dim>
					<dim>1</dim>
				</port>
			</output>
		</layer>
		<layer id="180" name="bottleneck2_1/dim_inc/bn/mean/Fused_Mul__copy" type="Convert" version="opset1">
			<data destination_type="f32" />
			<rt_info>
				<attribute name="decompression" version="0" />
			</rt_info>
			<input>
				<port id="0" precision="FP16">
					<dim>64</dim>
					<dim>16</dim>
					<dim>1</dim>
					<dim>1</dim>
				</port>
			</input>
			<output>
				<port id="1" precision="FP32">
					<dim>64</dim>
					<dim>16</dim>
					<dim>1</dim>
					<dim>1</dim>
				</port>
			</output>
		</layer>
		<layer id="181" name="bottleneck2_1/dim_inc/conv" type="Convolution" version="opset1">
			<data strides="1, 1" dilations="1, 1" pads_begin="0, 0" pads_end="0, 0" auto_pad="explicit" />
			<input>
				<port id="0" precision="FP32">
					<dim>1</dim>
					<dim>16</dim>
					<dim>80</dim>
					<dim>136</dim>
				</port>
				<port id="1" precision="FP32">
					<dim>64</dim>
					<dim>16</dim>
					<dim>1</dim>
					<dim>1</dim>
				</port>
			</input>
			<output>
				<port id="2" precision="FP32">
					<dim>1</dim>
					<dim>64</dim>
					<dim>80</dim>
					<dim>136</dim>
				</port>
			</output>
		</layer>
		<layer id="182" name="data_add_2460124606_compressed" type="Const" version="opset1">
			<data element_type="f16" shape="1, 64, 1, 1" offset="19086" size="128" />
			<output>
				<port id="0" precision="FP16">
					<dim>1</dim>
					<dim>64</dim>
					<dim>1</dim>
					<dim>1</dim>
				</port>
			</output>
		</layer>
		<layer id="183" name="data_add_2460124606" type="Convert" version="opset1">
			<data destination_type="f32" />
			<rt_info>
				<attribute name="decompression" version="0" />
			</rt_info>
			<input>
				<port id="0" precision="FP16">
					<dim>1</dim>
					<dim>64</dim>
					<dim>1</dim>
					<dim>1</dim>
				</port>
			</input>
			<output>
				<port id="1" precision="FP32">
					<dim>1</dim>
					<dim>64</dim>
					<dim>1</dim>
					<dim>1</dim>
				</port>
			</output>
		</layer>
		<layer id="184" name="bottleneck2_1/dim_inc/bn/variance/Fused_Add_" type="Add" version="opset1">
			<data auto_broadcast="numpy" />
			<input>
				<port id="0" precision="FP32">
					<dim>1</dim>
					<dim>64</dim>
					<dim>80</dim>
					<dim>136</dim>
				</port>
				<port id="1" precision="FP32">
					<dim>1</dim>
					<dim>64</dim>
					<dim>1</dim>
					<dim>1</dim>
				</port>
			</input>
			<output>
				<port id="2" precision="FP32" names="bottleneck2_1/dim_inc/conv">
					<dim>1</dim>
					<dim>64</dim>
					<dim>80</dim>
					<dim>136</dim>
				</port>
			</output>
		</layer>
		<layer id="185" name="bottleneck2_1/add" type="Add" version="opset1">
			<data auto_broadcast="numpy" />
			<input>
				<port id="0" precision="FP32">
					<dim>1</dim>
					<dim>64</dim>
					<dim>80</dim>
					<dim>136</dim>
				</port>
				<port id="1" precision="FP32">
					<dim>1</dim>
					<dim>64</dim>
					<dim>80</dim>
					<dim>136</dim>
				</port>
			</input>
			<output>
				<port id="2" precision="FP32" names="bottleneck2_1/add">
					<dim>1</dim>
					<dim>64</dim>
					<dim>80</dim>
					<dim>136</dim>
				</port>
			</output>
		</layer>
		<layer id="186" name="bottleneck2_1/fn/weights3098440919_compressed" type="Const" version="opset1">
			<data element_type="f16" shape="1" offset="2332" size="2" />
			<output>
				<port id="0" precision="FP16">
					<dim>1</dim>
				</port>
			</output>
		</layer>
		<layer id="187" name="bottleneck2_1/fn/weights3098440919" type="Convert" version="opset1">
			<data destination_type="f32" />
			<rt_info>
				<attribute name="decompression" version="0" />
			</rt_info>
			<input>
				<port id="0" precision="FP16">
					<dim>1</dim>
				</port>
			</input>
			<output>
				<port id="1" precision="FP32">
					<dim>1</dim>
				</port>
			</output>
		</layer>
		<layer id="188" name="bottleneck2_1/fn" type="PReLU" version="opset1">
			<input>
				<port id="0" precision="FP32">
					<dim>1</dim>
					<dim>64</dim>
					<dim>80</dim>
					<dim>136</dim>
				</port>
				<port id="1" precision="FP32">
					<dim>1</dim>
				</port>
			</input>
			<output>
				<port id="2" precision="FP32" names="bottleneck2_1/add">
					<dim>1</dim>
					<dim>64</dim>
					<dim>80</dim>
					<dim>136</dim>
				</port>
			</output>
		</layer>
		<layer id="189" name="bottleneck2_2/dim_red/bn/mean/Fused_Mul__copy_compressed" type="Const" version="opset1">
			<data element_type="f16" shape="16, 64, 1, 1" offset="19214" size="2048" />
			<output>
				<port id="0" precision="FP16">
					<dim>16</dim>
					<dim>64</dim>
					<dim>1</dim>
					<dim>1</dim>
				</port>
			</output>
		</layer>
		<layer id="190" name="bottleneck2_2/dim_red/bn/mean/Fused_Mul__copy" type="Convert" version="opset1">
			<data destination_type="f32" />
			<rt_info>
				<attribute name="decompression" version="0" />
			</rt_info>
			<input>
				<port id="0" precision="FP16">
					<dim>16</dim>
					<dim>64</dim>
					<dim>1</dim>
					<dim>1</dim>
				</port>
			</input>
			<output>
				<port id="1" precision="FP32">
					<dim>16</dim>
					<dim>64</dim>
					<dim>1</dim>
					<dim>1</dim>
				</port>
			</output>
		</layer>
		<layer id="191" name="bottleneck2_2/dim_red/conv" type="Convolution" version="opset1">
			<data strides="1, 1" dilations="1, 1" pads_begin="0, 0" pads_end="0, 0" auto_pad="explicit" />
			<input>
				<port id="0" precision="FP32">
					<dim>1</dim>
					<dim>64</dim>
					<dim>80</dim>
					<dim>136</dim>
				</port>
				<port id="1" precision="FP32">
					<dim>16</dim>
					<dim>64</dim>
					<dim>1</dim>
					<dim>1</dim>
				</port>
			</input>
			<output>
				<port id="2" precision="FP32">
					<dim>1</dim>
					<dim>16</dim>
					<dim>80</dim>
					<dim>136</dim>
				</port>
			</output>
		</layer>
		<layer id="192" name="data_add_2460924614_compressed" type="Const" version="opset1">
			<data element_type="f16" shape="1, 16, 1, 1" offset="21262" size="32" />
			<output>
				<port id="0" precision="FP16">
					<dim>1</dim>
					<dim>16</dim>
					<dim>1</dim>
					<dim>1</dim>
				</port>
			</output>
		</layer>
		<layer id="193" name="data_add_2460924614" type="Convert" version="opset1">
			<data destination_type="f32" />
			<rt_info>
				<attribute name="decompression" version="0" />
			</rt_info>
			<input>
				<port id="0" precision="FP16">
					<dim>1</dim>
					<dim>16</dim>
					<dim>1</dim>
					<dim>1</dim>
				</port>
			</input>
			<output>
				<port id="1" precision="FP32">
					<dim>1</dim>
					<dim>16</dim>
					<dim>1</dim>
					<dim>1</dim>
				</port>
			</output>
		</layer>
		<layer id="194" name="bottleneck2_2/dim_red/bn/variance/Fused_Add_" type="Add" version="opset1">
			<data auto_broadcast="numpy" />
			<input>
				<port id="0" precision="FP32">
					<dim>1</dim>
					<dim>16</dim>
					<dim>80</dim>
					<dim>136</dim>
				</port>
				<port id="1" precision="FP32">
					<dim>1</dim>
					<dim>16</dim>
					<dim>1</dim>
					<dim>1</dim>
				</port>
			</input>
			<output>
				<port id="2" precision="FP32" names="bottleneck2_2/dim_red/conv">
					<dim>1</dim>
					<dim>16</dim>
					<dim>80</dim>
					<dim>136</dim>
				</port>
			</output>
		</layer>
		<layer id="195" name="bottleneck2_2/dim_red/fn/weights3124040274_compressed" type="Const" version="opset1">
			<data element_type="f16" shape="1" offset="2332" size="2" />
			<output>
				<port id="0" precision="FP16">
					<dim>1</dim>
				</port>
			</output>
		</layer>
		<layer id="196" name="bottleneck2_2/dim_red/fn/weights3124040274" type="Convert" version="opset1">
			<data destination_type="f32" />
			<rt_info>
				<attribute name="decompression" version="0" />
			</rt_info>
			<input>
				<port id="0" precision="FP16">
					<dim>1</dim>
				</port>
			</input>
			<output>
				<port id="1" precision="FP32">
					<dim>1</dim>
				</port>
			</output>
		</layer>
		<layer id="197" name="bottleneck2_2/dim_red/fn" type="PReLU" version="opset1">
			<input>
				<port id="0" precision="FP32">
					<dim>1</dim>
					<dim>16</dim>
					<dim>80</dim>
					<dim>136</dim>
				</port>
				<port id="1" precision="FP32">
					<dim>1</dim>
				</port>
			</input>
			<output>
				<port id="2" precision="FP32" names="bottleneck2_2/dim_red/conv">
					<dim>1</dim>
					<dim>16</dim>
					<dim>80</dim>
					<dim>136</dim>
				</port>
			</output>
		</layer>
		<layer id="198" name="bottleneck2_2/inner/dw1/bn/mean/Fused_Mul__copy_compressed" type="Const" version="opset1">
			<data element_type="f16" shape="16, 1, 1, 3, 3" offset="21294" size="288" />
			<output>
				<port id="0" precision="FP16">
					<dim>16</dim>
					<dim>1</dim>
					<dim>1</dim>
					<dim>3</dim>
					<dim>3</dim>
				</port>
			</output>
		</layer>
		<layer id="199" name="bottleneck2_2/inner/dw1/bn/mean/Fused_Mul__copy" type="Convert" version="opset1">
			<data destination_type="f32" />
			<rt_info>
				<attribute name="decompression" version="0" />
			</rt_info>
			<input>
				<port id="0" precision="FP16">
					<dim>16</dim>
					<dim>1</dim>
					<dim>1</dim>
					<dim>3</dim>
					<dim>3</dim>
				</port>
			</input>
			<output>
				<port id="1" precision="FP32">
					<dim>16</dim>
					<dim>1</dim>
					<dim>1</dim>
					<dim>3</dim>
					<dim>3</dim>
				</port>
			</output>
		</layer>
		<layer id="200" name="bottleneck2_2/inner/dw1/conv" type="GroupConvolution" version="opset1">
			<data strides="1, 1" pads_begin="1, 1" pads_end="1, 1" dilations="1, 1" auto_pad="explicit" />
			<input>
				<port id="0" precision="FP32">
					<dim>1</dim>
					<dim>16</dim>
					<dim>80</dim>
					<dim>136</dim>
				</port>
				<port id="1" precision="FP32">
					<dim>16</dim>
					<dim>1</dim>
					<dim>1</dim>
					<dim>3</dim>
					<dim>3</dim>
				</port>
			</input>
			<output>
				<port id="2" precision="FP32">
					<dim>1</dim>
					<dim>16</dim>
					<dim>80</dim>
					<dim>136</dim>
				</port>
			</output>
		</layer>
		<layer id="201" name="data_add_2461724622_compressed" type="Const" version="opset1">
			<data element_type="f16" shape="1, 16, 1, 1" offset="21582" size="32" />
			<output>
				<port id="0" precision="FP16">
					<dim>1</dim>
					<dim>16</dim>
					<dim>1</dim>
					<dim>1</dim>
				</port>
			</output>
		</layer>
		<layer id="202" name="data_add_2461724622" type="Convert" version="opset1">
			<data destination_type="f32" />
			<rt_info>
				<attribute name="decompression" version="0" />
			</rt_info>
			<input>
				<port id="0" precision="FP16">
					<dim>1</dim>
					<dim>16</dim>
					<dim>1</dim>
					<dim>1</dim>
				</port>
			</input>
			<output>
				<port id="1" precision="FP32">
					<dim>1</dim>
					<dim>16</dim>
					<dim>1</dim>
					<dim>1</dim>
				</port>
			</output>
		</layer>
		<layer id="203" name="bottleneck2_2/inner/dw1/bn/variance/Fused_Add_" type="Add" version="opset1">
			<data auto_broadcast="numpy" />
			<input>
				<port id="0" precision="FP32">
					<dim>1</dim>
					<dim>16</dim>
					<dim>80</dim>
					<dim>136</dim>
				</port>
				<port id="1" precision="FP32">
					<dim>1</dim>
					<dim>16</dim>
					<dim>1</dim>
					<dim>1</dim>
				</port>
			</input>
			<output>
				<port id="2" precision="FP32" names="bottleneck2_2/inner/dw1/conv">
					<dim>1</dim>
					<dim>16</dim>
					<dim>80</dim>
					<dim>136</dim>
				</port>
			</output>
		</layer>
		<layer id="204" name="bottleneck2_2/inner/dw1/fn/weights3122040880_compressed" type="Const" version="opset1">
			<data element_type="f16" shape="1" offset="2332" size="2" />
			<output>
				<port id="0" precision="FP16">
					<dim>1</dim>
				</port>
			</output>
		</layer>
		<layer id="205" name="bottleneck2_2/inner/dw1/fn/weights3122040880" type="Convert" version="opset1">
			<data destination_type="f32" />
			<rt_info>
				<attribute name="decompression" version="0" />
			</rt_info>
			<input>
				<port id="0" precision="FP16">
					<dim>1</dim>
				</port>
			</input>
			<output>
				<port id="1" precision="FP32">
					<dim>1</dim>
				</port>
			</output>
		</layer>
		<layer id="206" name="bottleneck2_2/inner/dw1/fn" type="PReLU" version="opset1">
			<input>
				<port id="0" precision="FP32">
					<dim>1</dim>
					<dim>16</dim>
					<dim>80</dim>
					<dim>136</dim>
				</port>
				<port id="1" precision="FP32">
					<dim>1</dim>
				</port>
			</input>
			<output>
				<port id="2" precision="FP32" names="bottleneck2_2/inner/dw1/conv">
					<dim>1</dim>
					<dim>16</dim>
					<dim>80</dim>
					<dim>136</dim>
				</port>
			</output>
		</layer>
		<layer id="207" name="bottleneck2_2/dim_inc/bn/mean/Fused_Mul__copy_compressed" type="Const" version="opset1">
			<data element_type="f16" shape="64, 16, 1, 1" offset="21614" size="2048" />
			<output>
				<port id="0" precision="FP16">
					<dim>64</dim>
					<dim>16</dim>
					<dim>1</dim>
					<dim>1</dim>
				</port>
			</output>
		</layer>
		<layer id="208" name="bottleneck2_2/dim_inc/bn/mean/Fused_Mul__copy" type="Convert" version="opset1">
			<data destination_type="f32" />
			<rt_info>
				<attribute name="decompression" version="0" />
			</rt_info>
			<input>
				<port id="0" precision="FP16">
					<dim>64</dim>
					<dim>16</dim>
					<dim>1</dim>
					<dim>1</dim>
				</port>
			</input>
			<output>
				<port id="1" precision="FP32">
					<dim>64</dim>
					<dim>16</dim>
					<dim>1</dim>
					<dim>1</dim>
				</port>
			</output>
		</layer>
		<layer id="209" name="bottleneck2_2/dim_inc/conv" type="Convolution" version="opset1">
			<data strides="1, 1" dilations="1, 1" pads_begin="0, 0" pads_end="0, 0" auto_pad="explicit" />
			<input>
				<port id="0" precision="FP32">
					<dim>1</dim>
					<dim>16</dim>
					<dim>80</dim>
					<dim>136</dim>
				</port>
				<port id="1" precision="FP32">
					<dim>64</dim>
					<dim>16</dim>
					<dim>1</dim>
					<dim>1</dim>
				</port>
			</input>
			<output>
				<port id="2" precision="FP32">
					<dim>1</dim>
					<dim>64</dim>
					<dim>80</dim>
					<dim>136</dim>
				</port>
			</output>
		</layer>
		<layer id="210" name="data_add_2462524630_compressed" type="Const" version="opset1">
			<data element_type="f16" shape="1, 64, 1, 1" offset="23662" size="128" />
			<output>
				<port id="0" precision="FP16">
					<dim>1</dim>
					<dim>64</dim>
					<dim>1</dim>
					<dim>1</dim>
				</port>
			</output>
		</layer>
		<layer id="211" name="data_add_2462524630" type="Convert" version="opset1">
			<data destination_type="f32" />
			<rt_info>
				<attribute name="decompression" version="0" />
			</rt_info>
			<input>
				<port id="0" precision="FP16">
					<dim>1</dim>
					<dim>64</dim>
					<dim>1</dim>
					<dim>1</dim>
				</port>
			</input>
			<output>
				<port id="1" precision="FP32">
					<dim>1</dim>
					<dim>64</dim>
					<dim>1</dim>
					<dim>1</dim>
				</port>
			</output>
		</layer>
		<layer id="212" name="bottleneck2_2/dim_inc/bn/variance/Fused_Add_" type="Add" version="opset1">
			<data auto_broadcast="numpy" />
			<input>
				<port id="0" precision="FP32">
					<dim>1</dim>
					<dim>64</dim>
					<dim>80</dim>
					<dim>136</dim>
				</port>
				<port id="1" precision="FP32">
					<dim>1</dim>
					<dim>64</dim>
					<dim>1</dim>
					<dim>1</dim>
				</port>
			</input>
			<output>
				<port id="2" precision="FP32" names="bottleneck2_2/dim_inc/conv">
					<dim>1</dim>
					<dim>64</dim>
					<dim>80</dim>
					<dim>136</dim>
				</port>
			</output>
		</layer>
		<layer id="213" name="bottleneck2_2/add" type="Add" version="opset1">
			<data auto_broadcast="numpy" />
			<input>
				<port id="0" precision="FP32">
					<dim>1</dim>
					<dim>64</dim>
					<dim>80</dim>
					<dim>136</dim>
				</port>
				<port id="1" precision="FP32">
					<dim>1</dim>
					<dim>64</dim>
					<dim>80</dim>
					<dim>136</dim>
				</port>
			</input>
			<output>
				<port id="2" precision="FP32" names="bottleneck2_2/add">
					<dim>1</dim>
					<dim>64</dim>
					<dim>80</dim>
					<dim>136</dim>
				</port>
			</output>
		</layer>
		<layer id="214" name="bottleneck2_2/fn/weights3126040745_compressed" type="Const" version="opset1">
			<data element_type="f16" shape="1" offset="2332" size="2" />
			<output>
				<port id="0" precision="FP16">
					<dim>1</dim>
				</port>
			</output>
		</layer>
		<layer id="215" name="bottleneck2_2/fn/weights3126040745" type="Convert" version="opset1">
			<data destination_type="f32" />
			<rt_info>
				<attribute name="decompression" version="0" />
			</rt_info>
			<input>
				<port id="0" precision="FP16">
					<dim>1</dim>
				</port>
			</input>
			<output>
				<port id="1" precision="FP32">
					<dim>1</dim>
				</port>
			</output>
		</layer>
		<layer id="216" name="bottleneck2_2/fn" type="PReLU" version="opset1">
			<input>
				<port id="0" precision="FP32">
					<dim>1</dim>
					<dim>64</dim>
					<dim>80</dim>
					<dim>136</dim>
				</port>
				<port id="1" precision="FP32">
					<dim>1</dim>
				</port>
			</input>
			<output>
				<port id="2" precision="FP32" names="bottleneck2_2/add">
					<dim>1</dim>
					<dim>64</dim>
					<dim>80</dim>
					<dim>136</dim>
				</port>
			</output>
		</layer>
		<layer id="217" name="bottleneck2_3/dim_red/bn/mean/Fused_Mul__copy_compressed" type="Const" version="opset1">
			<data element_type="f16" shape="16, 64, 1, 1" offset="23790" size="2048" />
			<output>
				<port id="0" precision="FP16">
					<dim>16</dim>
					<dim>64</dim>
					<dim>1</dim>
					<dim>1</dim>
				</port>
			</output>
		</layer>
		<layer id="218" name="bottleneck2_3/dim_red/bn/mean/Fused_Mul__copy" type="Convert" version="opset1">
			<data destination_type="f32" />
			<rt_info>
				<attribute name="decompression" version="0" />
			</rt_info>
			<input>
				<port id="0" precision="FP16">
					<dim>16</dim>
					<dim>64</dim>
					<dim>1</dim>
					<dim>1</dim>
				</port>
			</input>
			<output>
				<port id="1" precision="FP32">
					<dim>16</dim>
					<dim>64</dim>
					<dim>1</dim>
					<dim>1</dim>
				</port>
			</output>
		</layer>
		<layer id="219" name="bottleneck2_3/dim_red/conv" type="Convolution" version="opset1">
			<data strides="1, 1" dilations="1, 1" pads_begin="0, 0" pads_end="0, 0" auto_pad="explicit" />
			<input>
				<port id="0" precision="FP32">
					<dim>1</dim>
					<dim>64</dim>
					<dim>80</dim>
					<dim>136</dim>
				</port>
				<port id="1" precision="FP32">
					<dim>16</dim>
					<dim>64</dim>
					<dim>1</dim>
					<dim>1</dim>
				</port>
			</input>
			<output>
				<port id="2" precision="FP32">
					<dim>1</dim>
					<dim>16</dim>
					<dim>80</dim>
					<dim>136</dim>
				</port>
			</output>
		</layer>
		<layer id="220" name="data_add_2463324638_compressed" type="Const" version="opset1">
			<data element_type="f16" shape="1, 16, 1, 1" offset="25838" size="32" />
			<output>
				<port id="0" precision="FP16">
					<dim>1</dim>
					<dim>16</dim>
					<dim>1</dim>
					<dim>1</dim>
				</port>
			</output>
		</layer>
		<layer id="221" name="data_add_2463324638" type="Convert" version="opset1">
			<data destination_type="f32" />
			<rt_info>
				<attribute name="decompression" version="0" />
			</rt_info>
			<input>
				<port id="0" precision="FP16">
					<dim>1</dim>
					<dim>16</dim>
					<dim>1</dim>
					<dim>1</dim>
				</port>
			</input>
			<output>
				<port id="1" precision="FP32">
					<dim>1</dim>
					<dim>16</dim>
					<dim>1</dim>
					<dim>1</dim>
				</port>
			</output>
		</layer>
		<layer id="222" name="bottleneck2_3/dim_red/bn/variance/Fused_Add_" type="Add" version="opset1">
			<data auto_broadcast="numpy" />
			<input>
				<port id="0" precision="FP32">
					<dim>1</dim>
					<dim>16</dim>
					<dim>80</dim>
					<dim>136</dim>
				</port>
				<port id="1" precision="FP32">
					<dim>1</dim>
					<dim>16</dim>
					<dim>1</dim>
					<dim>1</dim>
				</port>
			</input>
			<output>
				<port id="2" precision="FP32" names="bottleneck2_3/dim_red/conv">
					<dim>1</dim>
					<dim>16</dim>
					<dim>80</dim>
					<dim>136</dim>
				</port>
			</output>
		</layer>
		<layer id="223" name="bottleneck2_3/dim_red/fn/weights3114040355_compressed" type="Const" version="opset1">
			<data element_type="f16" shape="1" offset="2332" size="2" />
			<output>
				<port id="0" precision="FP16">
					<dim>1</dim>
				</port>
			</output>
		</layer>
		<layer id="224" name="bottleneck2_3/dim_red/fn/weights3114040355" type="Convert" version="opset1">
			<data destination_type="f32" />
			<rt_info>
				<attribute name="decompression" version="0" />
			</rt_info>
			<input>
				<port id="0" precision="FP16">
					<dim>1</dim>
				</port>
			</input>
			<output>
				<port id="1" precision="FP32">
					<dim>1</dim>
				</port>
			</output>
		</layer>
		<layer id="225" name="bottleneck2_3/dim_red/fn" type="PReLU" version="opset1">
			<input>
				<port id="0" precision="FP32">
					<dim>1</dim>
					<dim>16</dim>
					<dim>80</dim>
					<dim>136</dim>
				</port>
				<port id="1" precision="FP32">
					<dim>1</dim>
				</port>
			</input>
			<output>
				<port id="2" precision="FP32" names="bottleneck2_3/dim_red/conv">
					<dim>1</dim>
					<dim>16</dim>
					<dim>80</dim>
					<dim>136</dim>
				</port>
			</output>
		</layer>
		<layer id="226" name="bottleneck2_3/inner/dw1/bn/mean/Fused_Mul__copy_compressed" type="Const" version="opset1">
			<data element_type="f16" shape="16, 1, 1, 3, 3" offset="25870" size="288" />
			<output>
				<port id="0" precision="FP16">
					<dim>16</dim>
					<dim>1</dim>
					<dim>1</dim>
					<dim>3</dim>
					<dim>3</dim>
				</port>
			</output>
		</layer>
		<layer id="227" name="bottleneck2_3/inner/dw1/bn/mean/Fused_Mul__copy" type="Convert" version="opset1">
			<data destination_type="f32" />
			<rt_info>
				<attribute name="decompression" version="0" />
			</rt_info>
			<input>
				<port id="0" precision="FP16">
					<dim>16</dim>
					<dim>1</dim>
					<dim>1</dim>
					<dim>3</dim>
					<dim>3</dim>
				</port>
			</input>
			<output>
				<port id="1" precision="FP32">
					<dim>16</dim>
					<dim>1</dim>
					<dim>1</dim>
					<dim>3</dim>
					<dim>3</dim>
				</port>
			</output>
		</layer>
		<layer id="228" name="bottleneck2_3/inner/dw1/conv" type="GroupConvolution" version="opset1">
			<data strides="1, 1" pads_begin="1, 1" pads_end="1, 1" dilations="1, 1" auto_pad="explicit" />
			<input>
				<port id="0" precision="FP32">
					<dim>1</dim>
					<dim>16</dim>
					<dim>80</dim>
					<dim>136</dim>
				</port>
				<port id="1" precision="FP32">
					<dim>16</dim>
					<dim>1</dim>
					<dim>1</dim>
					<dim>3</dim>
					<dim>3</dim>
				</port>
			</input>
			<output>
				<port id="2" precision="FP32">
					<dim>1</dim>
					<dim>16</dim>
					<dim>80</dim>
					<dim>136</dim>
				</port>
			</output>
		</layer>
		<layer id="229" name="data_add_2464124646_compressed" type="Const" version="opset1">
			<data element_type="f16" shape="1, 16, 1, 1" offset="26158" size="32" />
			<output>
				<port id="0" precision="FP16">
					<dim>1</dim>
					<dim>16</dim>
					<dim>1</dim>
					<dim>1</dim>
				</port>
			</output>
		</layer>
		<layer id="230" name="data_add_2464124646" type="Convert" version="opset1">
			<data destination_type="f32" />
			<rt_info>
				<attribute name="decompression" version="0" />
			</rt_info>
			<input>
				<port id="0" precision="FP16">
					<dim>1</dim>
					<dim>16</dim>
					<dim>1</dim>
					<dim>1</dim>
				</port>
			</input>
			<output>
				<port id="1" precision="FP32">
					<dim>1</dim>
					<dim>16</dim>
					<dim>1</dim>
					<dim>1</dim>
				</port>
			</output>
		</layer>
		<layer id="231" name="bottleneck2_3/inner/dw1/bn/variance/Fused_Add_" type="Add" version="opset1">
			<data auto_broadcast="numpy" />
			<input>
				<port id="0" precision="FP32">
					<dim>1</dim>
					<dim>16</dim>
					<dim>80</dim>
					<dim>136</dim>
				</port>
				<port id="1" precision="FP32">
					<dim>1</dim>
					<dim>16</dim>
					<dim>1</dim>
					<dim>1</dim>
				</port>
			</input>
			<output>
				<port id="2" precision="FP32" names="bottleneck2_3/inner/dw1/conv">
					<dim>1</dim>
					<dim>16</dim>
					<dim>80</dim>
					<dim>136</dim>
				</port>
			</output>
		</layer>
		<layer id="232" name="bottleneck2_3/inner/dw1/fn/weights3096440760_compressed" type="Const" version="opset1">
			<data element_type="f16" shape="1" offset="2332" size="2" />
			<output>
				<port id="0" precision="FP16">
					<dim>1</dim>
				</port>
			</output>
		</layer>
		<layer id="233" name="bottleneck2_3/inner/dw1/fn/weights3096440760" type="Convert" version="opset1">
			<data destination_type="f32" />
			<rt_info>
				<attribute name="decompression" version="0" />
			</rt_info>
			<input>
				<port id="0" precision="FP16">
					<dim>1</dim>
				</port>
			</input>
			<output>
				<port id="1" precision="FP32">
					<dim>1</dim>
				</port>
			</output>
		</layer>
		<layer id="234" name="bottleneck2_3/inner/dw1/fn" type="PReLU" version="opset1">
			<input>
				<port id="0" precision="FP32">
					<dim>1</dim>
					<dim>16</dim>
					<dim>80</dim>
					<dim>136</dim>
				</port>
				<port id="1" precision="FP32">
					<dim>1</dim>
				</port>
			</input>
			<output>
				<port id="2" precision="FP32" names="bottleneck2_3/inner/dw1/conv">
					<dim>1</dim>
					<dim>16</dim>
					<dim>80</dim>
					<dim>136</dim>
				</port>
			</output>
		</layer>
		<layer id="235" name="bottleneck2_3/dim_inc/bn/mean/Fused_Mul__copy_compressed" type="Const" version="opset1">
			<data element_type="f16" shape="64, 16, 1, 1" offset="26190" size="2048" />
			<output>
				<port id="0" precision="FP16">
					<dim>64</dim>
					<dim>16</dim>
					<dim>1</dim>
					<dim>1</dim>
				</port>
			</output>
		</layer>
		<layer id="236" name="bottleneck2_3/dim_inc/bn/mean/Fused_Mul__copy" type="Convert" version="opset1">
			<data destination_type="f32" />
			<rt_info>
				<attribute name="decompression" version="0" />
			</rt_info>
			<input>
				<port id="0" precision="FP16">
					<dim>64</dim>
					<dim>16</dim>
					<dim>1</dim>
					<dim>1</dim>
				</port>
			</input>
			<output>
				<port id="1" precision="FP32">
					<dim>64</dim>
					<dim>16</dim>
					<dim>1</dim>
					<dim>1</dim>
				</port>
			</output>
		</layer>
		<layer id="237" name="bottleneck2_3/dim_inc/conv" type="Convolution" version="opset1">
			<data strides="1, 1" dilations="1, 1" pads_begin="0, 0" pads_end="0, 0" auto_pad="explicit" />
			<input>
				<port id="0" precision="FP32">
					<dim>1</dim>
					<dim>16</dim>
					<dim>80</dim>
					<dim>136</dim>
				</port>
				<port id="1" precision="FP32">
					<dim>64</dim>
					<dim>16</dim>
					<dim>1</dim>
					<dim>1</dim>
				</port>
			</input>
			<output>
				<port id="2" precision="FP32">
					<dim>1</dim>
					<dim>64</dim>
					<dim>80</dim>
					<dim>136</dim>
				</port>
			</output>
		</layer>
		<layer id="238" name="data_add_2464924654_compressed" type="Const" version="opset1">
			<data element_type="f16" shape="1, 64, 1, 1" offset="28238" size="128" />
			<output>
				<port id="0" precision="FP16">
					<dim>1</dim>
					<dim>64</dim>
					<dim>1</dim>
					<dim>1</dim>
				</port>
			</output>
		</layer>
		<layer id="239" name="data_add_2464924654" type="Convert" version="opset1">
			<data destination_type="f32" />
			<rt_info>
				<attribute name="decompression" version="0" />
			</rt_info>
			<input>
				<port id="0" precision="FP16">
					<dim>1</dim>
					<dim>64</dim>
					<dim>1</dim>
					<dim>1</dim>
				</port>
			</input>
			<output>
				<port id="1" precision="FP32">
					<dim>1</dim>
					<dim>64</dim>
					<dim>1</dim>
					<dim>1</dim>
				</port>
			</output>
		</layer>
		<layer id="240" name="bottleneck2_3/dim_inc/bn/variance/Fused_Add_" type="Add" version="opset1">
			<data auto_broadcast="numpy" />
			<input>
				<port id="0" precision="FP32">
					<dim>1</dim>
					<dim>64</dim>
					<dim>80</dim>
					<dim>136</dim>
				</port>
				<port id="1" precision="FP32">
					<dim>1</dim>
					<dim>64</dim>
					<dim>1</dim>
					<dim>1</dim>
				</port>
			</input>
			<output>
				<port id="2" precision="FP32" names="bottleneck2_3/dim_inc/conv">
					<dim>1</dim>
					<dim>64</dim>
					<dim>80</dim>
					<dim>136</dim>
				</port>
			</output>
		</layer>
		<layer id="241" name="bottleneck2_3/add" type="Add" version="opset1">
			<data auto_broadcast="numpy" />
			<input>
				<port id="0" precision="FP32">
					<dim>1</dim>
					<dim>64</dim>
					<dim>80</dim>
					<dim>136</dim>
				</port>
				<port id="1" precision="FP32">
					<dim>1</dim>
					<dim>64</dim>
					<dim>80</dim>
					<dim>136</dim>
				</port>
			</input>
			<output>
				<port id="2" precision="FP32" names="bottleneck2_3/add">
					<dim>1</dim>
					<dim>64</dim>
					<dim>80</dim>
					<dim>136</dim>
				</port>
			</output>
		</layer>
		<layer id="242" name="bottleneck2_3/fn/weights3108440238_compressed" type="Const" version="opset1">
			<data element_type="f16" shape="1" offset="2332" size="2" />
			<output>
				<port id="0" precision="FP16">
					<dim>1</dim>
				</port>
			</output>
		</layer>
		<layer id="243" name="bottleneck2_3/fn/weights3108440238" type="Convert" version="opset1">
			<data destination_type="f32" />
			<rt_info>
				<attribute name="decompression" version="0" />
			</rt_info>
			<input>
				<port id="0" precision="FP16">
					<dim>1</dim>
				</port>
			</input>
			<output>
				<port id="1" precision="FP32">
					<dim>1</dim>
				</port>
			</output>
		</layer>
		<layer id="244" name="bottleneck2_3/fn" type="PReLU" version="opset1">
			<input>
				<port id="0" precision="FP32">
					<dim>1</dim>
					<dim>64</dim>
					<dim>80</dim>
					<dim>136</dim>
				</port>
				<port id="1" precision="FP32">
					<dim>1</dim>
				</port>
			</input>
			<output>
				<port id="2" precision="FP32" names="bottleneck2_3/add">
					<dim>1</dim>
					<dim>64</dim>
					<dim>80</dim>
					<dim>136</dim>
				</port>
			</output>
		</layer>
		<layer id="245" name="bottleneck2_4/dim_red/bn/mean/Fused_Mul__copy_compressed" type="Const" version="opset1">
			<data element_type="f16" shape="16, 64, 1, 1" offset="28366" size="2048" />
			<output>
				<port id="0" precision="FP16">
					<dim>16</dim>
					<dim>64</dim>
					<dim>1</dim>
					<dim>1</dim>
				</port>
			</output>
		</layer>
		<layer id="246" name="bottleneck2_4/dim_red/bn/mean/Fused_Mul__copy" type="Convert" version="opset1">
			<data destination_type="f32" />
			<rt_info>
				<attribute name="decompression" version="0" />
			</rt_info>
			<input>
				<port id="0" precision="FP16">
					<dim>16</dim>
					<dim>64</dim>
					<dim>1</dim>
					<dim>1</dim>
				</port>
			</input>
			<output>
				<port id="1" precision="FP32">
					<dim>16</dim>
					<dim>64</dim>
					<dim>1</dim>
					<dim>1</dim>
				</port>
			</output>
		</layer>
		<layer id="247" name="bottleneck2_4/dim_red/conv" type="Convolution" version="opset1">
			<data strides="1, 1" dilations="1, 1" pads_begin="0, 0" pads_end="0, 0" auto_pad="explicit" />
			<input>
				<port id="0" precision="FP32">
					<dim>1</dim>
					<dim>64</dim>
					<dim>80</dim>
					<dim>136</dim>
				</port>
				<port id="1" precision="FP32">
					<dim>16</dim>
					<dim>64</dim>
					<dim>1</dim>
					<dim>1</dim>
				</port>
			</input>
			<output>
				<port id="2" precision="FP32">
					<dim>1</dim>
					<dim>16</dim>
					<dim>80</dim>
					<dim>136</dim>
				</port>
			</output>
		</layer>
		<layer id="248" name="data_add_2465724662_compressed" type="Const" version="opset1">
			<data element_type="f16" shape="1, 16, 1, 1" offset="30414" size="32" />
			<output>
				<port id="0" precision="FP16">
					<dim>1</dim>
					<dim>16</dim>
					<dim>1</dim>
					<dim>1</dim>
				</port>
			</output>
		</layer>
		<layer id="249" name="data_add_2465724662" type="Convert" version="opset1">
			<data destination_type="f32" />
			<rt_info>
				<attribute name="decompression" version="0" />
			</rt_info>
			<input>
				<port id="0" precision="FP16">
					<dim>1</dim>
					<dim>16</dim>
					<dim>1</dim>
					<dim>1</dim>
				</port>
			</input>
			<output>
				<port id="1" precision="FP32">
					<dim>1</dim>
					<dim>16</dim>
					<dim>1</dim>
					<dim>1</dim>
				</port>
			</output>
		</layer>
		<layer id="250" name="bottleneck2_4/dim_red/bn/variance/Fused_Add_" type="Add" version="opset1">
			<data auto_broadcast="numpy" />
			<input>
				<port id="0" precision="FP32">
					<dim>1</dim>
					<dim>16</dim>
					<dim>80</dim>
					<dim>136</dim>
				</port>
				<port id="1" precision="FP32">
					<dim>1</dim>
					<dim>16</dim>
					<dim>1</dim>
					<dim>1</dim>
				</port>
			</input>
			<output>
				<port id="2" precision="FP32" names="bottleneck2_4/dim_red/conv">
					<dim>1</dim>
					<dim>16</dim>
					<dim>80</dim>
					<dim>136</dim>
				</port>
			</output>
		</layer>
		<layer id="251" name="bottleneck2_4/dim_red/fn/weights3111640439_compressed" type="Const" version="opset1">
			<data element_type="f16" shape="1" offset="2332" size="2" />
			<output>
				<port id="0" precision="FP16">
					<dim>1</dim>
				</port>
			</output>
		</layer>
		<layer id="252" name="bottleneck2_4/dim_red/fn/weights3111640439" type="Convert" version="opset1">
			<data destination_type="f32" />
			<rt_info>
				<attribute name="decompression" version="0" />
			</rt_info>
			<input>
				<port id="0" precision="FP16">
					<dim>1</dim>
				</port>
			</input>
			<output>
				<port id="1" precision="FP32">
					<dim>1</dim>
				</port>
			</output>
		</layer>
		<layer id="253" name="bottleneck2_4/dim_red/fn" type="PReLU" version="opset1">
			<input>
				<port id="0" precision="FP32">
					<dim>1</dim>
					<dim>16</dim>
					<dim>80</dim>
					<dim>136</dim>
				</port>
				<port id="1" precision="FP32">
					<dim>1</dim>
				</port>
			</input>
			<output>
				<port id="2" precision="FP32" names="bottleneck2_4/dim_red/conv">
					<dim>1</dim>
					<dim>16</dim>
					<dim>80</dim>
					<dim>136</dim>
				</port>
			</output>
		</layer>
		<layer id="254" name="bottleneck2_4/inner/dw1/bn/mean/Fused_Mul__copy_compressed" type="Const" version="opset1">
			<data element_type="f16" shape="16, 1, 1, 3, 3" offset="30446" size="288" />
			<output>
				<port id="0" precision="FP16">
					<dim>16</dim>
					<dim>1</dim>
					<dim>1</dim>
					<dim>3</dim>
					<dim>3</dim>
				</port>
			</output>
		</layer>
		<layer id="255" name="bottleneck2_4/inner/dw1/bn/mean/Fused_Mul__copy" type="Convert" version="opset1">
			<data destination_type="f32" />
			<rt_info>
				<attribute name="decompression" version="0" />
			</rt_info>
			<input>
				<port id="0" precision="FP16">
					<dim>16</dim>
					<dim>1</dim>
					<dim>1</dim>
					<dim>3</dim>
					<dim>3</dim>
				</port>
			</input>
			<output>
				<port id="1" precision="FP32">
					<dim>16</dim>
					<dim>1</dim>
					<dim>1</dim>
					<dim>3</dim>
					<dim>3</dim>
				</port>
			</output>
		</layer>
		<layer id="256" name="bottleneck2_4/inner/dw1/conv" type="GroupConvolution" version="opset1">
			<data strides="1, 1" pads_begin="1, 1" pads_end="1, 1" dilations="1, 1" auto_pad="explicit" />
			<input>
				<port id="0" precision="FP32">
					<dim>1</dim>
					<dim>16</dim>
					<dim>80</dim>
					<dim>136</dim>
				</port>
				<port id="1" precision="FP32">
					<dim>16</dim>
					<dim>1</dim>
					<dim>1</dim>
					<dim>3</dim>
					<dim>3</dim>
				</port>
			</input>
			<output>
				<port id="2" precision="FP32">
					<dim>1</dim>
					<dim>16</dim>
					<dim>80</dim>
					<dim>136</dim>
				</port>
			</output>
		</layer>
		<layer id="257" name="data_add_2466524670_compressed" type="Const" version="opset1">
			<data element_type="f16" shape="1, 16, 1, 1" offset="30734" size="32" />
			<output>
				<port id="0" precision="FP16">
					<dim>1</dim>
					<dim>16</dim>
					<dim>1</dim>
					<dim>1</dim>
				</port>
			</output>
		</layer>
		<layer id="258" name="data_add_2466524670" type="Convert" version="opset1">
			<data destination_type="f32" />
			<rt_info>
				<attribute name="decompression" version="0" />
			</rt_info>
			<input>
				<port id="0" precision="FP16">
					<dim>1</dim>
					<dim>16</dim>
					<dim>1</dim>
					<dim>1</dim>
				</port>
			</input>
			<output>
				<port id="1" precision="FP32">
					<dim>1</dim>
					<dim>16</dim>
					<dim>1</dim>
					<dim>1</dim>
				</port>
			</output>
		</layer>
		<layer id="259" name="bottleneck2_4/inner/dw1/bn/variance/Fused_Add_" type="Add" version="opset1">
			<data auto_broadcast="numpy" />
			<input>
				<port id="0" precision="FP32">
					<dim>1</dim>
					<dim>16</dim>
					<dim>80</dim>
					<dim>136</dim>
				</port>
				<port id="1" precision="FP32">
					<dim>1</dim>
					<dim>16</dim>
					<dim>1</dim>
					<dim>1</dim>
				</port>
			</input>
			<output>
				<port id="2" precision="FP32" names="bottleneck2_4/inner/dw1/conv">
					<dim>1</dim>
					<dim>16</dim>
					<dim>80</dim>
					<dim>136</dim>
				</port>
			</output>
		</layer>
		<layer id="260" name="bottleneck2_4/inner/dw1/fn/weights3112040628_compressed" type="Const" version="opset1">
			<data element_type="f16" shape="1" offset="2332" size="2" />
			<output>
				<port id="0" precision="FP16">
					<dim>1</dim>
				</port>
			</output>
		</layer>
		<layer id="261" name="bottleneck2_4/inner/dw1/fn/weights3112040628" type="Convert" version="opset1">
			<data destination_type="f32" />
			<rt_info>
				<attribute name="decompression" version="0" />
			</rt_info>
			<input>
				<port id="0" precision="FP16">
					<dim>1</dim>
				</port>
			</input>
			<output>
				<port id="1" precision="FP32">
					<dim>1</dim>
				</port>
			</output>
		</layer>
		<layer id="262" name="bottleneck2_4/inner/dw1/fn" type="PReLU" version="opset1">
			<input>
				<port id="0" precision="FP32">
					<dim>1</dim>
					<dim>16</dim>
					<dim>80</dim>
					<dim>136</dim>
				</port>
				<port id="1" precision="FP32">
					<dim>1</dim>
				</port>
			</input>
			<output>
				<port id="2" precision="FP32" names="bottleneck2_4/inner/dw1/conv">
					<dim>1</dim>
					<dim>16</dim>
					<dim>80</dim>
					<dim>136</dim>
				</port>
			</output>
		</layer>
		<layer id="263" name="bottleneck2_4/dim_inc/bn/mean/Fused_Mul__copy_compressed" type="Const" version="opset1">
			<data element_type="f16" shape="64, 16, 1, 1" offset="30766" size="2048" />
			<output>
				<port id="0" precision="FP16">
					<dim>64</dim>
					<dim>16</dim>
					<dim>1</dim>
					<dim>1</dim>
				</port>
			</output>
		</layer>
		<layer id="264" name="bottleneck2_4/dim_inc/bn/mean/Fused_Mul__copy" type="Convert" version="opset1">
			<data destination_type="f32" />
			<rt_info>
				<attribute name="decompression" version="0" />
			</rt_info>
			<input>
				<port id="0" precision="FP16">
					<dim>64</dim>
					<dim>16</dim>
					<dim>1</dim>
					<dim>1</dim>
				</port>
			</input>
			<output>
				<port id="1" precision="FP32">
					<dim>64</dim>
					<dim>16</dim>
					<dim>1</dim>
					<dim>1</dim>
				</port>
			</output>
		</layer>
		<layer id="265" name="bottleneck2_4/dim_inc/conv" type="Convolution" version="opset1">
			<data strides="1, 1" dilations="1, 1" pads_begin="0, 0" pads_end="0, 0" auto_pad="explicit" />
			<input>
				<port id="0" precision="FP32">
					<dim>1</dim>
					<dim>16</dim>
					<dim>80</dim>
					<dim>136</dim>
				</port>
				<port id="1" precision="FP32">
					<dim>64</dim>
					<dim>16</dim>
					<dim>1</dim>
					<dim>1</dim>
				</port>
			</input>
			<output>
				<port id="2" precision="FP32">
					<dim>1</dim>
					<dim>64</dim>
					<dim>80</dim>
					<dim>136</dim>
				</port>
			</output>
		</layer>
		<layer id="266" name="data_add_2467324678_compressed" type="Const" version="opset1">
			<data element_type="f16" shape="1, 64, 1, 1" offset="32814" size="128" />
			<output>
				<port id="0" precision="FP16">
					<dim>1</dim>
					<dim>64</dim>
					<dim>1</dim>
					<dim>1</dim>
				</port>
			</output>
		</layer>
		<layer id="267" name="data_add_2467324678" type="Convert" version="opset1">
			<data destination_type="f32" />
			<rt_info>
				<attribute name="decompression" version="0" />
			</rt_info>
			<input>
				<port id="0" precision="FP16">
					<dim>1</dim>
					<dim>64</dim>
					<dim>1</dim>
					<dim>1</dim>
				</port>
			</input>
			<output>
				<port id="1" precision="FP32">
					<dim>1</dim>
					<dim>64</dim>
					<dim>1</dim>
					<dim>1</dim>
				</port>
			</output>
		</layer>
		<layer id="268" name="bottleneck2_4/dim_inc/bn/variance/Fused_Add_" type="Add" version="opset1">
			<data auto_broadcast="numpy" />
			<input>
				<port id="0" precision="FP32">
					<dim>1</dim>
					<dim>64</dim>
					<dim>80</dim>
					<dim>136</dim>
				</port>
				<port id="1" precision="FP32">
					<dim>1</dim>
					<dim>64</dim>
					<dim>1</dim>
					<dim>1</dim>
				</port>
			</input>
			<output>
				<port id="2" precision="FP32" names="bottleneck2_4/dim_inc/conv">
					<dim>1</dim>
					<dim>64</dim>
					<dim>80</dim>
					<dim>136</dim>
				</port>
			</output>
		</layer>
		<layer id="269" name="bottleneck2_4/add" type="Add" version="opset1">
			<data auto_broadcast="numpy" />
			<input>
				<port id="0" precision="FP32">
					<dim>1</dim>
					<dim>64</dim>
					<dim>80</dim>
					<dim>136</dim>
				</port>
				<port id="1" precision="FP32">
					<dim>1</dim>
					<dim>64</dim>
					<dim>80</dim>
					<dim>136</dim>
				</port>
			</input>
			<output>
				<port id="2" precision="FP32" names="bottleneck2_4/add">
					<dim>1</dim>
					<dim>64</dim>
					<dim>80</dim>
					<dim>136</dim>
				</port>
			</output>
		</layer>
		<layer id="270" name="bottleneck2_4/fn/weights3120441012_compressed" type="Const" version="opset1">
			<data element_type="f16" shape="1" offset="2332" size="2" />
			<output>
				<port id="0" precision="FP16">
					<dim>1</dim>
				</port>
			</output>
		</layer>
		<layer id="271" name="bottleneck2_4/fn/weights3120441012" type="Convert" version="opset1">
			<data destination_type="f32" />
			<rt_info>
				<attribute name="decompression" version="0" />
			</rt_info>
			<input>
				<port id="0" precision="FP16">
					<dim>1</dim>
				</port>
			</input>
			<output>
				<port id="1" precision="FP32">
					<dim>1</dim>
				</port>
			</output>
		</layer>
		<layer id="272" name="bottleneck2_4/fn" type="PReLU" version="opset1">
			<input>
				<port id="0" precision="FP32">
					<dim>1</dim>
					<dim>64</dim>
					<dim>80</dim>
					<dim>136</dim>
				</port>
				<port id="1" precision="FP32">
					<dim>1</dim>
				</port>
			</input>
			<output>
				<port id="2" precision="FP32" names="bottleneck2_4/add">
					<dim>1</dim>
					<dim>64</dim>
					<dim>80</dim>
					<dim>136</dim>
				</port>
			</output>
		</layer>
		<layer id="273" name="bottleneck2_5/dim_red/bn/mean/Fused_Mul__copy_compressed" type="Const" version="opset1">
			<data element_type="f16" shape="16, 64, 1, 1" offset="32942" size="2048" />
			<output>
				<port id="0" precision="FP16">
					<dim>16</dim>
					<dim>64</dim>
					<dim>1</dim>
					<dim>1</dim>
				</port>
			</output>
		</layer>
		<layer id="274" name="bottleneck2_5/dim_red/bn/mean/Fused_Mul__copy" type="Convert" version="opset1">
			<data destination_type="f32" />
			<rt_info>
				<attribute name="decompression" version="0" />
			</rt_info>
			<input>
				<port id="0" precision="FP16">
					<dim>16</dim>
					<dim>64</dim>
					<dim>1</dim>
					<dim>1</dim>
				</port>
			</input>
			<output>
				<port id="1" precision="FP32">
					<dim>16</dim>
					<dim>64</dim>
					<dim>1</dim>
					<dim>1</dim>
				</port>
			</output>
		</layer>
		<layer id="275" name="bottleneck2_5/dim_red/conv" type="Convolution" version="opset1">
			<data strides="1, 1" dilations="1, 1" pads_begin="0, 0" pads_end="0, 0" auto_pad="explicit" />
			<input>
				<port id="0" precision="FP32">
					<dim>1</dim>
					<dim>64</dim>
					<dim>80</dim>
					<dim>136</dim>
				</port>
				<port id="1" precision="FP32">
					<dim>16</dim>
					<dim>64</dim>
					<dim>1</dim>
					<dim>1</dim>
				</port>
			</input>
			<output>
				<port id="2" precision="FP32">
					<dim>1</dim>
					<dim>16</dim>
					<dim>80</dim>
					<dim>136</dim>
				</port>
			</output>
		</layer>
		<layer id="276" name="data_add_2468124686_compressed" type="Const" version="opset1">
			<data element_type="f16" shape="1, 16, 1, 1" offset="34990" size="32" />
			<output>
				<port id="0" precision="FP16">
					<dim>1</dim>
					<dim>16</dim>
					<dim>1</dim>
					<dim>1</dim>
				</port>
			</output>
		</layer>
		<layer id="277" name="data_add_2468124686" type="Convert" version="opset1">
			<data destination_type="f32" />
			<rt_info>
				<attribute name="decompression" version="0" />
			</rt_info>
			<input>
				<port id="0" precision="FP16">
					<dim>1</dim>
					<dim>16</dim>
					<dim>1</dim>
					<dim>1</dim>
				</port>
			</input>
			<output>
				<port id="1" precision="FP32">
					<dim>1</dim>
					<dim>16</dim>
					<dim>1</dim>
					<dim>1</dim>
				</port>
			</output>
		</layer>
		<layer id="278" name="bottleneck2_5/dim_red/bn/variance/Fused_Add_" type="Add" version="opset1">
			<data auto_broadcast="numpy" />
			<input>
				<port id="0" precision="FP32">
					<dim>1</dim>
					<dim>16</dim>
					<dim>80</dim>
					<dim>136</dim>
				</port>
				<port id="1" precision="FP32">
					<dim>1</dim>
					<dim>16</dim>
					<dim>1</dim>
					<dim>1</dim>
				</port>
			</input>
			<output>
				<port id="2" precision="FP32" names="bottleneck2_5/dim_red/conv">
					<dim>1</dim>
					<dim>16</dim>
					<dim>80</dim>
					<dim>136</dim>
				</port>
			</output>
		</layer>
		<layer id="279" name="bottleneck2_5/dim_red/fn/weights3088440448_compressed" type="Const" version="opset1">
			<data element_type="f16" shape="1" offset="2332" size="2" />
			<output>
				<port id="0" precision="FP16">
					<dim>1</dim>
				</port>
			</output>
		</layer>
		<layer id="280" name="bottleneck2_5/dim_red/fn/weights3088440448" type="Convert" version="opset1">
			<data destination_type="f32" />
			<rt_info>
				<attribute name="decompression" version="0" />
			</rt_info>
			<input>
				<port id="0" precision="FP16">
					<dim>1</dim>
				</port>
			</input>
			<output>
				<port id="1" precision="FP32">
					<dim>1</dim>
				</port>
			</output>
		</layer>
		<layer id="281" name="bottleneck2_5/dim_red/fn" type="PReLU" version="opset1">
			<input>
				<port id="0" precision="FP32">
					<dim>1</dim>
					<dim>16</dim>
					<dim>80</dim>
					<dim>136</dim>
				</port>
				<port id="1" precision="FP32">
					<dim>1</dim>
				</port>
			</input>
			<output>
				<port id="2" precision="FP32" names="bottleneck2_5/dim_red/conv">
					<dim>1</dim>
					<dim>16</dim>
					<dim>80</dim>
					<dim>136</dim>
				</port>
			</output>
		</layer>
		<layer id="282" name="bottleneck2_5/inner/dw1/bn/mean/Fused_Mul__copy_compressed" type="Const" version="opset1">
			<data element_type="f16" shape="16, 1, 1, 3, 3" offset="35022" size="288" />
			<output>
				<port id="0" precision="FP16">
					<dim>16</dim>
					<dim>1</dim>
					<dim>1</dim>
					<dim>3</dim>
					<dim>3</dim>
				</port>
			</output>
		</layer>
		<layer id="283" name="bottleneck2_5/inner/dw1/bn/mean/Fused_Mul__copy" type="Convert" version="opset1">
			<data destination_type="f32" />
			<rt_info>
				<attribute name="decompression" version="0" />
			</rt_info>
			<input>
				<port id="0" precision="FP16">
					<dim>16</dim>
					<dim>1</dim>
					<dim>1</dim>
					<dim>3</dim>
					<dim>3</dim>
				</port>
			</input>
			<output>
				<port id="1" precision="FP32">
					<dim>16</dim>
					<dim>1</dim>
					<dim>1</dim>
					<dim>3</dim>
					<dim>3</dim>
				</port>
			</output>
		</layer>
		<layer id="284" name="bottleneck2_5/inner/dw1/conv" type="GroupConvolution" version="opset1">
			<data strides="1, 1" pads_begin="1, 1" pads_end="1, 1" dilations="1, 1" auto_pad="explicit" />
			<input>
				<port id="0" precision="FP32">
					<dim>1</dim>
					<dim>16</dim>
					<dim>80</dim>
					<dim>136</dim>
				</port>
				<port id="1" precision="FP32">
					<dim>16</dim>
					<dim>1</dim>
					<dim>1</dim>
					<dim>3</dim>
					<dim>3</dim>
				</port>
			</input>
			<output>
				<port id="2" precision="FP32">
					<dim>1</dim>
					<dim>16</dim>
					<dim>80</dim>
					<dim>136</dim>
				</port>
			</output>
		</layer>
		<layer id="285" name="data_add_2468924694_compressed" type="Const" version="opset1">
			<data element_type="f16" shape="1, 16, 1, 1" offset="35310" size="32" />
			<output>
				<port id="0" precision="FP16">
					<dim>1</dim>
					<dim>16</dim>
					<dim>1</dim>
					<dim>1</dim>
				</port>
			</output>
		</layer>
		<layer id="286" name="data_add_2468924694" type="Convert" version="opset1">
			<data destination_type="f32" />
			<rt_info>
				<attribute name="decompression" version="0" />
			</rt_info>
			<input>
				<port id="0" precision="FP16">
					<dim>1</dim>
					<dim>16</dim>
					<dim>1</dim>
					<dim>1</dim>
				</port>
			</input>
			<output>
				<port id="1" precision="FP32">
					<dim>1</dim>
					<dim>16</dim>
					<dim>1</dim>
					<dim>1</dim>
				</port>
			</output>
		</layer>
		<layer id="287" name="bottleneck2_5/inner/dw1/bn/variance/Fused_Add_" type="Add" version="opset1">
			<data auto_broadcast="numpy" />
			<input>
				<port id="0" precision="FP32">
					<dim>1</dim>
					<dim>16</dim>
					<dim>80</dim>
					<dim>136</dim>
				</port>
				<port id="1" precision="FP32">
					<dim>1</dim>
					<dim>16</dim>
					<dim>1</dim>
					<dim>1</dim>
				</port>
			</input>
			<output>
				<port id="2" precision="FP32" names="bottleneck2_5/inner/dw1/conv">
					<dim>1</dim>
					<dim>16</dim>
					<dim>80</dim>
					<dim>136</dim>
				</port>
			</output>
		</layer>
		<layer id="288" name="bottleneck2_5/inner/dw1/fn/weights3093240601_compressed" type="Const" version="opset1">
			<data element_type="f16" shape="1" offset="2332" size="2" />
			<output>
				<port id="0" precision="FP16">
					<dim>1</dim>
				</port>
			</output>
		</layer>
		<layer id="289" name="bottleneck2_5/inner/dw1/fn/weights3093240601" type="Convert" version="opset1">
			<data destination_type="f32" />
			<rt_info>
				<attribute name="decompression" version="0" />
			</rt_info>
			<input>
				<port id="0" precision="FP16">
					<dim>1</dim>
				</port>
			</input>
			<output>
				<port id="1" precision="FP32">
					<dim>1</dim>
				</port>
			</output>
		</layer>
		<layer id="290" name="bottleneck2_5/inner/dw1/fn" type="PReLU" version="opset1">
			<input>
				<port id="0" precision="FP32">
					<dim>1</dim>
					<dim>16</dim>
					<dim>80</dim>
					<dim>136</dim>
				</port>
				<port id="1" precision="FP32">
					<dim>1</dim>
				</port>
			</input>
			<output>
				<port id="2" precision="FP32" names="bottleneck2_5/inner/dw1/conv">
					<dim>1</dim>
					<dim>16</dim>
					<dim>80</dim>
					<dim>136</dim>
				</port>
			</output>
		</layer>
		<layer id="291" name="bottleneck2_5/dim_inc/bn/mean/Fused_Mul__copy_compressed" type="Const" version="opset1">
			<data element_type="f16" shape="64, 16, 1, 1" offset="35342" size="2048" />
			<output>
				<port id="0" precision="FP16">
					<dim>64</dim>
					<dim>16</dim>
					<dim>1</dim>
					<dim>1</dim>
				</port>
			</output>
		</layer>
		<layer id="292" name="bottleneck2_5/dim_inc/bn/mean/Fused_Mul__copy" type="Convert" version="opset1">
			<data destination_type="f32" />
			<rt_info>
				<attribute name="decompression" version="0" />
			</rt_info>
			<input>
				<port id="0" precision="FP16">
					<dim>64</dim>
					<dim>16</dim>
					<dim>1</dim>
					<dim>1</dim>
				</port>
			</input>
			<output>
				<port id="1" precision="FP32">
					<dim>64</dim>
					<dim>16</dim>
					<dim>1</dim>
					<dim>1</dim>
				</port>
			</output>
		</layer>
		<layer id="293" name="bottleneck2_5/dim_inc/conv" type="Convolution" version="opset1">
			<data strides="1, 1" dilations="1, 1" pads_begin="0, 0" pads_end="0, 0" auto_pad="explicit" />
			<input>
				<port id="0" precision="FP32">
					<dim>1</dim>
					<dim>16</dim>
					<dim>80</dim>
					<dim>136</dim>
				</port>
				<port id="1" precision="FP32">
					<dim>64</dim>
					<dim>16</dim>
					<dim>1</dim>
					<dim>1</dim>
				</port>
			</input>
			<output>
				<port id="2" precision="FP32">
					<dim>1</dim>
					<dim>64</dim>
					<dim>80</dim>
					<dim>136</dim>
				</port>
			</output>
		</layer>
		<layer id="294" name="data_add_2469724702_compressed" type="Const" version="opset1">
			<data element_type="f16" shape="1, 64, 1, 1" offset="37390" size="128" />
			<output>
				<port id="0" precision="FP16">
					<dim>1</dim>
					<dim>64</dim>
					<dim>1</dim>
					<dim>1</dim>
				</port>
			</output>
		</layer>
		<layer id="295" name="data_add_2469724702" type="Convert" version="opset1">
			<data destination_type="f32" />
			<rt_info>
				<attribute name="decompression" version="0" />
			</rt_info>
			<input>
				<port id="0" precision="FP16">
					<dim>1</dim>
					<dim>64</dim>
					<dim>1</dim>
					<dim>1</dim>
				</port>
			</input>
			<output>
				<port id="1" precision="FP32">
					<dim>1</dim>
					<dim>64</dim>
					<dim>1</dim>
					<dim>1</dim>
				</port>
			</output>
		</layer>
		<layer id="296" name="bottleneck2_5/dim_inc/bn/variance/Fused_Add_" type="Add" version="opset1">
			<data auto_broadcast="numpy" />
			<input>
				<port id="0" precision="FP32">
					<dim>1</dim>
					<dim>64</dim>
					<dim>80</dim>
					<dim>136</dim>
				</port>
				<port id="1" precision="FP32">
					<dim>1</dim>
					<dim>64</dim>
					<dim>1</dim>
					<dim>1</dim>
				</port>
			</input>
			<output>
				<port id="2" precision="FP32" names="bottleneck2_5/dim_inc/conv">
					<dim>1</dim>
					<dim>64</dim>
					<dim>80</dim>
					<dim>136</dim>
				</port>
			</output>
		</layer>
		<layer id="297" name="bottleneck2_5/add" type="Add" version="opset1">
			<data auto_broadcast="numpy" />
			<input>
				<port id="0" precision="FP32">
					<dim>1</dim>
					<dim>64</dim>
					<dim>80</dim>
					<dim>136</dim>
				</port>
				<port id="1" precision="FP32">
					<dim>1</dim>
					<dim>64</dim>
					<dim>80</dim>
					<dim>136</dim>
				</port>
			</input>
			<output>
				<port id="2" precision="FP32" names="bottleneck2_5/add">
					<dim>1</dim>
					<dim>64</dim>
					<dim>80</dim>
					<dim>136</dim>
				</port>
			</output>
		</layer>
		<layer id="298" name="bottleneck2_5/fn/weights3123240334_compressed" type="Const" version="opset1">
			<data element_type="f16" shape="1" offset="2332" size="2" />
			<output>
				<port id="0" precision="FP16">
					<dim>1</dim>
				</port>
			</output>
		</layer>
		<layer id="299" name="bottleneck2_5/fn/weights3123240334" type="Convert" version="opset1">
			<data destination_type="f32" />
			<rt_info>
				<attribute name="decompression" version="0" />
			</rt_info>
			<input>
				<port id="0" precision="FP16">
					<dim>1</dim>
				</port>
			</input>
			<output>
				<port id="1" precision="FP32">
					<dim>1</dim>
				</port>
			</output>
		</layer>
		<layer id="300" name="bottleneck2_5/fn" type="PReLU" version="opset1">
			<input>
				<port id="0" precision="FP32">
					<dim>1</dim>
					<dim>64</dim>
					<dim>80</dim>
					<dim>136</dim>
				</port>
				<port id="1" precision="FP32">
					<dim>1</dim>
				</port>
			</input>
			<output>
				<port id="2" precision="FP32" names="bottleneck2_5/add">
					<dim>1</dim>
					<dim>64</dim>
					<dim>80</dim>
					<dim>136</dim>
				</port>
			</output>
		</layer>
		<layer id="301" name="bottleneck2_6/dim_red/bn/mean/Fused_Mul__copy_compressed" type="Const" version="opset1">
			<data element_type="f16" shape="16, 64, 1, 1" offset="37518" size="2048" />
			<output>
				<port id="0" precision="FP16">
					<dim>16</dim>
					<dim>64</dim>
					<dim>1</dim>
					<dim>1</dim>
				</port>
			</output>
		</layer>
		<layer id="302" name="bottleneck2_6/dim_red/bn/mean/Fused_Mul__copy" type="Convert" version="opset1">
			<data destination_type="f32" />
			<rt_info>
				<attribute name="decompression" version="0" />
			</rt_info>
			<input>
				<port id="0" precision="FP16">
					<dim>16</dim>
					<dim>64</dim>
					<dim>1</dim>
					<dim>1</dim>
				</port>
			</input>
			<output>
				<port id="1" precision="FP32">
					<dim>16</dim>
					<dim>64</dim>
					<dim>1</dim>
					<dim>1</dim>
				</port>
			</output>
		</layer>
		<layer id="303" name="bottleneck2_6/dim_red/conv" type="Convolution" version="opset1">
			<data strides="1, 1" dilations="1, 1" pads_begin="0, 0" pads_end="0, 0" auto_pad="explicit" />
			<input>
				<port id="0" precision="FP32">
					<dim>1</dim>
					<dim>64</dim>
					<dim>80</dim>
					<dim>136</dim>
				</port>
				<port id="1" precision="FP32">
					<dim>16</dim>
					<dim>64</dim>
					<dim>1</dim>
					<dim>1</dim>
				</port>
			</input>
			<output>
				<port id="2" precision="FP32">
					<dim>1</dim>
					<dim>16</dim>
					<dim>80</dim>
					<dim>136</dim>
				</port>
			</output>
		</layer>
		<layer id="304" name="data_add_2470524710_compressed" type="Const" version="opset1">
			<data element_type="f16" shape="1, 16, 1, 1" offset="39566" size="32" />
			<output>
				<port id="0" precision="FP16">
					<dim>1</dim>
					<dim>16</dim>
					<dim>1</dim>
					<dim>1</dim>
				</port>
			</output>
		</layer>
		<layer id="305" name="data_add_2470524710" type="Convert" version="opset1">
			<data destination_type="f32" />
			<rt_info>
				<attribute name="decompression" version="0" />
			</rt_info>
			<input>
				<port id="0" precision="FP16">
					<dim>1</dim>
					<dim>16</dim>
					<dim>1</dim>
					<dim>1</dim>
				</port>
			</input>
			<output>
				<port id="1" precision="FP32">
					<dim>1</dim>
					<dim>16</dim>
					<dim>1</dim>
					<dim>1</dim>
				</port>
			</output>
		</layer>
		<layer id="306" name="bottleneck2_6/dim_red/bn/variance/Fused_Add_" type="Add" version="opset1">
			<data auto_broadcast="numpy" />
			<input>
				<port id="0" precision="FP32">
					<dim>1</dim>
					<dim>16</dim>
					<dim>80</dim>
					<dim>136</dim>
				</port>
				<port id="1" precision="FP32">
					<dim>1</dim>
					<dim>16</dim>
					<dim>1</dim>
					<dim>1</dim>
				</port>
			</input>
			<output>
				<port id="2" precision="FP32" names="bottleneck2_6/dim_red/conv">
					<dim>1</dim>
					<dim>16</dim>
					<dim>80</dim>
					<dim>136</dim>
				</port>
			</output>
		</layer>
		<layer id="307" name="bottleneck2_6/dim_red/fn/weights3122840676_compressed" type="Const" version="opset1">
			<data element_type="f16" shape="1" offset="2332" size="2" />
			<output>
				<port id="0" precision="FP16">
					<dim>1</dim>
				</port>
			</output>
		</layer>
		<layer id="308" name="bottleneck2_6/dim_red/fn/weights3122840676" type="Convert" version="opset1">
			<data destination_type="f32" />
			<rt_info>
				<attribute name="decompression" version="0" />
			</rt_info>
			<input>
				<port id="0" precision="FP16">
					<dim>1</dim>
				</port>
			</input>
			<output>
				<port id="1" precision="FP32">
					<dim>1</dim>
				</port>
			</output>
		</layer>
		<layer id="309" name="bottleneck2_6/dim_red/fn" type="PReLU" version="opset1">
			<input>
				<port id="0" precision="FP32">
					<dim>1</dim>
					<dim>16</dim>
					<dim>80</dim>
					<dim>136</dim>
				</port>
				<port id="1" precision="FP32">
					<dim>1</dim>
				</port>
			</input>
			<output>
				<port id="2" precision="FP32" names="bottleneck2_6/dim_red/conv">
					<dim>1</dim>
					<dim>16</dim>
					<dim>80</dim>
					<dim>136</dim>
				</port>
			</output>
		</layer>
		<layer id="310" name="bottleneck2_6/inner/dw1/bn/mean/Fused_Mul__copy_compressed" type="Const" version="opset1">
			<data element_type="f16" shape="16, 1, 1, 3, 3" offset="39598" size="288" />
			<output>
				<port id="0" precision="FP16">
					<dim>16</dim>
					<dim>1</dim>
					<dim>1</dim>
					<dim>3</dim>
					<dim>3</dim>
				</port>
			</output>
		</layer>
		<layer id="311" name="bottleneck2_6/inner/dw1/bn/mean/Fused_Mul__copy" type="Convert" version="opset1">
			<data destination_type="f32" />
			<rt_info>
				<attribute name="decompression" version="0" />
			</rt_info>
			<input>
				<port id="0" precision="FP16">
					<dim>16</dim>
					<dim>1</dim>
					<dim>1</dim>
					<dim>3</dim>
					<dim>3</dim>
				</port>
			</input>
			<output>
				<port id="1" precision="FP32">
					<dim>16</dim>
					<dim>1</dim>
					<dim>1</dim>
					<dim>3</dim>
					<dim>3</dim>
				</port>
			</output>
		</layer>
		<layer id="312" name="bottleneck2_6/inner/dw1/conv" type="GroupConvolution" version="opset1">
			<data strides="1, 1" pads_begin="1, 1" pads_end="1, 1" dilations="1, 1" auto_pad="explicit" />
			<input>
				<port id="0" precision="FP32">
					<dim>1</dim>
					<dim>16</dim>
					<dim>80</dim>
					<dim>136</dim>
				</port>
				<port id="1" precision="FP32">
					<dim>16</dim>
					<dim>1</dim>
					<dim>1</dim>
					<dim>3</dim>
					<dim>3</dim>
				</port>
			</input>
			<output>
				<port id="2" precision="FP32">
					<dim>1</dim>
					<dim>16</dim>
					<dim>80</dim>
					<dim>136</dim>
				</port>
			</output>
		</layer>
		<layer id="313" name="data_add_2471324718_compressed" type="Const" version="opset1">
			<data element_type="f16" shape="1, 16, 1, 1" offset="39886" size="32" />
			<output>
				<port id="0" precision="FP16">
					<dim>1</dim>
					<dim>16</dim>
					<dim>1</dim>
					<dim>1</dim>
				</port>
			</output>
		</layer>
		<layer id="314" name="data_add_2471324718" type="Convert" version="opset1">
			<data destination_type="f32" />
			<rt_info>
				<attribute name="decompression" version="0" />
			</rt_info>
			<input>
				<port id="0" precision="FP16">
					<dim>1</dim>
					<dim>16</dim>
					<dim>1</dim>
					<dim>1</dim>
				</port>
			</input>
			<output>
				<port id="1" precision="FP32">
					<dim>1</dim>
					<dim>16</dim>
					<dim>1</dim>
					<dim>1</dim>
				</port>
			</output>
		</layer>
		<layer id="315" name="bottleneck2_6/inner/dw1/bn/variance/Fused_Add_" type="Add" version="opset1">
			<data auto_broadcast="numpy" />
			<input>
				<port id="0" precision="FP32">
					<dim>1</dim>
					<dim>16</dim>
					<dim>80</dim>
					<dim>136</dim>
				</port>
				<port id="1" precision="FP32">
					<dim>1</dim>
					<dim>16</dim>
					<dim>1</dim>
					<dim>1</dim>
				</port>
			</input>
			<output>
				<port id="2" precision="FP32" names="bottleneck2_6/inner/dw1/conv">
					<dim>1</dim>
					<dim>16</dim>
					<dim>80</dim>
					<dim>136</dim>
				</port>
			</output>
		</layer>
		<layer id="316" name="bottleneck2_6/inner/dw1/fn/weights3102840067_compressed" type="Const" version="opset1">
			<data element_type="f16" shape="1" offset="2332" size="2" />
			<output>
				<port id="0" precision="FP16">
					<dim>1</dim>
				</port>
			</output>
		</layer>
		<layer id="317" name="bottleneck2_6/inner/dw1/fn/weights3102840067" type="Convert" version="opset1">
			<data destination_type="f32" />
			<rt_info>
				<attribute name="decompression" version="0" />
			</rt_info>
			<input>
				<port id="0" precision="FP16">
					<dim>1</dim>
				</port>
			</input>
			<output>
				<port id="1" precision="FP32">
					<dim>1</dim>
				</port>
			</output>
		</layer>
		<layer id="318" name="bottleneck2_6/inner/dw1/fn" type="PReLU" version="opset1">
			<input>
				<port id="0" precision="FP32">
					<dim>1</dim>
					<dim>16</dim>
					<dim>80</dim>
					<dim>136</dim>
				</port>
				<port id="1" precision="FP32">
					<dim>1</dim>
				</port>
			</input>
			<output>
				<port id="2" precision="FP32" names="bottleneck2_6/inner/dw1/conv">
					<dim>1</dim>
					<dim>16</dim>
					<dim>80</dim>
					<dim>136</dim>
				</port>
			</output>
		</layer>
		<layer id="319" name="bottleneck2_6/dim_inc/bn/mean/Fused_Mul__copy_compressed" type="Const" version="opset1">
			<data element_type="f16" shape="64, 16, 1, 1" offset="39918" size="2048" />
			<output>
				<port id="0" precision="FP16">
					<dim>64</dim>
					<dim>16</dim>
					<dim>1</dim>
					<dim>1</dim>
				</port>
			</output>
		</layer>
		<layer id="320" name="bottleneck2_6/dim_inc/bn/mean/Fused_Mul__copy" type="Convert" version="opset1">
			<data destination_type="f32" />
			<rt_info>
				<attribute name="decompression" version="0" />
			</rt_info>
			<input>
				<port id="0" precision="FP16">
					<dim>64</dim>
					<dim>16</dim>
					<dim>1</dim>
					<dim>1</dim>
				</port>
			</input>
			<output>
				<port id="1" precision="FP32">
					<dim>64</dim>
					<dim>16</dim>
					<dim>1</dim>
					<dim>1</dim>
				</port>
			</output>
		</layer>
		<layer id="321" name="bottleneck2_6/dim_inc/conv" type="Convolution" version="opset1">
			<data strides="1, 1" dilations="1, 1" pads_begin="0, 0" pads_end="0, 0" auto_pad="explicit" />
			<input>
				<port id="0" precision="FP32">
					<dim>1</dim>
					<dim>16</dim>
					<dim>80</dim>
					<dim>136</dim>
				</port>
				<port id="1" precision="FP32">
					<dim>64</dim>
					<dim>16</dim>
					<dim>1</dim>
					<dim>1</dim>
				</port>
			</input>
			<output>
				<port id="2" precision="FP32">
					<dim>1</dim>
					<dim>64</dim>
					<dim>80</dim>
					<dim>136</dim>
				</port>
			</output>
		</layer>
		<layer id="322" name="data_add_2472124726_compressed" type="Const" version="opset1">
			<data element_type="f16" shape="1, 64, 1, 1" offset="41966" size="128" />
			<output>
				<port id="0" precision="FP16">
					<dim>1</dim>
					<dim>64</dim>
					<dim>1</dim>
					<dim>1</dim>
				</port>
			</output>
		</layer>
		<layer id="323" name="data_add_2472124726" type="Convert" version="opset1">
			<data destination_type="f32" />
			<rt_info>
				<attribute name="decompression" version="0" />
			</rt_info>
			<input>
				<port id="0" precision="FP16">
					<dim>1</dim>
					<dim>64</dim>
					<dim>1</dim>
					<dim>1</dim>
				</port>
			</input>
			<output>
				<port id="1" precision="FP32">
					<dim>1</dim>
					<dim>64</dim>
					<dim>1</dim>
					<dim>1</dim>
				</port>
			</output>
		</layer>
		<layer id="324" name="bottleneck2_6/dim_inc/bn/variance/Fused_Add_" type="Add" version="opset1">
			<data auto_broadcast="numpy" />
			<input>
				<port id="0" precision="FP32">
					<dim>1</dim>
					<dim>64</dim>
					<dim>80</dim>
					<dim>136</dim>
				</port>
				<port id="1" precision="FP32">
					<dim>1</dim>
					<dim>64</dim>
					<dim>1</dim>
					<dim>1</dim>
				</port>
			</input>
			<output>
				<port id="2" precision="FP32" names="bottleneck2_6/dim_inc/conv">
					<dim>1</dim>
					<dim>64</dim>
					<dim>80</dim>
					<dim>136</dim>
				</port>
			</output>
		</layer>
		<layer id="325" name="bottleneck2_6/add" type="Add" version="opset1">
			<data auto_broadcast="numpy" />
			<input>
				<port id="0" precision="FP32">
					<dim>1</dim>
					<dim>64</dim>
					<dim>80</dim>
					<dim>136</dim>
				</port>
				<port id="1" precision="FP32">
					<dim>1</dim>
					<dim>64</dim>
					<dim>80</dim>
					<dim>136</dim>
				</port>
			</input>
			<output>
				<port id="2" precision="FP32" names="bottleneck2_6/add">
					<dim>1</dim>
					<dim>64</dim>
					<dim>80</dim>
					<dim>136</dim>
				</port>
			</output>
		</layer>
		<layer id="326" name="bottleneck2_6/fn/weights3121640100_compressed" type="Const" version="opset1">
			<data element_type="f16" shape="1" offset="2332" size="2" />
			<output>
				<port id="0" precision="FP16">
					<dim>1</dim>
				</port>
			</output>
		</layer>
		<layer id="327" name="bottleneck2_6/fn/weights3121640100" type="Convert" version="opset1">
			<data destination_type="f32" />
			<rt_info>
				<attribute name="decompression" version="0" />
			</rt_info>
			<input>
				<port id="0" precision="FP16">
					<dim>1</dim>
				</port>
			</input>
			<output>
				<port id="1" precision="FP32">
					<dim>1</dim>
				</port>
			</output>
		</layer>
		<layer id="328" name="bottleneck2_6/fn" type="PReLU" version="opset1">
			<input>
				<port id="0" precision="FP32">
					<dim>1</dim>
…
		<edge from-layer="394" from-port="2" to-layer="397" to-port="0" />
		<edge from-layer="395" from-port="0" to-layer="396" to-port="0" />
		<edge from-layer="396" from-port="1" to-layer="397" to-port="1" />
		<edge from-layer="397" from-port="2" to-layer="400" to-port="0" />
		<edge from-layer="398" from-port="0" to-layer="399" to-port="0" />
		<edge from-layer="399" from-port="1" to-layer="400" to-port="1" />
		<edge from-layer="400" from-port="2" to-layer="403" to-port="0" />
		<edge from-layer="401" from-port="0" to-layer="402" to-port="0" />
		<edge from-layer="402" from-port="1" to-layer="403" to-port="1" />
		<edge from-layer="403" from-port="2" to-layer="406" to-port="0" />
		<edge from-layer="404" from-port="0" to-layer="405" to-port="0" />
		<edge from-layer="405" from-port="1" to-layer="406" to-port="1" />
		<edge from-layer="406" from-port="2" to-layer="409" to-port="0" />
		<edge from-layer="407" from-port="0" to-layer="408" to-port="0" />
		<edge from-layer="408" from-port="1" to-layer="409" to-port="1" />
		<edge from-layer="409" from-port="2" to-layer="412" to-port="0" />
		<edge from-layer="410" from-port="0" to-layer="411" to-port="0" />
		<edge from-layer="411" from-port="1" to-layer="412" to-port="1" />
		<edge from-layer="412" from-port="2" to-layer="415" to-port="0" />
		<edge from-layer="413" from-port="0" to-layer="414" to-port="0" />
		<edge from-layer="414" from-port="1" to-layer="415" to-port="1" />
		<edge from-layer="415" from-port="2" to-layer="416" to-port="1" />
		<edge from-layer="416" from-port="2" to-layer="419" to-port="0" />
		<edge from-layer="417" from-port="0" to-layer="418" to-port="0" />
		<edge from-layer="418" from-port="1" to-layer="419" to-port="1" />
		<edge from-layer="419" from-port="2" to-layer="444" to-port="0" />
		<edge from-layer="419" from-port="2" to-layer="422" to-port="0" />
		<edge from-layer="420" from-port="0" to-layer="421" to-port="0" />
		<edge from-layer="421" from-port="1" to-layer="422" to-port="1" />
		<edge from-layer="422" from-port="2" to-layer="425" to-port="0" />
		<edge from-layer="423" from-port="0" to-layer="424" to-port="0" />
		<edge from-layer="424" from-port="1" to-layer="425" to-port="1" />
		<edge from-layer="425" from-port="2" to-layer="428" to-port="0" />
		<edge from-layer="426" from-port="0" to-layer="427" to-port="0" />
		<edge from-layer="427" from-port="1" to-layer="428" to-port="1" />
		<edge from-layer="428" from-port="2" to-layer="431" to-port="0" />
		<edge from-layer="429" from-port="0" to-layer="430" to-port="0" />
		<edge from-layer="430" from-port="1" to-layer="431" to-port="1" />
		<edge from-layer="431" from-port="2" to-layer="434" to-port="0" />
		<edge from-layer="432" from-port="0" to-layer="433" to-port="0" />
		<edge from-layer="433" from-port="1" to-layer="434" to-port="1" />
		<edge from-layer="434" from-port="2" to-layer="437" to-port="0" />
		<edge from-layer="435" from-port="0" to-layer="436" to-port="0" />
		<edge from-layer="436" from-port="1" to-layer="437" to-port="1" />
		<edge from-layer="437" from-port="2" to-layer="440" to-port="0" />
		<edge from-layer="438" from-port="0" to-layer="439" to-port="0" />
		<edge from-layer="439" from-port="1" to-layer="440" to-port="1" />
		<edge from-layer="440" from-port="2" to-layer="443" to-port="0" />
		<edge from-layer="441" from-port="0" to-layer="442" to-port="0" />
		<edge from-layer="442" from-port="1" to-layer="443" to-port="1" />
		<edge from-layer="443" from-port="2" to-layer="444" to-port="1" />
		<edge from-layer="444" from-port="2" to-layer="447" to-port="0" />
		<edge from-layer="445" from-port="0" to-layer="446" to-port="0" />
		<edge from-layer="446" from-port="1" to-layer="447" to-port="1" />
		<edge from-layer="447" from-port="2" to-layer="450" to-port="0" />
		<edge from-layer="447" from-port="2" to-layer="472" to-port="0" />
		<edge from-layer="448" from-port="0" to-layer="449" to-port="0" />
		<edge from-layer="449" from-port="1" to-layer="450" to-port="1" />
		<edge from-layer="450" from-port="2" to-layer="453" to-port="0" />
		<edge from-layer="451" from-port="0" to-layer="452" to-port="0" />
		<edge from-layer="452" from-port="1" to-layer="453" to-port="1" />
		<edge from-layer="453" from-port="2" to-layer="456" to-port="0" />
		<edge from-layer="454" from-port="0" to-layer="455" to-port="0" />
		<edge from-layer="455" from-port="1" to-layer="456" to-port="1" />
		<edge from-layer="456" from-port="2" to-layer="459" to-port="0" />
		<edge from-layer="457" from-port="0" to-layer="458" to-port="0" />
		<edge from-layer="458" from-port="1" to-layer="459" to-port="1" />
		<edge from-layer="459" from-port="2" to-layer="462" to-port="0" />
		<edge from-layer="460" from-port="0" to-layer="461" to-port="0" />
		<edge from-layer="461" from-port="1" to-layer="462" to-port="1" />
		<edge from-layer="462" from-port="2" to-layer="465" to-port="0" />
		<edge from-layer="463" from-port="0" to-layer="464" to-port="0" />
		<edge from-layer="464" from-port="1" to-layer="465" to-port="1" />
		<edge from-layer="465" from-port="2" to-layer="468" to-port="0" />
		<edge from-layer="466" from-port="0" to-layer="467" to-port="0" />
		<edge from-layer="467" from-port="1" to-layer="468" to-port="1" />
		<edge from-layer="468" from-port="2" to-layer="471" to-port="0" />
		<edge from-layer="469" from-port="0" to-layer="470" to-port="0" />
		<edge from-layer="470" from-port="1" to-layer="471" to-port="1" />
		<edge from-layer="471" from-port="2" to-layer="472" to-port="1" />
		<edge from-layer="472" from-port="2" to-layer="475" to-port="0" />
		<edge from-layer="473" from-port="0" to-layer="474" to-port="0" />
		<edge from-layer="474" from-port="1" to-layer="475" to-port="1" />
		<edge from-layer="475" from-port="2" to-layer="478" to-port="0" />
		<edge from-layer="475" from-port="2" to-layer="500" to-port="0" />
		<edge from-layer="476" from-port="0" to-layer="477" to-port="0" />
		<edge from-layer="477" from-port="1" to-layer="478" to-port="1" />
		<edge from-layer="478" from-port="2" to-layer="481" to-port="0" />
		<edge from-layer="479" from-port="0" to-layer="480" to-port="0" />
		<edge from-layer="480" from-port="1" to-layer="481" to-port="1" />
		<edge from-layer="481" from-port="2" to-layer="484" to-port="0" />
		<edge from-layer="482" from-port="0" to-layer="483" to-port="0" />
		<edge from-layer="483" from-port="1" to-layer="484" to-port="1" />
		<edge from-layer="484" from-port="2" to-layer="487" to-port="0" />
		<edge from-layer="485" from-port="0" to-layer="486" to-port="0" />
		<edge from-layer="486" from-port="1" to-layer="487" to-port="1" />
		<edge from-layer="487" from-port="2" to-layer="490" to-port="0" />
		<edge from-layer="488" from-port="0" to-layer="489" to-port="0" />
		<edge from-layer="489" from-port="1" to-layer="490" to-port="1" />
		<edge from-layer="490" from-port="2" to-layer="493" to-port="0" />
		<edge from-layer="491" from-port="0" to-layer="492" to-port="0" />
		<edge from-layer="492" from-port="1" to-layer="493" to-port="1" />
		<edge from-layer="493" from-port="2" to-layer="496" to-port="0" />
		<edge from-layer="494" from-port="0" to-layer="495" to-port="0" />
		<edge from-layer="495" from-port="1" to-layer="496" to-port="1" />
		<edge from-layer="496" from-port="2" to-layer="499" to-port="0" />
		<edge from-layer="497" from-port="0" to-layer="498" to-port="0" />
		<edge from-layer="498" from-port="1" to-layer="499" to-port="1" />
		<edge from-layer="499" from-port="2" to-layer="500" to-port="1" />
		<edge from-layer="500" from-port="2" to-layer="503" to-port="0" />
		<edge from-layer="501" from-port="0" to-layer="502" to-port="0" />
		<edge from-layer="502" from-port="1" to-layer="503" to-port="1" />
		<edge from-layer="503" from-port="2" to-layer="506" to-port="0" />
		<edge from-layer="503" from-port="2" to-layer="528" to-port="0" />
		<edge from-layer="504" from-port="0" to-layer="505" to-port="0" />
		<edge from-layer="505" from-port="1" to-layer="506" to-port="1" />
		<edge from-layer="506" from-port="2" to-layer="509" to-port="0" />
		<edge from-layer="507" from-port="0" to-layer="508" to-port="0" />
		<edge from-layer="508" from-port="1" to-layer="509" to-port="1" />
		<edge from-layer="509" from-port="2" to-layer="512" to-port="0" />
		<edge from-layer="510" from-port="0" to-layer="511" to-port="0" />
		<edge from-layer="511" from-port="1" to-layer="512" to-port="1" />
		<edge from-layer="512" from-port="2" to-layer="515" to-port="0" />
		<edge from-layer="513" from-port="0" to-layer="514" to-port="0" />
		<edge from-layer="514" from-port="1" to-layer="515" to-port="1" />
		<edge from-layer="515" from-port="2" to-layer="518" to-port="0" />
		<edge from-layer="516" from-port="0" to-layer="517" to-port="0" />
		<edge from-layer="517" from-port="1" to-layer="518" to-port="1" />
		<edge from-layer="518" from-port="2" to-layer="521" to-port="0" />
		<edge from-layer="519" from-port="0" to-layer="520" to-port="0" />
		<edge from-layer="520" from-port="1" to-layer="521" to-port="1" />
		<edge from-layer="521" from-port="2" to-layer="524" to-port="0" />
		<edge from-layer="522" from-port="0" to-layer="523" to-port="0" />
		<edge from-layer="523" from-port="1" to-layer="524" to-port="1" />
		<edge from-layer="524" from-port="2" to-layer="527" to-port="0" />
		<edge from-layer="525" from-port="0" to-layer="526" to-port="0" />
		<edge from-layer="526" from-port="1" to-layer="527" to-port="1" />
		<edge from-layer="527" from-port="2" to-layer="528" to-port="1" />
		<edge from-layer="528" from-port="2" to-layer="531" to-port="0" />
		<edge from-layer="529" from-port="0" to-layer="530" to-port="0" />
		<edge from-layer="530" from-port="1" to-layer="531" to-port="1" />
		<edge from-layer="531" from-port="2" to-layer="534" to-port="0" />
		<edge from-layer="531" from-port="2" to-layer="556" to-port="0" />
		<edge from-layer="532" from-port="0" to-layer="533" to-port="0" />
		<edge from-layer="533" from-port="1" to-layer="534" to-port="1" />
		<edge from-layer="534" from-port="2" to-layer="537" to-port="0" />
		<edge from-layer="535" from-port="0" to-layer="536" to-port="0" />
		<edge from-layer="536" from-port="1" to-layer="537" to-port="1" />
		<edge from-layer="537" from-port="2" to-layer="540" to-port="0" />
		<edge from-layer="538" from-port="0" to-layer="539" to-port="0" />
		<edge from-layer="539" from-port="1" to-layer="540" to-port="1" />
		<edge from-layer="540" from-port="2" to-layer="543" to-port="0" />
		<edge from-layer="541" from-port="0" to-layer="542" to-port="0" />
		<edge from-layer="542" from-port="1" to-layer="543" to-port="1" />
		<edge from-layer="543" from-port="2" to-layer="546" to-port="0" />
		<edge from-layer="544" from-port="0" to-layer="545" to-port="0" />
		<edge from-layer="545" from-port="1" to-layer="546" to-port="1" />
		<edge from-layer="546" from-port="2" to-layer="549" to-port="0" />
		<edge from-layer="547" from-port="0" to-layer="548" to-port="0" />
		<edge from-layer="548" from-port="1" to-layer="549" to-port="1" />
		<edge from-layer="549" from-port="2" to-layer="552" to-port="0" />
		<edge from-layer="550" from-port="0" to-layer="551" to-port="0" />
		<edge from-layer="551" from-port="1" to-layer="552" to-port="1" />
		<edge from-layer="552" from-port="2" to-layer="555" to-port="0" />
		<edge from-layer="553" from-port="0" to-layer="554" to-port="0" />
		<edge from-layer="554" from-port="1" to-layer="555" to-port="1" />
		<edge from-layer="555" from-port="2" to-layer="556" to-port="1" />
		<edge from-layer="556" from-port="2" to-layer="559" to-port="0" />
		<edge from-layer="557" from-port="0" to-layer="558" to-port="0" />
		<edge from-layer="558" from-port="1" to-layer="559" to-port="1" />
		<edge from-layer="559" from-port="2" to-layer="584" to-port="0" />
		<edge from-layer="559" from-port="2" to-layer="562" to-port="0" />
		<edge from-layer="560" from-port="0" to-layer="561" to-port="0" />
		<edge from-layer="561" from-port="1" to-layer="562" to-port="1" />
		<edge from-layer="562" from-port="2" to-layer="565" to-port="0" />
		<edge from-layer="563" from-port="0" to-layer="564" to-port="0" />
		<edge from-layer="564" from-port="1" to-layer="565" to-port="1" />
		<edge from-layer="565" from-port="2" to-layer="568" to-port="0" />
		<edge from-layer="566" from-port="0" to-layer="567" to-port="0" />
		<edge from-layer="567" from-port="1" to-layer="568" to-port="1" />
		<edge from-layer="568" from-port="2" to-layer="571" to-port="0" />
		<edge from-layer="569" from-port="0" to-layer="570" to-port="0" />
		<edge from-layer="570" from-port="1" to-layer="571" to-port="1" />
		<edge from-layer="571" from-port="2" to-layer="574" to-port="0" />
		<edge from-layer="572" from-port="0" to-layer="573" to-port="0" />
		<edge from-layer="573" from-port="1" to-layer="574" to-port="1" />
		<edge from-layer="574" from-port="2" to-layer="577" to-port="0" />
		<edge from-layer="575" from-port="0" to-layer="576" to-port="0" />
		<edge from-layer="576" from-port="1" to-layer="577" to-port="1" />
		<edge from-layer="577" from-port="2" to-layer="580" to-port="0" />
		<edge from-layer="578" from-port="0" to-layer="579" to-port="0" />
		<edge from-layer="579" from-port="1" to-layer="580" to-port="1" />
		<edge from-layer="580" from-port="2" to-layer="583" to-port="0" />
		<edge from-layer="581" from-port="0" to-layer="582" to-port="0" />
		<edge from-layer="582" from-port="1" to-layer="583" to-port="1" />
		<edge from-layer="583" from-port="2" to-layer="584" to-port="1" />
		<edge from-layer="584" from-port="2" to-layer="587" to-port="0" />
		<edge from-layer="585" from-port="0" to-layer="586" to-port="0" />
		<edge from-layer="586" from-port="1" to-layer="587" to-port="1" />
		<edge from-layer="587" from-port="2" to-layer="612" to-port="0" />
		<edge from-layer="587" from-port="2" to-layer="590" to-port="0" />
		<edge from-layer="588" from-port="0" to-layer="589" to-port="0" />
		<edge from-layer="589" from-port="1" to-layer="590" to-port="1" />
		<edge from-layer="590" from-port="2" to-layer="593" to-port="0" />
		<edge from-layer="591" from-port="0" to-layer="592" to-port="0" />
		<edge from-layer="592" from-port="1" to-layer="593" to-port="1" />
		<edge from-layer="593" from-port="2" to-layer="596" to-port="0" />
		<edge from-layer="594" from-port="0" to-layer="595" to-port="0" />
		<edge from-layer="595" from-port="1" to-layer="596" to-port="1" />
		<edge from-layer="596" from-port="2" to-layer="599" to-port="0" />
		<edge from-layer="597" from-port="0" to-layer="598" to-port="0" />
		<edge from-layer="598" from-port="1" to-layer="599" to-port="1" />
		<edge from-layer="599" from-port="2" to-layer="602" to-port="0" />
		<edge from-layer="600" from-port="0" to-layer="601" to-port="0" />
		<edge from-layer="601" from-port="1" to-layer="602" to-port="1" />
		<edge from-layer="602" from-port="2" to-layer="605" to-port="0" />
		<edge from-layer="603" from-port="0" to-layer="604" to-port="0" />
		<edge from-layer="604" from-port="1" to-layer="605" to-port="1" />
		<edge from-layer="605" from-port="2" to-layer="608" to-port="0" />
		<edge from-layer="606" from-port="0" to-layer="607" to-port="0" />
		<edge from-layer="607" from-port="1" to-layer="608" to-port="1" />
		<edge from-layer="608" from-port="2" to-layer="611" to-port="0" />
		<edge from-layer="609" from-port="0" to-layer="610" to-port="0" />
		<edge from-layer="610" from-port="1" to-layer="611" to-port="1" />
		<edge from-layer="611" from-port="2" to-layer="612" to-port="1" />
		<edge from-layer="612" from-port="2" to-layer="615" to-port="0" />
		<edge from-layer="613" from-port="0" to-layer="614" to-port="0" />
		<edge from-layer="614" from-port="1" to-layer="615" to-port="1" />
		<edge from-layer="615" from-port="2" to-layer="618" to-port="0" />
		<edge from-layer="615" from-port="2" to-layer="640" to-port="0" />
		<edge from-layer="616" from-port="0" to-layer="617" to-port="0" />
		<edge from-layer="617" from-port="1" to-layer="618" to-port="1" />
		<edge from-layer="618" from-port="2" to-layer="621" to-port="0" />
		<edge from-layer="619" from-port="0" to-layer="620" to-port="0" />
		<edge from-layer="620" from-port="1" to-layer="621" to-port="1" />
		<edge from-layer="621" from-port="2" to-layer="624" to-port="0" />
		<edge from-layer="622" from-port="0" to-layer="623" to-port="0" />
		<edge from-layer="623" from-port="1" to-layer="624" to-port="1" />
		<edge from-layer="624" from-port="2" to-layer="627" to-port="0" />
		<edge from-layer="625" from-port="0" to-layer="626" to-port="0" />
		<edge from-layer="626" from-port="1" to-layer="627" to-port="1" />
		<edge from-layer="627" from-port="2" to-layer="630" to-port="0" />
		<edge from-layer="628" from-port="0" to-layer="629" to-port="0" />
		<edge from-layer="629" from-port="1" to-layer="630" to-port="1" />
		<edge from-layer="630" from-port="2" to-layer="633" to-port="0" />
		<edge from-layer="631" from-port="0" to-layer="632" to-port="0" />
		<edge from-layer="632" from-port="1" to-layer="633" to-port="1" />
		<edge from-layer="633" from-port="2" to-layer="636" to-port="0" />
		<edge from-layer="634" from-port="0" to-layer="635" to-port="0" />
		<edge from-layer="635" from-port="1" to-layer="636" to-port="1" />
		<edge from-layer="636" from-port="2" to-layer="639" to-port="0" />
		<edge from-layer="637" from-port="0" to-layer="638" to-port="0" />
		<edge from-layer="638" from-port="1" to-layer="639" to-port="1" />
		<edge from-layer="639" from-port="2" to-layer="640" to-port="1" />
		<edge from-layer="640" from-port="2" to-layer="643" to-port="0" />
		<edge from-layer="641" from-port="0" to-layer="642" to-port="0" />
		<edge from-layer="642" from-port="1" to-layer="643" to-port="1" />
		<edge from-layer="643" from-port="2" to-layer="646" to-port="0" />
		<edge from-layer="643" from-port="2" to-layer="668" to-port="0" />
		<edge from-layer="644" from-port="0" to-layer="645" to-port="0" />
		<edge from-layer="645" from-port="1" to-layer="646" to-port="1" />
		<edge from-layer="646" from-port="2" to-layer="649" to-port="0" />
		<edge from-layer="647" from-port="0" to-layer="648" to-port="0" />
		<edge from-layer="648" from-port="1" to-layer="649" to-port="1" />
		<edge from-layer="649" from-port="2" to-layer="652" to-port="0" />
		<edge from-layer="650" from-port="0" to-layer="651" to-port="0" />
		<edge from-layer="651" from-port="1" to-layer="652" to-port="1" />
		<edge from-layer="652" from-port="2" to-layer="655" to-port="0" />
		<edge from-layer="653" from-port="0" to-layer="654" to-port="0" />
		<edge from-layer="654" from-port="1" to-layer="655" to-port="1" />
		<edge from-layer="655" from-port="2" to-layer="658" to-port="0" />
		<edge from-layer="656" from-port="0" to-layer="657" to-port="0" />
		<edge from-layer="657" from-port="1" to-layer="658" to-port="1" />
		<edge from-layer="658" from-port="2" to-layer="661" to-port="0" />
		<edge from-layer="659" from-port="0" to-layer="660" to-port="0" />
		<edge from-layer="660" from-port="1" to-layer="661" to-port="1" />
		<edge from-layer="661" from-port="2" to-layer="664" to-port="0" />
		<edge from-layer="662" from-port="0" to-layer="663" to-port="0" />
		<edge from-layer="663" from-port="1" to-layer="664" to-port="1" />
		<edge from-layer="664" from-port="2" to-layer="667" to-port="0" />
		<edge from-layer="665" from-port="0" to-layer="666" to-port="0" />
		<edge from-layer="666" from-port="1" to-layer="667" to-port="1" />
		<edge from-layer="667" from-port="2" to-layer="668" to-port="1" />
		<edge from-layer="668" from-port="2" to-layer="671" to-port="0" />
		<edge from-layer="669" from-port="0" to-layer="670" to-port="0" />
		<edge from-layer="670" from-port="1" to-layer="671" to-port="1" />
		<edge from-layer="671" from-port="2" to-layer="696" to-port="0" />
		<edge from-layer="671" from-port="2" to-layer="674" to-port="0" />
		<edge from-layer="672" from-port="0" to-layer="673" to-port="0" />
		<edge from-layer="673" from-port="1" to-layer="674" to-port="1" />
		<edge from-layer="674" from-port="2" to-layer="677" to-port="0" />
		<edge from-layer="675" from-port="0" to-layer="676" to-port="0" />
		<edge from-layer="676" from-port="1" to-layer="677" to-port="1" />
		<edge from-layer="677" from-port="2" to-layer="680" to-port="0" />
		<edge from-layer="678" from-port="0" to-layer="679" to-port="0" />
		<edge from-layer="679" from-port="1" to-layer="680" to-port="1" />
		<edge from-layer="680" from-port="2" to-layer="683" to-port="0" />
		<edge from-layer="681" from-port="0" to-layer="682" to-port="0" />
		<edge from-layer="682" from-port="1" to-layer="683" to-port="1" />
		<edge from-layer="683" from-port="2" to-layer="686" to-port="0" />
		<edge from-layer="684" from-port="0" to-layer="685" to-port="0" />
		<edge from-layer="685" from-port="1" to-layer="686" to-port="1" />
		<edge from-layer="686" from-port="2" to-layer="689" to-port="0" />
		<edge from-layer="687" from-port="0" to-layer="688" to-port="0" />
		<edge from-layer="688" from-port="1" to-layer="689" to-port="1" />
		<edge from-layer="689" from-port="2" to-layer="692" to-port="0" />
		<edge from-layer="690" from-port="0" to-layer="691" to-port="0" />
		<edge from-layer="691" from-port="1" to-layer="692" to-port="1" />
		<edge from-layer="692" from-port="2" to-layer="695" to-port="0" />
		<edge from-layer="693" from-port="0" to-layer="694" to-port="0" />
		<edge from-layer="694" from-port="1" to-layer="695" to-port="1" />
		<edge from-layer="695" from-port="2" to-layer="696" to-port="1" />
		<edge from-layer="696" from-port="2" to-layer="699" to-port="0" />
		<edge from-layer="697" from-port="0" to-layer="698" to-port="0" />
		<edge from-layer="698" from-port="1" to-layer="699" to-port="1" />
		<edge from-layer="699" from-port="2" to-layer="700" to-port="0" />
		<edge from-layer="699" from-port="2" to-layer="709" to-port="0" />
		<edge from-layer="700" from-port="1" to-layer="703" to-port="0" />
		<edge from-layer="701" from-port="0" to-layer="702" to-port="0" />
		<edge from-layer="702" from-port="1" to-layer="703" to-port="1" />
		<edge from-layer="703" from-port="2" to-layer="706" to-port="0" />
		<edge from-layer="704" from-port="0" to-layer="705" to-port="0" />
		<edge from-layer="705" from-port="1" to-layer="706" to-port="1" />
		<edge from-layer="706" from-port="2" to-layer="731" to-port="0" />
		<edge from-layer="707" from-port="0" to-layer="708" to-port="0" />
		<edge from-layer="708" from-port="1" to-layer="709" to-port="1" />
		<edge from-layer="709" from-port="2" to-layer="712" to-port="0" />
		<edge from-layer="710" from-port="0" to-layer="711" to-port="0" />
		<edge from-layer="711" from-port="1" to-layer="712" to-port="1" />
		<edge from-layer="712" from-port="2" to-layer="715" to-port="0" />
		<edge from-layer="713" from-port="0" to-layer="714" to-port="0" />
		<edge from-layer="714" from-port="1" to-layer="715" to-port="1" />
		<edge from-layer="715" from-port="2" to-layer="718" to-port="0" />
		<edge from-layer="716" from-port="0" to-layer="717" to-port="0" />
		<edge from-layer="717" from-port="1" to-layer="718" to-port="1" />
		<edge from-layer="718" from-port="2" to-layer="721" to-port="0" />
		<edge from-layer="719" from-port="0" to-layer="720" to-port="0" />
		<edge from-layer="720" from-port="1" to-layer="721" to-port="1" />
		<edge from-layer="721" from-port="2" to-layer="724" to-port="0" />
		<edge from-layer="722" from-port="0" to-layer="723" to-port="0" />
		<edge from-layer="723" from-port="1" to-layer="724" to-port="1" />
		<edge from-layer="724" from-port="2" to-layer="727" to-port="0" />
		<edge from-layer="725" from-port="0" to-layer="726" to-port="0" />
		<edge from-layer="726" from-port="1" to-layer="727" to-port="1" />
		<edge from-layer="727" from-port="2" to-layer="730" to-port="0" />
		<edge from-layer="728" from-port="0" to-layer="729" to-port="0" />
		<edge from-layer="729" from-port="1" to-layer="730" to-port="1" />
		<edge from-layer="730" from-port="2" to-layer="731" to-port="1" />
		<edge from-layer="731" from-port="2" to-layer="734" to-port="0" />
		<edge from-layer="732" from-port="0" to-layer="733" to-port="0" />
		<edge from-layer="733" from-port="1" to-layer="734" to-port="1" />
		<edge from-layer="734" from-port="2" to-layer="759" to-port="0" />
		<edge from-layer="734" from-port="2" to-layer="737" to-port="0" />
		<edge from-layer="735" from-port="0" to-layer="736" to-port="0" />
		<edge from-layer="736" from-port="1" to-layer="737" to-port="1" />
		<edge from-layer="737" from-port="2" to-layer="740" to-port="0" />
		<edge from-layer="738" from-port="0" to-layer="739" to-port="0" />
		<edge from-layer="739" from-port="1" to-layer="740" to-port="1" />
		<edge from-layer="740" from-port="2" to-layer="743" to-port="0" />
		<edge from-layer="741" from-port="0" to-layer="742" to-port="0" />
		<edge from-layer="742" from-port="1" to-layer="743" to-port="1" />
		<edge from-layer="743" from-port="2" to-layer="746" to-port="0" />
		<edge from-layer="744" from-port="0" to-layer="745" to-port="0" />
		<edge from-layer="745" from-port="1" to-layer="746" to-port="1" />
		<edge from-layer="746" from-port="2" to-layer="749" to-port="0" />
		<edge from-layer="747" from-port="0" to-layer="748" to-port="0" />
		<edge from-layer="748" from-port="1" to-layer="749" to-port="1" />
		<edge from-layer="749" from-port="2" to-layer="752" to-port="0" />
		<edge from-layer="750" from-port="0" to-layer="751" to-port="0" />
		<edge from-layer="751" from-port="1" to-layer="752" to-port="1" />
		<edge from-layer="752" from-port="2" to-layer="755" to-port="0" />
		<edge from-layer="753" from-port="0" to-layer="754" to-port="0" />
		<edge from-layer="754" from-port="1" to-layer="755" to-port="1" />
		<edge from-layer="755" from-port="2" to-layer="758" to-port="0" />
		<edge from-layer="756" from-port="0" to-layer="757" to-port="0" />
		<edge from-layer="757" from-port="1" to-layer="758" to-port="1" />
		<edge from-layer="758" from-port="2" to-layer="759" to-port="1" />
		<edge from-layer="759" from-port="2" to-layer="762" to-port="0" />
		<edge from-layer="760" from-port="0" to-layer="761" to-port="0" />
		<edge from-layer="761" from-port="1" to-layer="762" to-port="1" />
		<edge from-layer="762" from-port="2" to-layer="787" to-port="0" />
		<edge from-layer="762" from-port="2" to-layer="765" to-port="0" />
		<edge from-layer="763" from-port="0" to-layer="764" to-port="0" />
		<edge from-layer="764" from-port="1" to-layer="765" to-port="1" />
		<edge from-layer="765" from-port="2" to-layer="768" to-port="0" />
		<edge from-layer="766" from-port="0" to-layer="767" to-port="0" />
		<edge from-layer="767" from-port="1" to-layer="768" to-port="1" />
		<edge from-layer="768" from-port="2" to-layer="771" to-port="0" />
		<edge from-layer="769" from-port="0" to-layer="770" to-port="0" />
		<edge from-layer="770" from-port="1" to-layer="771" to-port="1" />
		<edge from-layer="771" from-port="2" to-layer="774" to-port="0" />
		<edge from-layer="772" from-port="0" to-layer="773" to-port="0" />
		<edge from-layer="773" from-port="1" to-layer="774" to-port="1" />
		<edge from-layer="774" from-port="2" to-layer="777" to-port="0" />
		<edge from-layer="775" from-port="0" to-layer="776" to-port="0" />
		<edge from-layer="776" from-port="1" to-layer="777" to-port="1" />
		<edge from-layer="777" from-port="2" to-layer="780" to-port="0" />
		<edge from-layer="778" from-port="0" to-layer="779" to-port="0" />
		<edge from-layer="779" from-port="1" to-layer="780" to-port="1" />
		<edge from-layer="780" from-port="2" to-layer="783" to-port="0" />
		<edge from-layer="781" from-port="0" to-layer="782" to-port="0" />
		<edge from-layer="782" from-port="1" to-layer="783" to-port="1" />
		<edge from-layer="783" from-port="2" to-layer="786" to-port="0" />
		<edge from-layer="784" from-port="0" to-layer="785" to-port="0" />
		<edge from-layer="785" from-port="1" to-layer="786" to-port="1" />
		<edge from-layer="786" from-port="2" to-layer="787" to-port="1" />
		<edge from-layer="787" from-port="2" to-layer="790" to-port="0" />
		<edge from-layer="788" from-port="0" to-layer="789" to-port="0" />
		<edge from-layer="789" from-port="1" to-layer="790" to-port="1" />
		<edge from-layer="790" from-port="2" to-layer="793" to-port="0" />
		<edge from-layer="790" from-port="2" to-layer="815" to-port="0" />
		<edge from-layer="791" from-port="0" to-layer="792" to-port="0" />
		<edge from-layer="792" from-port="1" to-layer="793" to-port="1" />
		<edge from-layer="793" from-port="2" to-layer="796" to-port="0" />
		<edge from-layer="794" from-port="0" to-layer="795" to-port="0" />
		<edge from-layer="795" from-port="1" to-layer="796" to-port="1" />
		<edge from-layer="796" from-port="2" to-layer="799" to-port="0" />
		<edge from-layer="797" from-port="0" to-layer="798" to-port="0" />
		<edge from-layer="798" from-port="1" to-layer="799" to-port="1" />
		<edge from-layer="799" from-port="2" to-layer="802" to-port="0" />
		<edge from-layer="800" from-port="0" to-layer="801" to-port="0" />
		<edge from-layer="801" from-port="1" to-layer="802" to-port="1" />
		<edge from-layer="802" from-port="2" to-layer="805" to-port="0" />
		<edge from-layer="803" from-port="0" to-layer="804" to-port="0" />
		<edge from-layer="804" from-port="1" to-layer="805" to-port="1" />
		<edge from-layer="805" from-port="2" to-layer="808" to-port="0" />
		<edge from-layer="806" from-port="0" to-layer="807" to-port="0" />
		<edge from-layer="807" from-port="1" to-layer="808" to-port="1" />
		<edge from-layer="808" from-port="2" to-layer="811" to-port="0" />
		<edge from-layer="809" from-port="0" to-layer="810" to-port="0" />
		<edge from-layer="810" from-port="1" to-layer="811" to-port="1" />
		<edge from-layer="811" from-port="2" to-layer="814" to-port="0" />
		<edge from-layer="812" from-port="0" to-layer="813" to-port="0" />
		<edge from-layer="813" from-port="1" to-layer="814" to-port="1" />
		<edge from-layer="814" from-port="2" to-layer="815" to-port="1" />
		<edge from-layer="815" from-port="2" to-layer="818" to-port="0" />
		<edge from-layer="816" from-port="0" to-layer="817" to-port="0" />
		<edge from-layer="817" from-port="1" to-layer="818" to-port="1" />
		<edge from-layer="818" from-port="2" to-layer="843" to-port="0" />
		<edge from-layer="818" from-port="2" to-layer="821" to-port="0" />
		<edge from-layer="819" from-port="0" to-layer="820" to-port="0" />
		<edge from-layer="820" from-port="1" to-layer="821" to-port="1" />
		<edge from-layer="821" from-port="2" to-layer="824" to-port="0" />
		<edge from-layer="822" from-port="0" to-layer="823" to-port="0" />
		<edge from-layer="823" from-port="1" to-layer="824" to-port="1" />
		<edge from-layer="824" from-port="2" to-layer="827" to-port="0" />
		<edge from-layer="825" from-port="0" to-layer="826" to-port="0" />
		<edge from-layer="826" from-port="1" to-layer="827" to-port="1" />
		<edge from-layer="827" from-port="2" to-layer="830" to-port="0" />
		<edge from-layer="828" from-port="0" to-layer="829" to-port="0" />
		<edge from-layer="829" from-port="1" to-layer="830" to-port="1" />
		<edge from-layer="830" from-port="2" to-layer="833" to-port="0" />
		<edge from-layer="831" from-port="0" to-layer="832" to-port="0" />
		<edge from-layer="832" from-port="1" to-layer="833" to-port="1" />
		<edge from-layer="833" from-port="2" to-layer="836" to-port="0" />
		<edge from-layer="834" from-port="0" to-layer="835" to-port="0" />
		<edge from-layer="835" from-port="1" to-layer="836" to-port="1" />
		<edge from-layer="836" from-port="2" to-layer="839" to-port="0" />
		<edge from-layer="837" from-port="0" to-layer="838" to-port="0" />
		<edge from-layer="838" from-port="1" to-layer="839" to-port="1" />
		<edge from-layer="839" from-port="2" to-layer="842" to-port="0" />
		<edge from-layer="840" from-port="0" to-layer="841" to-port="0" />
		<edge from-layer="841" from-port="1" to-layer="842" to-port="1" />
		<edge from-layer="842" from-port="2" to-layer="843" to-port="1" />
		<edge from-layer="843" from-port="2" to-layer="846" to-port="0" />
		<edge from-layer="844" from-port="0" to-layer="845" to-port="0" />
		<edge from-layer="845" from-port="1" to-layer="846" to-port="1" />
		<edge from-layer="846" from-port="2" to-layer="849" to-port="0" />
		<edge from-layer="846" from-port="2" to-layer="871" to-port="0" />
		<edge from-layer="847" from-port="0" to-layer="848" to-port="0" />
		<edge from-layer="848" from-port="1" to-layer="849" to-port="1" />
		<edge from-layer="849" from-port="2" to-layer="852" to-port="0" />
		<edge from-layer="850" from-port="0" to-layer="851" to-port="0" />
		<edge from-layer="851" from-port="1" to-layer="852" to-port="1" />
		<edge from-layer="852" from-port="2" to-layer="855" to-port="0" />
		<edge from-layer="853" from-port="0" to-layer="854" to-port="0" />
		<edge from-layer="854" from-port="1" to-layer="855" to-port="1" />
		<edge from-layer="855" from-port="2" to-layer="858" to-port="0" />
		<edge from-layer="856" from-port="0" to-layer="857" to-port="0" />
		<edge from-layer="857" from-port="1" to-layer="858" to-port="1" />
		<edge from-layer="858" from-port="2" to-layer="861" to-port="0" />
		<edge from-layer="859" from-port="0" to-layer="860" to-port="0" />
		<edge from-layer="860" from-port="1" to-layer="861" to-port="1" />
		<edge from-layer="861" from-port="2" to-layer="864" to-port="0" />
		<edge from-layer="862" from-port="0" to-layer="863" to-port="0" />
		<edge from-layer="863" from-port="1" to-layer="864" to-port="1" />
		<edge from-layer="864" from-port="2" to-layer="867" to-port="0" />
		<edge from-layer="865" from-port="0" to-layer="866" to-port="0" />
		<edge from-layer="866" from-port="1" to-layer="867" to-port="1" />
		<edge from-layer="867" from-port="2" to-layer="870" to-port="0" />
		<edge from-layer="868" from-port="0" to-layer="869" to-port="0" />
		<edge from-layer="869" from-port="1" to-layer="870" to-port="1" />
		<edge from-layer="870" from-port="2" to-layer="871" to-port="1" />
		<edge from-layer="871" from-port="2" to-layer="874" to-port="0" />
		<edge from-layer="872" from-port="0" to-layer="873" to-port="0" />
		<edge from-layer="873" from-port="1" to-layer="874" to-port="1" />
		<edge from-layer="874" from-port="2" to-layer="877" to-port="0" />
		<edge from-layer="874" from-port="2" to-layer="899" to-port="0" />
		<edge from-layer="875" from-port="0" to-layer="876" to-port="0" />
		<edge from-layer="876" from-port="1" to-layer="877" to-port="1" />
		<edge from-layer="877" from-port="2" to-layer="880" to-port="0" />
		<edge from-layer="878" from-port="0" to-layer="879" to-port="0" />
		<edge from-layer="879" from-port="1" to-layer="880" to-port="1" />
		<edge from-layer="880" from-port="2" to-layer="883" to-port="0" />
		<edge from-layer="881" from-port="0" to-layer="882" to-port="0" />
		<edge from-layer="882" from-port="1" to-layer="883" to-port="1" />
		<edge from-layer="883" from-port="2" to-layer="886" to-port="0" />
		<edge from-layer="884" from-port="0" to-layer="885" to-port="0" />
		<edge from-layer="885" from-port="1" to-layer="886" to-port="1" />
		<edge from-layer="886" from-port="2" to-layer="889" to-port="0" />
		<edge from-layer="887" from-port="0" to-layer="888" to-port="0" />
		<edge from-layer="888" from-port="1" to-layer="889" to-port="1" />
		<edge from-layer="889" from-port="2" to-layer="892" to-port="0" />
		<edge from-layer="890" from-port="0" to-layer="891" to-port="0" />
		<edge from-layer="891" from-port="1" to-layer="892" to-port="1" />
		<edge from-layer="892" from-port="2" to-layer="895" to-port="0" />
		<edge from-layer="893" from-port="0" to-layer="894" to-port="0" />
		<edge from-layer="894" from-port="1" to-layer="895" to-port="1" />
		<edge from-layer="895" from-port="2" to-layer="898" to-port="0" />
		<edge from-layer="896" from-port="0" to-layer="897" to-port="0" />
		<edge from-layer="897" from-port="1" to-layer="898" to-port="1" />
		<edge from-layer="898" from-port="2" to-layer="899" to-port="1" />
		<edge from-layer="899" from-port="2" to-layer="902" to-port="0" />
		<edge from-layer="900" from-port="0" to-layer="901" to-port="0" />
		<edge from-layer="901" from-port="1" to-layer="902" to-port="1" />
		<edge from-layer="902" from-port="2" to-layer="927" to-port="0" />
		<edge from-layer="902" from-port="2" to-layer="905" to-port="0" />
		<edge from-layer="903" from-port="0" to-layer="904" to-port="0" />
		<edge from-layer="904" from-port="1" to-layer="905" to-port="1" />
		<edge from-layer="905" from-port="2" to-layer="908" to-port="0" />
		<edge from-layer="906" from-port="0" to-layer="907" to-port="0" />
		<edge from-layer="907" from-port="1" to-layer="908" to-port="1" />
		<edge from-layer="908" from-port="2" to-layer="911" to-port="0" />
		<edge from-layer="909" from-port="0" to-layer="910" to-port="0" />
		<edge from-layer="910" from-port="1" to-layer="911" to-port="1" />
		<edge from-layer="911" from-port="2" to-layer="914" to-port="0" />
		<edge from-layer="912" from-port="0" to-layer="913" to-port="0" />
		<edge from-layer="913" from-port="1" to-layer="914" to-port="1" />
		<edge from-layer="914" from-port="2" to-layer="917" to-port="0" />
		<edge from-layer="915" from-port="0" to-layer="916" to-port="0" />
		<edge from-layer="916" from-port="1" to-layer="917" to-port="1" />
		<edge from-layer="917" from-port="2" to-layer="920" to-port="0" />
		<edge from-layer="918" from-port="0" to-layer="919" to-port="0" />
		<edge from-layer="919" from-port="1" to-layer="920" to-port="1" />
		<edge from-layer="920" from-port="2" to-layer="923" to-port="0" />
		<edge from-layer="921" from-port="0" to-layer="922" to-port="0" />
		<edge from-layer="922" from-port="1" to-layer="923" to-port="1" />
		<edge from-layer="923" from-port="2" to-layer="926" to-port="0" />
		<edge from-layer="924" from-port="0" to-layer="925" to-port="0" />
		<edge from-layer="925" from-port="1" to-layer="926" to-port="1" />
		<edge from-layer="926" from-port="2" to-layer="927" to-port="1" />
		<edge from-layer="927" from-port="2" to-layer="930" to-port="0" />
		<edge from-layer="928" from-port="0" to-layer="929" to-port="0" />
		<edge from-layer="929" from-port="1" to-layer="930" to-port="1" />
		<edge from-layer="930" from-port="2" to-layer="955" to-port="0" />
		<edge from-layer="930" from-port="2" to-layer="933" to-port="0" />
		<edge from-layer="931" from-port="0" to-layer="932" to-port="0" />
		<edge from-layer="932" from-port="1" to-layer="933" to-port="1" />
		<edge from-layer="933" from-port="2" to-layer="936" to-port="0" />
		<edge from-layer="934" from-port="0" to-layer="935" to-port="0" />
		<edge from-layer="935" from-port="1" to-layer="936" to-port="1" />
		<edge from-layer="936" from-port="2" to-layer="939" to-port="0" />
		<edge from-layer="937" from-port="0" to-layer="938" to-port="0" />
		<edge from-layer="938" from-port="1" to-layer="939" to-port="1" />
		<edge from-layer="939" from-port="2" to-layer="942" to-port="0" />
		<edge from-layer="940" from-port="0" to-layer="941" to-port="0" />
		<edge from-layer="941" from-port="1" to-layer="942" to-port="1" />
		<edge from-layer="942" from-port="2" to-layer="945" to-port="0" />
		<edge from-layer="943" from-port="0" to-layer="944" to-port="0" />
		<edge from-layer="944" from-port="1" to-layer="945" to-port="1" />
		<edge from-layer="945" from-port="2" to-layer="948" to-port="0" />
		<edge from-layer="946" from-port="0" to-layer="947" to-port="0" />
		<edge from-layer="947" from-port="1" to-layer="948" to-port="1" />
		<edge from-layer="948" from-port="2" to-layer="951" to-port="0" />
		<edge from-layer="949" from-port="0" to-layer="950" to-port="0" />
		<edge from-layer="950" from-port="1" to-layer="951" to-port="1" />
		<edge from-layer="951" from-port="2" to-layer="954" to-port="0" />
		<edge from-layer="952" from-port="0" to-layer="953" to-port="0" />
		<edge from-layer="953" from-port="1" to-layer="954" to-port="1" />
		<edge from-layer="954" from-port="2" to-layer="955" to-port="1" />
		<edge from-layer="955" from-port="2" to-layer="958" to-port="0" />
		<edge from-layer="956" from-port="0" to-layer="957" to-port="0" />
		<edge from-layer="957" from-port="1" to-layer="958" to-port="1" />
		<edge from-layer="958" from-port="2" to-layer="983" to-port="0" />
		<edge from-layer="958" from-port="2" to-layer="961" to-port="0" />
		<edge from-layer="959" from-port="0" to-layer="960" to-port="0" />
		<edge from-layer="960" from-port="1" to-layer="961" to-port="1" />
		<edge from-layer="961" from-port="2" to-layer="964" to-port="0" />
		<edge from-layer="962" from-port="0" to-layer="963" to-port="0" />
		<edge from-layer="963" from-port="1" to-layer="964" to-port="1" />
		<edge from-layer="964" from-port="2" to-layer="967" to-port="0" />
		<edge from-layer="965" from-port="0" to-layer="966" to-port="0" />
		<edge from-layer="966" from-port="1" to-layer="967" to-port="1" />
		<edge from-layer="967" from-port="2" to-layer="970" to-port="0" />
		<edge from-layer="968" from-port="0" to-layer="969" to-port="0" />
		<edge from-layer="969" from-port="1" to-layer="970" to-port="1" />
		<edge from-layer="970" from-port="2" to-layer="973" to-port="0" />
		<edge from-layer="971" from-port="0" to-layer="972" to-port="0" />
		<edge from-layer="972" from-port="1" to-layer="973" to-port="1" />
		<edge from-layer="973" from-port="2" to-layer="976" to-port="0" />
		<edge from-layer="974" from-port="0" to-layer="975" to-port="0" />
		<edge from-layer="975" from-port="1" to-layer="976" to-port="1" />
		<edge from-layer="976" from-port="2" to-layer="979" to-port="0" />
		<edge from-layer="977" from-port="0" to-layer="978" to-port="0" />
		<edge from-layer="978" from-port="1" to-layer="979" to-port="1" />
		<edge from-layer="979" from-port="2" to-layer="982" to-port="0" />
		<edge from-layer="980" from-port="0" to-layer="981" to-port="0" />
		<edge from-layer="981" from-port="1" to-layer="982" to-port="1" />
		<edge from-layer="982" from-port="2" to-layer="983" to-port="1" />
		<edge from-layer="983" from-port="2" to-layer="986" to-port="0" />
		<edge from-layer="984" from-port="0" to-layer="985" to-port="0" />
		<edge from-layer="985" from-port="1" to-layer="986" to-port="1" />
		<edge from-layer="986" from-port="2" to-layer="989" to-port="0" />
		<edge from-layer="986" from-port="2" to-layer="1011" to-port="0" />
		<edge from-layer="987" from-port="0" to-layer="988" to-port="0" />
		<edge from-layer="988" from-port="1" to-layer="989" to-port="1" />
		<edge from-layer="989" from-port="2" to-layer="992" to-port="0" />
		<edge from-layer="990" from-port="0" to-layer="991" to-port="0" />
		<edge from-layer="991" from-port="1" to-layer="992" to-port="1" />
		<edge from-layer="992" from-port="2" to-layer="995" to-port="0" />
		<edge from-layer="993" from-port="0" to-layer="994" to-port="0" />
		<edge from-layer="994" from-port="1" to-layer="995" to-port="1" />
		<edge from-layer="995" from-port="2" to-layer="998" to-port="0" />
		<edge from-layer="996" from-port="0" to-layer="997" to-port="0" />
		<edge from-layer="997" from-port="1" to-layer="998" to-port="1" />
		<edge from-layer="998" from-port="2" to-layer="1001" to-port="0" />
		<edge from-layer="999" from-port="0" to-layer="1000" to-port="0" />
		<edge from-layer="1000" from-port="1" to-layer="1001" to-port="1" />
		<edge from-layer="1001" from-port="2" to-layer="1004" to-port="0" />
		<edge from-layer="1002" from-port="0" to-layer="1003" to-port="0" />
		<edge from-layer="1003" from-port="1" to-layer="1004" to-port="1" />
		<edge from-layer="1004" from-port="2" to-layer="1007" to-port="0" />
		<edge from-layer="1005" from-port="0" to-layer="1006" to-port="0" />
		<edge from-layer="1006" from-port="1" to-layer="1007" to-port="1" />
		<edge from-layer="1007" from-port="2" to-layer="1010" to-port="0" />
		<edge from-layer="1008" from-port="0" to-layer="1009" to-port="0" />
		<edge from-layer="1009" from-port="1" to-layer="1010" to-port="1" />
		<edge from-layer="1010" from-port="2" to-layer="1011" to-port="1" />
		<edge from-layer="1011" from-port="2" to-layer="1014" to-port="0" />
		<edge from-layer="1012" from-port="0" to-layer="1013" to-port="0" />
		<edge from-layer="1013" from-port="1" to-layer="1014" to-port="1" />
		<edge from-layer="1014" from-port="2" to-layer="1017" to-port="0" />
		<edge from-layer="1014" from-port="2" to-layer="1039" to-port="0" />
		<edge from-layer="1015" from-port="0" to-layer="1016" to-port="0" />
		<edge from-layer="1016" from-port="1" to-layer="1017" to-port="1" />
		<edge from-layer="1017" from-port="2" to-layer="1020" to-port="0" />
		<edge from-layer="1018" from-port="0" to-layer="1019" to-port="0" />
		<edge from-layer="1019" from-port="1" to-layer="1020" to-port="1" />
		<edge from-layer="1020" from-port="2" to-layer="1023" to-port="0" />
		<edge from-layer="1021" from-port="0" to-layer="1022" to-port="0" />
		<edge from-layer="1022" from-port="1" to-layer="1023" to-port="1" />
		<edge from-layer="1023" from-port="2" to-layer="1026" to-port="0" />
		<edge from-layer="1024" from-port="0" to-layer="1025" to-port="0" />
		<edge from-layer="1025" from-port="1" to-layer="1026" to-port="1" />
		<edge from-layer="1026" from-port="2" to-layer="1029" to-port="0" />
		<edge from-layer="1027" from-port="0" to-layer="1028" to-port="0" />
		<edge from-layer="1028" from-port="1" to-layer="1029" to-port="1" />
		<edge from-layer="1029" from-port="2" to-layer="1032" to-port="0" />
		<edge from-layer="1030" from-port="0" to-layer="1031" to-port="0" />
		<edge from-layer="1031" from-port="1" to-layer="1032" to-port="1" />
		<edge from-layer="1032" from-port="2" to-layer="1035" to-port="0" />
		<edge from-layer="1033" from-port="0" to-layer="1034" to-port="0" />
		<edge from-layer="1034" from-port="1" to-layer="1035" to-port="1" />
		<edge from-layer="1035" from-port="2" to-layer="1038" to-port="0" />
		<edge from-layer="1036" from-port="0" to-layer="1037" to-port="0" />
		<edge from-layer="1037" from-port="1" to-layer="1038" to-port="1" />
		<edge from-layer="1038" from-port="2" to-layer="1039" to-port="1" />
		<edge from-layer="1039" from-port="2" to-layer="1042" to-port="0" />
		<edge from-layer="1040" from-port="0" to-layer="1041" to-port="0" />
		<edge from-layer="1041" from-port="1" to-layer="1042" to-port="1" />
		<edge from-layer="1042" from-port="2" to-layer="1068" to-port="0" />
		<edge from-layer="1042" from-port="2" to-layer="1055" to-port="0" />
		<edge from-layer="1042" from-port="2" to-layer="1045" to-port="0" />
		<edge from-layer="1043" from-port="0" to-layer="1044" to-port="0" />
		<edge from-layer="1044" from-port="1" to-layer="1045" to-port="1" />
		<edge from-layer="1045" from-port="2" to-layer="1048" to-port="0" />
		<edge from-layer="1046" from-port="0" to-layer="1047" to-port="0" />
		<edge from-layer="1047" from-port="1" to-layer="1048" to-port="1" />
		<edge from-layer="1048" from-port="2" to-layer="1050" to-port="0" />
		<edge from-layer="1049" from-port="0" to-layer="1050" to-port="1" />
		<edge from-layer="1050" from-port="2" to-layer="1052" to-port="0" />
		<edge from-layer="1051" from-port="0" to-layer="1052" to-port="1" />
		<edge from-layer="1052" from-port="2" to-layer="1081" to-port="0" />
		<edge from-layer="1053" from-port="0" to-layer="1054" to-port="0" />
		<edge from-layer="1054" from-port="1" to-layer="1055" to-port="1" />
		<edge from-layer="1055" from-port="2" to-layer="1058" to-port="0" />
		<edge from-layer="1056" from-port="0" to-layer="1057" to-port="0" />
		<edge from-layer="1057" from-port="1" to-layer="1058" to-port="1" />
		<edge from-layer="1058" from-port="2" to-layer="1060" to-port="0" />
		<edge from-layer="1059" from-port="0" to-layer="1060" to-port="1" />
		<edge from-layer="1060" from-port="2" to-layer="1062" to-port="0" />
		<edge from-layer="1061" from-port="0" to-layer="1062" to-port="1" />
		<edge from-layer="1062" from-port="2" to-layer="1064" to-port="0" />
		<edge from-layer="1063" from-port="0" to-layer="1064" to-port="1" />
		<edge from-layer="1064" from-port="2" to-layer="1065" to-port="0" />
		<edge from-layer="1065" from-port="1" to-layer="1067" to-port="0" />
		<edge from-layer="1066" from-port="0" to-layer="1067" to-port="1" />
		<edge from-layer="1067" from-port="2" to-layer="1081" to-port="1" />
		<edge from-layer="1068" from-port="1" to-layer="1072" to-port="0" />
		<edge from-layer="1069" from-port="0" to-layer="1072" to-port="1" />
		<edge from-layer="1070" from-port="0" to-layer="1072" to-port="2" />
		<edge from-layer="1071" from-port="0" to-layer="1072" to-port="3" />
		<edge from-layer="1072" from-port="4" to-layer="1078" to-port="0" />
		<edge from-layer="1073" from-port="1" to-layer="1077" to-port="0" />
		<edge from-layer="1074" from-port="0" to-layer="1077" to-port="1" />
		<edge from-layer="1075" from-port="0" to-layer="1077" to-port="2" />
		<edge from-layer="1076" from-port="0" to-layer="1077" to-port="3" />
		<edge from-layer="1077" from-port="4" to-layer="1078" to-port="1" />
		<edge from-layer="1078" from-port="2" to-layer="1080" to-port="0" />
		<edge from-layer="1079" from-port="0" to-layer="1080" to-port="1" />
		<edge from-layer="1080" from-port="2" to-layer="1081" to-port="2" />
		<edge from-layer="1081" from-port="3" to-layer="1082" to-port="0" />
	</edges>
	<rt_info>
		<MO_version value="custom_HEAD_3b86f12c37fa7b35388be509ccabf6c7423268b7" />
		<Runtime_version value="2022.3.0-8987-3b86f12c37f-HEAD" />
		<conversion_parameters>
			<caffe_parser_path value="DIR" />
			<data_type value="FP16" />
			<framework value="caffe" />
			<input value="data" />
			<input_model value="DIR/rmnet_lrelu_pd_ssd.caffemodel" />
			<input_proto value="DIR/rmnet_lrelu_pd_ssd.prototxt" />
			<input_shape value="[1,3,320,544]" />
			<layout value="data(nchw)" />
			<model_name value="person-detection-retail-0013" />
			<output value="detection_out" />
			<output_dir value="DIR" />
		</conversion_parameters>
		<legacy_frontend value="True" />
	</rt_info>
</net>
