<?xml version="1.0" ?>
<net name="torch-jit-export" version="11">
	<layers>
		<layer id="153" name="0" type="Parameter" version="opset1">
			<data shape="1,3,128,128" element_type="f32"/>
			<rt_info>
				<attribute name="old_api_map_element_type" version="0" value="f16"/>
			</rt_info>
			<output>
				<port id="0" precision="FP32" names="0">
					<dim>1</dim>
					<dim>3</dim>
					<dim>128</dim>
					<dim>128</dim>
					<rt_info>
						<attribute name="layout" version="0" layout="[N,C,H,W]"/>
					</rt_info>
				</port>
			</output>
		</layer>
		<layer id="0" name="1790179218988" type="Const" version="opset1">
			<data offset="0" size="1024" shape="1,256,1,1" element_type="f32"/>
			<output>
				<port id="0" precision="FP32">
					<dim>1</dim>
					<dim>256</dim>
					<dim>1</dim>
					<dim>1</dim>
				</port>
			</output>
		</layer>
		<layer id="1" name="3255325919111" type="Const" version="opset1">
			<data offset="1024" size="4" shape="" element_type="f32"/>
			<output>
				<port id="0" precision="FP32"/>
			</output>
		</layer>
		<layer id="2" name="3256326019858" type="Const" version="opset1">
			<data offset="1028" size="4" shape="" element_type="f32"/>
			<output>
				<port id="0" precision="FP32"/>
			</output>
		</layer>
		<layer id="3" name="3257326118670" type="Const" version="opset1">
			<data offset="1024" size="4" shape="" element_type="f32"/>
			<output>
				<port id="0" precision="FP32"/>
			</output>
		</layer>
		<layer id="4" name="3258326218949" type="Const" version="opset1">
			<data offset="1028" size="4" shape="" element_type="f32"/>
			<output>
				<port id="0" precision="FP32"/>
			</output>
		</layer>
		<layer id="5" name="4385438919483" type="Const" version="opset1">
			<data offset="1032" size="2048" shape="1,512,1,1" element_type="f32"/>
			<output>
				<port id="0" precision="FP32">
					<dim>1</dim>
					<dim>512</dim>
					<dim>1</dim>
					<dim>1</dim>
				</port>
			</output>
		</layer>
		<layer id="6" name="4386439018529" type="Const" version="opset1">
			<data offset="3080" size="2048" shape="1,512,1,1" element_type="f32"/>
			<output>
				<port id="0" precision="FP32">
					<dim>1</dim>
					<dim>512</dim>
					<dim>1</dim>
					<dim>1</dim>
				</port>
			</output>
		</layer>
		<layer id="7" name="4387439119804" type="Const" version="opset1">
			<data offset="1032" size="2048" shape="1,512,1,1" element_type="f32"/>
			<output>
				<port id="0" precision="FP32">
					<dim>1</dim>
					<dim>512</dim>
					<dim>1</dim>
					<dim>1</dim>
				</port>
			</output>
		</layer>
		<layer id="8" name="4388439220104" type="Const" version="opset1">
			<data offset="3080" size="2048" shape="1,512,1,1" element_type="f32"/>
			<output>
				<port id="0" precision="FP32">
					<dim>1</dim>
					<dim>512</dim>
					<dim>1</dim>
					<dim>1</dim>
				</port>
			</output>
		</layer>
		<layer id="9" name="3485348920119" type="Const" version="opset1">
			<data offset="5128" size="4" shape="" element_type="f32"/>
			<output>
				<port id="0" precision="FP32"/>
			</output>
		</layer>
		<layer id="10" name="3486349018826" type="Const" version="opset1">
			<data offset="5132" size="4" shape="" element_type="f32"/>
			<output>
				<port id="0" precision="FP32"/>
			</output>
		</layer>
		<layer id="11" name="3487349119576" type="Const" version="opset1">
			<data offset="5128" size="4" shape="" element_type="f32"/>
			<output>
				<port id="0" precision="FP32"/>
			</output>
		</layer>
		<layer id="12" name="3488349218895" type="Const" version="opset1">
			<data offset="5132" size="4" shape="" element_type="f32"/>
			<output>
				<port id="0" precision="FP32"/>
			</output>
		</layer>
		<layer id="13" name="3755375919108" type="Const" version="opset1">
			<data offset="5136" size="4" shape="" element_type="f32"/>
			<output>
				<port id="0" precision="FP32"/>
			</output>
		</layer>
		<layer id="14" name="3756376019072" type="Const" version="opset1">
			<data offset="5140" size="4" shape="" element_type="f32"/>
			<output>
				<port id="0" precision="FP32"/>
			</output>
		</layer>
		<layer id="15" name="3757376118169" type="Const" version="opset1">
			<data offset="5136" size="4" shape="" element_type="f32"/>
			<output>
				<port id="0" precision="FP32"/>
			</output>
		</layer>
		<layer id="16" name="3758376219942" type="Const" version="opset1">
			<data offset="5140" size="4" shape="" element_type="f32"/>
			<output>
				<port id="0" precision="FP32"/>
			</output>
		</layer>
		<layer id="17" name="4445444920026" type="Const" version="opset1">
			<data offset="5144" size="4" shape="" element_type="f32"/>
			<output>
				<port id="0" precision="FP32"/>
			</output>
		</layer>
		<layer id="18" name="4446445020509" type="Const" version="opset1">
			<data offset="5148" size="4" shape="" element_type="f32"/>
			<output>
				<port id="0" precision="FP32"/>
			</output>
		</layer>
		<layer id="19" name="4447445118805" type="Const" version="opset1">
			<data offset="5144" size="4" shape="" element_type="f32"/>
			<output>
				<port id="0" precision="FP32"/>
			</output>
		</layer>
		<layer id="20" name="4448445219252" type="Const" version="opset1">
			<data offset="5148" size="4" shape="" element_type="f32"/>
			<output>
				<port id="0" precision="FP32"/>
			</output>
		</layer>
		<layer id="21" name="2385238919903" type="Const" version="opset1">
			<data offset="5152" size="4" shape="" element_type="f32"/>
			<output>
				<port id="0" precision="FP32"/>
			</output>
		</layer>
		<layer id="22" name="2386239018622" type="Const" version="opset1">
			<data offset="5156" size="4" shape="" element_type="f32"/>
			<output>
				<port id="0" precision="FP32"/>
			</output>
		</layer>
		<layer id="23" name="2387239118850" type="Const" version="opset1">
			<data offset="5152" size="4" shape="" element_type="f32"/>
			<output>
				<port id="0" precision="FP32"/>
			</output>
		</layer>
		<layer id="24" name="2388239220398" type="Const" version="opset1">
			<data offset="5156" size="4" shape="" element_type="f32"/>
			<output>
				<port id="0" precision="FP32"/>
			</output>
		</layer>
		<layer id="25" name="4275427920392" type="Const" version="opset1">
			<data offset="5160" size="4" shape="" element_type="f32"/>
			<output>
				<port id="0" precision="FP32"/>
			</output>
		</layer>
		<layer id="26" name="4276428019915" type="Const" version="opset1">
			<data offset="5164" size="4" shape="" element_type="f32"/>
			<output>
				<port id="0" precision="FP32"/>
			</output>
		</layer>
		<layer id="27" name="4277428118835" type="Const" version="opset1">
			<data offset="5160" size="4" shape="" element_type="f32"/>
			<output>
				<port id="0" precision="FP32"/>
			</output>
		</layer>
		<layer id="28" name="4278428220476" type="Const" version="opset1">
			<data offset="5164" size="4" shape="" element_type="f32"/>
			<output>
				<port id="0" precision="FP32"/>
			</output>
		</layer>
		<layer id="29" name="2575257918535" type="Const" version="opset1">
			<data offset="5168" size="4" shape="" element_type="f32"/>
			<output>
				<port id="0" precision="FP32"/>
			</output>
		</layer>
		<layer id="30" name="2576258020527" type="Const" version="opset1">
			<data offset="5172" size="4" shape="" element_type="f32"/>
			<output>
				<port id="0" precision="FP32"/>
			</output>
		</layer>
		<layer id="31" name="2577258120470" type="Const" version="opset1">
			<data offset="5168" size="4" shape="" element_type="f32"/>
			<output>
				<port id="0" precision="FP32"/>
			</output>
		</layer>
		<layer id="32" name="2578258219558" type="Const" version="opset1">
			<data offset="5172" size="4" shape="" element_type="f32"/>
			<output>
				<port id="0" precision="FP32"/>
			</output>
		</layer>
		<layer id="33" name="4075407918103" type="Const" version="opset1">
			<data offset="5176" size="4" shape="" element_type="f32"/>
			<output>
				<port id="0" precision="FP32"/>
			</output>
		</layer>
		<layer id="34" name="4076408018589" type="Const" version="opset1">
			<data offset="5180" size="4" shape="" element_type="f32"/>
			<output>
				<port id="0" precision="FP32"/>
			</output>
		</layer>
		<layer id="35" name="4077408118877" type="Const" version="opset1">
			<data offset="5176" size="4" shape="" element_type="f32"/>
			<output>
				<port id="0" precision="FP32"/>
			</output>
		</layer>
		<layer id="36" name="4078408218655" type="Const" version="opset1">
			<data offset="5180" size="4" shape="" element_type="f32"/>
			<output>
				<port id="0" precision="FP32"/>
			</output>
		</layer>
		<layer id="37" name="3855385919069" type="Const" version="opset1">
			<data offset="5184" size="4" shape="" element_type="f32"/>
			<output>
				<port id="0" precision="FP32"/>
			</output>
		</layer>
		<layer id="38" name="3856386020374" type="Const" version="opset1">
			<data offset="5188" size="4" shape="" element_type="f32"/>
			<output>
				<port id="0" precision="FP32"/>
			</output>
		</layer>
		<layer id="39" name="3857386119033" type="Const" version="opset1">
			<data offset="5184" size="4" shape="" element_type="f32"/>
			<output>
				<port id="0" precision="FP32"/>
			</output>
		</layer>
		<layer id="40" name="3858386219216" type="Const" version="opset1">
			<data offset="5188" size="4" shape="" element_type="f32"/>
			<output>
				<port id="0" precision="FP32"/>
			</output>
		</layer>
		<layer id="41" name="3815381918310" type="Const" version="opset1">
			<data offset="5192" size="2048" shape="1,512,1,1" element_type="f32"/>
			<output>
				<port id="0" precision="FP32">
					<dim>1</dim>
					<dim>512</dim>
					<dim>1</dim>
					<dim>1</dim>
				</port>
			</output>
		</layer>
		<layer id="42" name="3816382020122" type="Const" version="opset1">
			<data offset="7240" size="2048" shape="1,512,1,1" element_type="f32"/>
			<output>
				<port id="0" precision="FP32">
					<dim>1</dim>
					<dim>512</dim>
					<dim>1</dim>
					<dim>1</dim>
				</port>
			</output>
		</layer>
		<layer id="43" name="3817382119480" type="Const" version="opset1">
			<data offset="5192" size="2048" shape="1,512,1,1" element_type="f32"/>
			<output>
				<port id="0" precision="FP32">
					<dim>1</dim>
					<dim>512</dim>
					<dim>1</dim>
					<dim>1</dim>
				</port>
			</output>
		</layer>
		<layer id="44" name="3818382220383" type="Const" version="opset1">
			<data offset="7240" size="2048" shape="1,512,1,1" element_type="f32"/>
			<output>
				<port id="0" precision="FP32">
					<dim>1</dim>
					<dim>512</dim>
					<dim>1</dim>
					<dim>1</dim>
				</port>
			</output>
		</layer>
		<layer id="45" name="2975297918598" type="Const" version="opset1">
			<data offset="9288" size="4" shape="" element_type="f32"/>
			<output>
				<port id="0" precision="FP32"/>
			</output>
		</layer>
		<layer id="46" name="2976298019765" type="Const" version="opset1">
			<data offset="9292" size="4" shape="" element_type="f32"/>
			<output>
				<port id="0" precision="FP32"/>
			</output>
		</layer>
		<layer id="47" name="2977298119891" type="Const" version="opset1">
			<data offset="9288" size="4" shape="" element_type="f32"/>
			<output>
				<port id="0" precision="FP32"/>
			</output>
		</layer>
		<layer id="48" name="2978298220218" type="Const" version="opset1">
			<data offset="9292" size="4" shape="" element_type="f32"/>
			<output>
				<port id="0" precision="FP32"/>
			</output>
		</layer>
		<layer id="49" name="4345434918316" type="Const" version="opset1">
			<data offset="9296" size="4" shape="" element_type="f32"/>
			<output>
				<port id="0" precision="FP32"/>
			</output>
		</layer>
		<layer id="50" name="4346435020347" type="Const" version="opset1">
			<data offset="9300" size="4" shape="" element_type="f32"/>
			<output>
				<port id="0" precision="FP32"/>
			</output>
		</layer>
		<layer id="51" name="4347435119786" type="Const" version="opset1">
			<data offset="9296" size="4" shape="" element_type="f32"/>
			<output>
				<port id="0" precision="FP32"/>
			</output>
		</layer>
		<layer id="52" name="4348435218607" type="Const" version="opset1">
			<data offset="9300" size="4" shape="" element_type="f32"/>
			<output>
				<port id="0" precision="FP32"/>
			</output>
		</layer>
		<layer id="53" name="4485448920074" type="Const" version="opset1">
			<data offset="9304" size="4" shape="" element_type="f32"/>
			<output>
				<port id="0" precision="FP32"/>
			</output>
		</layer>
		<layer id="54" name="4486449020311" type="Const" version="opset1">
			<data offset="9308" size="4" shape="" element_type="f32"/>
			<output>
				<port id="0" precision="FP32"/>
			</output>
		</layer>
		<layer id="55" name="4487449119639" type="Const" version="opset1">
			<data offset="9304" size="4" shape="" element_type="f32"/>
			<output>
				<port id="0" precision="FP32"/>
			</output>
		</layer>
		<layer id="56" name="4488449218517" type="Const" version="opset1">
			<data offset="9308" size="4" shape="" element_type="f32"/>
			<output>
				<port id="0" precision="FP32"/>
			</output>
		</layer>
		<layer id="57" name="4015401918754" type="Const" version="opset1">
			<data offset="9312" size="4" shape="" element_type="f32"/>
			<output>
				<port id="0" precision="FP32"/>
			</output>
		</layer>
		<layer id="58" name="4016402018307" type="Const" version="opset1">
			<data offset="9316" size="4" shape="" element_type="f32"/>
			<output>
				<port id="0" precision="FP32"/>
			</output>
		</layer>
		<layer id="59" name="4017402119099" type="Const" version="opset1">
			<data offset="9312" size="4" shape="" element_type="f32"/>
			<output>
				<port id="0" precision="FP32"/>
			</output>
		</layer>
		<layer id="60" name="4018402218211" type="Const" version="opset1">
			<data offset="9316" size="4" shape="" element_type="f32"/>
			<output>
				<port id="0" precision="FP32"/>
			</output>
		</layer>
		<layer id="61" name="2355235919768" type="Const" version="opset1">
			<data offset="9320" size="4" shape="" element_type="f32"/>
			<output>
				<port id="0" precision="FP32"/>
			</output>
		</layer>
		<layer id="62" name="2356236020248" type="Const" version="opset1">
			<data offset="9324" size="4" shape="" element_type="f32"/>
			<output>
				<port id="0" precision="FP32"/>
			</output>
		</layer>
		<layer id="63" name="2357236120473" type="Const" version="opset1">
			<data offset="9320" size="4" shape="" element_type="f32"/>
			<output>
				<port id="0" precision="FP32"/>
			</output>
		</layer>
		<layer id="64" name="2358236218343" type="Const" version="opset1">
			<data offset="9324" size="4" shape="" element_type="f32"/>
			<output>
				<port id="0" precision="FP32"/>
			</output>
		</layer>
		<layer id="65" name="3975397918874" type="Const" version="opset1">
			<data offset="9328" size="4" shape="" element_type="f32"/>
			<output>
				<port id="0" precision="FP32"/>
			</output>
		</layer>
		<layer id="66" name="3976398019597" type="Const" version="opset1">
			<data offset="9332" size="4" shape="" element_type="f32"/>
			<output>
				<port id="0" precision="FP32"/>
			</output>
		</layer>
		<layer id="67" name="3977398118943" type="Const" version="opset1">
			<data offset="9328" size="4" shape="" element_type="f32"/>
			<output>
				<port id="0" precision="FP32"/>
			</output>
		</layer>
		<layer id="68" name="3978398218325" type="Const" version="opset1">
			<data offset="9332" size="4" shape="" element_type="f32"/>
			<output>
				<port id="0" precision="FP32"/>
			</output>
		</layer>
		<layer id="69" name="2715271919690" type="Const" version="opset1">
			<data offset="9336" size="4" shape="" element_type="f32"/>
			<output>
				<port id="0" precision="FP32"/>
			</output>
		</layer>
		<layer id="70" name="2716272019324" type="Const" version="opset1">
			<data offset="9340" size="4" shape="" element_type="f32"/>
			<output>
				<port id="0" precision="FP32"/>
			</output>
		</layer>
		<layer id="71" name="2717272118979" type="Const" version="opset1">
			<data offset="9336" size="4" shape="" element_type="f32"/>
			<output>
				<port id="0" precision="FP32"/>
			</output>
		</layer>
		<layer id="72" name="2718272219021" type="Const" version="opset1">
			<data offset="9340" size="4" shape="" element_type="f32"/>
			<output>
				<port id="0" precision="FP32"/>
			</output>
		</layer>
		<layer id="73" name="4145414918361" type="Const" version="opset1">
			<data offset="5152" size="4" shape="" element_type="f32"/>
			<output>
				<port id="0" precision="FP32"/>
			</output>
		</layer>
		<layer id="74" name="4146415018547" type="Const" version="opset1">
			<data offset="9344" size="4" shape="" element_type="f32"/>
			<output>
				<port id="0" precision="FP32"/>
			</output>
		</layer>
		<layer id="75" name="4147415120281" type="Const" version="opset1">
			<data offset="5152" size="4" shape="" element_type="f32"/>
			<output>
				<port id="0" precision="FP32"/>
			</output>
		</layer>
		<layer id="76" name="4148415220086" type="Const" version="opset1">
			<data offset="9344" size="4" shape="" element_type="f32"/>
			<output>
				<port id="0" precision="FP32"/>
			</output>
		</layer>
		<layer id="77" name="3545354919666" type="Const" version="opset1">
			<data offset="9348" size="4" shape="" element_type="f32"/>
			<output>
				<port id="0" precision="FP32"/>
			</output>
		</layer>
		<layer id="78" name="3546355018055" type="Const" version="opset1">
			<data offset="9352" size="4" shape="" element_type="f32"/>
			<output>
				<port id="0" precision="FP32"/>
			</output>
		</layer>
		<layer id="79" name="3547355120320" type="Const" version="opset1">
			<data offset="9348" size="4" shape="" element_type="f32"/>
			<output>
				<port id="0" precision="FP32"/>
			</output>
		</layer>
		<layer id="80" name="3548355219702" type="Const" version="opset1">
			<data offset="9352" size="4" shape="" element_type="f32"/>
			<output>
				<port id="0" precision="FP32"/>
			</output>
		</layer>
		<layer id="81" name="2995299920389" type="Const" version="opset1">
			<data offset="9356" size="4" shape="" element_type="f32"/>
			<output>
				<port id="0" precision="FP32"/>
			</output>
		</layer>
		<layer id="82" name="2996300019678" type="Const" version="opset1">
			<data offset="9360" size="4" shape="" element_type="f32"/>
			<output>
				<port id="0" precision="FP32"/>
			</output>
		</layer>
		<layer id="83" name="2997300118436" type="Const" version="opset1">
			<data offset="9356" size="4" shape="" element_type="f32"/>
			<output>
				<port id="0" precision="FP32"/>
			</output>
		</layer>
		<layer id="84" name="2998300218880" type="Const" version="opset1">
			<data offset="9360" size="4" shape="" element_type="f32"/>
			<output>
				<port id="0" precision="FP32"/>
			</output>
		</layer>
		<layer id="85" name="3605360919936" type="Const" version="opset1">
			<data offset="9364" size="4" shape="" element_type="f32"/>
			<output>
				<port id="0" precision="FP32"/>
			</output>
		</layer>
		<layer id="86" name="3606361019780" type="Const" version="opset1">
			<data offset="9368" size="4" shape="" element_type="f32"/>
			<output>
				<port id="0" precision="FP32"/>
			</output>
		</layer>
		<layer id="87" name="3607361118289" type="Const" version="opset1">
			<data offset="9364" size="4" shape="" element_type="f32"/>
			<output>
				<port id="0" precision="FP32"/>
			</output>
		</layer>
		<layer id="88" name="3608361219468" type="Const" version="opset1">
			<data offset="9368" size="4" shape="" element_type="f32"/>
			<output>
				<port id="0" precision="FP32"/>
			</output>
		</layer>
		<layer id="89" name="3465346920308" type="Const" version="opset1">
			<data offset="9372" size="4" shape="" element_type="f32"/>
			<output>
				<port id="0" precision="FP32"/>
			</output>
		</layer>
		<layer id="90" name="3466347018574" type="Const" version="opset1">
			<data offset="9376" size="4" shape="" element_type="f32"/>
			<output>
				<port id="0" precision="FP32"/>
			</output>
		</layer>
		<layer id="91" name="3467347118346" type="Const" version="opset1">
			<data offset="9372" size="4" shape="" element_type="f32"/>
			<output>
				<port id="0" precision="FP32"/>
			</output>
		</layer>
		<layer id="92" name="3468347218148" type="Const" version="opset1">
			<data offset="9376" size="4" shape="" element_type="f32"/>
			<output>
				<port id="0" precision="FP32"/>
			</output>
		</layer>
		<layer id="93" name="2535253919057" type="Const" version="opset1">
			<data offset="9380" size="1024" shape="1,256,1,1" element_type="f32"/>
			<output>
				<port id="0" precision="FP32">
					<dim>1</dim>
					<dim>256</dim>
					<dim>1</dim>
					<dim>1</dim>
				</port>
			</output>
		</layer>
		<layer id="94" name="2536254018838" type="Const" version="opset1">
			<data offset="10404" size="1024" shape="1,256,1,1" element_type="f32"/>
			<output>
				<port id="0" precision="FP32">
					<dim>1</dim>
					<dim>256</dim>
					<dim>1</dim>
					<dim>1</dim>
				</port>
			</output>
		</layer>
		<layer id="95" name="2537254119306" type="Const" version="opset1">
			<data offset="9380" size="1024" shape="1,256,1,1" element_type="f32"/>
			<output>
				<port id="0" precision="FP32">
					<dim>1</dim>
					<dim>256</dim>
					<dim>1</dim>
					<dim>1</dim>
				</port>
			</output>
		</layer>
		<layer id="96" name="2538254218322" type="Const" version="opset1">
			<data offset="10404" size="1024" shape="1,256,1,1" element_type="f32"/>
			<output>
				<port id="0" precision="FP32">
					<dim>1</dim>
					<dim>256</dim>
					<dim>1</dim>
					<dim>1</dim>
				</port>
			</output>
		</layer>
		<layer id="97" name="2495249918787" type="Const" version="opset1">
			<data offset="11428" size="4" shape="" element_type="f32"/>
			<output>
				<port id="0" precision="FP32"/>
			</output>
		</layer>
		<layer id="98" name="2496250019654" type="Const" version="opset1">
			<data offset="11432" size="4" shape="" element_type="f32"/>
			<output>
				<port id="0" precision="FP32"/>
			</output>
		</layer>
		<layer id="99" name="2497250119741" type="Const" version="opset1">
			<data offset="11428" size="4" shape="" element_type="f32"/>
			<output>
				<port id="0" precision="FP32"/>
			</output>
		</layer>
		<layer id="100" name="2498250220524" type="Const" version="opset1">
			<data offset="11432" size="4" shape="" element_type="f32"/>
			<output>
				<port id="0" precision="FP32"/>
			</output>
		</layer>
		<layer id="101" name="3615361919441" type="Const" version="opset1">
			<data offset="11436" size="4" shape="" element_type="f32"/>
			<output>
				<port id="0" precision="FP32"/>
			</output>
		</layer>
		<layer id="102" name="3616362019912" type="Const" version="opset1">
			<data offset="11440" size="4" shape="" element_type="f32"/>
			<output>
				<port id="0" precision="FP32"/>
			</output>
		</layer>
		<layer id="103" name="3617362118214" type="Const" version="opset1">
			<data offset="11436" size="4" shape="" element_type="f32"/>
			<output>
				<port id="0" precision="FP32"/>
			</output>
		</layer>
		<layer id="104" name="3618362220305" type="Const" version="opset1">
			<data offset="11440" size="4" shape="" element_type="f32"/>
			<output>
				<port id="0" precision="FP32"/>
			</output>
		</layer>
		<layer id="105" name="2295229918379" type="Const" version="opset1">
			<data offset="11444" size="4" shape="" element_type="f32"/>
			<output>
				<port id="0" precision="FP32"/>
			</output>
		</layer>
		<layer id="106" name="2296230019123" type="Const" version="opset1">
			<data offset="11448" size="4" shape="" element_type="f32"/>
			<output>
				<port id="0" precision="FP32"/>
			</output>
		</layer>
		<layer id="107" name="2297230119864" type="Const" version="opset1">
			<data offset="11444" size="4" shape="" element_type="f32"/>
			<output>
				<port id="0" precision="FP32"/>
			</output>
		</layer>
		<layer id="108" name="2298230220419" type="Const" version="opset1">
			<data offset="11448" size="4" shape="" element_type="f32"/>
			<output>
				<port id="0" precision="FP32"/>
			</output>
		</layer>
		<layer id="109" name="3445344919090" type="Const" version="opset1">
			<data offset="11452" size="4" shape="" element_type="f32"/>
			<output>
				<port id="0" precision="FP32"/>
			</output>
		</layer>
		<layer id="110" name="3446345018163" type="Const" version="opset1">
			<data offset="11456" size="4" shape="" element_type="f32"/>
			<output>
				<port id="0" precision="FP32"/>
			</output>
		</layer>
		<layer id="111" name="3447345118739" type="Const" version="opset1">
			<data offset="11452" size="4" shape="" element_type="f32"/>
			<output>
				<port id="0" precision="FP32"/>
			</output>
		</layer>
		<layer id="112" name="3448345219345" type="Const" version="opset1">
			<data offset="11456" size="4" shape="" element_type="f32"/>
			<output>
				<port id="0" precision="FP32"/>
			</output>
		</layer>
		<layer id="113" name="3945394919636" type="Const" version="opset1">
			<data offset="11460" size="4" shape="" element_type="f32"/>
			<output>
				<port id="0" precision="FP32"/>
			</output>
		</layer>
		<layer id="114" name="3946395020113" type="Const" version="opset1">
			<data offset="11464" size="4" shape="" element_type="f32"/>
			<output>
				<port id="0" precision="FP32"/>
			</output>
		</layer>
		<layer id="115" name="3947395119939" type="Const" version="opset1">
			<data offset="11460" size="4" shape="" element_type="f32"/>
			<output>
				<port id="0" precision="FP32"/>
			</output>
		</layer>
		<layer id="116" name="3948395218418" type="Const" version="opset1">
			<data offset="11464" size="4" shape="" element_type="f32"/>
			<output>
				<port id="0" precision="FP32"/>
			</output>
		</layer>
		<layer id="117" name="2565256918484" type="Const" version="opset1">
			<data offset="5152" size="4" shape="" element_type="f32"/>
			<output>
				<port id="0" precision="FP32"/>
			</output>
		</layer>
		<layer id="118" name="2566257020224" type="Const" version="opset1">
			<data offset="11468" size="4" shape="" element_type="f32"/>
			<output>
				<port id="0" precision="FP32"/>
			</output>
		</layer>
		<layer id="119" name="2567257118682" type="Const" version="opset1">
			<data offset="5152" size="4" shape="" element_type="f32"/>
			<output>
				<port id="0" precision="FP32"/>
			</output>
		</layer>
		<layer id="120" name="2568257219303" type="Const" version="opset1">
			<data offset="11468" size="4" shape="" element_type="f32"/>
			<output>
				<port id="0" precision="FP32"/>
			</output>
		</layer>
		<layer id="121" name="3715371919255" type="Const" version="opset1">
			<data offset="5152" size="4" shape="" element_type="f32"/>
			<output>
				<port id="0" precision="FP32"/>
			</output>
		</layer>
		<layer id="122" name="3716372019282" type="Const" version="opset1">
			<data offset="11472" size="4" shape="" element_type="f32"/>
			<output>
				<port id="0" precision="FP32"/>
			</output>
		</layer>
		<layer id="123" name="3717372120368" type="Const" version="opset1">
			<data offset="5152" size="4" shape="" element_type="f32"/>
			<output>
				<port id="0" precision="FP32"/>
			</output>
		</layer>
		<layer id="124" name="3718372220314" type="Const" version="opset1">
			<data offset="11472" size="4" shape="" element_type="f32"/>
			<output>
				<port id="0" precision="FP32"/>
			</output>
		</layer>
		<layer id="125" name="3995399918760" type="Const" version="opset1">
			<data offset="11476" size="4" shape="" element_type="f32"/>
			<output>
				<port id="0" precision="FP32"/>
			</output>
		</layer>
		<layer id="126" name="3996400019201" type="Const" version="opset1">
			<data offset="11480" size="4" shape="" element_type="f32"/>
			<output>
				<port id="0" precision="FP32"/>
			</output>
		</layer>
		<layer id="127" name="3997400118250" type="Const" version="opset1">
			<data offset="11476" size="4" shape="" element_type="f32"/>
			<output>
				<port id="0" precision="FP32"/>
			</output>
		</layer>
		<layer id="128" name="3998400218832" type="Const" version="opset1">
			<data offset="11480" size="4" shape="" element_type="f32"/>
			<output>
				<port id="0" precision="FP32"/>
			</output>
		</layer>
		<layer id="129" name="2865286918466" type="Const" version="opset1">
			<data offset="11484" size="4" shape="" element_type="f32"/>
			<output>
				<port id="0" precision="FP32"/>
			</output>
		</layer>
		<layer id="130" name="2866287020035" type="Const" version="opset1">
			<data offset="11488" size="4" shape="" element_type="f32"/>
			<output>
				<port id="0" precision="FP32"/>
			</output>
		</layer>
		<layer id="131" name="2867287120143" type="Const" version="opset1">
			<data offset="11484" size="4" shape="" element_type="f32"/>
			<output>
				<port id="0" precision="FP32"/>
			</output>
		</layer>
		<layer id="132" name="2868287218592" type="Const" version="opset1">
			<data offset="11488" size="4" shape="" element_type="f32"/>
			<output>
				<port id="0" precision="FP32"/>
			</output>
		</layer>
		<layer id="133" name="3285328919603" type="Const" version="opset1">
			<data offset="11492" size="4" shape="" element_type="f32"/>
			<output>
				<port id="0" precision="FP32"/>
			</output>
		</layer>
		<layer id="134" name="3286329018403" type="Const" version="opset1">
			<data offset="11496" size="4" shape="" element_type="f32"/>
			<output>
				<port id="0" precision="FP32"/>
			</output>
		</layer>
		<layer id="135" name="3287329119399" type="Const" version="opset1">
			<data offset="11492" size="4" shape="" element_type="f32"/>
			<output>
				<port id="0" precision="FP32"/>
			</output>
		</layer>
		<layer id="136" name="3288329220479" type="Const" version="opset1">
			<data offset="11496" size="4" shape="" element_type="f32"/>
			<output>
				<port id="0" precision="FP32"/>
			</output>
		</layer>
		<layer id="137" name="3345334920371" type="Const" version="opset1">
			<data offset="11500" size="512" shape="1,128,1,1" element_type="f32"/>
			<output>
				<port id="0" precision="FP32">
					<dim>1</dim>
					<dim>128</dim>
					<dim>1</dim>
					<dim>1</dim>
				</port>
			</output>
		</layer>
		<layer id="138" name="3346335019552" type="Const" version="opset1">
			<data offset="12012" size="512" shape="1,128,1,1" element_type="f32"/>
			<output>
				<port id="0" precision="FP32">
					<dim>1</dim>
					<dim>128</dim>
					<dim>1</dim>
					<dim>1</dim>
				</port>
			</output>
		</layer>
		<layer id="139" name="3347335118568" type="Const" version="opset1">
			<data offset="11500" size="512" shape="1,128,1,1" element_type="f32"/>
			<output>
				<port id="0" precision="FP32">
					<dim>1</dim>
					<dim>128</dim>
					<dim>1</dim>
					<dim>1</dim>
				</port>
			</output>
		</layer>
		<layer id="140" name="3348335219588" type="Const" version="opset1">
			<data offset="12012" size="512" shape="1,128,1,1" element_type="f32"/>
			<output>
				<port id="0" precision="FP32">
					<dim>1</dim>
					<dim>128</dim>
					<dim>1</dim>
					<dim>1</dim>
				</port>
			</output>
		</layer>
		<layer id="141" name="2465246918121" type="Const" version="opset1">
			<data offset="12524" size="4" shape="" element_type="f32"/>
			<output>
				<port id="0" precision="FP32"/>
			</output>
		</layer>
		<layer id="142" name="2466247020176" type="Const" version="opset1">
			<data offset="12528" size="4" shape="" element_type="f32"/>
			<output>
				<port id="0" precision="FP32"/>
			</output>
		</layer>
		<layer id="143" name="2467247118661" type="Const" version="opset1">
			<data offset="12524" size="4" shape="" element_type="f32"/>
			<output>
				<port id="0" precision="FP32"/>
			</output>
		</layer>
		<layer id="144" name="2468247218061" type="Const" version="opset1">
			<data offset="12528" size="4" shape="" element_type="f32"/>
			<output>
				<port id="0" precision="FP32"/>
			</output>
		</layer>
		<layer id="145" name="2635263920032" type="Const" version="opset1">
			<data offset="12532" size="256" shape="1,64,1,1" element_type="f32"/>
			<output>
				<port id="0" precision="FP32">
					<dim>1</dim>
					<dim>64</dim>
					<dim>1</dim>
					<dim>1</dim>
				</port>
			</output>
		</layer>
		<layer id="146" name="2636264019195" type="Const" version="opset1">
			<data offset="12788" size="256" shape="1,64,1,1" element_type="f32"/>
			<output>
				<port id="0" precision="FP32">
					<dim>1</dim>
					<dim>64</dim>
					<dim>1</dim>
					<dim>1</dim>
				</port>
			</output>
		</layer>
		<layer id="147" name="2637264119213" type="Const" version="opset1">
			<data offset="12532" size="256" shape="1,64,1,1" element_type="f32"/>
			<output>
				<port id="0" precision="FP32">
					<dim>1</dim>
					<dim>64</dim>
					<dim>1</dim>
					<dim>1</dim>
				</port>
			</output>
		</layer>
		<layer id="148" name="2638264218913" type="Const" version="opset1">
			<data offset="12788" size="256" shape="1,64,1,1" element_type="f32"/>
			<output>
				<port id="0" precision="FP32">
					<dim>1</dim>
					<dim>64</dim>
					<dim>1</dim>
					<dim>1</dim>
				</port>
			</output>
		</layer>
		<layer id="149" name="4295429918397" type="Const" version="opset1">
			<data offset="13044" size="4" shape="" element_type="f32"/>
			<output>
				<port id="0" precision="FP32"/>
			</output>
		</layer>
		<layer id="150" name="4296430018385" type="Const" version="opset1">
			<data offset="13048" size="4" shape="" element_type="f32"/>
			<output>
				<port id="0" precision="FP32"/>
			</output>
		</layer>
		<layer id="151" name="4297430120500" type="Const" version="opset1">
			<data offset="13044" size="4" shape="" element_type="f32"/>
			<output>
				<port id="0" precision="FP32"/>
			</output>
		</layer>
		<layer id="152" name="4298430219405" type="Const" version="opset1">
			<data offset="13048" size="4" shape="" element_type="f32"/>
			<output>
				<port id="0" precision="FP32"/>
			</output>
		</layer>
		<layer id="154" name="Gather_1441068919882" type="Const" version="opset1">
			<data offset="13052" size="6" shape="1,3,1,1" element_type="f16"/>
			<output>
				<port id="0" precision="FP16">
					<dim>1</dim>
					<dim>3</dim>
					<dim>1</dim>
					<dim>1</dim>
				</port>
			</output>
		</layer>
		<layer id="155" name="Gather_144106899810/restored_convert" type="Convert" version="opset1">
			<data destination_type="f32"/>
			<rt_info>
				<attribute name="decompression" version="0"/>
			</rt_info>
			<input>
				<port id="0">
					<dim>1</dim>
					<dim>3</dim>
					<dim>1</dim>
					<dim>1</dim>
				</port>
			</input>
			<output>
				<port id="1" precision="FP32">
					<dim>1</dim>
					<dim>3</dim>
					<dim>1</dim>
					<dim>1</dim>
				</port>
			</output>
		</layer>
		<layer id="156" name="Multiply_13328" type="Multiply" version="opset1">
			<data auto_broadcast="numpy"/>
			<rt_info>
				<attribute name="preprocessing" version="0"/>
			</rt_info>
			<input>
				<port id="0">
					<dim>1</dim>
					<dim>3</dim>
					<dim>128</dim>
					<dim>128</dim>
				</port>
				<port id="1">
					<dim>1</dim>
					<dim>3</dim>
					<dim>1</dim>
					<dim>1</dim>
				</port>
			</input>
			<output>
				<port id="2" precision="FP32">
					<dim>1</dim>
					<dim>3</dim>
					<dim>128</dim>
					<dim>128</dim>
				</port>
			</output>
		</layer>
		<layer id="157" name="Gather_1441369220269" type="Const" version="opset1">
			<data offset="13058" size="6" shape="1,3,1,1" element_type="f16"/>
			<output>
				<port id="0" precision="FP16">
					<dim>1</dim>
					<dim>3</dim>
					<dim>1</dim>
					<dim>1</dim>
				</port>
			</output>
		</layer>
		<layer id="158" name="Gather_144136929811/restored_convert" type="Convert" version="opset1">
			<data destination_type="f32"/>
			<rt_info>
				<attribute name="decompression" version="0"/>
			</rt_info>
			<input>
				<port id="0">
					<dim>1</dim>
					<dim>3</dim>
					<dim>1</dim>
					<dim>1</dim>
				</port>
			</input>
			<output>
				<port id="1" precision="FP32">
					<dim>1</dim>
					<dim>3</dim>
					<dim>1</dim>
					<dim>1</dim>
				</port>
			</output>
		</layer>
		<layer id="159" name="409" type="Add" version="opset1">
			<data auto_broadcast="numpy"/>
			<rt_info>
				<attribute name="preprocessing" version="0"/>
			</rt_info>
			<input>
				<port id="0">
					<dim>1</dim>
					<dim>3</dim>
					<dim>128</dim>
					<dim>128</dim>
				</port>
				<port id="1">
					<dim>1</dim>
					<dim>3</dim>
					<dim>1</dim>
					<dim>1</dim>
				</port>
			</input>
			<output>
				<port id="2" precision="FP32" names="409">
					<dim>1</dim>
					<dim>3</dim>
					<dim>128</dim>
					<dim>128</dim>
				</port>
			</output>
		</layer>
		<layer id="160" name="Multiply_13338/fq_input_0" type="FakeQuantize" version="opset1">
			<data levels="256" auto_broadcast="numpy"/>
			<input>
				<port id="0">
					<dim>1</dim>
					<dim>3</dim>
					<dim>128</dim>
					<dim>128</dim>
				</port>
				<port id="1"/>
				<port id="2"/>
				<port id="3"/>
				<port id="4"/>
			</input>
			<output>
				<port id="5" precision="FP32">
					<dim>1</dim>
					<dim>3</dim>
					<dim>128</dim>
					<dim>128</dim>
				</port>
			</output>
		</layer>
		<layer id="161" name="Multiply_13338/fq_weights_1/scale1147119093" type="Const" version="opset1">
			<data offset="13064" size="256" shape="64,1,1,1" element_type="f32"/>
			<output>
				<port id="0" precision="FP32">
					<dim>64</dim>
					<dim>1</dim>
					<dim>1</dim>
					<dim>1</dim>
				</port>
			</output>
		</layer>
		<layer id="162" name="Gather_144166959812/restored_convert/quantized1146319729" type="Const" version="opset1">
			<data offset="13320" size="1728" shape="64,3,3,3" element_type="i8"/>
			<output>
				<port id="0" precision="I8">
					<dim>64</dim>
					<dim>3</dim>
					<dim>3</dim>
					<dim>3</dim>
				</port>
			</output>
		</layer>
		<layer id="163" name="Gather_144166959812/restored_convert/quantized/to_f32" type="Convert" version="opset1">
			<data destination_type="f32"/>
			<input>
				<port id="0">
					<dim>64</dim>
					<dim>3</dim>
					<dim>3</dim>
					<dim>3</dim>
				</port>
			</input>
			<output>
				<port id="1" precision="FP32">
					<dim>64</dim>
					<dim>3</dim>
					<dim>3</dim>
					<dim>3</dim>
				</port>
			</output>
		</layer>
		<layer id="164" name="Multiply_13338/fq_weights_1/mulpiply_by_scale" type="Multiply" version="opset1">
			<data auto_broadcast="numpy"/>
			<input>
				<port id="0">
					<dim>64</dim>
					<dim>3</dim>
					<dim>3</dim>
					<dim>3</dim>
				</port>
				<port id="1">
					<dim>64</dim>
					<dim>1</dim>
					<dim>1</dim>
					<dim>1</dim>
				</port>
			</input>
			<output>
				<port id="2" precision="FP32">
					<dim>64</dim>
					<dim>3</dim>
					<dim>3</dim>
					<dim>3</dim>
				</port>
			</output>
		</layer>
		<layer id="165" name="Multiply_13338" type="Convolution" version="opset1">
			<data auto_pad="explicit" strides="2,2" dilations="1,1" pads_begin="1,1" pads_end="1,1"/>
			<rt_info>
				<attribute name="preprocessing" version="0"/>
			</rt_info>
			<input>
				<port id="0">
					<dim>1</dim>
					<dim>3</dim>
					<dim>128</dim>
					<dim>128</dim>
				</port>
				<port id="1">
					<dim>64</dim>
					<dim>3</dim>
					<dim>3</dim>
					<dim>3</dim>
				</port>
			</input>
			<output>
				<port id="2" precision="FP32">
					<dim>1</dim>
					<dim>64</dim>
					<dim>64</dim>
					<dim>64</dim>
				</port>
			</output>
		</layer>
		<layer id="166" name="Constant_1334369819009" type="Const" version="opset1">
			<data offset="15048" size="128" shape="1,64,1,1" element_type="f16"/>
			<output>
				<port id="0" precision="FP16">
					<dim>1</dim>
					<dim>64</dim>
					<dim>1</dim>
					<dim>1</dim>
				</port>
			</output>
		</layer>
		<layer id="167" name="Constant_133436989813/restored_convert" type="Convert" version="opset1">
			<data destination_type="f32"/>
			<rt_info>
				<attribute name="decompression" version="0"/>
			</rt_info>
			<input>
				<port id="0">
					<dim>1</dim>
					<dim>64</dim>
					<dim>1</dim>
					<dim>1</dim>
				</port>
			</input>
			<output>
				<port id="1" precision="FP32">
					<dim>1</dim>
					<dim>64</dim>
					<dim>1</dim>
					<dim>1</dim>
				</port>
			</output>
		</layer>
		<layer id="168" name="411" type="Add" version="opset1">
			<data auto_broadcast="numpy"/>
			<input>
				<port id="0">
					<dim>1</dim>
					<dim>64</dim>
					<dim>64</dim>
					<dim>64</dim>
				</port>
				<port id="1">
					<dim>1</dim>
					<dim>64</dim>
					<dim>1</dim>
					<dim>1</dim>
				</port>
			</input>
			<output>
				<port id="2" precision="FP32" names="411">
					<dim>1</dim>
					<dim>64</dim>
					<dim>64</dim>
					<dim>64</dim>
				</port>
			</output>
		</layer>
		<layer id="169" name="1270119489" type="Const" version="opset1">
			<data offset="15176" size="2" shape="1" element_type="f16"/>
			<output>
				<port id="0" precision="FP16">
					<dim>1</dim>
				</port>
			</output>
		</layer>
		<layer id="170" name="127019814/restored_convert" type="Convert" version="opset1">
			<data destination_type="f32"/>
			<rt_info>
				<attribute name="decompression" version="0"/>
			</rt_info>
			<input>
				<port id="0">
					<dim>1</dim>
				</port>
			</input>
			<output>
				<port id="1" precision="FP32" names="12">
					<dim>1</dim>
				</port>
			</output>
		</layer>
		<layer id="171" name="412" type="PReLU" version="opset1">
			<input>
				<port id="0">
					<dim>1</dim>
					<dim>64</dim>
					<dim>64</dim>
					<dim>64</dim>
				</port>
				<port id="1">
					<dim>1</dim>
				</port>
			</input>
			<output>
				<port id="2" precision="FP32" names="412">
					<dim>1</dim>
					<dim>64</dim>
					<dim>64</dim>
					<dim>64</dim>
				</port>
			</output>
		</layer>
		<layer id="172" name="Multiply_13345/fq_input_0" type="FakeQuantize" version="opset1">
			<data levels="256" auto_broadcast="numpy"/>
			<input>
				<port id="0">
					<dim>1</dim>
					<dim>64</dim>
					<dim>64</dim>
					<dim>64</dim>
				</port>
				<port id="1">
					<dim>1</dim>
					<dim>64</dim>
					<dim>1</dim>
					<dim>1</dim>
				</port>
				<port id="2">
					<dim>1</dim>
					<dim>64</dim>
					<dim>1</dim>
					<dim>1</dim>
				</port>
				<port id="3">
					<dim>1</dim>
					<dim>64</dim>
					<dim>1</dim>
					<dim>1</dim>
				</port>
				<port id="4">
					<dim>1</dim>
					<dim>64</dim>
					<dim>1</dim>
					<dim>1</dim>
				</port>
			</input>
			<output>
				<port id="5" precision="FP32">
					<dim>1</dim>
					<dim>64</dim>
					<dim>64</dim>
					<dim>64</dim>
				</port>
			</output>
		</layer>
		<layer id="173" name="Multiply_13345/fq_weights_1/scale1300119174" type="Const" version="opset1">
			<data offset="15178" size="256" shape="64,1,1,1" element_type="f32"/>
			<output>
				<port id="0" precision="FP32">
					<dim>64</dim>
					<dim>1</dim>
					<dim>1</dim>
					<dim>1</dim>
				</port>
			</output>
		</layer>
		<layer id="174" name="Multiply_136977049815/restored_convert/quantized1299318964" type="Const" version="opset1">
			<data offset="15434" size="576" shape="64,1,3,3" element_type="i8"/>
			<output>
				<port id="0" precision="I8">
					<dim>64</dim>
					<dim>1</dim>
					<dim>3</dim>
					<dim>3</dim>
				</port>
			</output>
		</layer>
		<layer id="175" name="Multiply_136977049815/restored_convert/quantized/to_f32" type="Convert" version="opset1">
			<data destination_type="f32"/>
			<input>
				<port id="0">
					<dim>64</dim>
					<dim>1</dim>
					<dim>3</dim>
					<dim>3</dim>
				</port>
			</input>
			<output>
				<port id="1" precision="FP32">
					<dim>64</dim>
					<dim>1</dim>
					<dim>3</dim>
					<dim>3</dim>
				</port>
			</output>
		</layer>
		<layer id="176" name="Multiply_13345/fq_weights_1/mulpiply_by_scale" type="Multiply" version="opset1">
			<data auto_broadcast="numpy"/>
			<input>
				<port id="0">
					<dim>64</dim>
					<dim>1</dim>
					<dim>3</dim>
					<dim>3</dim>
				</port>
				<port id="1">
					<dim>64</dim>
					<dim>1</dim>
					<dim>1</dim>
					<dim>1</dim>
				</port>
			</input>
			<output>
				<port id="2" precision="FP32">
					<dim>64</dim>
					<dim>1</dim>
					<dim>3</dim>
					<dim>3</dim>
				</port>
			</output>
		</layer>
		<layer id="177" name="Multiply_13345/GOI_weights_part1616519429" type="Const" version="opset1">
			<data offset="16010" size="24" shape="3" element_type="i64"/>
			<output>
				<port id="0" precision="I64">
					<dim>3</dim>
				</port>
			</output>
		</layer>
		<layer id="178" name="Multiply_13345/WeightsShape" type="ShapeOf" version="opset3">
			<data output_type="i64"/>
			<input>
				<port id="0">
					<dim>64</dim>
					<dim>1</dim>
					<dim>3</dim>
					<dim>3</dim>
				</port>
			</input>
			<output>
				<port id="1" precision="I64">
					<dim>4</dim>
				</port>
			</output>
		</layer>
		<layer id="179" name="Multiply_13345/XY_weights_part_input_port_1/value1616120257" type="Const" version="opset1">
			<data offset="16034" size="16" shape="2" element_type="i64"/>
			<output>
				<port id="0" precision="I64">
					<dim>2</dim>
				</port>
			</output>
		</layer>
		<layer id="180" name="Multiply_13345/XY_weights_part_input_port_2/value1616318958" type="Const" version="opset1">
			<data offset="16050" size="8" shape="" element_type="i64"/>
			<output>
				<port id="0" precision="I64"/>
			</output>
		</layer>
		<layer id="181" name="Multiply_13345/XY_weights_part" type="Gather" version="opset8">
			<data batch_dims="0"/>
			<input>
				<port id="0">
					<dim>4</dim>
				</port>
				<port id="1">
					<dim>2</dim>
				</port>
				<port id="2"/>
			</input>
			<output>
				<port id="3" precision="I64">
					<dim>2</dim>
				</port>
			</output>
		</layer>
		<layer id="182" name="Multiply_13345/weights_shape" type="Concat" version="opset1">
			<data axis="0"/>
			<input>
				<port id="0">
					<dim>3</dim>
				</port>
				<port id="1">
					<dim>2</dim>
				</port>
			</input>
			<output>
				<port id="2" precision="I64">
					<dim>5</dim>
				</port>
			</output>
		</layer>
		<layer id="183" name="16167" type="Reshape" version="opset1">
			<data special_zero="true"/>
			<input>
				<port id="0">
					<dim>64</dim>
					<dim>1</dim>
					<dim>3</dim>
					<dim>3</dim>
				</port>
				<port id="1">
					<dim>5</dim>
				</port>
			</input>
			<output>
				<port id="2" precision="FP32">
					<dim>64</dim>
					<dim>1</dim>
					<dim>1</dim>
					<dim>3</dim>
					<dim>3</dim>
				</port>
			</output>
		</layer>
		<layer id="184" name="Multiply_13345" type="GroupConvolution" version="opset1">
			<data auto_pad="explicit" strides="1,1" dilations="1,1" pads_begin="1,1" pads_end="1,1"/>
			<input>
				<port id="0">
					<dim>1</dim>
					<dim>64</dim>
					<dim>64</dim>
					<dim>64</dim>
				</port>
				<port id="1">
					<dim>64</dim>
					<dim>1</dim>
					<dim>1</dim>
					<dim>3</dim>
					<dim>3</dim>
				</port>
			</input>
			<output>
				<port id="2" precision="FP32" names="413">
					<dim>1</dim>
					<dim>64</dim>
					<dim>64</dim>
					<dim>64</dim>
				</port>
			</output>
		</layer>
		<layer id="185" name="Constant_1335070719465" type="Const" version="opset1">
			<data offset="16058" size="128" shape="1,64,1,1" element_type="f16"/>
			<output>
				<port id="0" precision="FP16">
					<dim>1</dim>
					<dim>64</dim>
					<dim>1</dim>
					<dim>1</dim>
				</port>
			</output>
		</layer>
		<layer id="186" name="Constant_133507079816/restored_convert" type="Convert" version="opset1">
			<data destination_type="f32"/>
			<rt_info>
				<attribute name="decompression" version="0"/>
			</rt_info>
			<input>
				<port id="0">
					<dim>1</dim>
					<dim>64</dim>
					<dim>1</dim>
					<dim>1</dim>
				</port>
			</input>
			<output>
				<port id="1" precision="FP32">
					<dim>1</dim>
					<dim>64</dim>
					<dim>1</dim>
					<dim>1</dim>
				</port>
			</output>
		</layer>
		<layer id="187" name="414" type="Add" version="opset1">
			<data auto_broadcast="numpy"/>
			<input>
				<port id="0">
					<dim>1</dim>
					<dim>64</dim>
					<dim>64</dim>
					<dim>64</dim>
				</port>
				<port id="1">
					<dim>1</dim>
					<dim>64</dim>
					<dim>1</dim>
					<dim>1</dim>
				</port>
			</input>
			<output>
				<port id="2" precision="FP32" names="414">
					<dim>1</dim>
					<dim>64</dim>
					<dim>64</dim>
					<dim>64</dim>
				</port>
			</output>
		</layer>
		<layer id="188" name="1971019540" type="Const" version="opset1">
			<data offset="16186" size="2" shape="1" element_type="f16"/>
			<output>
				<port id="0" precision="FP16">
					<dim>1</dim>
				</port>
			</output>
		</layer>
		<layer id="189" name="197109817/restored_convert" type="Convert" version="opset1">
			<data destination_type="f32"/>
			<rt_info>
				<attribute name="decompression" version="0"/>
			</rt_info>
			<input>
				<port id="0">
					<dim>1</dim>
				</port>
			</input>
			<output>
				<port id="1" precision="FP32" names="19">
					<dim>1</dim>
				</port>
			</output>
		</layer>
		<layer id="190" name="415" type="PReLU" version="opset1">
			<input>
				<port id="0">
					<dim>1</dim>
					<dim>64</dim>
					<dim>64</dim>
					<dim>64</dim>
				</port>
				<port id="1">
					<dim>1</dim>
				</port>
			</input>
			<output>
				<port id="2" precision="FP32" names="415">
					<dim>1</dim>
					<dim>64</dim>
					<dim>64</dim>
					<dim>64</dim>
				</port>
			</output>
		</layer>
		<layer id="191" name="Multiply_13352/fq_input_0" type="FakeQuantize" version="opset1">
			<data levels="256" auto_broadcast="numpy"/>
			<input>
				<port id="0">
					<dim>1</dim>
					<dim>64</dim>
					<dim>64</dim>
					<dim>64</dim>
				</port>
				<port id="1"/>
				<port id="2"/>
				<port id="3"/>
				<port id="4"/>
			</input>
			<output>
				<port id="5" precision="FP32">
					<dim>1</dim>
					<dim>64</dim>
					<dim>64</dim>
					<dim>64</dim>
				</port>
			</output>
		</layer>
		<layer id="192" name="Multiply_13352/fq_weights_1/scale1156119360" type="Const" version="opset1">
			<data offset="16188" size="512" shape="128,1,1,1" element_type="f32"/>
			<output>
				<port id="0" precision="FP32">
					<dim>128</dim>
					<dim>1</dim>
					<dim>1</dim>
					<dim>1</dim>
				</port>
			</output>
		</layer>
		<layer id="193" name="Multiply_137057139818/restored_convert/quantized1155320488" type="Const" version="opset1">
			<data offset="16700" size="8192" shape="128,64,1,1" element_type="i8"/>
			<output>
				<port id="0" precision="I8">
					<dim>128</dim>
					<dim>64</dim>
					<dim>1</dim>
					<dim>1</dim>
				</port>
			</output>
		</layer>
		<layer id="194" name="Multiply_137057139818/restored_convert/quantized/to_f32" type="Convert" version="opset1">
			<data destination_type="f32"/>
			<input>
				<port id="0">
					<dim>128</dim>
					<dim>64</dim>
					<dim>1</dim>
					<dim>1</dim>
				</port>
			</input>
			<output>
				<port id="1" precision="FP32">
					<dim>128</dim>
					<dim>64</dim>
					<dim>1</dim>
					<dim>1</dim>
				</port>
			</output>
		</layer>
		<layer id="195" name="Multiply_13352/fq_weights_1/mulpiply_by_scale" type="Multiply" version="opset1">
			<data auto_broadcast="numpy"/>
			<input>
				<port id="0">
					<dim>128</dim>
					<dim>64</dim>
					<dim>1</dim>
					<dim>1</dim>
				</port>
				<port id="1">
					<dim>128</dim>
					<dim>1</dim>
					<dim>1</dim>
					<dim>1</dim>
				</port>
			</input>
			<output>
				<port id="2" precision="FP32">
					<dim>128</dim>
					<dim>64</dim>
					<dim>1</dim>
					<dim>1</dim>
				</port>
			</output>
		</layer>
		<layer id="196" name="Multiply_13352" type="Convolution" version="opset1">
			<data auto_pad="explicit" strides="1,1" dilations="1,1" pads_begin="0,0" pads_end="0,0"/>
			<input>
				<port id="0">
					<dim>1</dim>
					<dim>64</dim>
					<dim>64</dim>
					<dim>64</dim>
				</port>
				<port id="1">
					<dim>128</dim>
					<dim>64</dim>
					<dim>1</dim>
					<dim>1</dim>
				</port>
			</input>
			<output>
				<port id="2" precision="FP32">
					<dim>1</dim>
					<dim>128</dim>
					<dim>64</dim>
					<dim>64</dim>
				</port>
			</output>
		</layer>
		<layer id="197" name="Constant_1335771618337" type="Const" version="opset1">
			<data offset="24892" size="256" shape="1,128,1,1" element_type="f16"/>
			<output>
				<port id="0" precision="FP16">
					<dim>1</dim>
					<dim>128</dim>
					<dim>1</dim>
					<dim>1</dim>
				</port>
			</output>
		</layer>
		<layer id="198" name="Constant_133577169819/restored_convert" type="Convert" version="opset1">
			<data destination_type="f32"/>
			<rt_info>
				<attribute name="decompression" version="0"/>
			</rt_info>
			<input>
				<port id="0">
					<dim>1</dim>
					<dim>128</dim>
					<dim>1</dim>
					<dim>1</dim>
				</port>
			</input>
			<output>
				<port id="1" precision="FP32">
					<dim>1</dim>
					<dim>128</dim>
					<dim>1</dim>
					<dim>1</dim>
				</port>
			</output>
		</layer>
		<layer id="199" name="417" type="Add" version="opset1">
			<data auto_broadcast="numpy"/>
			<input>
				<port id="0">
					<dim>1</dim>
					<dim>128</dim>
					<dim>64</dim>
					<dim>64</dim>
				</port>
				<port id="1">
					<dim>1</dim>
					<dim>128</dim>
					<dim>1</dim>
					<dim>1</dim>
				</port>
			</input>
			<output>
				<port id="2" precision="FP32" names="417">
					<dim>1</dim>
					<dim>128</dim>
					<dim>64</dim>
					<dim>64</dim>
				</port>
			</output>
		</layer>
		<layer id="200" name="2671920245" type="Const" version="opset1">
			<data offset="25148" size="2" shape="1" element_type="f16"/>
			<output>
				<port id="0" precision="FP16">
					<dim>1</dim>
				</port>
			</output>
		</layer>
		<layer id="201" name="267199820/restored_convert" type="Convert" version="opset1">
			<data destination_type="f32"/>
			<rt_info>
				<attribute name="decompression" version="0"/>
			</rt_info>
			<input>
				<port id="0">
					<dim>1</dim>
				</port>
			</input>
			<output>
				<port id="1" precision="FP32" names="26">
					<dim>1</dim>
				</port>
			</output>
		</layer>
		<layer id="202" name="418" type="PReLU" version="opset1">
			<input>
				<port id="0">
					<dim>1</dim>
					<dim>128</dim>
					<dim>64</dim>
					<dim>64</dim>
				</port>
				<port id="1">
					<dim>1</dim>
				</port>
			</input>
			<output>
				<port id="2" precision="FP32" names="418">
					<dim>1</dim>
					<dim>128</dim>
					<dim>64</dim>
					<dim>64</dim>
				</port>
			</output>
		</layer>
		<layer id="203" name="Multiply_13359/fq_input_0" type="FakeQuantize" version="opset1">
			<data levels="256" auto_broadcast="numpy"/>
			<input>
				<port id="0">
					<dim>1</dim>
					<dim>128</dim>
					<dim>64</dim>
					<dim>64</dim>
				</port>
				<port id="1">
					<dim>1</dim>
					<dim>128</dim>
					<dim>1</dim>
					<dim>1</dim>
				</port>
				<port id="2">
					<dim>1</dim>
					<dim>128</dim>
					<dim>1</dim>
					<dim>1</dim>
				</port>
				<port id="3">
					<dim>1</dim>
					<dim>128</dim>
					<dim>1</dim>
					<dim>1</dim>
				</port>
				<port id="4">
					<dim>1</dim>
					<dim>128</dim>
					<dim>1</dim>
					<dim>1</dim>
				</port>
			</input>
			<output>
				<port id="5" precision="FP32">
					<dim>1</dim>
					<dim>128</dim>
					<dim>64</dim>
					<dim>64</dim>
				</port>
			</output>
		</layer>
		<layer id="204" name="Multiply_13359/fq_weights_1/scale1150120356" type="Const" version="opset1">
			<data offset="25150" size="512" shape="128,1,1,1" element_type="f32"/>
			<output>
				<port id="0" precision="FP32">
					<dim>128</dim>
					<dim>1</dim>
					<dim>1</dim>
					<dim>1</dim>
				</port>
			</output>
		</layer>
		<layer id="205" name="Multiply_137147229821/restored_convert/quantized1149320197" type="Const" version="opset1">
			<data offset="25662" size="1152" shape="128,1,3,3" element_type="i8"/>
			<output>
				<port id="0" precision="I8">
					<dim>128</dim>
					<dim>1</dim>
					<dim>3</dim>
					<dim>3</dim>
				</port>
			</output>
		</layer>
		<layer id="206" name="Multiply_137147229821/restored_convert/quantized/to_f32" type="Convert" version="opset1">
			<data destination_type="f32"/>
			<input>
				<port id="0">
					<dim>128</dim>
					<dim>1</dim>
					<dim>3</dim>
					<dim>3</dim>
				</port>
			</input>
			<output>
				<port id="1" precision="FP32">
					<dim>128</dim>
					<dim>1</dim>
					<dim>3</dim>
					<dim>3</dim>
				</port>
			</output>
		</layer>
		<layer id="207" name="Multiply_13359/fq_weights_1/mulpiply_by_scale" type="Multiply" version="opset1">
			<data auto_broadcast="numpy"/>
			<input>
				<port id="0">
					<dim>128</dim>
					<dim>1</dim>
					<dim>3</dim>
					<dim>3</dim>
				</port>
				<port id="1">
					<dim>128</dim>
					<dim>1</dim>
					<dim>1</dim>
					<dim>1</dim>
				</port>
			</input>
			<output>
				<port id="2" precision="FP32">
					<dim>128</dim>
					<dim>1</dim>
					<dim>3</dim>
					<dim>3</dim>
				</port>
			</output>
		</layer>
		<layer id="208" name="Multiply_13359/GOI_weights_part1617920041" type="Const" version="opset1">
			<data offset="26814" size="24" shape="3" element_type="i64"/>
			<output>
				<port id="0" precision="I64">
					<dim>3</dim>
				</port>
			</output>
		</layer>
		<layer id="209" name="Multiply_13359/WeightsShape" type="ShapeOf" version="opset3">
			<data output_type="i64"/>
			<input>
				<port id="0">
					<dim>128</dim>
					<dim>1</dim>
					<dim>3</dim>
					<dim>3</dim>
				</port>
			</input>
			<output>
				<port id="1" precision="I64">
					<dim>4</dim>
				</port>
			</output>
		</layer>
		<layer id="210" name="Multiply_13359/XY_weights_part_input_port_1/value1617519735" type="Const" version="opset1">
			<data offset="16034" size="16" shape="2" element_type="i64"/>
			<output>
				<port id="0" precision="I64">
					<dim>2</dim>
				</port>
			</output>
		</layer>
		<layer id="211" name="Multiply_13359/XY_weights_part_input_port_2/value1617719039" type="Const" version="opset1">
			<data offset="16050" size="8" shape="" element_type="i64"/>
			<output>
				<port id="0" precision="I64"/>
			</output>
		</layer>
		<layer id="212" name="Multiply_13359/XY_weights_part" type="Gather" version="opset8">
			<data batch_dims="0"/>
			<input>
				<port id="0">
					<dim>4</dim>
				</port>
				<port id="1">
					<dim>2</dim>
				</port>
				<port id="2"/>
			</input>
			<output>
				<port id="3" precision="I64">
					<dim>2</dim>
				</port>
			</output>
		</layer>
		<layer id="213" name="Multiply_13359/weights_shape" type="Concat" version="opset1">
			<data axis="0"/>
			<input>
				<port id="0">
					<dim>3</dim>
				</port>
				<port id="1">
					<dim>2</dim>
				</port>
			</input>
			<output>
				<port id="2" precision="I64">
					<dim>5</dim>
				</port>
			</output>
		</layer>
		<layer id="214" name="16181" type="Reshape" version="opset1">
			<data special_zero="true"/>
			<input>
				<port id="0">
					<dim>128</dim>
					<dim>1</dim>
					<dim>3</dim>
					<dim>3</dim>
				</port>
				<port id="1">
					<dim>5</dim>
				</port>
			</input>
			<output>
				<port id="2" precision="FP32">
					<dim>128</dim>
					<dim>1</dim>
					<dim>1</dim>
					<dim>3</dim>
					<dim>3</dim>
				</port>
			</output>
		</layer>
		<layer id="215" name="Multiply_13359" type="GroupConvolution" version="opset1">
			<data auto_pad="explicit" strides="2,2" dilations="1,1" pads_begin="1,1" pads_end="1,1"/>
			<input>
				<port id="0">
					<dim>1</dim>
					<dim>128</dim>
					<dim>64</dim>
					<dim>64</dim>
				</port>
				<port id="1">
					<dim>128</dim>
					<dim>1</dim>
					<dim>1</dim>
					<dim>3</dim>
					<dim>3</dim>
				</port>
			</input>
			<output>
				<port id="2" precision="FP32" names="419">
					<dim>1</dim>
					<dim>128</dim>
					<dim>32</dim>
					<dim>32</dim>
				</port>
			</output>
		</layer>
		<layer id="216" name="Constant_1336472519537" type="Const" version="opset1">
			<data offset="26838" size="256" shape="1,128,1,1" element_type="f16"/>
			<output>
				<port id="0" precision="FP16">
					<dim>1</dim>
					<dim>128</dim>
					<dim>1</dim>
					<dim>1</dim>
				</port>
			</output>
		</layer>
		<layer id="217" name="Constant_133647259822/restored_convert" type="Convert" version="opset1">
			<data destination_type="f32"/>
			<rt_info>
				<attribute name="decompression" version="0"/>
			</rt_info>
			<input>
				<port id="0">
					<dim>1</dim>
					<dim>128</dim>
					<dim>1</dim>
					<dim>1</dim>
				</port>
			</input>
			<output>
				<port id="1" precision="FP32">
					<dim>1</dim>
					<dim>128</dim>
					<dim>1</dim>
					<dim>1</dim>
				</port>
			</output>
		</layer>
		<layer id="218" name="420" type="Add" version="opset1">
			<data auto_broadcast="numpy"/>
			<input>
				<port id="0">
					<dim>1</dim>
					<dim>128</dim>
					<dim>32</dim>
					<dim>32</dim>
				</port>
				<port id="1">
					<dim>1</dim>
					<dim>128</dim>
					<dim>1</dim>
					<dim>1</dim>
				</port>
			</input>
			<output>
				<port id="2" precision="FP32" names="420">
					<dim>1</dim>
					<dim>128</dim>
					<dim>32</dim>
					<dim>32</dim>
				</port>
			</output>
		</layer>
		<layer id="219" name="3372818460" type="Const" version="opset1">
			<data offset="27094" size="2" shape="1" element_type="f16"/>
			<output>
				<port id="0" precision="FP16">
					<dim>1</dim>
				</port>
			</output>
		</layer>
		<layer id="220" name="337289823/restored_convert" type="Convert" version="opset1">
			<data destination_type="f32"/>
			<rt_info>
				<attribute name="decompression" version="0"/>
			</rt_info>
			<input>
				<port id="0">
					<dim>1</dim>
				</port>
			</input>
			<output>
				<port id="1" precision="FP32" names="33">
					<dim>1</dim>
				</port>
			</output>
		</layer>
		<layer id="221" name="421" type="PReLU" version="opset1">
			<input>
				<port id="0">
					<dim>1</dim>
					<dim>128</dim>
					<dim>32</dim>
					<dim>32</dim>
				</port>
				<port id="1">
					<dim>1</dim>
				</port>
			</input>
			<output>
				<port id="2" precision="FP32" names="421">
					<dim>1</dim>
					<dim>128</dim>
					<dim>32</dim>
					<dim>32</dim>
				</port>
			</output>
		</layer>
		<layer id="222" name="Multiply_13366/fq_input_0" type="FakeQuantize" version="opset1">
			<data levels="256" auto_broadcast="numpy"/>
			<input>
				<port id="0">
					<dim>1</dim>
					<dim>128</dim>
					<dim>32</dim>
					<dim>32</dim>
				</port>
				<port id="1"/>
				<port id="2"/>
				<port id="3"/>
				<port id="4"/>
			</input>
			<output>
				<port id="5" precision="FP32">
					<dim>1</dim>
					<dim>128</dim>
					<dim>32</dim>
					<dim>32</dim>
				</port>
			</output>
		</layer>
		<layer id="223" name="Multiply_13366/fq_weights_1/scale1183119789" type="Const" version="opset1">
			<data offset="27096" size="256" shape="64,1,1,1" element_type="f32"/>
			<output>
				<port id="0" precision="FP32">
					<dim>64</dim>
					<dim>1</dim>
					<dim>1</dim>
					<dim>1</dim>
				</port>
			</output>
		</layer>
		<layer id="224" name="Multiply_137227319824/restored_convert/quantized1182320089" type="Const" version="opset1">
			<data offset="27352" size="8192" shape="64,128,1,1" element_type="i8"/>
			<output>
				<port id="0" precision="I8">
					<dim>64</dim>
					<dim>128</dim>
					<dim>1</dim>
					<dim>1</dim>
				</port>
			</output>
		</layer>
		<layer id="225" name="Multiply_137227319824/restored_convert/quantized/to_f32" type="Convert" version="opset1">
			<data destination_type="f32"/>
			<input>
				<port id="0">
					<dim>64</dim>
					<dim>128</dim>
					<dim>1</dim>
					<dim>1</dim>
				</port>
			</input>
			<output>
				<port id="1" precision="FP32">
					<dim>64</dim>
					<dim>128</dim>
					<dim>1</dim>
					<dim>1</dim>
				</port>
			</output>
		</layer>
		<layer id="226" name="Multiply_13366/fq_weights_1/mulpiply_by_scale" type="Multiply" version="opset1">
			<data auto_broadcast="numpy"/>
			<input>
				<port id="0">
					<dim>64</dim>
					<dim>128</dim>
					<dim>1</dim>
					<dim>1</dim>
				</port>
				<port id="1">
					<dim>64</dim>
					<dim>1</dim>
					<dim>1</dim>
					<dim>1</dim>
				</port>
			</input>
			<output>
				<port id="2" precision="FP32">
					<dim>64</dim>
					<dim>128</dim>
					<dim>1</dim>
					<dim>1</dim>
				</port>
			</output>
		</layer>
		<layer id="227" name="Multiply_13366" type="Convolution" version="opset1">
			<data auto_pad="explicit" strides="1,1" dilations="1,1" pads_begin="0,0" pads_end="0,0"/>
			<input>
				<port id="0">
					<dim>1</dim>
					<dim>128</dim>
					<dim>32</dim>
					<dim>32</dim>
				</port>
				<port id="1">
					<dim>64</dim>
					<dim>128</dim>
					<dim>1</dim>
					<dim>1</dim>
				</port>
			</input>
			<output>
				<port id="2" precision="FP32">
					<dim>1</dim>
					<dim>64</dim>
					<dim>32</dim>
					<dim>32</dim>
				</port>
			</output>
		</layer>
		<layer id="228" name="Constant_1337173420365" type="Const" version="opset1">
			<data offset="35544" size="128" shape="1,64,1,1" element_type="f16"/>
			<output>
				<port id="0" precision="FP16">
					<dim>1</dim>
					<dim>64</dim>
					<dim>1</dim>
					<dim>1</dim>
				</port>
			</output>
		</layer>
		<layer id="229" name="Constant_133717349825/restored_convert" type="Convert" version="opset1">
			<data destination_type="f32"/>
			<rt_info>
				<attribute name="decompression" version="0"/>
			</rt_info>
			<input>
				<port id="0">
					<dim>1</dim>
					<dim>64</dim>
					<dim>1</dim>
					<dim>1</dim>
				</port>
			</input>
			<output>
				<port id="1" precision="FP32">
					<dim>1</dim>
					<dim>64</dim>
					<dim>1</dim>
					<dim>1</dim>
				</port>
			</output>
		</layer>
		<layer id="230" name="423" type="Add" version="opset1">
			<data auto_broadcast="numpy"/>
			<input>
				<port id="0">
					<dim>1</dim>
					<dim>64</dim>
					<dim>32</dim>
					<dim>32</dim>
				</port>
				<port id="1">
					<dim>1</dim>
					<dim>64</dim>
					<dim>1</dim>
					<dim>1</dim>
				</port>
			</input>
			<output>
				<port id="2" precision="FP32" names="423,424">
					<dim>1</dim>
					<dim>64</dim>
					<dim>32</dim>
					<dim>32</dim>
				</port>
			</output>
		</layer>
		<layer id="231" name="425/fq_input_0" type="FakeQuantize" version="opset1">
			<data levels="256" auto_broadcast="numpy"/>
			<input>
				<port id="0">
					<dim>1</dim>
					<dim>64</dim>
					<dim>32</dim>
					<dim>32</dim>
				</port>
				<port id="1"/>
				<port id="2"/>
				<port id="3"/>
				<port id="4"/>
			</input>
			<output>
				<port id="5" precision="FP32">
					<dim>1</dim>
					<dim>64</dim>
					<dim>32</dim>
					<dim>32</dim>
				</port>
			</output>
		</layer>
		<layer id="232" name="425" type="AvgPool" version="opset1">
			<data strides="32,32" kernel="32,32" pads_begin="0,0" pads_end="0,0" exclude-pad="true" rounding_type="floor" auto_pad="explicit"/>
			<input>
				<port id="0">
					<dim>1</dim>
					<dim>64</dim>
					<dim>32</dim>
					<dim>32</dim>
				</port>
			</input>
			<output>
				<port id="1" precision="FP32" names="425">
					<dim>1</dim>
					<dim>64</dim>
					<dim>1</dim>
					<dim>1</dim>
				</port>
			</output>
		</layer>
		<layer id="233" name="426/WithoutBiases/fq_input_0" type="FakeQuantize" version="opset1">
			<data levels="256" auto_broadcast="numpy"/>
			<input>
				<port id="0">
					<dim>1</dim>
					<dim>64</dim>
					<dim>1</dim>
					<dim>1</dim>
				</port>
				<port id="1"/>
				<port id="2"/>
				<port id="3"/>
				<port id="4"/>
			</input>
			<output>
				<port id="5" precision="FP32">
					<dim>1</dim>
					<dim>64</dim>
					<dim>1</dim>
					<dim>1</dim>
				</port>
			</output>
		</layer>
		<layer id="234" name="426/WithoutBiases/fq_weights_1/scale1126119147" type="Const" version="opset1">
			<data offset="35672" size="32" shape="8,1,1,1" element_type="f32"/>
			<output>
				<port id="0" precision="FP32">
					<dim>8</dim>
					<dim>1</dim>
					<dim>1</dim>
					<dim>1</dim>
				</port>
			</output>
		</layer>
		<layer id="235" name="407389826/restored_convert/quantized1125319873" type="Const" version="opset1">
			<data offset="35704" size="512" shape="8,64,1,1" element_type="i8"/>
			<output>
				<port id="0" precision="I8">
					<dim>8</dim>
					<dim>64</dim>
					<dim>1</dim>
					<dim>1</dim>
				</port>
			</output>
		</layer>
		<layer id="236" name="407389826/restored_convert/quantized/to_f32" type="Convert" version="opset1">
			<data destination_type="f32"/>
			<input>
				<port id="0">
					<dim>8</dim>
					<dim>64</dim>
					<dim>1</dim>
					<dim>1</dim>
				</port>
			</input>
			<output>
				<port id="1" precision="FP32">
					<dim>8</dim>
					<dim>64</dim>
					<dim>1</dim>
					<dim>1</dim>
				</port>
			</output>
		</layer>
		<layer id="237" name="426/WithoutBiases/fq_weights_1/mulpiply_by_scale" type="Multiply" version="opset1">
			<data auto_broadcast="numpy"/>
			<input>
				<port id="0">
					<dim>8</dim>
					<dim>64</dim>
					<dim>1</dim>
					<dim>1</dim>
				</port>
				<port id="1">
					<dim>8</dim>
					<dim>1</dim>
					<dim>1</dim>
					<dim>1</dim>
				</port>
			</input>
			<output>
				<port id="2" precision="FP32">
					<dim>8</dim>
					<dim>64</dim>
					<dim>1</dim>
					<dim>1</dim>
				</port>
			</output>
		</layer>
		<layer id="238" name="426/WithoutBiases" type="Convolution" version="opset1">
			<data auto_pad="explicit" strides="1,1" dilations="1,1" pads_begin="0,0" pads_end="0,0"/>
			<input>
				<port id="0">
					<dim>1</dim>
					<dim>64</dim>
					<dim>1</dim>
					<dim>1</dim>
				</port>
				<port id="1">
					<dim>8</dim>
					<dim>64</dim>
					<dim>1</dim>
					<dim>1</dim>
				</port>
			</input>
			<output>
				<port id="2" precision="FP32">
					<dim>1</dim>
					<dim>8</dim>
					<dim>1</dim>
					<dim>1</dim>
				</port>
			</output>
		</layer>
		<layer id="239" name="Reshape_62474118364" type="Const" version="opset1">
			<data offset="36216" size="16" shape="1,8,1,1" element_type="f16"/>
			<output>
				<port id="0" precision="FP16">
					<dim>1</dim>
					<dim>8</dim>
					<dim>1</dim>
					<dim>1</dim>
				</port>
			</output>
		</layer>
		<layer id="240" name="Reshape_6247419827/restored_convert" type="Convert" version="opset1">
			<data destination_type="f32"/>
			<rt_info>
				<attribute name="decompression" version="0"/>
			</rt_info>
			<input>
				<port id="0">
					<dim>1</dim>
					<dim>8</dim>
					<dim>1</dim>
					<dim>1</dim>
				</port>
			</input>
			<output>
				<port id="1" precision="FP32">
					<dim>1</dim>
					<dim>8</dim>
					<dim>1</dim>
					<dim>1</dim>
				</port>
			</output>
		</layer>
		<layer id="241" name="426" type="Add" version="opset1">
			<data auto_broadcast="numpy"/>
			<input>
				<port id="0">
					<dim>1</dim>
					<dim>8</dim>
					<dim>1</dim>
					<dim>1</dim>
				</port>
				<port id="1">
					<dim>1</dim>
					<dim>8</dim>
					<dim>1</dim>
					<dim>1</dim>
				</port>
			</input>
			<output>
				<port id="2" precision="FP32" names="426">
					<dim>1</dim>
					<dim>8</dim>
					<dim>1</dim>
					<dim>1</dim>
				</port>
			</output>
		</layer>
		<layer id="242" name="4474418559" type="Const" version="opset1">
			<data offset="36232" size="2" shape="1" element_type="f16"/>
			<output>
				<port id="0" precision="FP16">
					<dim>1</dim>
				</port>
			</output>
		</layer>
		<layer id="243" name="447449828/restored_convert" type="Convert" version="opset1">
			<data destination_type="f32"/>
			<rt_info>
				<attribute name="decompression" version="0"/>
			</rt_info>
			<input>
				<port id="0">
					<dim>1</dim>
				</port>
			</input>
			<output>
				<port id="1" precision="FP32" names="44">
					<dim>1</dim>
				</port>
			</output>
		</layer>
		<layer id="244" name="427" type="PReLU" version="opset1">
			<input>
				<port id="0">
					<dim>1</dim>
					<dim>8</dim>
					<dim>1</dim>
					<dim>1</dim>
				</port>
				<port id="1">
					<dim>1</dim>
				</port>
			</input>
			<output>
				<port id="2" precision="FP32" names="427">
					<dim>1</dim>
					<dim>8</dim>
					<dim>1</dim>
					<dim>1</dim>
				</port>
			</output>
		</layer>
		<layer id="245" name="428/WithoutBiases/fq_input_0" type="FakeQuantize" version="opset1">
			<data levels="256" auto_broadcast="numpy"/>
			<input>
				<port id="0">
					<dim>1</dim>
					<dim>8</dim>
					<dim>1</dim>
					<dim>1</dim>
				</port>
				<port id="1"/>
				<port id="2"/>
				<port id="3"/>
				<port id="4"/>
			</input>
			<output>
				<port id="5" precision="FP32">
					<dim>1</dim>
					<dim>8</dim>
					<dim>1</dim>
					<dim>1</dim>
				</port>
			</output>
		</layer>
		<layer id="246" name="428/WithoutBiases/fq_weights_1/scale1153118259" type="Const" version="opset1">
			<data offset="36234" size="256" shape="64,1,1,1" element_type="f32"/>
			<output>
				<port id="0" precision="FP32">
					<dim>64</dim>
					<dim>1</dim>
					<dim>1</dim>
					<dim>1</dim>
				</port>
			</output>
		</layer>
		<layer id="247" name="427479829/restored_convert/quantized1152318625" type="Const" version="opset1">
			<data offset="36490" size="512" shape="64,8,1,1" element_type="i8"/>
			<output>
				<port id="0" precision="I8">
					<dim>64</dim>
					<dim>8</dim>
					<dim>1</dim>
					<dim>1</dim>
				</port>
			</output>
		</layer>
		<layer id="248" name="427479829/restored_convert/quantized/to_f32" type="Convert" version="opset1">
			<data destination_type="f32"/>
			<input>
				<port id="0">
					<dim>64</dim>
					<dim>8</dim>
					<dim>1</dim>
					<dim>1</dim>
				</port>
			</input>
			<output>
				<port id="1" precision="FP32">
					<dim>64</dim>
					<dim>8</dim>
					<dim>1</dim>
					<dim>1</dim>
				</port>
			</output>
		</layer>
		<layer id="249" name="428/WithoutBiases/fq_weights_1/mulpiply_by_scale" type="Multiply" version="opset1">
			<data auto_broadcast="numpy"/>
			<input>
				<port id="0">
					<dim>64</dim>
					<dim>8</dim>
					<dim>1</dim>
					<dim>1</dim>
				</port>
				<port id="1">
					<dim>64</dim>
					<dim>1</dim>
					<dim>1</dim>
					<dim>1</dim>
				</port>
			</input>
			<output>
				<port id="2" precision="FP32">
					<dim>64</dim>
					<dim>8</dim>
					<dim>1</dim>
					<dim>1</dim>
				</port>
			</output>
		</layer>
		<layer id="250" name="428/WithoutBiases" type="Convolution" version="opset1">
			<data auto_pad="explicit" strides="1,1" dilations="1,1" pads_begin="0,0" pads_end="0,0"/>
			<input>
				<port id="0">
					<dim>1</dim>
					<dim>8</dim>
					<dim>1</dim>
					<dim>1</dim>
				</port>
				<port id="1">
					<dim>64</dim>
					<dim>8</dim>
					<dim>1</dim>
					<dim>1</dim>
				</port>
			</input>
			<output>
				<port id="2" precision="FP32">
					<dim>1</dim>
					<dim>64</dim>
					<dim>1</dim>
					<dim>1</dim>
				</port>
			</output>
		</layer>
		<layer id="251" name="Reshape_67375018451" type="Const" version="opset1">
			<data offset="37002" size="128" shape="1,64,1,1" element_type="f16"/>
			<output>
				<port id="0" precision="FP16">
					<dim>1</dim>
					<dim>64</dim>
					<dim>1</dim>
					<dim>1</dim>
				</port>
			</output>
		</layer>
		<layer id="252" name="Reshape_6737509830/restored_convert" type="Convert" version="opset1">
			<data destination_type="f32"/>
			<rt_info>
				<attribute name="decompression" version="0"/>
			</rt_info>
			<input>
				<port id="0">
					<dim>1</dim>
					<dim>64</dim>
					<dim>1</dim>
					<dim>1</dim>
				</port>
			</input>
			<output>
				<port id="1" precision="FP32">
					<dim>1</dim>
					<dim>64</dim>
					<dim>1</dim>
					<dim>1</dim>
				</port>
			</output>
		</layer>
		<layer id="253" name="428" type="Add" version="opset1">
			<data auto_broadcast="numpy"/>
			<input>
				<port id="0">
					<dim>1</dim>
					<dim>64</dim>
					<dim>1</dim>
					<dim>1</dim>
				</port>
				<port id="1">
					<dim>1</dim>
					<dim>64</dim>
					<dim>1</dim>
					<dim>1</dim>
				</port>
			</input>
			<output>
				<port id="2" precision="FP32" names="428">
					<dim>1</dim>
					<dim>64</dim>
					<dim>1</dim>
					<dim>1</dim>
				</port>
			</output>
		</layer>
		<layer id="254" name="429" type="Sigmoid" version="opset1">
			<input>
				<port id="0">
					<dim>1</dim>
					<dim>64</dim>
					<dim>1</dim>
					<dim>1</dim>
				</port>
			</input>
			<output>
				<port id="1" precision="FP32" names="429">
					<dim>1</dim>
					<dim>64</dim>
					<dim>1</dim>
					<dim>1</dim>
				</port>
			</output>
		</layer>
		<layer id="255" name="430/fq_input_1" type="FakeQuantize" version="opset1">
			<data levels="256" auto_broadcast="numpy"/>
			<input>
				<port id="0">
					<dim>1</dim>
					<dim>64</dim>
					<dim>1</dim>
					<dim>1</dim>
				</port>
				<port id="1"/>
				<port id="2"/>
				<port id="3"/>
				<port id="4"/>
			</input>
			<output>
				<port id="5" precision="FP32">
					<dim>1</dim>
					<dim>64</dim>
					<dim>1</dim>
					<dim>1</dim>
				</port>
			</output>
		</layer>
		<layer id="256" name="430" type="Multiply" version="opset1">
			<data auto_broadcast="numpy"/>
			<input>
				<port id="0">
					<dim>1</dim>
					<dim>64</dim>
					<dim>32</dim>
					<dim>32</dim>
				</port>
				<port id="1">
					<dim>1</dim>
					<dim>64</dim>
					<dim>1</dim>
					<dim>1</dim>
				</port>
			</input>
			<output>
				<port id="2" precision="FP32" names="430">
					<dim>1</dim>
					<dim>64</dim>
					<dim>32</dim>
					<dim>32</dim>
				</port>
			</output>
		</layer>
		<layer id="257" name="446/fq_input_0" type="FakeQuantize" version="opset1">
			<data levels="256" auto_broadcast="numpy"/>
			<input>
				<port id="0">
					<dim>1</dim>
					<dim>64</dim>
					<dim>32</dim>
					<dim>32</dim>
				</port>
				<port id="1"/>
				<port id="2"/>
				<port id="3"/>
				<port id="4"/>
			</input>
			<output>
				<port id="5" precision="FP32">
					<dim>1</dim>
					<dim>64</dim>
					<dim>32</dim>
					<dim>32</dim>
				</port>
			</output>
		</layer>
		<layer id="258" name="3955395919669" type="Const" version="opset1">
			<data offset="37130" size="4" shape="" element_type="f32"/>
			<output>
				<port id="0" precision="FP32"/>
			</output>
		</layer>
		<layer id="259" name="3956396018664" type="Const" version="opset1">
			<data offset="37134" size="4" shape="" element_type="f32"/>
			<output>
				<port id="0" precision="FP32"/>
			</output>
		</layer>
		<layer id="260" name="3957396119501" type="Const" version="opset1">
			<data offset="37130" size="4" shape="" element_type="f32"/>
			<output>
				<port id="0" precision="FP32"/>
			</output>
		</layer>
		<layer id="261" name="3958396219759" type="Const" version="opset1">
			<data offset="37134" size="4" shape="" element_type="f32"/>
			<output>
				<port id="0" precision="FP32"/>
			</output>
		</layer>
		<layer id="262" name="3595359918640" type="Const" version="opset1">
			<data offset="5152" size="4" shape="" element_type="f32"/>
			<output>
				<port id="0" precision="FP32"/>
			</output>
		</layer>
		<layer id="263" name="3596360018961" type="Const" version="opset1">
			<data offset="37138" size="4" shape="" element_type="f32"/>
			<output>
				<port id="0" precision="FP32"/>
			</output>
		</layer>
		<layer id="264" name="3597360120005" type="Const" version="opset1">
			<data offset="5152" size="4" shape="" element_type="f32"/>
			<output>
				<port id="0" precision="FP32"/>
			</output>
		</layer>
		<layer id="265" name="3598360219801" type="Const" version="opset1">
			<data offset="37138" size="4" shape="" element_type="f32"/>
			<output>
				<port id="0" precision="FP32"/>
			</output>
		</layer>
		<layer id="266" name="3325332919291" type="Const" version="opset1">
			<data offset="37142" size="4" shape="" element_type="f32"/>
			<output>
				<port id="0" precision="FP32"/>
			</output>
		</layer>
		<layer id="267" name="3326333019036" type="Const" version="opset1">
			<data offset="37146" size="4" shape="" element_type="f32"/>
			<output>
				<port id="0" precision="FP32"/>
			</output>
		</layer>
		<layer id="268" name="3327333119555" type="Const" version="opset1">
			<data offset="37142" size="4" shape="" element_type="f32"/>
			<output>
				<port id="0" precision="FP32"/>
			</output>
		</layer>
		<layer id="269" name="3328333220518" type="Const" version="opset1">
			<data offset="37146" size="4" shape="" element_type="f32"/>
			<output>
				<port id="0" precision="FP32"/>
			</output>
		</layer>
		<layer id="270" name="2955295920485" type="Const" version="opset1">
			<data offset="37150" size="4" shape="" element_type="f32"/>
			<output>
				<port id="0" precision="FP32"/>
			</output>
		</layer>
		<layer id="271" name="2956296019813" type="Const" version="opset1">
			<data offset="37154" size="4" shape="" element_type="f32"/>
			<output>
				<port id="0" precision="FP32"/>
			</output>
		</layer>
		<layer id="272" name="2957296119492" type="Const" version="opset1">
			<data offset="37150" size="4" shape="" element_type="f32"/>
			<output>
				<port id="0" precision="FP32"/>
			</output>
		</layer>
		<layer id="273" name="2958296218919" type="Const" version="opset1">
			<data offset="37154" size="4" shape="" element_type="f32"/>
			<output>
				<port id="0" precision="FP32"/>
			</output>
		</layer>
		<layer id="274" name="3685368919396" type="Const" version="opset1">
			<data offset="37158" size="4" shape="" element_type="f32"/>
			<output>
				<port id="0" precision="FP32"/>
			</output>
		</layer>
		<layer id="275" name="3686369018793" type="Const" version="opset1">
			<data offset="37162" size="4" shape="" element_type="f32"/>
			<output>
				<port id="0" precision="FP32"/>
			</output>
		</layer>
		<layer id="276" name="3687369118280" type="Const" version="opset1">
			<data offset="37158" size="4" shape="" element_type="f32"/>
			<output>
				<port id="0" precision="FP32"/>
			</output>
		</layer>
		<layer id="277" name="3688369218715" type="Const" version="opset1">
			<data offset="37162" size="4" shape="" element_type="f32"/>
			<output>
				<port id="0" precision="FP32"/>
			</output>
		</layer>
		<layer id="278" name="4105410919867" type="Const" version="opset1">
			<data offset="37166" size="4" shape="" element_type="f32"/>
			<output>
				<port id="0" precision="FP32"/>
			</output>
		</layer>
		<layer id="279" name="4106411019162" type="Const" version="opset1">
			<data offset="37170" size="4" shape="" element_type="f32"/>
			<output>
				<port id="0" precision="FP32"/>
			</output>
		</layer>
		<layer id="280" name="4107411118952" type="Const" version="opset1">
			<data offset="37166" size="4" shape="" element_type="f32"/>
			<output>
				<port id="0" precision="FP32"/>
			</output>
		</layer>
		<layer id="281" name="4108411218901" type="Const" version="opset1">
			<data offset="37170" size="4" shape="" element_type="f32"/>
			<output>
				<port id="0" precision="FP32"/>
			</output>
		</layer>
		<layer id="282" name="2255225918424" type="Const" version="opset1">
			<data offset="37174" size="512" shape="1,128,1,1" element_type="f32"/>
			<output>
				<port id="0" precision="FP32">
					<dim>1</dim>
					<dim>128</dim>
					<dim>1</dim>
					<dim>1</dim>
				</port>
			</output>
		</layer>
		<layer id="283" name="2256226020182" type="Const" version="opset1">
			<data offset="37686" size="512" shape="1,128,1,1" element_type="f32"/>
			<output>
				<port id="0" precision="FP32">
					<dim>1</dim>
					<dim>128</dim>
					<dim>1</dim>
					<dim>1</dim>
				</port>
			</output>
		</layer>
		<layer id="284" name="2257226119783" type="Const" version="opset1">
			<data offset="37174" size="512" shape="1,128,1,1" element_type="f32"/>
			<output>
				<port id="0" precision="FP32">
					<dim>1</dim>
					<dim>128</dim>
					<dim>1</dim>
					<dim>1</dim>
				</port>
			</output>
		</layer>
		<layer id="285" name="2258226220377" type="Const" version="opset1">
			<data offset="37686" size="512" shape="1,128,1,1" element_type="f32"/>
			<output>
				<port id="0" precision="FP32">
					<dim>1</dim>
					<dim>128</dim>
					<dim>1</dim>
					<dim>1</dim>
				</port>
			</output>
		</layer>
		<layer id="286" name="Multiply_13373/fq_weights_1/scale1171119354" type="Const" version="opset1">
			<data offset="38198" size="512" shape="128,1,1,1" element_type="f32"/>
			<output>
				<port id="0" precision="FP32">
					<dim>128</dim>
					<dim>1</dim>
					<dim>1</dim>
					<dim>1</dim>
				</port>
			</output>
		</layer>
		<layer id="287" name="Multiply_137317559831/restored_convert/quantized1170319756" type="Const" version="opset1">
			<data offset="38710" size="8192" shape="128,64,1,1" element_type="i8"/>
			<output>
				<port id="0" precision="I8">
					<dim>128</dim>
					<dim>64</dim>
					<dim>1</dim>
					<dim>1</dim>
				</port>
			</output>
		</layer>
		<layer id="288" name="Multiply_137317559831/restored_convert/quantized/to_f32" type="Convert" version="opset1">
			<data destination_type="f32"/>
			<input>
				<port id="0">
					<dim>128</dim>
					<dim>64</dim>
					<dim>1</dim>
					<dim>1</dim>
				</port>
			</input>
			<output>
				<port id="1" precision="FP32">
					<dim>128</dim>
					<dim>64</dim>
					<dim>1</dim>
					<dim>1</dim>
				</port>
			</output>
		</layer>
		<layer id="289" name="Multiply_13373/fq_weights_1/mulpiply_by_scale" type="Multiply" version="opset1">
			<data auto_broadcast="numpy"/>
			<input>
				<port id="0">
					<dim>128</dim>
					<dim>64</dim>
					<dim>1</dim>
					<dim>1</dim>
				</port>
				<port id="1">
					<dim>128</dim>
					<dim>1</dim>
					<dim>1</dim>
					<dim>1</dim>
				</port>
			</input>
			<output>
				<port id="2" precision="FP32">
					<dim>128</dim>
					<dim>64</dim>
					<dim>1</dim>
					<dim>1</dim>
				</port>
			</output>
		</layer>
		<layer id="290" name="Multiply_13373" type="Convolution" version="opset1">
			<data auto_pad="explicit" strides="1,1" dilations="1,1" pads_begin="0,0" pads_end="0,0"/>
			<input>
				<port id="0">
					<dim>1</dim>
					<dim>64</dim>
					<dim>32</dim>
					<dim>32</dim>
				</port>
				<port id="1">
					<dim>128</dim>
					<dim>64</dim>
					<dim>1</dim>
					<dim>1</dim>
				</port>
			</input>
			<output>
				<port id="2" precision="FP32">
					<dim>1</dim>
					<dim>128</dim>
					<dim>32</dim>
					<dim>32</dim>
				</port>
			</output>
		</layer>
		<layer id="291" name="Constant_1337875820512" type="Const" version="opset1">
			<data offset="46902" size="256" shape="1,128,1,1" element_type="f16"/>
			<output>
				<port id="0" precision="FP16">
					<dim>1</dim>
					<dim>128</dim>
					<dim>1</dim>
					<dim>1</dim>
				</port>
			</output>
		</layer>
		<layer id="292" name="Constant_133787589832/restored_convert" type="Convert" version="opset1">
			<data destination_type="f32"/>
			<rt_info>
				<attribute name="decompression" version="0"/>
			</rt_info>
			<input>
				<port id="0">
					<dim>1</dim>
					<dim>128</dim>
					<dim>1</dim>
					<dim>1</dim>
				</port>
			</input>
			<output>
				<port id="1" precision="FP32">
					<dim>1</dim>
					<dim>128</dim>
					<dim>1</dim>
					<dim>1</dim>
				</port>
			</output>
		</layer>
		<layer id="293" name="432" type="Add" version="opset1">
			<data auto_broadcast="numpy"/>
			<input>
				<port id="0">
					<dim>1</dim>
					<dim>128</dim>
					<dim>32</dim>
					<dim>32</dim>
				</port>
				<port id="1">
					<dim>1</dim>
					<dim>128</dim>
					<dim>1</dim>
					<dim>1</dim>
				</port>
			</input>
			<output>
				<port id="2" precision="FP32" names="432">
					<dim>1</dim>
					<dim>128</dim>
					<dim>32</dim>
					<dim>32</dim>
				</port>
			</output>
		</layer>
		<layer id="294" name="5176120194" type="Const" version="opset1">
			<data offset="47158" size="2" shape="1" element_type="f16"/>
			<output>
				<port id="0" precision="FP16">
					<dim>1</dim>
				</port>
			</output>
		</layer>
		<layer id="295" name="517619833/restored_convert" type="Convert" version="opset1">
			<data destination_type="f32"/>
			<rt_info>
				<attribute name="decompression" version="0"/>
			</rt_info>
			<input>
				<port id="0">
					<dim>1</dim>
				</port>
			</input>
			<output>
				<port id="1" precision="FP32" names="51">
					<dim>1</dim>
				</port>
			</output>
		</layer>
		<layer id="296" name="433" type="PReLU" version="opset1">
			<input>
				<port id="0">
					<dim>1</dim>
					<dim>128</dim>
					<dim>32</dim>
					<dim>32</dim>
				</port>
				<port id="1">
					<dim>1</dim>
				</port>
			</input>
			<output>
				<port id="2" precision="FP32" names="433">
					<dim>1</dim>
					<dim>128</dim>
					<dim>32</dim>
					<dim>32</dim>
				</port>
			</output>
		</layer>
		<layer id="297" name="Multiply_13380/fq_input_0" type="FakeQuantize" version="opset1">
			<data levels="256" auto_broadcast="numpy"/>
			<input>
				<port id="0">
					<dim>1</dim>
					<dim>128</dim>
					<dim>32</dim>
					<dim>32</dim>
				</port>
				<port id="1">
					<dim>1</dim>
					<dim>128</dim>
					<dim>1</dim>
					<dim>1</dim>
				</port>
				<port id="2">
					<dim>1</dim>
					<dim>128</dim>
					<dim>1</dim>
					<dim>1</dim>
				</port>
				<port id="3">
					<dim>1</dim>
					<dim>128</dim>
					<dim>1</dim>
					<dim>1</dim>
				</port>
				<port id="4">
					<dim>1</dim>
					<dim>128</dim>
					<dim>1</dim>
					<dim>1</dim>
				</port>
			</input>
			<output>
				<port id="5" precision="FP32">
					<dim>1</dim>
					<dim>128</dim>
					<dim>32</dim>
					<dim>32</dim>
				</port>
			</output>
		</layer>
		<layer id="298" name="Multiply_13380/fq_weights_1/scale1321119846" type="Const" version="opset1">
			<data offset="47160" size="512" shape="128,1,1,1" element_type="f32"/>
			<output>
				<port id="0" precision="FP32">
					<dim>128</dim>
					<dim>1</dim>
					<dim>1</dim>
					<dim>1</dim>
				</port>
			</output>
		</layer>
		<layer id="299" name="Multiply_137407649834/restored_convert/quantized1320319219" type="Const" version="opset1">
			<data offset="47672" size="1152" shape="128,1,3,3" element_type="i8"/>
			<output>
				<port id="0" precision="I8">
					<dim>128</dim>
					<dim>1</dim>
					<dim>3</dim>
					<dim>3</dim>
				</port>
			</output>
		</layer>
		<layer id="300" name="Multiply_137407649834/restored_convert/quantized/to_f32" type="Convert" version="opset1">
			<data destination_type="f32"/>
			<input>
				<port id="0">
					<dim>128</dim>
					<dim>1</dim>
					<dim>3</dim>
					<dim>3</dim>
				</port>
			</input>
			<output>
				<port id="1" precision="FP32">
					<dim>128</dim>
					<dim>1</dim>
					<dim>3</dim>
					<dim>3</dim>
				</port>
			</output>
		</layer>
		<layer id="301" name="Multiply_13380/fq_weights_1/mulpiply_by_scale" type="Multiply" version="opset1">
			<data auto_broadcast="numpy"/>
			<input>
				<port id="0">
					<dim>128</dim>
					<dim>1</dim>
					<dim>3</dim>
					<dim>3</dim>
				</port>
				<port id="1">
					<dim>128</dim>
					<dim>1</dim>
					<dim>1</dim>
					<dim>1</dim>
				</port>
			</input>
			<output>
				<port id="2" precision="FP32">
					<dim>128</dim>
					<dim>1</dim>
					<dim>3</dim>
					<dim>3</dim>
				</port>
			</output>
		</layer>
		<layer id="302" name="Multiply_13380/GOI_weights_part1619318970" type="Const" version="opset1">
			<data offset="26814" size="24" shape="3" element_type="i64"/>
			<output>
				<port id="0" precision="I64">
					<dim>3</dim>
				</port>
			</output>
		</layer>
		<layer id="303" name="Multiply_13380/WeightsShape" type="ShapeOf" version="opset3">
			<data output_type="i64"/>
			<input>
				<port id="0">
					<dim>128</dim>
					<dim>1</dim>
					<dim>3</dim>
					<dim>3</dim>
				</port>
			</input>
			<output>
				<port id="1" precision="I64">
					<dim>4</dim>
				</port>
			</output>
		</layer>
		<layer id="304" name="Multiply_13380/XY_weights_part_input_port_1/value1618919168" type="Const" version="opset1">
			<data offset="16034" size="16" shape="2" element_type="i64"/>
			<output>
				<port id="0" precision="I64">
					<dim>2</dim>
				</port>
			</output>
		</layer>
		<layer id="305" name="Multiply_13380/XY_weights_part_input_port_2/value1619118331" type="Const" version="opset1">
			<data offset="16050" size="8" shape="" element_type="i64"/>
			<output>
				<port id="0" precision="I64"/>
			</output>
		</layer>
		<layer id="306" name="Multiply_13380/XY_weights_part" type="Gather" version="opset8">
			<data batch_dims="0"/>
			<input>
				<port id="0">
					<dim>4</dim>
				</port>
				<port id="1">
					<dim>2</dim>
				</port>
				<port id="2"/>
			</input>
			<output>
				<port id="3" precision="I64">
					<dim>2</dim>
				</port>
			</output>
		</layer>
		<layer id="307" name="Multiply_13380/weights_shape" type="Concat" version="opset1">
			<data axis="0"/>
			<input>
				<port id="0">
					<dim>3</dim>
				</port>
				<port id="1">
					<dim>2</dim>
				</port>
			</input>
			<output>
				<port id="2" precision="I64">
					<dim>5</dim>
				</port>
			</output>
		</layer>
		<layer id="308" name="16195" type="Reshape" version="opset1">
			<data special_zero="true"/>
			<input>
				<port id="0">
					<dim>128</dim>
					<dim>1</dim>
					<dim>3</dim>
					<dim>3</dim>
				</port>
				<port id="1">
					<dim>5</dim>
				</port>
			</input>
			<output>
				<port id="2" precision="FP32">
					<dim>128</dim>
					<dim>1</dim>
					<dim>1</dim>
					<dim>3</dim>
					<dim>3</dim>
				</port>
			</output>
		</layer>
		<layer id="309" name="Multiply_13380" type="GroupConvolution" version="opset1">
			<data auto_pad="explicit" strides="1,1" dilations="1,1" pads_begin="1,1" pads_end="1,1"/>
			<input>
				<port id="0">
					<dim>1</dim>
					<dim>128</dim>
					<dim>32</dim>
					<dim>32</dim>
				</port>
				<port id="1">
					<dim>128</dim>
					<dim>1</dim>
					<dim>1</dim>
					<dim>3</dim>
					<dim>3</dim>
				</port>
			</input>
			<output>
				<port id="2" precision="FP32" names="434">
					<dim>1</dim>
					<dim>128</dim>
					<dim>32</dim>
					<dim>32</dim>
				</port>
			</output>
		</layer>
		<layer id="310" name="Constant_1338576719708" type="Const" version="opset1">
			<data offset="48824" size="256" shape="1,128,1,1" element_type="f16"/>
			<output>
				<port id="0" precision="FP16">
					<dim>1</dim>
					<dim>128</dim>
					<dim>1</dim>
					<dim>1</dim>
				</port>
			</output>
		</layer>
		<layer id="311" name="Constant_133857679835/restored_convert" type="Convert" version="opset1">
			<data destination_type="f32"/>
			<rt_info>
				<attribute name="decompression" version="0"/>
			</rt_info>
			<input>
				<port id="0">
					<dim>1</dim>
					<dim>128</dim>
					<dim>1</dim>
					<dim>1</dim>
				</port>
			</input>
			<output>
				<port id="1" precision="FP32">
					<dim>1</dim>
					<dim>128</dim>
					<dim>1</dim>
					<dim>1</dim>
				</port>
			</output>
		</layer>
		<layer id="312" name="435" type="Add" version="opset1">
			<data auto_broadcast="numpy"/>
			<input>
				<port id="0">
					<dim>1</dim>
					<dim>128</dim>
					<dim>32</dim>
					<dim>32</dim>
				</port>
				<port id="1">
					<dim>1</dim>
					<dim>128</dim>
					<dim>1</dim>
					<dim>1</dim>
				</port>
			</input>
			<output>
				<port id="2" precision="FP32" names="435">
					<dim>1</dim>
					<dim>128</dim>
					<dim>32</dim>
					<dim>32</dim>
				</port>
			</output>
		</layer>
		<layer id="313" name="5877018694" type="Const" version="opset1">
			<data offset="49080" size="2" shape="1" element_type="f16"/>
			<output>
				<port id="0" precision="FP16">
					<dim>1</dim>
				</port>
			</output>
		</layer>
		<layer id="314" name="587709836/restored_convert" type="Convert" version="opset1">
			<data destination_type="f32"/>
			<rt_info>
				<attribute name="decompression" version="0"/>
			</rt_info>
			<input>
				<port id="0">
					<dim>1</dim>
				</port>
			</input>
			<output>
				<port id="1" precision="FP32" names="58">
					<dim>1</dim>
				</port>
			</output>
		</layer>
		<layer id="315" name="436" type="PReLU" version="opset1">
			<input>
				<port id="0">
					<dim>1</dim>
					<dim>128</dim>
					<dim>32</dim>
					<dim>32</dim>
				</port>
				<port id="1">
					<dim>1</dim>
				</port>
			</input>
			<output>
				<port id="2" precision="FP32" names="436">
					<dim>1</dim>
					<dim>128</dim>
					<dim>32</dim>
					<dim>32</dim>
				</port>
			</output>
		</layer>
		<layer id="316" name="Multiply_13387/fq_input_0" type="FakeQuantize" version="opset1">
			<data levels="256" auto_broadcast="numpy"/>
			<input>
				<port id="0">
					<dim>1</dim>
					<dim>128</dim>
					<dim>32</dim>
					<dim>32</dim>
				</port>
				<port id="1"/>
				<port id="2"/>
				<port id="3"/>
				<port id="4"/>
			</input>
			<output>
				<port id="5" precision="FP32">
					<dim>1</dim>
					<dim>128</dim>
					<dim>32</dim>
					<dim>32</dim>
				</port>
			</output>
		</layer>
		<layer id="317" name="Multiply_13387/fq_weights_1/scale1288118247" type="Const" version="opset1">
			<data offset="49082" size="256" shape="64,1,1,1" element_type="f32"/>
			<output>
				<port id="0" precision="FP32">
					<dim>64</dim>
					<dim>1</dim>
					<dim>1</dim>
					<dim>1</dim>
				</port>
			</output>
		</layer>
		<layer id="318" name="Multiply_137487739837/restored_convert/quantized1287319207" type="Const" version="opset1">
			<data offset="49338" size="8192" shape="64,128,1,1" element_type="i8"/>
			<output>
				<port id="0" precision="I8">
					<dim>64</dim>
					<dim>128</dim>
					<dim>1</dim>
					<dim>1</dim>
				</port>
			</output>
		</layer>
		<layer id="319" name="Multiply_137487739837/restored_convert/quantized/to_f32" type="Convert" version="opset1">
			<data destination_type="f32"/>
			<input>
				<port id="0">
					<dim>64</dim>
					<dim>128</dim>
					<dim>1</dim>
					<dim>1</dim>
				</port>
			</input>
			<output>
				<port id="1" precision="FP32">
					<dim>64</dim>
					<dim>128</dim>
					<dim>1</dim>
					<dim>1</dim>
				</port>
			</output>
		</layer>
		<layer id="320" name="Multiply_13387/fq_weights_1/mulpiply_by_scale" type="Multiply" version="opset1">
			<data auto_broadcast="numpy"/>
			<input>
				<port id="0">
					<dim>64</dim>
					<dim>128</dim>
					<dim>1</dim>
					<dim>1</dim>
				</port>
				<port id="1">
					<dim>64</dim>
					<dim>1</dim>
					<dim>1</dim>
					<dim>1</dim>
				</port>
			</input>
			<output>
				<port id="2" precision="FP32">
					<dim>64</dim>
					<dim>128</dim>
					<dim>1</dim>
					<dim>1</dim>
				</port>
			</output>
		</layer>
		<layer id="321" name="Multiply_13387" type="Convolution" version="opset1">
			<data auto_pad="explicit" strides="1,1" dilations="1,1" pads_begin="0,0" pads_end="0,0"/>
			<input>
				<port id="0">
					<dim>1</dim>
					<dim>128</dim>
					<dim>32</dim>
					<dim>32</dim>
				</port>
				<port id="1">
					<dim>64</dim>
					<dim>128</dim>
					<dim>1</dim>
					<dim>1</dim>
				</port>
			</input>
			<output>
				<port id="2" precision="FP32">
					<dim>1</dim>
					<dim>64</dim>
					<dim>32</dim>
					<dim>32</dim>
				</port>
			</output>
		</layer>
		<layer id="322" name="Constant_1339277618742" type="Const" version="opset1">
			<data offset="57530" size="128" shape="1,64,1,1" element_type="f16"/>
			<output>
				<port id="0" precision="FP16">
					<dim>1</dim>
					<dim>64</dim>
					<dim>1</dim>
					<dim>1</dim>
				</port>
			</output>
		</layer>
		<layer id="323" name="Constant_133927769838/restored_convert" type="Convert" version="opset1">
			<data destination_type="f32"/>
			<rt_info>
				<attribute name="decompression" version="0"/>
			</rt_info>
			<input>
				<port id="0">
					<dim>1</dim>
					<dim>64</dim>
					<dim>1</dim>
					<dim>1</dim>
				</port>
			</input>
			<output>
				<port id="1" precision="FP32">
					<dim>1</dim>
					<dim>64</dim>
					<dim>1</dim>
					<dim>1</dim>
				</port>
			</output>
		</layer>
		<layer id="324" name="438" type="Add" version="opset1">
			<data auto_broadcast="numpy"/>
			<input>
				<port id="0">
					<dim>1</dim>
					<dim>64</dim>
					<dim>32</dim>
					<dim>32</dim>
				</port>
				<port id="1">
					<dim>1</dim>
					<dim>64</dim>
					<dim>1</dim>
					<dim>1</dim>
				</port>
			</input>
			<output>
				<port id="2" precision="FP32" names="438,439">
					<dim>1</dim>
					<dim>64</dim>
					<dim>32</dim>
					<dim>32</dim>
				</port>
			</output>
		</layer>
		<layer id="325" name="440/fq_input_0" type="FakeQuantize" version="opset1">
			<data levels="256" auto_broadcast="numpy"/>
			<input>
				<port id="0">
					<dim>1</dim>
					<dim>64</dim>
					<dim>32</dim>
					<dim>32</dim>
				</port>
				<port id="1"/>
				<port id="2"/>
				<port id="3"/>
				<port id="4"/>
			</input>
			<output>
				<port id="5" precision="FP32">
					<dim>1</dim>
					<dim>64</dim>
					<dim>32</dim>
					<dim>32</dim>
				</port>
			</output>
		</layer>
		<layer id="326" name="440" type="AvgPool" version="opset1">
			<data strides="32,32" kernel="32,32" pads_begin="0,0" pads_end="0,0" exclude-pad="true" rounding_type="floor" auto_pad="explicit"/>
			<input>
				<port id="0">
					<dim>1</dim>
					<dim>64</dim>
					<dim>32</dim>
					<dim>32</dim>
				</port>
			</input>
			<output>
				<port id="1" precision="FP32" names="440">
					<dim>1</dim>
					<dim>64</dim>
					<dim>1</dim>
					<dim>1</dim>
				</port>
			</output>
		</layer>
		<layer id="327" name="441/WithoutBiases/fq_input_0" type="FakeQuantize" version="opset1">
			<data levels="256" auto_broadcast="numpy"/>
			<input>
				<port id="0">
					<dim>1</dim>
					<dim>64</dim>
					<dim>1</dim>
					<dim>1</dim>
				</port>
				<port id="1"/>
				<port id="2"/>
				<port id="3"/>
				<port id="4"/>
			</input>
			<output>
				<port id="5" precision="FP32">
					<dim>1</dim>
					<dim>64</dim>
					<dim>1</dim>
					<dim>1</dim>
				</port>
			</output>
		</layer>
		<layer id="328" name="441/WithoutBiases/fq_weights_1/scale1174119723" type="Const" version="opset1">
			<data offset="57658" size="32" shape="8,1,1,1" element_type="f32"/>
			<output>
				<port id="0" precision="FP32">
					<dim>8</dim>
					<dim>1</dim>
					<dim>1</dim>
					<dim>1</dim>
				</port>
			</output>
		</layer>
		<layer id="329" name="657809839/restored_convert/quantized1173319840" type="Const" version="opset1">
			<data offset="57690" size="512" shape="8,64,1,1" element_type="i8"/>
			<output>
				<port id="0" precision="I8">
					<dim>8</dim>
					<dim>64</dim>
					<dim>1</dim>
					<dim>1</dim>
				</port>
			</output>
		</layer>
		<layer id="330" name="657809839/restored_convert/quantized/to_f32" type="Convert" version="opset1">
			<data destination_type="f32"/>
			<input>
				<port id="0">
					<dim>8</dim>
					<dim>64</dim>
					<dim>1</dim>
					<dim>1</dim>
				</port>
			</input>
			<output>
				<port id="1" precision="FP32">
					<dim>8</dim>
					<dim>64</dim>
					<dim>1</dim>
					<dim>1</dim>
				</port>
			</output>
		</layer>
		<layer id="331" name="441/WithoutBiases/fq_weights_1/mulpiply_by_scale" type="Multiply" version="opset1">
			<data auto_broadcast="numpy"/>
			<input>
				<port id="0">
					<dim>8</dim>
					<dim>64</dim>
					<dim>1</dim>
					<dim>1</dim>
				</port>
				<port id="1">
					<dim>8</dim>
					<dim>1</dim>
					<dim>1</dim>
					<dim>1</dim>
				</port>
			</input>
			<output>
				<port id="2" precision="FP32">
					<dim>8</dim>
					<dim>64</dim>
					<dim>1</dim>
					<dim>1</dim>
				</port>
			</output>
		</layer>
		<layer id="332" name="441/WithoutBiases" type="Convolution" version="opset1">
			<data auto_pad="explicit" strides="1,1" dilations="1,1" pads_begin="0,0" pads_end="0,0"/>
			<input>
				<port id="0">
					<dim>1</dim>
					<dim>64</dim>
					<dim>1</dim>
					<dim>1</dim>
				</port>
				<port id="1">
					<dim>8</dim>
					<dim>64</dim>
					<dim>1</dim>
					<dim>1</dim>
				</port>
			</input>
			<output>
				<port id="2" precision="FP32">
					<dim>1</dim>
					<dim>8</dim>
					<dim>1</dim>
					<dim>1</dim>
				</port>
			</output>
		</layer>
		<layer id="333" name="Reshape_82478319366" type="Const" version="opset1">
			<data offset="58202" size="16" shape="1,8,1,1" element_type="f16"/>
			<output>
				<port id="0" precision="FP16">
					<dim>1</dim>
					<dim>8</dim>
					<dim>1</dim>
					<dim>1</dim>
				</port>
			</output>
		</layer>
		<layer id="334" name="Reshape_8247839840/restored_convert" type="Convert" version="opset1">
			<data destination_type="f32"/>
			<rt_info>
				<attribute name="decompression" version="0"/>
			</rt_info>
			<input>
				<port id="0">
					<dim>1</dim>
					<dim>8</dim>
					<dim>1</dim>
					<dim>1</dim>
				</port>
			</input>
			<output>
				<port id="1" precision="FP32">
					<dim>1</dim>
					<dim>8</dim>
					<dim>1</dim>
					<dim>1</dim>
				</port>
			</output>
		</layer>
		<layer id="335" name="441" type="Add" version="opset1">
			<data auto_broadcast="numpy"/>
			<input>
				<port id="0">
					<dim>1</dim>
					<dim>8</dim>
					<dim>1</dim>
					<dim>1</dim>
				</port>
				<port id="1">
					<dim>1</dim>
					<dim>8</dim>
					<dim>1</dim>
					<dim>1</dim>
				</port>
			</input>
			<output>
				<port id="2" precision="FP32" names="441">
					<dim>1</dim>
					<dim>8</dim>
					<dim>1</dim>
					<dim>1</dim>
				</port>
			</output>
		</layer>
		<layer id="336" name="6978620161" type="Const" version="opset1">
			<data offset="58218" size="2" shape="1" element_type="f16"/>
			<output>
				<port id="0" precision="FP16">
					<dim>1</dim>
				</port>
			</output>
		</layer>
		<layer id="337" name="697869841/restored_convert" type="Convert" version="opset1">
			<data destination_type="f32"/>
			<rt_info>
				<attribute name="decompression" version="0"/>
			</rt_info>
			<input>
				<port id="0">
					<dim>1</dim>
				</port>
			</input>
			<output>
				<port id="1" precision="FP32" names="69">
					<dim>1</dim>
				</port>
			</output>
		</layer>
		<layer id="338" name="442" type="PReLU" version="opset1">
			<input>
				<port id="0">
					<dim>1</dim>
					<dim>8</dim>
					<dim>1</dim>
					<dim>1</dim>
				</port>
				<port id="1">
					<dim>1</dim>
				</port>
			</input>
			<output>
				<port id="2" precision="FP32" names="442">
					<dim>1</dim>
					<dim>8</dim>
					<dim>1</dim>
					<dim>1</dim>
				</port>
			</output>
		</layer>
		<layer id="339" name="443/WithoutBiases/fq_input_0" type="FakeQuantize" version="opset1">
			<data levels="256" auto_broadcast="numpy"/>
			<input>
				<port id="0">
					<dim>1</dim>
					<dim>8</dim>
					<dim>1</dim>
					<dim>1</dim>
				</port>
				<port id="1"/>
				<port id="2"/>
				<port id="3"/>
				<port id="4"/>
			</input>
			<output>
				<port id="5" precision="FP32">
					<dim>1</dim>
					<dim>8</dim>
					<dim>1</dim>
					<dim>1</dim>
				</port>
			</output>
		</layer>
		<layer id="340" name="443/WithoutBiases/fq_weights_1/scale1132119969" type="Const" version="opset1">
			<data offset="58220" size="256" shape="64,1,1,1" element_type="f32"/>
			<output>
				<port id="0" precision="FP32">
					<dim>64</dim>
					<dim>1</dim>
					<dim>1</dim>
					<dim>1</dim>
				</port>
			</output>
		</layer>
		<layer id="341" name="677899842/restored_convert/quantized1131320131" type="Const" version="opset1">
			<data offset="58476" size="512" shape="64,8,1,1" element_type="i8"/>
			<output>
				<port id="0" precision="I8">
					<dim>64</dim>
					<dim>8</dim>
					<dim>1</dim>
					<dim>1</dim>
				</port>
			</output>
		</layer>
		<layer id="342" name="677899842/restored_convert/quantized/to_f32" type="Convert" version="opset1">
			<data destination_type="f32"/>
			<input>
				<port id="0">
					<dim>64</dim>
					<dim>8</dim>
					<dim>1</dim>
					<dim>1</dim>
				</port>
			</input>
			<output>
				<port id="1" precision="FP32">
					<dim>64</dim>
					<dim>8</dim>
					<dim>1</dim>
					<dim>1</dim>
				</port>
			</output>
		</layer>
		<layer id="343" name="443/WithoutBiases/fq_weights_1/mulpiply_by_scale" type="Multiply" version="opset1">
			<data auto_broadcast="numpy"/>
			<input>
				<port id="0">
					<dim>64</dim>
					<dim>8</dim>
					<dim>1</dim>
					<dim>1</dim>
				</port>
				<port id="1">
					<dim>64</dim>
					<dim>1</dim>
					<dim>1</dim>
					<dim>1</dim>
				</port>
			</input>
			<output>
				<port id="2" precision="FP32">
					<dim>64</dim>
					<dim>8</dim>
					<dim>1</dim>
					<dim>1</dim>
				</port>
			</output>
		</layer>
		<layer id="344" name="443/WithoutBiases" type="Convolution" version="opset1">
			<data auto_pad="explicit" strides="1,1" dilations="1,1" pads_begin="0,0" pads_end="0,0"/>
			<input>
				<port id="0">
					<dim>1</dim>
					<dim>8</dim>
					<dim>1</dim>
					<dim>1</dim>
				</port>
				<port id="1">
					<dim>64</dim>
					<dim>8</dim>
					<dim>1</dim>
					<dim>1</dim>
				</port>
			</input>
			<output>
				<port id="2" precision="FP32">
					<dim>1</dim>
					<dim>64</dim>
					<dim>1</dim>
					<dim>1</dim>
				</port>
			</output>
		</layer>
		<layer id="345" name="Reshape_87379219831" type="Const" version="opset1">
			<data offset="58988" size="128" shape="1,64,1,1" element_type="f16"/>
			<output>
				<port id="0" precision="FP16">
					<dim>1</dim>
					<dim>64</dim>
					<dim>1</dim>
					<dim>1</dim>
				</port>
			</output>
		</layer>
		<layer id="346" name="Reshape_8737929843/restored_convert" type="Convert" version="opset1">
			<data destination_type="f32"/>
			<rt_info>
				<attribute name="decompression" version="0"/>
			</rt_info>
			<input>
				<port id="0">
					<dim>1</dim>
					<dim>64</dim>
					<dim>1</dim>
					<dim>1</dim>
				</port>
			</input>
			<output>
				<port id="1" precision="FP32">
					<dim>1</dim>
					<dim>64</dim>
					<dim>1</dim>
					<dim>1</dim>
				</port>
			</output>
		</layer>
		<layer id="347" name="443" type="Add" version="opset1">
			<data auto_broadcast="numpy"/>
			<input>
				<port id="0">
					<dim>1</dim>
					<dim>64</dim>
					<dim>1</dim>
					<dim>1</dim>
				</port>
				<port id="1">
					<dim>1</dim>
					<dim>64</dim>
					<dim>1</dim>
					<dim>1</dim>
				</port>
			</input>
			<output>
				<port id="2" precision="FP32" names="443">
					<dim>1</dim>
					<dim>64</dim>
					<dim>1</dim>
					<dim>1</dim>
				</port>
			</output>
		</layer>
		<layer id="348" name="444" type="Sigmoid" version="opset1">
			<input>
				<port id="0">
					<dim>1</dim>
					<dim>64</dim>
					<dim>1</dim>
					<dim>1</dim>
				</port>
			</input>
			<output>
				<port id="1" precision="FP32" names="444">
					<dim>1</dim>
					<dim>64</dim>
					<dim>1</dim>
					<dim>1</dim>
				</port>
			</output>
		</layer>
		<layer id="349" name="445/fq_input_1" type="FakeQuantize" version="opset1">
			<data levels="256" auto_broadcast="numpy"/>
			<input>
				<port id="0">
					<dim>1</dim>
					<dim>64</dim>
					<dim>1</dim>
					<dim>1</dim>
				</port>
				<port id="1"/>
				<port id="2"/>
				<port id="3"/>
				<port id="4"/>
			</input>
			<output>
				<port id="5" precision="FP32">
					<dim>1</dim>
					<dim>64</dim>
					<dim>1</dim>
					<dim>1</dim>
				</port>
			</output>
		</layer>
		<layer id="350" name="445" type="Multiply" version="opset1">
			<data auto_broadcast="numpy"/>
			<input>
				<port id="0">
					<dim>1</dim>
					<dim>64</dim>
					<dim>32</dim>
					<dim>32</dim>
				</port>
				<port id="1">
					<dim>1</dim>
					<dim>64</dim>
					<dim>1</dim>
					<dim>1</dim>
				</port>
			</input>
			<output>
				<port id="2" precision="FP32" names="445">
					<dim>1</dim>
					<dim>64</dim>
					<dim>32</dim>
					<dim>32</dim>
				</port>
			</output>
		</layer>
		<layer id="351" name="446/fq_input_1" type="FakeQuantize" version="opset1">
			<data levels="256" auto_broadcast="numpy"/>
			<input>
				<port id="0">
					<dim>1</dim>
					<dim>64</dim>
					<dim>32</dim>
					<dim>32</dim>
				</port>
				<port id="1"/>
				<port id="2"/>
				<port id="3"/>
				<port id="4"/>
			</input>
			<output>
				<port id="5" precision="FP32">
					<dim>1</dim>
					<dim>64</dim>
					<dim>32</dim>
					<dim>32</dim>
				</port>
			</output>
		</layer>
		<layer id="352" name="446" type="Add" version="opset1">
			<data auto_broadcast="numpy"/>
			<input>
				<port id="0">
					<dim>1</dim>
					<dim>64</dim>
					<dim>32</dim>
					<dim>32</dim>
				</port>
				<port id="1">
					<dim>1</dim>
					<dim>64</dim>
					<dim>32</dim>
					<dim>32</dim>
				</port>
			</input>
			<output>
				<port id="2" precision="FP32" names="446">
					<dim>1</dim>
					<dim>64</dim>
					<dim>32</dim>
					<dim>32</dim>
				</port>
			</output>
		</layer>
		<layer id="353" name="462/fq_input_0" type="FakeQuantize" version="opset1">
			<data levels="256" auto_broadcast="numpy"/>
			<input>
				<port id="0">
					<dim>1</dim>
					<dim>64</dim>
					<dim>32</dim>
					<dim>32</dim>
				</port>
				<port id="1"/>
				<port id="2"/>
				<port id="3"/>
				<port id="4"/>
			</input>
			<output>
				<port id="5" precision="FP32">
					<dim>1</dim>
					<dim>64</dim>
					<dim>32</dim>
					<dim>32</dim>
				</port>
			</output>
		</layer>
		<layer id="354" name="3455345920290" type="Const" version="opset1">
			<data offset="59116" size="4" shape="" element_type="f32"/>
			<output>
				<port id="0" precision="FP32"/>
			</output>
		</layer>
		<layer id="355" name="3456346018232" type="Const" version="opset1">
			<data offset="59120" size="4" shape="" element_type="f32"/>
			<output>
				<port id="0" precision="FP32"/>
			</output>
		</layer>
		<layer id="356" name="3457346118133" type="Const" version="opset1">
			<data offset="59116" size="4" shape="" element_type="f32"/>
			<output>
				<port id="0" precision="FP32"/>
			</output>
		</layer>
		<layer id="357" name="3458346218115" type="Const" version="opset1">
			<data offset="59120" size="4" shape="" element_type="f32"/>
			<output>
				<port id="0" precision="FP32"/>
			</output>
		</layer>
		<layer id="358" name="3125312919420" type="Const" version="opset1">
			<data offset="5152" size="4" shape="" element_type="f32"/>
			<output>
				<port id="0" precision="FP32"/>
			</output>
		</layer>
		<layer id="359" name="3126313019426" type="Const" version="opset1">
			<data offset="59124" size="4" shape="" element_type="f32"/>
			<output>
				<port id="0" precision="FP32"/>
			</output>
		</layer>
		<layer id="360" name="3127313118688" type="Const" version="opset1">
			<data offset="5152" size="4" shape="" element_type="f32"/>
			<output>
				<port id="0" precision="FP32"/>
			</output>
		</layer>
		<layer id="361" name="3128313219648" type="Const" version="opset1">
			<data offset="59124" size="4" shape="" element_type="f32"/>
			<output>
				<port id="0" precision="FP32"/>
			</output>
		</layer>
		<layer id="362" name="3795379920020" type="Const" version="opset1">
			<data offset="5152" size="4" shape="" element_type="f32"/>
			<output>
				<port id="0" precision="FP32"/>
			</output>
		</layer>
		<layer id="363" name="3796380018808" type="Const" version="opset1">
			<data offset="59128" size="4" shape="" element_type="f32"/>
			<output>
				<port id="0" precision="FP32"/>
			</output>
		</layer>
		<layer id="364" name="3797380120185" type="Const" version="opset1">
			<data offset="5152" size="4" shape="" element_type="f32"/>
			<output>
				<port id="0" precision="FP32"/>
			</output>
		</layer>
		<layer id="365" name="3798380218790" type="Const" version="opset1">
			<data offset="59128" size="4" shape="" element_type="f32"/>
			<output>
				<port id="0" precision="FP32"/>
			</output>
		</layer>
		<layer id="366" name="2875287919390" type="Const" version="opset1">
			<data offset="59132" size="4" shape="" element_type="f32"/>
			<output>
				<port id="0" precision="FP32"/>
			</output>
		</layer>
		<layer id="367" name="2876288019795" type="Const" version="opset1">
			<data offset="59136" size="4" shape="" element_type="f32"/>
			<output>
				<port id="0" precision="FP32"/>
			</output>
		</layer>
		<layer id="368" name="2877288119129" type="Const" version="opset1">
			<data offset="59132" size="4" shape="" element_type="f32"/>
			<output>
				<port id="0" precision="FP32"/>
			</output>
		</layer>
		<layer id="369" name="2878288220236" type="Const" version="opset1">
			<data offset="59136" size="4" shape="" element_type="f32"/>
			<output>
				<port id="0" precision="FP32"/>
			</output>
		</layer>
		<layer id="370" name="3275327919573" type="Const" version="opset1">
			<data offset="59140" size="4" shape="" element_type="f32"/>
			<output>
				<port id="0" precision="FP32"/>
			</output>
		</layer>
		<layer id="371" name="3276328019192" type="Const" version="opset1">
			<data offset="59144" size="4" shape="" element_type="f32"/>
			<output>
				<port id="0" precision="FP32"/>
			</output>
		</layer>
		<layer id="372" name="3277328120443" type="Const" version="opset1">
			<data offset="59140" size="4" shape="" element_type="f32"/>
			<output>
				<port id="0" precision="FP32"/>
			</output>
		</layer>
		<layer id="373" name="3278328219762" type="Const" version="opset1">
			<data offset="59144" size="4" shape="" element_type="f32"/>
			<output>
				<port id="0" precision="FP32"/>
			</output>
		</layer>
		<layer id="374" name="4055405918439" type="Const" version="opset1">
			<data offset="59148" size="4" shape="" element_type="f32"/>
			<output>
				<port id="0" precision="FP32"/>
			</output>
		</layer>
		<layer id="375" name="4056406019753" type="Const" version="opset1">
			<data offset="59152" size="4" shape="" element_type="f32"/>
			<output>
				<port id="0" precision="FP32"/>
			</output>
		</layer>
		<layer id="376" name="4057406118481" type="Const" version="opset1">
			<data offset="59148" size="4" shape="" element_type="f32"/>
			<output>
				<port id="0" precision="FP32"/>
			</output>
		</layer>
		<layer id="377" name="4058406219528" type="Const" version="opset1">
			<data offset="59152" size="4" shape="" element_type="f32"/>
			<output>
				<port id="0" precision="FP32"/>
			</output>
		</layer>
		<layer id="378" name="3365336918781" type="Const" version="opset1">
			<data offset="59156" size="512" shape="1,128,1,1" element_type="f32"/>
			<output>
				<port id="0" precision="FP32">
					<dim>1</dim>
					<dim>128</dim>
					<dim>1</dim>
					<dim>1</dim>
				</port>
			</output>
		</layer>
		<layer id="379" name="3366337018997" type="Const" version="opset1">
			<data offset="59668" size="512" shape="1,128,1,1" element_type="f32"/>
			<output>
				<port id="0" precision="FP32">
					<dim>1</dim>
					<dim>128</dim>
					<dim>1</dim>
					<dim>1</dim>
				</port>
			</output>
		</layer>
		<layer id="380" name="3367337118907" type="Const" version="opset1">
			<data offset="59156" size="512" shape="1,128,1,1" element_type="f32"/>
			<output>
				<port id="0" precision="FP32">
					<dim>1</dim>
					<dim>128</dim>
					<dim>1</dim>
					<dim>1</dim>
				</port>
			</output>
		</layer>
		<layer id="381" name="3368337218241" type="Const" version="opset1">
			<data offset="59668" size="512" shape="1,128,1,1" element_type="f32"/>
			<output>
				<port id="0" precision="FP32">
					<dim>1</dim>
					<dim>128</dim>
					<dim>1</dim>
					<dim>1</dim>
				</port>
			</output>
		</layer>
		<layer id="382" name="Multiply_13394/fq_weights_1/scale1339118772" type="Const" version="opset1">
			<data offset="60180" size="512" shape="128,1,1,1" element_type="f32"/>
			<output>
				<port id="0" precision="FP32">
					<dim>128</dim>
					<dim>1</dim>
					<dim>1</dim>
					<dim>1</dim>
				</port>
			</output>
		</layer>
		<layer id="383" name="Multiply_137577989844/restored_convert/quantized1338319732" type="Const" version="opset1">
			<data offset="60692" size="8192" shape="128,64,1,1" element_type="i8"/>
			<output>
				<port id="0" precision="I8">
					<dim>128</dim>
					<dim>64</dim>
					<dim>1</dim>
					<dim>1</dim>
				</port>
			</output>
		</layer>
		<layer id="384" name="Multiply_137577989844/restored_convert/quantized/to_f32" type="Convert" version="opset1">
			<data destination_type="f32"/>
			<input>
				<port id="0">
					<dim>128</dim>
					<dim>64</dim>
					<dim>1</dim>
					<dim>1</dim>
				</port>
			</input>
			<output>
				<port id="1" precision="FP32">
					<dim>128</dim>
					<dim>64</dim>
					<dim>1</dim>
					<dim>1</dim>
				</port>
			</output>
		</layer>
		<layer id="385" name="Multiply_13394/fq_weights_1/mulpiply_by_scale" type="Multiply" version="opset1">
			<data auto_broadcast="numpy"/>
			<input>
				<port id="0">
					<dim>128</dim>
					<dim>64</dim>
					<dim>1</dim>
					<dim>1</dim>
				</port>
				<port id="1">
					<dim>128</dim>
					<dim>1</dim>
					<dim>1</dim>
					<dim>1</dim>
				</port>
			</input>
			<output>
				<port id="2" precision="FP32">
					<dim>128</dim>
					<dim>64</dim>
					<dim>1</dim>
					<dim>1</dim>
				</port>
			</output>
		</layer>
		<layer id="386" name="Multiply_13394" type="Convolution" version="opset1">
			<data auto_pad="explicit" strides="1,1" dilations="1,1" pads_begin="0,0" pads_end="0,0"/>
			<input>
				<port id="0">
					<dim>1</dim>
					<dim>64</dim>
					<dim>32</dim>
					<dim>32</dim>
				</port>
				<port id="1">
					<dim>128</dim>
					<dim>64</dim>
					<dim>1</dim>
					<dim>1</dim>
				</port>
			</input>
			<output>
				<port id="2" precision="FP32">
					<dim>1</dim>
					<dim>128</dim>
					<dim>32</dim>
					<dim>32</dim>
				</port>
			</output>
		</layer>
		<layer id="387" name="Constant_1339980118730" type="Const" version="opset1">
			<data offset="68884" size="256" shape="1,128,1,1" element_type="f16"/>
			<output>
				<port id="0" precision="FP16">
					<dim>1</dim>
					<dim>128</dim>
					<dim>1</dim>
					<dim>1</dim>
				</port>
			</output>
		</layer>
		<layer id="388" name="Constant_133998019845/restored_convert" type="Convert" version="opset1">
			<data destination_type="f32"/>
			<rt_info>
				<attribute name="decompression" version="0"/>
			</rt_info>
			<input>
				<port id="0">
					<dim>1</dim>
					<dim>128</dim>
					<dim>1</dim>
					<dim>1</dim>
				</port>
			</input>
			<output>
				<port id="1" precision="FP32">
					<dim>1</dim>
					<dim>128</dim>
					<dim>1</dim>
					<dim>1</dim>
				</port>
			</output>
		</layer>
		<layer id="389" name="448" type="Add" version="opset1">
			<data auto_broadcast="numpy"/>
			<input>
				<port id="0">
					<dim>1</dim>
					<dim>128</dim>
					<dim>32</dim>
					<dim>32</dim>
				</port>
				<port id="1">
					<dim>1</dim>
					<dim>128</dim>
					<dim>1</dim>
					<dim>1</dim>
				</port>
			</input>
			<output>
				<port id="2" precision="FP32" names="448">
					<dim>1</dim>
					<dim>128</dim>
					<dim>32</dim>
					<dim>32</dim>
				</port>
			</output>
		</layer>
		<layer id="390" name="7680420287" type="Const" version="opset1">
			<data offset="69140" size="2" shape="1" element_type="f16"/>
			<output>
				<port id="0" precision="FP16">
					<dim>1</dim>
				</port>
			</output>
		</layer>
		<layer id="391" name="768049846/restored_convert" type="Convert" version="opset1">
			<data destination_type="f32"/>
			<rt_info>
				<attribute name="decompression" version="0"/>
			</rt_info>
			<input>
				<port id="0">
					<dim>1</dim>
				</port>
			</input>
			<output>
				<port id="1" precision="FP32" names="76">
					<dim>1</dim>
				</port>
			</output>
		</layer>
		<layer id="392" name="449" type="PReLU" version="opset1">
			<input>
				<port id="0">
					<dim>1</dim>
					<dim>128</dim>
					<dim>32</dim>
					<dim>32</dim>
				</port>
				<port id="1">
					<dim>1</dim>
				</port>
			</input>
			<output>
				<port id="2" precision="FP32" names="449">
					<dim>1</dim>
					<dim>128</dim>
					<dim>32</dim>
					<dim>32</dim>
				</port>
			</output>
		</layer>
		<layer id="393" name="Multiply_13401/fq_input_0" type="FakeQuantize" version="opset1">
			<data levels="256" auto_broadcast="numpy"/>
			<input>
				<port id="0">
					<dim>1</dim>
					<dim>128</dim>
					<dim>32</dim>
					<dim>32</dim>
				</port>
				<port id="1">
					<dim>1</dim>
					<dim>128</dim>
					<dim>1</dim>
					<dim>1</dim>
				</port>
				<port id="2">
					<dim>1</dim>
					<dim>128</dim>
					<dim>1</dim>
					<dim>1</dim>
				</port>
				<port id="3">
					<dim>1</dim>
					<dim>128</dim>
					<dim>1</dim>
					<dim>1</dim>
				</port>
				<port id="4">
					<dim>1</dim>
					<dim>128</dim>
					<dim>1</dim>
					<dim>1</dim>
				</port>
			</input>
			<output>
				<port id="5" precision="FP32">
					<dim>1</dim>
					<dim>128</dim>
					<dim>32</dim>
					<dim>32</dim>
				</port>
			</output>
		</layer>
		<layer id="394" name="Multiply_13401/fq_weights_1/scale1363119495" type="Const" version="opset1">
			<data offset="69142" size="512" shape="128,1,1,1" element_type="f32"/>
			<output>
				<port id="0" precision="FP32">
					<dim>128</dim>
					<dim>1</dim>
					<dim>1</dim>
					<dim>1</dim>
				</port>
			</output>
		</layer>
		<layer id="395" name="Multiply_137668079847/restored_convert/quantized1362318853" type="Const" version="opset1">
			<data offset="69654" size="1152" shape="128,1,3,3" element_type="i8"/>
			<output>
				<port id="0" precision="I8">
					<dim>128</dim>
					<dim>1</dim>
					<dim>3</dim>
					<dim>3</dim>
				</port>
			</output>
		</layer>
		<layer id="396" name="Multiply_137668079847/restored_convert/quantized/to_f32" type="Convert" version="opset1">
			<data destination_type="f32"/>
			<input>
				<port id="0">
					<dim>128</dim>
					<dim>1</dim>
					<dim>3</dim>
					<dim>3</dim>
				</port>
			</input>
			<output>
				<port id="1" precision="FP32">
					<dim>128</dim>
					<dim>1</dim>
					<dim>3</dim>
					<dim>3</dim>
				</port>
			</output>
		</layer>
		<layer id="397" name="Multiply_13401/fq_weights_1/mulpiply_by_scale" type="Multiply" version="opset1">
			<data auto_broadcast="numpy"/>
			<input>
				<port id="0">
					<dim>128</dim>
					<dim>1</dim>
					<dim>3</dim>
					<dim>3</dim>
				</port>
				<port id="1">
					<dim>128</dim>
					<dim>1</dim>
					<dim>1</dim>
					<dim>1</dim>
				</port>
			</input>
			<output>
				<port id="2" precision="FP32">
					<dim>128</dim>
					<dim>1</dim>
					<dim>3</dim>
					<dim>3</dim>
				</port>
			</output>
		</layer>
		<layer id="398" name="Multiply_13401/GOI_weights_part1620718823" type="Const" version="opset1">
			<data offset="26814" size="24" shape="3" element_type="i64"/>
			<output>
				<port id="0" precision="I64">
					<dim>3</dim>
				</port>
			</output>
		</layer>
		<layer id="399" name="Multiply_13401/WeightsShape" type="ShapeOf" version="opset3">
			<data output_type="i64"/>
			<input>
				<port id="0">
					<dim>128</dim>
					<dim>1</dim>
					<dim>3</dim>
					<dim>3</dim>
				</port>
			</input>
			<output>
				<port id="1" precision="I64">
					<dim>4</dim>
				</port>
			</output>
		</layer>
		<layer id="400" name="Multiply_13401/XY_weights_part_input_port_1/value1620318946" type="Const" version="opset1">
			<data offset="16034" size="16" shape="2" element_type="i64"/>
			<output>
				<port id="0" precision="I64">
					<dim>2</dim>
				</port>
			</output>
		</layer>
		<layer id="401" name="Multiply_13401/XY_weights_part_input_port_2/value1620520188" type="Const" version="opset1">
			<data offset="16050" size="8" shape="" element_type="i64"/>
			<output>
				<port id="0" precision="I64"/>
			</output>
		</layer>
		<layer id="402" name="Multiply_13401/XY_weights_part" type="Gather" version="opset8">
			<data batch_dims="0"/>
			<input>
				<port id="0">
					<dim>4</dim>
				</port>
				<port id="1">
					<dim>2</dim>
				</port>
				<port id="2"/>
			</input>
			<output>
				<port id="3" precision="I64">
					<dim>2</dim>
				</port>
			</output>
		</layer>
		<layer id="403" name="Multiply_13401/weights_shape" type="Concat" version="opset1">
			<data axis="0"/>
			<input>
				<port id="0">
					<dim>3</dim>
				</port>
				<port id="1">
					<dim>2</dim>
				</port>
			</input>
			<output>
				<port id="2" precision="I64">
					<dim>5</dim>
				</port>
			</output>
		</layer>
		<layer id="404" name="16209" type="Reshape" version="opset1">
			<data special_zero="true"/>
			<input>
				<port id="0">
					<dim>128</dim>
					<dim>1</dim>
					<dim>3</dim>
					<dim>3</dim>
				</port>
				<port id="1">
					<dim>5</dim>
				</port>
			</input>
			<output>
				<port id="2" precision="FP32">
					<dim>128</dim>
					<dim>1</dim>
					<dim>1</dim>
					<dim>3</dim>
					<dim>3</dim>
				</port>
			</output>
		</layer>
		<layer id="405" name="Multiply_13401" type="GroupConvolution" version="opset1">
			<data auto_pad="explicit" strides="1,1" dilations="1,1" pads_begin="1,1" pads_end="1,1"/>
			<input>
				<port id="0">
					<dim>1</dim>
					<dim>128</dim>
					<dim>32</dim>
					<dim>32</dim>
				</port>
				<port id="1">
					<dim>128</dim>
					<dim>1</dim>
					<dim>1</dim>
					<dim>3</dim>
					<dim>3</dim>
				</port>
			</input>
			<output>
				<port id="2" precision="FP32" names="450">
					<dim>1</dim>
					<dim>128</dim>
					<dim>32</dim>
					<dim>32</dim>
				</port>
			</output>
		</layer>
		<layer id="406" name="Constant_1340681018448" type="Const" version="opset1">
			<data offset="70806" size="256" shape="1,128,1,1" element_type="f16"/>
			<output>
				<port id="0" precision="FP16">
					<dim>1</dim>
					<dim>128</dim>
					<dim>1</dim>
					<dim>1</dim>
				</port>
			</output>
		</layer>
		<layer id="407" name="Constant_134068109848/restored_convert" type="Convert" version="opset1">
			<data destination_type="f32"/>
			<rt_info>
				<attribute name="decompression" version="0"/>
			</rt_info>
			<input>
				<port id="0">
					<dim>1</dim>
					<dim>128</dim>
					<dim>1</dim>
					<dim>1</dim>
				</port>
			</input>
			<output>
				<port id="1" precision="FP32">
					<dim>1</dim>
					<dim>128</dim>
					<dim>1</dim>
					<dim>1</dim>
				</port>
			</output>
		</layer>
		<layer id="408" name="451" type="Add" version="opset1">
			<data auto_broadcast="numpy"/>
			<input>
				<port id="0">
					<dim>1</dim>
					<dim>128</dim>
					<dim>32</dim>
					<dim>32</dim>
				</port>
				<port id="1">
					<dim>1</dim>
					<dim>128</dim>
					<dim>1</dim>
					<dim>1</dim>
				</port>
			</input>
			<output>
				<port id="2" precision="FP32" names="451">
					<dim>1</dim>
					<dim>128</dim>
					<dim>32</dim>
					<dim>32</dim>
				</port>
			</output>
		</layer>
		<layer id="409" name="8381318784" type="Const" version="opset1">
			<data offset="71062" size="2" shape="1" element_type="f16"/>
			<output>
				<port id="0" precision="FP16">
					<dim>1</dim>
				</port>
			</output>
		</layer>
		<layer id="410" name="838139849/restored_convert" type="Convert" version="opset1">
			<data destination_type="f32"/>
			<rt_info>
				<attribute name="decompression" version="0"/>
			</rt_info>
			<input>
				<port id="0">
					<dim>1</dim>
				</port>
			</input>
			<output>
				<port id="1" precision="FP32" names="83">
					<dim>1</dim>
				</port>
			</output>
		</layer>
		<layer id="411" name="452" type="PReLU" version="opset1">
			<input>
				<port id="0">
					<dim>1</dim>
					<dim>128</dim>
					<dim>32</dim>
					<dim>32</dim>
				</port>
				<port id="1">
					<dim>1</dim>
				</port>
			</input>
			<output>
				<port id="2" precision="FP32" names="452">
					<dim>1</dim>
					<dim>128</dim>
					<dim>32</dim>
					<dim>32</dim>
				</port>
			</output>
		</layer>
		<layer id="412" name="Multiply_13408/fq_input_0" type="FakeQuantize" version="opset1">
			<data levels="256" auto_broadcast="numpy"/>
			<input>
				<port id="0">
					<dim>1</dim>
					<dim>128</dim>
					<dim>32</dim>
					<dim>32</dim>
				</port>
				<port id="1"/>
				<port id="2"/>
				<port id="3"/>
				<port id="4"/>
			</input>
			<output>
				<port id="5" precision="FP32">
					<dim>1</dim>
					<dim>128</dim>
					<dim>32</dim>
					<dim>32</dim>
				</port>
			</output>
		</layer>
		<layer id="413" name="Multiply_13408/fq_weights_1/scale1186118313" type="Const" version="opset1">
			<data offset="71064" size="256" shape="64,1,1,1" element_type="f32"/>
			<output>
				<port id="0" precision="FP32">
					<dim>64</dim>
					<dim>1</dim>
					<dim>1</dim>
					<dim>1</dim>
				</port>
			</output>
		</layer>
		<layer id="414" name="Multiply_137748169850/restored_convert/quantized1185319807" type="Const" version="opset1">
			<data offset="71320" size="8192" shape="64,128,1,1" element_type="i8"/>
			<output>
				<port id="0" precision="I8">
					<dim>64</dim>
					<dim>128</dim>
					<dim>1</dim>
					<dim>1</dim>
				</port>
			</output>
		</layer>
		<layer id="415" name="Multiply_137748169850/restored_convert/quantized/to_f32" type="Convert" version="opset1">
			<data destination_type="f32"/>
			<input>
				<port id="0">
					<dim>64</dim>
					<dim>128</dim>
					<dim>1</dim>
					<dim>1</dim>
				</port>
			</input>
			<output>
				<port id="1" precision="FP32">
					<dim>64</dim>
					<dim>128</dim>
					<dim>1</dim>
					<dim>1</dim>
				</port>
			</output>
		</layer>
		<layer id="416" name="Multiply_13408/fq_weights_1/mulpiply_by_scale" type="Multiply" version="opset1">
			<data auto_broadcast="numpy"/>
			<input>
				<port id="0">
					<dim>64</dim>
					<dim>128</dim>
					<dim>1</dim>
					<dim>1</dim>
				</port>
				<port id="1">
					<dim>64</dim>
					<dim>1</dim>
					<dim>1</dim>
					<dim>1</dim>
				</port>
			</input>
			<output>
				<port id="2" precision="FP32">
					<dim>64</dim>
					<dim>128</dim>
					<dim>1</dim>
					<dim>1</dim>
				</port>
			</output>
		</layer>
		<layer id="417" name="Multiply_13408" type="Convolution" version="opset1">
			<data auto_pad="explicit" strides="1,1" dilations="1,1" pads_begin="0,0" pads_end="0,0"/>
			<input>
				<port id="0">
					<dim>1</dim>
					<dim>128</dim>
					<dim>32</dim>
					<dim>32</dim>
				</port>
				<port id="1">
					<dim>64</dim>
					<dim>128</dim>
					<dim>1</dim>
					<dim>1</dim>
				</port>
			</input>
			<output>
				<port id="2" precision="FP32">
					<dim>1</dim>
					<dim>64</dim>
					<dim>32</dim>
					<dim>32</dim>
				</port>
			</output>
		</layer>
		<layer id="418" name="Constant_1341381918160" type="Const" version="opset1">
			<data offset="79512" size="128" shape="1,64,1,1" element_type="f16"/>
			<output>
				<port id="0" precision="FP16">
					<dim>1</dim>
					<dim>64</dim>
					<dim>1</dim>
					<dim>1</dim>
				</port>
			</output>
		</layer>
		<layer id="419" name="Constant_134138199851/restored_convert" type="Convert" version="opset1">
			<data destination_type="f32"/>
			<rt_info>
				<attribute name="decompression" version="0"/>
			</rt_info>
			<input>
				<port id="0">
					<dim>1</dim>
					<dim>64</dim>
					<dim>1</dim>
					<dim>1</dim>
				</port>
			</input>
			<output>
				<port id="1" precision="FP32">
					<dim>1</dim>
					<dim>64</dim>
					<dim>1</dim>
					<dim>1</dim>
				</port>
			</output>
		</layer>
		<layer id="420" name="454" type="Add" version="opset1">
			<data auto_broadcast="numpy"/>
			<input>
				<port id="0">
					<dim>1</dim>
					<dim>64</dim>
					<dim>32</dim>
					<dim>32</dim>
				</port>
				<port id="1">
					<dim>1</dim>
					<dim>64</dim>
					<dim>1</dim>
					<dim>1</dim>
				</port>
			</input>
			<output>
				<port id="2" precision="FP32" names="454,455">
					<dim>1</dim>
					<dim>64</dim>
					<dim>32</dim>
					<dim>32</dim>
				</port>
			</output>
		</layer>
		<layer id="421" name="456/fq_input_0" type="FakeQuantize" version="opset1">
			<data levels="256" auto_broadcast="numpy"/>
			<input>
				<port id="0">
					<dim>1</dim>
					<dim>64</dim>
					<dim>32</dim>
					<dim>32</dim>
				</port>
				<port id="1"/>
				<port id="2"/>
				<port id="3"/>
				<port id="4"/>
			</input>
			<output>
				<port id="5" precision="FP32">
					<dim>1</dim>
					<dim>64</dim>
					<dim>32</dim>
					<dim>32</dim>
				</port>
			</output>
		</layer>
		<layer id="422" name="456" type="AvgPool" version="opset1">
			<data strides="32,32" kernel="32,32" pads_begin="0,0" pads_end="0,0" exclude-pad="true" rounding_type="floor" auto_pad="explicit"/>
			<input>
				<port id="0">
					<dim>1</dim>
					<dim>64</dim>
					<dim>32</dim>
					<dim>32</dim>
				</port>
			</input>
			<output>
				<port id="1" precision="FP32" names="456">
					<dim>1</dim>
					<dim>64</dim>
					<dim>1</dim>
					<dim>1</dim>
				</port>
			</output>
		</layer>
		<layer id="423" name="457/WithoutBiases/fq_input_0" type="FakeQuantize" version="opset1">
			<data levels="256" auto_broadcast="numpy"/>
			<input>
				<port id="0">
					<dim>1</dim>
					<dim>64</dim>
					<dim>1</dim>
					<dim>1</dim>
				</port>
				<port id="1"/>
				<port id="2"/>
				<port id="3"/>
				<port id="4"/>
			</input>
			<output>
				<port id="5" precision="FP32">
					<dim>1</dim>
					<dim>64</dim>
					<dim>1</dim>
					<dim>1</dim>
				</port>
			</output>
		</layer>
		<layer id="424" name="457/WithoutBiases/fq_weights_1/scale1312119561" type="Const" version="opset1">
			<data offset="79640" size="32" shape="8,1,1,1" element_type="f32"/>
			<output>
				<port id="0" precision="FP32">
					<dim>8</dim>
					<dim>1</dim>
					<dim>1</dim>
					<dim>1</dim>
				</port>
			</output>
		</layer>
		<layer id="425" name="908239852/restored_convert/quantized1311318523" type="Const" version="opset1">
			<data offset="79672" size="512" shape="8,64,1,1" element_type="i8"/>
			<output>
				<port id="0" precision="I8">
					<dim>8</dim>
					<dim>64</dim>
					<dim>1</dim>
					<dim>1</dim>
				</port>
			</output>
		</layer>
		<layer id="426" name="908239852/restored_convert/quantized/to_f32" type="Convert" version="opset1">
			<data destination_type="f32"/>
			<input>
				<port id="0">
					<dim>8</dim>
					<dim>64</dim>
					<dim>1</dim>
					<dim>1</dim>
				</port>
			</input>
			<output>
				<port id="1" precision="FP32">
					<dim>8</dim>
					<dim>64</dim>
					<dim>1</dim>
					<dim>1</dim>
				</port>
			</output>
		</layer>
		<layer id="427" name="457/WithoutBiases/fq_weights_1/mulpiply_by_scale" type="Multiply" version="opset1">
			<data auto_broadcast="numpy"/>
			<input>
				<port id="0">
					<dim>8</dim>
					<dim>64</dim>
					<dim>1</dim>
					<dim>1</dim>
				</port>
				<port id="1">
					<dim>8</dim>
					<dim>1</dim>
					<dim>1</dim>
					<dim>1</dim>
				</port>
			</input>
			<output>
				<port id="2" precision="FP32">
					<dim>8</dim>
					<dim>64</dim>
					<dim>1</dim>
					<dim>1</dim>
				</port>
			</output>
		</layer>
		<layer id="428" name="457/WithoutBiases" type="Convolution" version="opset1">
			<data auto_pad="explicit" strides="1,1" dilations="1,1" pads_begin="0,0" pads_end="0,0"/>
			<input>
				<port id="0">
					<dim>1</dim>
					<dim>64</dim>
					<dim>1</dim>
					<dim>1</dim>
				</port>
				<port id="1">
					<dim>8</dim>
					<dim>64</dim>
					<dim>1</dim>
					<dim>1</dim>
				</port>
			</input>
			<output>
				<port id="2" precision="FP32">
					<dim>1</dim>
					<dim>8</dim>
					<dim>1</dim>
					<dim>1</dim>
				</port>
			</output>
		</layer>
		<layer id="429" name="Reshape_102582618511" type="Const" version="opset1">
			<data offset="80184" size="16" shape="1,8,1,1" element_type="f16"/>
			<output>
				<port id="0" precision="FP16">
					<dim>1</dim>
					<dim>8</dim>
					<dim>1</dim>
					<dim>1</dim>
				</port>
			</output>
		</layer>
		<layer id="430" name="Reshape_10258269853/restored_convert" type="Convert" version="opset1">
			<data destination_type="f32"/>
			<rt_info>
				<attribute name="decompression" version="0"/>
			</rt_info>
			<input>
				<port id="0">
					<dim>1</dim>
					<dim>8</dim>
					<dim>1</dim>
					<dim>1</dim>
				</port>
			</input>
			<output>
				<port id="1" precision="FP32">
					<dim>1</dim>
					<dim>8</dim>
					<dim>1</dim>
					<dim>1</dim>
				</port>
			</output>
		</layer>
		<layer id="431" name="457" type="Add" version="opset1">
			<data auto_broadcast="numpy"/>
			<input>
				<port id="0">
					<dim>1</dim>
					<dim>8</dim>
					<dim>1</dim>
					<dim>1</dim>
				</port>
				<port id="1">
					<dim>1</dim>
					<dim>8</dim>
					<dim>1</dim>
					<dim>1</dim>
				</port>
			</input>
			<output>
				<port id="2" precision="FP32" names="457">
					<dim>1</dim>
					<dim>8</dim>
					<dim>1</dim>
					<dim>1</dim>
				</port>
			</output>
		</layer>
		<layer id="432" name="9482918643" type="Const" version="opset1">
			<data offset="80200" size="2" shape="1" element_type="f16"/>
			<output>
				<port id="0" precision="FP16">
					<dim>1</dim>
				</port>
			</output>
		</layer>
		<layer id="433" name="948299854/restored_convert" type="Convert" version="opset1">
			<data destination_type="f32"/>
			<rt_info>
				<attribute name="decompression" version="0"/>
			</rt_info>
			<input>
				<port id="0">
					<dim>1</dim>
				</port>
			</input>
			<output>
				<port id="1" precision="FP32" names="94">
					<dim>1</dim>
				</port>
			</output>
		</layer>
		<layer id="434" name="458" type="PReLU" version="opset1">
			<input>
				<port id="0">
					<dim>1</dim>
					<dim>8</dim>
					<dim>1</dim>
					<dim>1</dim>
				</port>
				<port id="1">
					<dim>1</dim>
				</port>
			</input>
			<output>
				<port id="2" precision="FP32" names="458">
					<dim>1</dim>
					<dim>8</dim>
					<dim>1</dim>
					<dim>1</dim>
				</port>
			</output>
		</layer>
		<layer id="435" name="459/WithoutBiases/fq_input_0" type="FakeQuantize" version="opset1">
			<data levels="256" auto_broadcast="numpy"/>
			<input>
				<port id="0">
					<dim>1</dim>
					<dim>8</dim>
					<dim>1</dim>
					<dim>1</dim>
				</port>
				<port id="1"/>
				<port id="2"/>
				<port id="3"/>
				<port id="4"/>
			</input>
			<output>
				<port id="5" precision="FP32">
					<dim>1</dim>
					<dim>8</dim>
					<dim>1</dim>
					<dim>1</dim>
				</port>
			</output>
		</layer>
		<layer id="436" name="459/WithoutBiases/fq_weights_1/scale1129120317" type="Const" version="opset1">
			<data offset="80202" size="256" shape="64,1,1,1" element_type="f32"/>
			<output>
				<port id="0" precision="FP32">
					<dim>64</dim>
					<dim>1</dim>
					<dim>1</dim>
					<dim>1</dim>
				</port>
			</output>
		</layer>
		<layer id="437" name="928329855/restored_convert/quantized1128319720" type="Const" version="opset1">
			<data offset="80458" size="512" shape="64,8,1,1" element_type="i8"/>
			<output>
				<port id="0" precision="I8">
					<dim>64</dim>
					<dim>8</dim>
					<dim>1</dim>
					<dim>1</dim>
				</port>
			</output>
		</layer>
		<layer id="438" name="928329855/restored_convert/quantized/to_f32" type="Convert" version="opset1">
			<data destination_type="f32"/>
			<input>
				<port id="0">
					<dim>64</dim>
					<dim>8</dim>
					<dim>1</dim>
					<dim>1</dim>
				</port>
			</input>
			<output>
				<port id="1" precision="FP32">
					<dim>64</dim>
					<dim>8</dim>
					<dim>1</dim>
					<dim>1</dim>
				</port>
			</output>
		</layer>
		<layer id="439" name="459/WithoutBiases/fq_weights_1/mulpiply_by_scale" type="Multiply" version="opset1">
			<data auto_broadcast="numpy"/>
			<input>
				<port id="0">
					<dim>64</dim>
					<dim>8</dim>
					<dim>1</dim>
					<dim>1</dim>
				</port>
				<port id="1">
					<dim>64</dim>
					<dim>1</dim>
					<dim>1</dim>
					<dim>1</dim>
				</port>
			</input>
			<output>
				<port id="2" precision="FP32">
					<dim>64</dim>
					<dim>8</dim>
					<dim>1</dim>
					<dim>1</dim>
				</port>
			</output>
		</layer>
		<layer id="440" name="459/WithoutBiases" type="Convolution" version="opset1">
			<data auto_pad="explicit" strides="1,1" dilations="1,1" pads_begin="0,0" pads_end="0,0"/>
			<input>
				<port id="0">
					<dim>1</dim>
					<dim>8</dim>
					<dim>1</dim>
					<dim>1</dim>
				</port>
				<port id="1">
					<dim>64</dim>
					<dim>8</dim>
					<dim>1</dim>
					<dim>1</dim>
				</port>
			</input>
			<output>
				<port id="2" precision="FP32">
					<dim>1</dim>
					<dim>64</dim>
					<dim>1</dim>
					<dim>1</dim>
				</port>
			</output>
		</layer>
		<layer id="441" name="Reshape_107483518109" type="Const" version="opset1">
			<data offset="80970" size="128" shape="1,64,1,1" element_type="f16"/>
			<output>
				<port id="0" precision="FP16">
					<dim>1</dim>
					<dim>64</dim>
					<dim>1</dim>
					<dim>1</dim>
				</port>
			</output>
		</layer>
		<layer id="442" name="Reshape_10748359856/restored_convert" type="Convert" version="opset1">
			<data destination_type="f32"/>
			<rt_info>
				<attribute name="decompression" version="0"/>
			</rt_info>
			<input>
				<port id="0">
					<dim>1</dim>
					<dim>64</dim>
					<dim>1</dim>
					<dim>1</dim>
				</port>
			</input>
			<output>
				<port id="1" precision="FP32">
					<dim>1</dim>
					<dim>64</dim>
					<dim>1</dim>
					<dim>1</dim>
				</port>
			</output>
		</layer>
		<layer id="443" name="459" type="Add" version="opset1">
			<data auto_broadcast="numpy"/>
			<input>
				<port id="0">
					<dim>1</dim>
					<dim>64</dim>
					<dim>1</dim>
					<dim>1</dim>
				</port>
				<port id="1">
					<dim>1</dim>
					<dim>64</dim>
					<dim>1</dim>
					<dim>1</dim>
				</port>
			</input>
			<output>
				<port id="2" precision="FP32" names="459">
					<dim>1</dim>
					<dim>64</dim>
					<dim>1</dim>
					<dim>1</dim>
				</port>
			</output>
		</layer>
		<layer id="444" name="460" type="Sigmoid" version="opset1">
			<input>
				<port id="0">
					<dim>1</dim>
					<dim>64</dim>
					<dim>1</dim>
					<dim>1</dim>
				</port>
			</input>
			<output>
				<port id="1" precision="FP32" names="460">
					<dim>1</dim>
					<dim>64</dim>
					<dim>1</dim>
					<dim>1</dim>
				</port>
			</output>
		</layer>
		<layer id="445" name="461/fq_input_1" type="FakeQuantize" version="opset1">
			<data levels="256" auto_broadcast="numpy"/>
			<input>
				<port id="0">
					<dim>1</dim>
					<dim>64</dim>
					<dim>1</dim>
					<dim>1</dim>
				</port>
				<port id="1"/>
				<port id="2"/>
				<port id="3"/>
				<port id="4"/>
			</input>
			<output>
				<port id="5" precision="FP32">
					<dim>1</dim>
					<dim>64</dim>
					<dim>1</dim>
					<dim>1</dim>
				</port>
			</output>
		</layer>
		<layer id="446" name="461" type="Multiply" version="opset1">
			<data auto_broadcast="numpy"/>
			<input>
				<port id="0">
					<dim>1</dim>
					<dim>64</dim>
					<dim>32</dim>
					<dim>32</dim>
				</port>
				<port id="1">
					<dim>1</dim>
					<dim>64</dim>
					<dim>1</dim>
					<dim>1</dim>
				</port>
			</input>
			<output>
				<port id="2" precision="FP32" names="461">
					<dim>1</dim>
					<dim>64</dim>
					<dim>32</dim>
					<dim>32</dim>
				</port>
			</output>
		</layer>
		<layer id="447" name="462/fq_input_1" type="FakeQuantize" version="opset1">
			<data levels="256" auto_broadcast="numpy"/>
			<input>
				<port id="0">
					<dim>1</dim>
					<dim>64</dim>
					<dim>32</dim>
					<dim>32</dim>
				</port>
				<port id="1"/>
				<port id="2"/>
				<port id="3"/>
				<port id="4"/>
			</input>
			<output>
				<port id="5" precision="FP32">
					<dim>1</dim>
					<dim>64</dim>
					<dim>32</dim>
					<dim>32</dim>
				</port>
			</output>
		</layer>
		<layer id="448" name="462" type="Add" version="opset1">
			<data auto_broadcast="numpy"/>
			<input>
				<port id="0">
					<dim>1</dim>
					<dim>64</dim>
					<dim>32</dim>
					<dim>32</dim>
				</port>
				<port id="1">
					<dim>1</dim>
					<dim>64</dim>
					<dim>32</dim>
					<dim>32</dim>
				</port>
			</input>
			<output>
				<port id="2" precision="FP32" names="462">
					<dim>1</dim>
					<dim>64</dim>
					<dim>32</dim>
					<dim>32</dim>
				</port>
			</output>
		</layer>
		<layer id="449" name="478/fq_input_0" type="FakeQuantize" version="opset1">
			<data levels="256" auto_broadcast="numpy"/>
			<input>
				<port id="0">
					<dim>1</dim>
					<dim>64</dim>
					<dim>32</dim>
					<dim>32</dim>
				</port>
				<port id="1"/>
				<port id="2"/>
				<port id="3"/>
				<port id="4"/>
			</input>
			<output>
				<port id="5" precision="FP32">
					<dim>1</dim>
					<dim>64</dim>
					<dim>32</dim>
					<dim>32</dim>
				</port>
			</output>
		</layer>
		<layer id="450" name="2305230918514" type="Const" version="opset1">
			<data offset="81098" size="4" shape="" element_type="f32"/>
			<output>
				<port id="0" precision="FP32"/>
			</output>
		</layer>
		<layer id="451" name="2306231019153" type="Const" version="opset1">
			<data offset="81102" size="4" shape="" element_type="f32"/>
			<output>
				<port id="0" precision="FP32"/>
			</output>
		</layer>
		<layer id="452" name="2307231118751" type="Const" version="opset1">
			<data offset="81098" size="4" shape="" element_type="f32"/>
			<output>
				<port id="0" precision="FP32"/>
			</output>
		</layer>
		<layer id="453" name="2308231218190" type="Const" version="opset1">
			<data offset="81102" size="4" shape="" element_type="f32"/>
			<output>
				<port id="0" precision="FP32"/>
			</output>
		</layer>
		<layer id="454" name="4475447919699" type="Const" version="opset1">
			<data offset="5152" size="4" shape="" element_type="f32"/>
			<output>
				<port id="0" precision="FP32"/>
			</output>
		</layer>
		<layer id="455" name="4476448018178" type="Const" version="opset1">
			<data offset="81106" size="4" shape="" element_type="f32"/>
			<output>
				<port id="0" precision="FP32"/>
			</output>
		</layer>
		<layer id="456" name="4477448118256" type="Const" version="opset1">
			<data offset="5152" size="4" shape="" element_type="f32"/>
			<output>
				<port id="0" precision="FP32"/>
			</output>
		</layer>
		<layer id="457" name="4478448218646" type="Const" version="opset1">
			<data offset="81106" size="4" shape="" element_type="f32"/>
			<output>
				<port id="0" precision="FP32"/>
			</output>
		</layer>
		<layer id="458" name="4035403918487" type="Const" version="opset1">
			<data offset="81110" size="4" shape="" element_type="f32"/>
			<output>
				<port id="0" precision="FP32"/>
			</output>
		</layer>
		<layer id="459" name="4036404020047" type="Const" version="opset1">
			<data offset="81114" size="4" shape="" element_type="f32"/>
			<output>
				<port id="0" precision="FP32"/>
			</output>
		</layer>
		<layer id="460" name="4037404120428" type="Const" version="opset1">
			<data offset="81110" size="4" shape="" element_type="f32"/>
			<output>
				<port id="0" precision="FP32"/>
			</output>
		</layer>
		<layer id="461" name="4038404218394" type="Const" version="opset1">
			<data offset="81114" size="4" shape="" element_type="f32"/>
			<output>
				<port id="0" precision="FP32"/>
			</output>
		</layer>
		<layer id="462" name="3875387919579" type="Const" version="opset1">
			<data offset="81118" size="4" shape="" element_type="f32"/>
			<output>
…
		<edge from-layer="993" from-port="5" to-layer="994" to-port="1"/>
		<edge from-layer="994" from-port="2" to-layer="995" to-port="0"/>
		<edge from-layer="57" from-port="0" to-layer="995" to-port="1"/>
		<edge from-layer="58" from-port="0" to-layer="995" to-port="2"/>
		<edge from-layer="59" from-port="0" to-layer="995" to-port="3"/>
		<edge from-layer="60" from-port="0" to-layer="995" to-port="4"/>
		<edge from-layer="1025" from-port="0" to-layer="1026" to-port="0"/>
		<edge from-layer="1026" from-port="1" to-layer="1027" to-port="0"/>
		<edge from-layer="1024" from-port="0" to-layer="1027" to-port="1"/>
		<edge from-layer="995" from-port="5" to-layer="1028" to-port="0"/>
		<edge from-layer="1027" from-port="2" to-layer="1028" to-port="1"/>
		<edge from-layer="1029" from-port="0" to-layer="1030" to-port="0"/>
		<edge from-layer="1028" from-port="2" to-layer="1031" to-port="0"/>
		<edge from-layer="1030" from-port="1" to-layer="1031" to-port="1"/>
		<edge from-layer="1032" from-port="0" to-layer="1033" to-port="0"/>
		<edge from-layer="1031" from-port="2" to-layer="1034" to-port="0"/>
		<edge from-layer="1033" from-port="1" to-layer="1034" to-port="1"/>
		<edge from-layer="1034" from-port="2" to-layer="1035" to-port="0"/>
		<edge from-layer="1020" from-port="0" to-layer="1035" to-port="1"/>
		<edge from-layer="1021" from-port="0" to-layer="1035" to-port="2"/>
		<edge from-layer="1022" from-port="0" to-layer="1035" to-port="3"/>
		<edge from-layer="1023" from-port="0" to-layer="1035" to-port="4"/>
		<edge from-layer="1037" from-port="0" to-layer="1038" to-port="0"/>
		<edge from-layer="1038" from-port="1" to-layer="1039" to-port="0"/>
		<edge from-layer="1036" from-port="0" to-layer="1039" to-port="1"/>
		<edge from-layer="1039" from-port="2" to-layer="1041" to-port="0"/>
		<edge from-layer="1041" from-port="1" to-layer="1044" to-port="0"/>
		<edge from-layer="1042" from-port="0" to-layer="1044" to-port="1"/>
		<edge from-layer="1043" from-port="0" to-layer="1044" to-port="2"/>
		<edge from-layer="1040" from-port="0" to-layer="1045" to-port="0"/>
		<edge from-layer="1044" from-port="3" to-layer="1045" to-port="1"/>
		<edge from-layer="1039" from-port="2" to-layer="1046" to-port="0"/>
		<edge from-layer="1045" from-port="2" to-layer="1046" to-port="1"/>
		<edge from-layer="1035" from-port="5" to-layer="1047" to-port="0"/>
		<edge from-layer="1046" from-port="2" to-layer="1047" to-port="1"/>
		<edge from-layer="1048" from-port="0" to-layer="1049" to-port="0"/>
		<edge from-layer="1047" from-port="2" to-layer="1050" to-port="0"/>
		<edge from-layer="1049" from-port="1" to-layer="1050" to-port="1"/>
		<edge from-layer="1051" from-port="0" to-layer="1052" to-port="0"/>
		<edge from-layer="1050" from-port="2" to-layer="1053" to-port="0"/>
		<edge from-layer="1052" from-port="1" to-layer="1053" to-port="1"/>
		<edge from-layer="1053" from-port="2" to-layer="1054" to-port="0"/>
		<edge from-layer="1016" from-port="0" to-layer="1054" to-port="1"/>
		<edge from-layer="1017" from-port="0" to-layer="1054" to-port="2"/>
		<edge from-layer="1018" from-port="0" to-layer="1054" to-port="3"/>
		<edge from-layer="1019" from-port="0" to-layer="1054" to-port="4"/>
		<edge from-layer="1056" from-port="0" to-layer="1057" to-port="0"/>
		<edge from-layer="1057" from-port="1" to-layer="1058" to-port="0"/>
		<edge from-layer="1055" from-port="0" to-layer="1058" to-port="1"/>
		<edge from-layer="1054" from-port="5" to-layer="1059" to-port="0"/>
		<edge from-layer="1058" from-port="2" to-layer="1059" to-port="1"/>
		<edge from-layer="1060" from-port="0" to-layer="1061" to-port="0"/>
		<edge from-layer="1059" from-port="2" to-layer="1062" to-port="0"/>
		<edge from-layer="1061" from-port="1" to-layer="1062" to-port="1"/>
		<edge from-layer="1062" from-port="2" to-layer="1063" to-port="0"/>
		<edge from-layer="1012" from-port="0" to-layer="1063" to-port="1"/>
		<edge from-layer="1013" from-port="0" to-layer="1063" to-port="2"/>
		<edge from-layer="1014" from-port="0" to-layer="1063" to-port="3"/>
		<edge from-layer="1015" from-port="0" to-layer="1063" to-port="4"/>
		<edge from-layer="1063" from-port="5" to-layer="1064" to-port="0"/>
		<edge from-layer="1064" from-port="1" to-layer="1065" to-port="0"/>
		<edge from-layer="1008" from-port="0" to-layer="1065" to-port="1"/>
		<edge from-layer="1009" from-port="0" to-layer="1065" to-port="2"/>
		<edge from-layer="1010" from-port="0" to-layer="1065" to-port="3"/>
		<edge from-layer="1011" from-port="0" to-layer="1065" to-port="4"/>
		<edge from-layer="1067" from-port="0" to-layer="1068" to-port="0"/>
		<edge from-layer="1068" from-port="1" to-layer="1069" to-port="0"/>
		<edge from-layer="1066" from-port="0" to-layer="1069" to-port="1"/>
		<edge from-layer="1065" from-port="5" to-layer="1070" to-port="0"/>
		<edge from-layer="1069" from-port="2" to-layer="1070" to-port="1"/>
		<edge from-layer="1071" from-port="0" to-layer="1072" to-port="0"/>
		<edge from-layer="1070" from-port="2" to-layer="1073" to-port="0"/>
		<edge from-layer="1072" from-port="1" to-layer="1073" to-port="1"/>
		<edge from-layer="1074" from-port="0" to-layer="1075" to-port="0"/>
		<edge from-layer="1073" from-port="2" to-layer="1076" to-port="0"/>
		<edge from-layer="1075" from-port="1" to-layer="1076" to-port="1"/>
		<edge from-layer="1076" from-port="2" to-layer="1077" to-port="0"/>
		<edge from-layer="1004" from-port="0" to-layer="1077" to-port="1"/>
		<edge from-layer="1005" from-port="0" to-layer="1077" to-port="2"/>
		<edge from-layer="1006" from-port="0" to-layer="1077" to-port="3"/>
		<edge from-layer="1007" from-port="0" to-layer="1077" to-port="4"/>
		<edge from-layer="1079" from-port="0" to-layer="1080" to-port="0"/>
		<edge from-layer="1080" from-port="1" to-layer="1081" to-port="0"/>
		<edge from-layer="1078" from-port="0" to-layer="1081" to-port="1"/>
		<edge from-layer="1077" from-port="5" to-layer="1082" to-port="0"/>
		<edge from-layer="1081" from-port="2" to-layer="1082" to-port="1"/>
		<edge from-layer="1083" from-port="0" to-layer="1084" to-port="0"/>
		<edge from-layer="1082" from-port="2" to-layer="1085" to-port="0"/>
		<edge from-layer="1084" from-port="1" to-layer="1085" to-port="1"/>
		<edge from-layer="1085" from-port="2" to-layer="1086" to-port="0"/>
		<edge from-layer="1086" from-port="1" to-layer="1087" to-port="0"/>
		<edge from-layer="1000" from-port="0" to-layer="1087" to-port="1"/>
		<edge from-layer="1001" from-port="0" to-layer="1087" to-port="2"/>
		<edge from-layer="1002" from-port="0" to-layer="1087" to-port="3"/>
		<edge from-layer="1003" from-port="0" to-layer="1087" to-port="4"/>
		<edge from-layer="1063" from-port="5" to-layer="1088" to-port="0"/>
		<edge from-layer="1087" from-port="5" to-layer="1088" to-port="1"/>
		<edge from-layer="1088" from-port="2" to-layer="1089" to-port="0"/>
		<edge from-layer="996" from-port="0" to-layer="1089" to-port="1"/>
		<edge from-layer="997" from-port="0" to-layer="1089" to-port="2"/>
		<edge from-layer="998" from-port="0" to-layer="1089" to-port="3"/>
		<edge from-layer="999" from-port="0" to-layer="1089" to-port="4"/>
		<edge from-layer="995" from-port="5" to-layer="1090" to-port="0"/>
		<edge from-layer="1089" from-port="5" to-layer="1090" to-port="1"/>
		<edge from-layer="1090" from-port="2" to-layer="1091" to-port="0"/>
		<edge from-layer="53" from-port="0" to-layer="1091" to-port="1"/>
		<edge from-layer="54" from-port="0" to-layer="1091" to-port="2"/>
		<edge from-layer="55" from-port="0" to-layer="1091" to-port="3"/>
		<edge from-layer="56" from-port="0" to-layer="1091" to-port="4"/>
		<edge from-layer="1121" from-port="0" to-layer="1122" to-port="0"/>
		<edge from-layer="1122" from-port="1" to-layer="1123" to-port="0"/>
		<edge from-layer="1120" from-port="0" to-layer="1123" to-port="1"/>
		<edge from-layer="1091" from-port="5" to-layer="1124" to-port="0"/>
		<edge from-layer="1123" from-port="2" to-layer="1124" to-port="1"/>
		<edge from-layer="1125" from-port="0" to-layer="1126" to-port="0"/>
		<edge from-layer="1124" from-port="2" to-layer="1127" to-port="0"/>
		<edge from-layer="1126" from-port="1" to-layer="1127" to-port="1"/>
		<edge from-layer="1128" from-port="0" to-layer="1129" to-port="0"/>
		<edge from-layer="1127" from-port="2" to-layer="1130" to-port="0"/>
		<edge from-layer="1129" from-port="1" to-layer="1130" to-port="1"/>
		<edge from-layer="1130" from-port="2" to-layer="1131" to-port="0"/>
		<edge from-layer="1116" from-port="0" to-layer="1131" to-port="1"/>
		<edge from-layer="1117" from-port="0" to-layer="1131" to-port="2"/>
		<edge from-layer="1118" from-port="0" to-layer="1131" to-port="3"/>
		<edge from-layer="1119" from-port="0" to-layer="1131" to-port="4"/>
		<edge from-layer="1133" from-port="0" to-layer="1134" to-port="0"/>
		<edge from-layer="1134" from-port="1" to-layer="1135" to-port="0"/>
		<edge from-layer="1132" from-port="0" to-layer="1135" to-port="1"/>
		<edge from-layer="1135" from-port="2" to-layer="1137" to-port="0"/>
		<edge from-layer="1137" from-port="1" to-layer="1140" to-port="0"/>
		<edge from-layer="1138" from-port="0" to-layer="1140" to-port="1"/>
		<edge from-layer="1139" from-port="0" to-layer="1140" to-port="2"/>
		<edge from-layer="1136" from-port="0" to-layer="1141" to-port="0"/>
		<edge from-layer="1140" from-port="3" to-layer="1141" to-port="1"/>
		<edge from-layer="1135" from-port="2" to-layer="1142" to-port="0"/>
		<edge from-layer="1141" from-port="2" to-layer="1142" to-port="1"/>
		<edge from-layer="1131" from-port="5" to-layer="1143" to-port="0"/>
		<edge from-layer="1142" from-port="2" to-layer="1143" to-port="1"/>
		<edge from-layer="1144" from-port="0" to-layer="1145" to-port="0"/>
		<edge from-layer="1143" from-port="2" to-layer="1146" to-port="0"/>
		<edge from-layer="1145" from-port="1" to-layer="1146" to-port="1"/>
		<edge from-layer="1147" from-port="0" to-layer="1148" to-port="0"/>
		<edge from-layer="1146" from-port="2" to-layer="1149" to-port="0"/>
		<edge from-layer="1148" from-port="1" to-layer="1149" to-port="1"/>
		<edge from-layer="1149" from-port="2" to-layer="1150" to-port="0"/>
		<edge from-layer="1112" from-port="0" to-layer="1150" to-port="1"/>
		<edge from-layer="1113" from-port="0" to-layer="1150" to-port="2"/>
		<edge from-layer="1114" from-port="0" to-layer="1150" to-port="3"/>
		<edge from-layer="1115" from-port="0" to-layer="1150" to-port="4"/>
		<edge from-layer="1152" from-port="0" to-layer="1153" to-port="0"/>
		<edge from-layer="1153" from-port="1" to-layer="1154" to-port="0"/>
		<edge from-layer="1151" from-port="0" to-layer="1154" to-port="1"/>
		<edge from-layer="1150" from-port="5" to-layer="1155" to-port="0"/>
		<edge from-layer="1154" from-port="2" to-layer="1155" to-port="1"/>
		<edge from-layer="1156" from-port="0" to-layer="1157" to-port="0"/>
		<edge from-layer="1155" from-port="2" to-layer="1158" to-port="0"/>
		<edge from-layer="1157" from-port="1" to-layer="1158" to-port="1"/>
		<edge from-layer="1158" from-port="2" to-layer="1159" to-port="0"/>
		<edge from-layer="1108" from-port="0" to-layer="1159" to-port="1"/>
		<edge from-layer="1109" from-port="0" to-layer="1159" to-port="2"/>
		<edge from-layer="1110" from-port="0" to-layer="1159" to-port="3"/>
		<edge from-layer="1111" from-port="0" to-layer="1159" to-port="4"/>
		<edge from-layer="1159" from-port="5" to-layer="1160" to-port="0"/>
		<edge from-layer="1160" from-port="1" to-layer="1161" to-port="0"/>
		<edge from-layer="1104" from-port="0" to-layer="1161" to-port="1"/>
		<edge from-layer="1105" from-port="0" to-layer="1161" to-port="2"/>
		<edge from-layer="1106" from-port="0" to-layer="1161" to-port="3"/>
		<edge from-layer="1107" from-port="0" to-layer="1161" to-port="4"/>
		<edge from-layer="1163" from-port="0" to-layer="1164" to-port="0"/>
		<edge from-layer="1164" from-port="1" to-layer="1165" to-port="0"/>
		<edge from-layer="1162" from-port="0" to-layer="1165" to-port="1"/>
		<edge from-layer="1161" from-port="5" to-layer="1166" to-port="0"/>
		<edge from-layer="1165" from-port="2" to-layer="1166" to-port="1"/>
		<edge from-layer="1167" from-port="0" to-layer="1168" to-port="0"/>
		<edge from-layer="1166" from-port="2" to-layer="1169" to-port="0"/>
		<edge from-layer="1168" from-port="1" to-layer="1169" to-port="1"/>
		<edge from-layer="1170" from-port="0" to-layer="1171" to-port="0"/>
		<edge from-layer="1169" from-port="2" to-layer="1172" to-port="0"/>
		<edge from-layer="1171" from-port="1" to-layer="1172" to-port="1"/>
		<edge from-layer="1172" from-port="2" to-layer="1173" to-port="0"/>
		<edge from-layer="1100" from-port="0" to-layer="1173" to-port="1"/>
		<edge from-layer="1101" from-port="0" to-layer="1173" to-port="2"/>
		<edge from-layer="1102" from-port="0" to-layer="1173" to-port="3"/>
		<edge from-layer="1103" from-port="0" to-layer="1173" to-port="4"/>
		<edge from-layer="1175" from-port="0" to-layer="1176" to-port="0"/>
		<edge from-layer="1176" from-port="1" to-layer="1177" to-port="0"/>
		<edge from-layer="1174" from-port="0" to-layer="1177" to-port="1"/>
		<edge from-layer="1173" from-port="5" to-layer="1178" to-port="0"/>
		<edge from-layer="1177" from-port="2" to-layer="1178" to-port="1"/>
		<edge from-layer="1179" from-port="0" to-layer="1180" to-port="0"/>
		<edge from-layer="1178" from-port="2" to-layer="1181" to-port="0"/>
		<edge from-layer="1180" from-port="1" to-layer="1181" to-port="1"/>
		<edge from-layer="1181" from-port="2" to-layer="1182" to-port="0"/>
		<edge from-layer="1182" from-port="1" to-layer="1183" to-port="0"/>
		<edge from-layer="1096" from-port="0" to-layer="1183" to-port="1"/>
		<edge from-layer="1097" from-port="0" to-layer="1183" to-port="2"/>
		<edge from-layer="1098" from-port="0" to-layer="1183" to-port="3"/>
		<edge from-layer="1099" from-port="0" to-layer="1183" to-port="4"/>
		<edge from-layer="1159" from-port="5" to-layer="1184" to-port="0"/>
		<edge from-layer="1183" from-port="5" to-layer="1184" to-port="1"/>
		<edge from-layer="1184" from-port="2" to-layer="1185" to-port="0"/>
		<edge from-layer="1092" from-port="0" to-layer="1185" to-port="1"/>
		<edge from-layer="1093" from-port="0" to-layer="1185" to-port="2"/>
		<edge from-layer="1094" from-port="0" to-layer="1185" to-port="3"/>
		<edge from-layer="1095" from-port="0" to-layer="1185" to-port="4"/>
		<edge from-layer="1091" from-port="5" to-layer="1186" to-port="0"/>
		<edge from-layer="1185" from-port="5" to-layer="1186" to-port="1"/>
		<edge from-layer="1186" from-port="2" to-layer="1187" to-port="0"/>
		<edge from-layer="49" from-port="0" to-layer="1187" to-port="1"/>
		<edge from-layer="50" from-port="0" to-layer="1187" to-port="2"/>
		<edge from-layer="51" from-port="0" to-layer="1187" to-port="3"/>
		<edge from-layer="52" from-port="0" to-layer="1187" to-port="4"/>
		<edge from-layer="1217" from-port="0" to-layer="1218" to-port="0"/>
		<edge from-layer="1218" from-port="1" to-layer="1219" to-port="0"/>
		<edge from-layer="1216" from-port="0" to-layer="1219" to-port="1"/>
		<edge from-layer="1187" from-port="5" to-layer="1220" to-port="0"/>
		<edge from-layer="1219" from-port="2" to-layer="1220" to-port="1"/>
		<edge from-layer="1221" from-port="0" to-layer="1222" to-port="0"/>
		<edge from-layer="1220" from-port="2" to-layer="1223" to-port="0"/>
		<edge from-layer="1222" from-port="1" to-layer="1223" to-port="1"/>
		<edge from-layer="1224" from-port="0" to-layer="1225" to-port="0"/>
		<edge from-layer="1223" from-port="2" to-layer="1226" to-port="0"/>
		<edge from-layer="1225" from-port="1" to-layer="1226" to-port="1"/>
		<edge from-layer="1226" from-port="2" to-layer="1227" to-port="0"/>
		<edge from-layer="1212" from-port="0" to-layer="1227" to-port="1"/>
		<edge from-layer="1213" from-port="0" to-layer="1227" to-port="2"/>
		<edge from-layer="1214" from-port="0" to-layer="1227" to-port="3"/>
		<edge from-layer="1215" from-port="0" to-layer="1227" to-port="4"/>
		<edge from-layer="1229" from-port="0" to-layer="1230" to-port="0"/>
		<edge from-layer="1230" from-port="1" to-layer="1231" to-port="0"/>
		<edge from-layer="1228" from-port="0" to-layer="1231" to-port="1"/>
		<edge from-layer="1231" from-port="2" to-layer="1233" to-port="0"/>
		<edge from-layer="1233" from-port="1" to-layer="1236" to-port="0"/>
		<edge from-layer="1234" from-port="0" to-layer="1236" to-port="1"/>
		<edge from-layer="1235" from-port="0" to-layer="1236" to-port="2"/>
		<edge from-layer="1232" from-port="0" to-layer="1237" to-port="0"/>
		<edge from-layer="1236" from-port="3" to-layer="1237" to-port="1"/>
		<edge from-layer="1231" from-port="2" to-layer="1238" to-port="0"/>
		<edge from-layer="1237" from-port="2" to-layer="1238" to-port="1"/>
		<edge from-layer="1227" from-port="5" to-layer="1239" to-port="0"/>
		<edge from-layer="1238" from-port="2" to-layer="1239" to-port="1"/>
		<edge from-layer="1240" from-port="0" to-layer="1241" to-port="0"/>
		<edge from-layer="1239" from-port="2" to-layer="1242" to-port="0"/>
		<edge from-layer="1241" from-port="1" to-layer="1242" to-port="1"/>
		<edge from-layer="1243" from-port="0" to-layer="1244" to-port="0"/>
		<edge from-layer="1242" from-port="2" to-layer="1245" to-port="0"/>
		<edge from-layer="1244" from-port="1" to-layer="1245" to-port="1"/>
		<edge from-layer="1245" from-port="2" to-layer="1246" to-port="0"/>
		<edge from-layer="1208" from-port="0" to-layer="1246" to-port="1"/>
		<edge from-layer="1209" from-port="0" to-layer="1246" to-port="2"/>
		<edge from-layer="1210" from-port="0" to-layer="1246" to-port="3"/>
		<edge from-layer="1211" from-port="0" to-layer="1246" to-port="4"/>
		<edge from-layer="1248" from-port="0" to-layer="1249" to-port="0"/>
		<edge from-layer="1249" from-port="1" to-layer="1250" to-port="0"/>
		<edge from-layer="1247" from-port="0" to-layer="1250" to-port="1"/>
		<edge from-layer="1246" from-port="5" to-layer="1251" to-port="0"/>
		<edge from-layer="1250" from-port="2" to-layer="1251" to-port="1"/>
		<edge from-layer="1252" from-port="0" to-layer="1253" to-port="0"/>
		<edge from-layer="1251" from-port="2" to-layer="1254" to-port="0"/>
		<edge from-layer="1253" from-port="1" to-layer="1254" to-port="1"/>
		<edge from-layer="1254" from-port="2" to-layer="1255" to-port="0"/>
		<edge from-layer="1204" from-port="0" to-layer="1255" to-port="1"/>
		<edge from-layer="1205" from-port="0" to-layer="1255" to-port="2"/>
		<edge from-layer="1206" from-port="0" to-layer="1255" to-port="3"/>
		<edge from-layer="1207" from-port="0" to-layer="1255" to-port="4"/>
		<edge from-layer="1255" from-port="5" to-layer="1256" to-port="0"/>
		<edge from-layer="1256" from-port="1" to-layer="1257" to-port="0"/>
		<edge from-layer="1200" from-port="0" to-layer="1257" to-port="1"/>
		<edge from-layer="1201" from-port="0" to-layer="1257" to-port="2"/>
		<edge from-layer="1202" from-port="0" to-layer="1257" to-port="3"/>
		<edge from-layer="1203" from-port="0" to-layer="1257" to-port="4"/>
		<edge from-layer="1259" from-port="0" to-layer="1260" to-port="0"/>
		<edge from-layer="1260" from-port="1" to-layer="1261" to-port="0"/>
		<edge from-layer="1258" from-port="0" to-layer="1261" to-port="1"/>
		<edge from-layer="1257" from-port="5" to-layer="1262" to-port="0"/>
		<edge from-layer="1261" from-port="2" to-layer="1262" to-port="1"/>
		<edge from-layer="1263" from-port="0" to-layer="1264" to-port="0"/>
		<edge from-layer="1262" from-port="2" to-layer="1265" to-port="0"/>
		<edge from-layer="1264" from-port="1" to-layer="1265" to-port="1"/>
		<edge from-layer="1266" from-port="0" to-layer="1267" to-port="0"/>
		<edge from-layer="1265" from-port="2" to-layer="1268" to-port="0"/>
		<edge from-layer="1267" from-port="1" to-layer="1268" to-port="1"/>
		<edge from-layer="1268" from-port="2" to-layer="1269" to-port="0"/>
		<edge from-layer="1196" from-port="0" to-layer="1269" to-port="1"/>
		<edge from-layer="1197" from-port="0" to-layer="1269" to-port="2"/>
		<edge from-layer="1198" from-port="0" to-layer="1269" to-port="3"/>
		<edge from-layer="1199" from-port="0" to-layer="1269" to-port="4"/>
		<edge from-layer="1271" from-port="0" to-layer="1272" to-port="0"/>
		<edge from-layer="1272" from-port="1" to-layer="1273" to-port="0"/>
		<edge from-layer="1270" from-port="0" to-layer="1273" to-port="1"/>
		<edge from-layer="1269" from-port="5" to-layer="1274" to-port="0"/>
		<edge from-layer="1273" from-port="2" to-layer="1274" to-port="1"/>
		<edge from-layer="1275" from-port="0" to-layer="1276" to-port="0"/>
		<edge from-layer="1274" from-port="2" to-layer="1277" to-port="0"/>
		<edge from-layer="1276" from-port="1" to-layer="1277" to-port="1"/>
		<edge from-layer="1277" from-port="2" to-layer="1278" to-port="0"/>
		<edge from-layer="1278" from-port="1" to-layer="1279" to-port="0"/>
		<edge from-layer="1192" from-port="0" to-layer="1279" to-port="1"/>
		<edge from-layer="1193" from-port="0" to-layer="1279" to-port="2"/>
		<edge from-layer="1194" from-port="0" to-layer="1279" to-port="3"/>
		<edge from-layer="1195" from-port="0" to-layer="1279" to-port="4"/>
		<edge from-layer="1255" from-port="5" to-layer="1280" to-port="0"/>
		<edge from-layer="1279" from-port="5" to-layer="1280" to-port="1"/>
		<edge from-layer="1280" from-port="2" to-layer="1281" to-port="0"/>
		<edge from-layer="1188" from-port="0" to-layer="1281" to-port="1"/>
		<edge from-layer="1189" from-port="0" to-layer="1281" to-port="2"/>
		<edge from-layer="1190" from-port="0" to-layer="1281" to-port="3"/>
		<edge from-layer="1191" from-port="0" to-layer="1281" to-port="4"/>
		<edge from-layer="1187" from-port="5" to-layer="1282" to-port="0"/>
		<edge from-layer="1281" from-port="5" to-layer="1282" to-port="1"/>
		<edge from-layer="1282" from-port="2" to-layer="1283" to-port="0"/>
		<edge from-layer="45" from-port="0" to-layer="1283" to-port="1"/>
		<edge from-layer="46" from-port="0" to-layer="1283" to-port="2"/>
		<edge from-layer="47" from-port="0" to-layer="1283" to-port="3"/>
		<edge from-layer="48" from-port="0" to-layer="1283" to-port="4"/>
		<edge from-layer="1285" from-port="0" to-layer="1286" to-port="0"/>
		<edge from-layer="1286" from-port="1" to-layer="1287" to-port="0"/>
		<edge from-layer="1284" from-port="0" to-layer="1287" to-port="1"/>
		<edge from-layer="1283" from-port="5" to-layer="1288" to-port="0"/>
		<edge from-layer="1287" from-port="2" to-layer="1288" to-port="1"/>
		<edge from-layer="1289" from-port="0" to-layer="1290" to-port="0"/>
		<edge from-layer="1288" from-port="2" to-layer="1291" to-port="0"/>
		<edge from-layer="1290" from-port="1" to-layer="1291" to-port="1"/>
		<edge from-layer="1292" from-port="0" to-layer="1293" to-port="0"/>
		<edge from-layer="1291" from-port="2" to-layer="1294" to-port="0"/>
		<edge from-layer="1293" from-port="1" to-layer="1294" to-port="1"/>
		<edge from-layer="1294" from-port="2" to-layer="1295" to-port="0"/>
		<edge from-layer="41" from-port="0" to-layer="1295" to-port="1"/>
		<edge from-layer="42" from-port="0" to-layer="1295" to-port="2"/>
		<edge from-layer="43" from-port="0" to-layer="1295" to-port="3"/>
		<edge from-layer="44" from-port="0" to-layer="1295" to-port="4"/>
		<edge from-layer="1297" from-port="0" to-layer="1298" to-port="0"/>
		<edge from-layer="1298" from-port="1" to-layer="1299" to-port="0"/>
		<edge from-layer="1296" from-port="0" to-layer="1299" to-port="1"/>
		<edge from-layer="1299" from-port="2" to-layer="1301" to-port="0"/>
		<edge from-layer="1301" from-port="1" to-layer="1304" to-port="0"/>
		<edge from-layer="1302" from-port="0" to-layer="1304" to-port="1"/>
		<edge from-layer="1303" from-port="0" to-layer="1304" to-port="2"/>
		<edge from-layer="1300" from-port="0" to-layer="1305" to-port="0"/>
		<edge from-layer="1304" from-port="3" to-layer="1305" to-port="1"/>
		<edge from-layer="1299" from-port="2" to-layer="1306" to-port="0"/>
		<edge from-layer="1305" from-port="2" to-layer="1306" to-port="1"/>
		<edge from-layer="1295" from-port="5" to-layer="1307" to-port="0"/>
		<edge from-layer="1306" from-port="2" to-layer="1307" to-port="1"/>
		<edge from-layer="1308" from-port="0" to-layer="1309" to-port="0"/>
		<edge from-layer="1307" from-port="2" to-layer="1310" to-port="0"/>
		<edge from-layer="1309" from-port="1" to-layer="1310" to-port="1"/>
		<edge from-layer="1311" from-port="0" to-layer="1312" to-port="0"/>
		<edge from-layer="1310" from-port="2" to-layer="1313" to-port="0"/>
		<edge from-layer="1312" from-port="1" to-layer="1313" to-port="1"/>
		<edge from-layer="1313" from-port="2" to-layer="1314" to-port="0"/>
		<edge from-layer="37" from-port="0" to-layer="1314" to-port="1"/>
		<edge from-layer="38" from-port="0" to-layer="1314" to-port="2"/>
		<edge from-layer="39" from-port="0" to-layer="1314" to-port="3"/>
		<edge from-layer="40" from-port="0" to-layer="1314" to-port="4"/>
		<edge from-layer="1316" from-port="0" to-layer="1317" to-port="0"/>
		<edge from-layer="1317" from-port="1" to-layer="1318" to-port="0"/>
		<edge from-layer="1315" from-port="0" to-layer="1318" to-port="1"/>
		<edge from-layer="1314" from-port="5" to-layer="1319" to-port="0"/>
		<edge from-layer="1318" from-port="2" to-layer="1319" to-port="1"/>
		<edge from-layer="1320" from-port="0" to-layer="1321" to-port="0"/>
		<edge from-layer="1319" from-port="2" to-layer="1322" to-port="0"/>
		<edge from-layer="1321" from-port="1" to-layer="1322" to-port="1"/>
		<edge from-layer="1322" from-port="2" to-layer="1323" to-port="0"/>
		<edge from-layer="33" from-port="0" to-layer="1323" to-port="1"/>
		<edge from-layer="34" from-port="0" to-layer="1323" to-port="2"/>
		<edge from-layer="35" from-port="0" to-layer="1323" to-port="3"/>
		<edge from-layer="36" from-port="0" to-layer="1323" to-port="4"/>
		<edge from-layer="1323" from-port="5" to-layer="1324" to-port="0"/>
		<edge from-layer="1324" from-port="1" to-layer="1325" to-port="0"/>
		<edge from-layer="29" from-port="0" to-layer="1325" to-port="1"/>
		<edge from-layer="30" from-port="0" to-layer="1325" to-port="2"/>
		<edge from-layer="31" from-port="0" to-layer="1325" to-port="3"/>
		<edge from-layer="32" from-port="0" to-layer="1325" to-port="4"/>
		<edge from-layer="1327" from-port="0" to-layer="1328" to-port="0"/>
		<edge from-layer="1328" from-port="1" to-layer="1329" to-port="0"/>
		<edge from-layer="1326" from-port="0" to-layer="1329" to-port="1"/>
		<edge from-layer="1325" from-port="5" to-layer="1330" to-port="0"/>
		<edge from-layer="1329" from-port="2" to-layer="1330" to-port="1"/>
		<edge from-layer="1331" from-port="0" to-layer="1332" to-port="0"/>
		<edge from-layer="1330" from-port="2" to-layer="1333" to-port="0"/>
		<edge from-layer="1332" from-port="1" to-layer="1333" to-port="1"/>
		<edge from-layer="1334" from-port="0" to-layer="1335" to-port="0"/>
		<edge from-layer="1333" from-port="2" to-layer="1336" to-port="0"/>
		<edge from-layer="1335" from-port="1" to-layer="1336" to-port="1"/>
		<edge from-layer="1336" from-port="2" to-layer="1337" to-port="0"/>
		<edge from-layer="25" from-port="0" to-layer="1337" to-port="1"/>
		<edge from-layer="26" from-port="0" to-layer="1337" to-port="2"/>
		<edge from-layer="27" from-port="0" to-layer="1337" to-port="3"/>
		<edge from-layer="28" from-port="0" to-layer="1337" to-port="4"/>
		<edge from-layer="1339" from-port="0" to-layer="1340" to-port="0"/>
		<edge from-layer="1340" from-port="1" to-layer="1341" to-port="0"/>
		<edge from-layer="1338" from-port="0" to-layer="1341" to-port="1"/>
		<edge from-layer="1337" from-port="5" to-layer="1342" to-port="0"/>
		<edge from-layer="1341" from-port="2" to-layer="1342" to-port="1"/>
		<edge from-layer="1343" from-port="0" to-layer="1344" to-port="0"/>
		<edge from-layer="1342" from-port="2" to-layer="1345" to-port="0"/>
		<edge from-layer="1344" from-port="1" to-layer="1345" to-port="1"/>
		<edge from-layer="1345" from-port="2" to-layer="1346" to-port="0"/>
		<edge from-layer="1346" from-port="1" to-layer="1347" to-port="0"/>
		<edge from-layer="21" from-port="0" to-layer="1347" to-port="1"/>
		<edge from-layer="22" from-port="0" to-layer="1347" to-port="2"/>
		<edge from-layer="23" from-port="0" to-layer="1347" to-port="3"/>
		<edge from-layer="24" from-port="0" to-layer="1347" to-port="4"/>
		<edge from-layer="1323" from-port="5" to-layer="1348" to-port="0"/>
		<edge from-layer="1347" from-port="5" to-layer="1348" to-port="1"/>
		<edge from-layer="1348" from-port="2" to-layer="1349" to-port="0"/>
		<edge from-layer="17" from-port="0" to-layer="1349" to-port="1"/>
		<edge from-layer="18" from-port="0" to-layer="1349" to-port="2"/>
		<edge from-layer="19" from-port="0" to-layer="1349" to-port="3"/>
		<edge from-layer="20" from-port="0" to-layer="1349" to-port="4"/>
		<edge from-layer="1379" from-port="0" to-layer="1380" to-port="0"/>
		<edge from-layer="1380" from-port="1" to-layer="1381" to-port="0"/>
		<edge from-layer="1378" from-port="0" to-layer="1381" to-port="1"/>
		<edge from-layer="1349" from-port="5" to-layer="1382" to-port="0"/>
		<edge from-layer="1381" from-port="2" to-layer="1382" to-port="1"/>
		<edge from-layer="1383" from-port="0" to-layer="1384" to-port="0"/>
		<edge from-layer="1382" from-port="2" to-layer="1385" to-port="0"/>
		<edge from-layer="1384" from-port="1" to-layer="1385" to-port="1"/>
		<edge from-layer="1386" from-port="0" to-layer="1387" to-port="0"/>
		<edge from-layer="1385" from-port="2" to-layer="1388" to-port="0"/>
		<edge from-layer="1387" from-port="1" to-layer="1388" to-port="1"/>
		<edge from-layer="1388" from-port="2" to-layer="1389" to-port="0"/>
		<edge from-layer="1374" from-port="0" to-layer="1389" to-port="1"/>
		<edge from-layer="1375" from-port="0" to-layer="1389" to-port="2"/>
		<edge from-layer="1376" from-port="0" to-layer="1389" to-port="3"/>
		<edge from-layer="1377" from-port="0" to-layer="1389" to-port="4"/>
		<edge from-layer="1391" from-port="0" to-layer="1392" to-port="0"/>
		<edge from-layer="1392" from-port="1" to-layer="1393" to-port="0"/>
		<edge from-layer="1390" from-port="0" to-layer="1393" to-port="1"/>
		<edge from-layer="1393" from-port="2" to-layer="1395" to-port="0"/>
		<edge from-layer="1395" from-port="1" to-layer="1398" to-port="0"/>
		<edge from-layer="1396" from-port="0" to-layer="1398" to-port="1"/>
		<edge from-layer="1397" from-port="0" to-layer="1398" to-port="2"/>
		<edge from-layer="1394" from-port="0" to-layer="1399" to-port="0"/>
		<edge from-layer="1398" from-port="3" to-layer="1399" to-port="1"/>
		<edge from-layer="1393" from-port="2" to-layer="1400" to-port="0"/>
		<edge from-layer="1399" from-port="2" to-layer="1400" to-port="1"/>
		<edge from-layer="1389" from-port="5" to-layer="1401" to-port="0"/>
		<edge from-layer="1400" from-port="2" to-layer="1401" to-port="1"/>
		<edge from-layer="1402" from-port="0" to-layer="1403" to-port="0"/>
		<edge from-layer="1401" from-port="2" to-layer="1404" to-port="0"/>
		<edge from-layer="1403" from-port="1" to-layer="1404" to-port="1"/>
		<edge from-layer="1405" from-port="0" to-layer="1406" to-port="0"/>
		<edge from-layer="1404" from-port="2" to-layer="1407" to-port="0"/>
		<edge from-layer="1406" from-port="1" to-layer="1407" to-port="1"/>
		<edge from-layer="1407" from-port="2" to-layer="1408" to-port="0"/>
		<edge from-layer="1370" from-port="0" to-layer="1408" to-port="1"/>
		<edge from-layer="1371" from-port="0" to-layer="1408" to-port="2"/>
		<edge from-layer="1372" from-port="0" to-layer="1408" to-port="3"/>
		<edge from-layer="1373" from-port="0" to-layer="1408" to-port="4"/>
		<edge from-layer="1410" from-port="0" to-layer="1411" to-port="0"/>
		<edge from-layer="1411" from-port="1" to-layer="1412" to-port="0"/>
		<edge from-layer="1409" from-port="0" to-layer="1412" to-port="1"/>
		<edge from-layer="1408" from-port="5" to-layer="1413" to-port="0"/>
		<edge from-layer="1412" from-port="2" to-layer="1413" to-port="1"/>
		<edge from-layer="1414" from-port="0" to-layer="1415" to-port="0"/>
		<edge from-layer="1413" from-port="2" to-layer="1416" to-port="0"/>
		<edge from-layer="1415" from-port="1" to-layer="1416" to-port="1"/>
		<edge from-layer="1416" from-port="2" to-layer="1417" to-port="0"/>
		<edge from-layer="1366" from-port="0" to-layer="1417" to-port="1"/>
		<edge from-layer="1367" from-port="0" to-layer="1417" to-port="2"/>
		<edge from-layer="1368" from-port="0" to-layer="1417" to-port="3"/>
		<edge from-layer="1369" from-port="0" to-layer="1417" to-port="4"/>
		<edge from-layer="1417" from-port="5" to-layer="1418" to-port="0"/>
		<edge from-layer="1418" from-port="1" to-layer="1419" to-port="0"/>
		<edge from-layer="1362" from-port="0" to-layer="1419" to-port="1"/>
		<edge from-layer="1363" from-port="0" to-layer="1419" to-port="2"/>
		<edge from-layer="1364" from-port="0" to-layer="1419" to-port="3"/>
		<edge from-layer="1365" from-port="0" to-layer="1419" to-port="4"/>
		<edge from-layer="1421" from-port="0" to-layer="1422" to-port="0"/>
		<edge from-layer="1422" from-port="1" to-layer="1423" to-port="0"/>
		<edge from-layer="1420" from-port="0" to-layer="1423" to-port="1"/>
		<edge from-layer="1419" from-port="5" to-layer="1424" to-port="0"/>
		<edge from-layer="1423" from-port="2" to-layer="1424" to-port="1"/>
		<edge from-layer="1425" from-port="0" to-layer="1426" to-port="0"/>
		<edge from-layer="1424" from-port="2" to-layer="1427" to-port="0"/>
		<edge from-layer="1426" from-port="1" to-layer="1427" to-port="1"/>
		<edge from-layer="1428" from-port="0" to-layer="1429" to-port="0"/>
		<edge from-layer="1427" from-port="2" to-layer="1430" to-port="0"/>
		<edge from-layer="1429" from-port="1" to-layer="1430" to-port="1"/>
		<edge from-layer="1430" from-port="2" to-layer="1431" to-port="0"/>
		<edge from-layer="1358" from-port="0" to-layer="1431" to-port="1"/>
		<edge from-layer="1359" from-port="0" to-layer="1431" to-port="2"/>
		<edge from-layer="1360" from-port="0" to-layer="1431" to-port="3"/>
		<edge from-layer="1361" from-port="0" to-layer="1431" to-port="4"/>
		<edge from-layer="1433" from-port="0" to-layer="1434" to-port="0"/>
		<edge from-layer="1434" from-port="1" to-layer="1435" to-port="0"/>
		<edge from-layer="1432" from-port="0" to-layer="1435" to-port="1"/>
		<edge from-layer="1431" from-port="5" to-layer="1436" to-port="0"/>
		<edge from-layer="1435" from-port="2" to-layer="1436" to-port="1"/>
		<edge from-layer="1437" from-port="0" to-layer="1438" to-port="0"/>
		<edge from-layer="1436" from-port="2" to-layer="1439" to-port="0"/>
		<edge from-layer="1438" from-port="1" to-layer="1439" to-port="1"/>
		<edge from-layer="1439" from-port="2" to-layer="1440" to-port="0"/>
		<edge from-layer="1440" from-port="1" to-layer="1441" to-port="0"/>
		<edge from-layer="1354" from-port="0" to-layer="1441" to-port="1"/>
		<edge from-layer="1355" from-port="0" to-layer="1441" to-port="2"/>
		<edge from-layer="1356" from-port="0" to-layer="1441" to-port="3"/>
		<edge from-layer="1357" from-port="0" to-layer="1441" to-port="4"/>
		<edge from-layer="1417" from-port="5" to-layer="1442" to-port="0"/>
		<edge from-layer="1441" from-port="5" to-layer="1442" to-port="1"/>
		<edge from-layer="1442" from-port="2" to-layer="1443" to-port="0"/>
		<edge from-layer="1350" from-port="0" to-layer="1443" to-port="1"/>
		<edge from-layer="1351" from-port="0" to-layer="1443" to-port="2"/>
		<edge from-layer="1352" from-port="0" to-layer="1443" to-port="3"/>
		<edge from-layer="1353" from-port="0" to-layer="1443" to-port="4"/>
		<edge from-layer="1349" from-port="5" to-layer="1444" to-port="0"/>
		<edge from-layer="1443" from-port="5" to-layer="1444" to-port="1"/>
		<edge from-layer="1444" from-port="2" to-layer="1445" to-port="0"/>
		<edge from-layer="13" from-port="0" to-layer="1445" to-port="1"/>
		<edge from-layer="14" from-port="0" to-layer="1445" to-port="2"/>
		<edge from-layer="15" from-port="0" to-layer="1445" to-port="3"/>
		<edge from-layer="16" from-port="0" to-layer="1445" to-port="4"/>
		<edge from-layer="1475" from-port="0" to-layer="1476" to-port="0"/>
		<edge from-layer="1476" from-port="1" to-layer="1477" to-port="0"/>
		<edge from-layer="1474" from-port="0" to-layer="1477" to-port="1"/>
		<edge from-layer="1445" from-port="5" to-layer="1478" to-port="0"/>
		<edge from-layer="1477" from-port="2" to-layer="1478" to-port="1"/>
		<edge from-layer="1479" from-port="0" to-layer="1480" to-port="0"/>
		<edge from-layer="1478" from-port="2" to-layer="1481" to-port="0"/>
		<edge from-layer="1480" from-port="1" to-layer="1481" to-port="1"/>
		<edge from-layer="1482" from-port="0" to-layer="1483" to-port="0"/>
		<edge from-layer="1481" from-port="2" to-layer="1484" to-port="0"/>
		<edge from-layer="1483" from-port="1" to-layer="1484" to-port="1"/>
		<edge from-layer="1484" from-port="2" to-layer="1485" to-port="0"/>
		<edge from-layer="1470" from-port="0" to-layer="1485" to-port="1"/>
		<edge from-layer="1471" from-port="0" to-layer="1485" to-port="2"/>
		<edge from-layer="1472" from-port="0" to-layer="1485" to-port="3"/>
		<edge from-layer="1473" from-port="0" to-layer="1485" to-port="4"/>
		<edge from-layer="1487" from-port="0" to-layer="1488" to-port="0"/>
		<edge from-layer="1488" from-port="1" to-layer="1489" to-port="0"/>
		<edge from-layer="1486" from-port="0" to-layer="1489" to-port="1"/>
		<edge from-layer="1489" from-port="2" to-layer="1491" to-port="0"/>
		<edge from-layer="1491" from-port="1" to-layer="1494" to-port="0"/>
		<edge from-layer="1492" from-port="0" to-layer="1494" to-port="1"/>
		<edge from-layer="1493" from-port="0" to-layer="1494" to-port="2"/>
		<edge from-layer="1490" from-port="0" to-layer="1495" to-port="0"/>
		<edge from-layer="1494" from-port="3" to-layer="1495" to-port="1"/>
		<edge from-layer="1489" from-port="2" to-layer="1496" to-port="0"/>
		<edge from-layer="1495" from-port="2" to-layer="1496" to-port="1"/>
		<edge from-layer="1485" from-port="5" to-layer="1497" to-port="0"/>
		<edge from-layer="1496" from-port="2" to-layer="1497" to-port="1"/>
		<edge from-layer="1498" from-port="0" to-layer="1499" to-port="0"/>
		<edge from-layer="1497" from-port="2" to-layer="1500" to-port="0"/>
		<edge from-layer="1499" from-port="1" to-layer="1500" to-port="1"/>
		<edge from-layer="1501" from-port="0" to-layer="1502" to-port="0"/>
		<edge from-layer="1500" from-port="2" to-layer="1503" to-port="0"/>
		<edge from-layer="1502" from-port="1" to-layer="1503" to-port="1"/>
		<edge from-layer="1503" from-port="2" to-layer="1504" to-port="0"/>
		<edge from-layer="1466" from-port="0" to-layer="1504" to-port="1"/>
		<edge from-layer="1467" from-port="0" to-layer="1504" to-port="2"/>
		<edge from-layer="1468" from-port="0" to-layer="1504" to-port="3"/>
		<edge from-layer="1469" from-port="0" to-layer="1504" to-port="4"/>
		<edge from-layer="1506" from-port="0" to-layer="1507" to-port="0"/>
		<edge from-layer="1507" from-port="1" to-layer="1508" to-port="0"/>
		<edge from-layer="1505" from-port="0" to-layer="1508" to-port="1"/>
		<edge from-layer="1504" from-port="5" to-layer="1509" to-port="0"/>
		<edge from-layer="1508" from-port="2" to-layer="1509" to-port="1"/>
		<edge from-layer="1510" from-port="0" to-layer="1511" to-port="0"/>
		<edge from-layer="1509" from-port="2" to-layer="1512" to-port="0"/>
		<edge from-layer="1511" from-port="1" to-layer="1512" to-port="1"/>
		<edge from-layer="1512" from-port="2" to-layer="1513" to-port="0"/>
		<edge from-layer="1462" from-port="0" to-layer="1513" to-port="1"/>
		<edge from-layer="1463" from-port="0" to-layer="1513" to-port="2"/>
		<edge from-layer="1464" from-port="0" to-layer="1513" to-port="3"/>
		<edge from-layer="1465" from-port="0" to-layer="1513" to-port="4"/>
		<edge from-layer="1513" from-port="5" to-layer="1514" to-port="0"/>
		<edge from-layer="1514" from-port="1" to-layer="1515" to-port="0"/>
		<edge from-layer="1458" from-port="0" to-layer="1515" to-port="1"/>
		<edge from-layer="1459" from-port="0" to-layer="1515" to-port="2"/>
		<edge from-layer="1460" from-port="0" to-layer="1515" to-port="3"/>
		<edge from-layer="1461" from-port="0" to-layer="1515" to-port="4"/>
		<edge from-layer="1517" from-port="0" to-layer="1518" to-port="0"/>
		<edge from-layer="1518" from-port="1" to-layer="1519" to-port="0"/>
		<edge from-layer="1516" from-port="0" to-layer="1519" to-port="1"/>
		<edge from-layer="1515" from-port="5" to-layer="1520" to-port="0"/>
		<edge from-layer="1519" from-port="2" to-layer="1520" to-port="1"/>
		<edge from-layer="1521" from-port="0" to-layer="1522" to-port="0"/>
		<edge from-layer="1520" from-port="2" to-layer="1523" to-port="0"/>
		<edge from-layer="1522" from-port="1" to-layer="1523" to-port="1"/>
		<edge from-layer="1524" from-port="0" to-layer="1525" to-port="0"/>
		<edge from-layer="1523" from-port="2" to-layer="1526" to-port="0"/>
		<edge from-layer="1525" from-port="1" to-layer="1526" to-port="1"/>
		<edge from-layer="1526" from-port="2" to-layer="1527" to-port="0"/>
		<edge from-layer="1454" from-port="0" to-layer="1527" to-port="1"/>
		<edge from-layer="1455" from-port="0" to-layer="1527" to-port="2"/>
		<edge from-layer="1456" from-port="0" to-layer="1527" to-port="3"/>
		<edge from-layer="1457" from-port="0" to-layer="1527" to-port="4"/>
		<edge from-layer="1529" from-port="0" to-layer="1530" to-port="0"/>
		<edge from-layer="1530" from-port="1" to-layer="1531" to-port="0"/>
		<edge from-layer="1528" from-port="0" to-layer="1531" to-port="1"/>
		<edge from-layer="1527" from-port="5" to-layer="1532" to-port="0"/>
		<edge from-layer="1531" from-port="2" to-layer="1532" to-port="1"/>
		<edge from-layer="1533" from-port="0" to-layer="1534" to-port="0"/>
		<edge from-layer="1532" from-port="2" to-layer="1535" to-port="0"/>
		<edge from-layer="1534" from-port="1" to-layer="1535" to-port="1"/>
		<edge from-layer="1535" from-port="2" to-layer="1536" to-port="0"/>
		<edge from-layer="1536" from-port="1" to-layer="1537" to-port="0"/>
		<edge from-layer="1450" from-port="0" to-layer="1537" to-port="1"/>
		<edge from-layer="1451" from-port="0" to-layer="1537" to-port="2"/>
		<edge from-layer="1452" from-port="0" to-layer="1537" to-port="3"/>
		<edge from-layer="1453" from-port="0" to-layer="1537" to-port="4"/>
		<edge from-layer="1513" from-port="5" to-layer="1538" to-port="0"/>
		<edge from-layer="1537" from-port="5" to-layer="1538" to-port="1"/>
		<edge from-layer="1538" from-port="2" to-layer="1539" to-port="0"/>
		<edge from-layer="1446" from-port="0" to-layer="1539" to-port="1"/>
		<edge from-layer="1447" from-port="0" to-layer="1539" to-port="2"/>
		<edge from-layer="1448" from-port="0" to-layer="1539" to-port="3"/>
		<edge from-layer="1449" from-port="0" to-layer="1539" to-port="4"/>
		<edge from-layer="1445" from-port="5" to-layer="1540" to-port="0"/>
		<edge from-layer="1539" from-port="5" to-layer="1540" to-port="1"/>
		<edge from-layer="1540" from-port="2" to-layer="1541" to-port="0"/>
		<edge from-layer="9" from-port="0" to-layer="1541" to-port="1"/>
		<edge from-layer="10" from-port="0" to-layer="1541" to-port="2"/>
		<edge from-layer="11" from-port="0" to-layer="1541" to-port="3"/>
		<edge from-layer="12" from-port="0" to-layer="1541" to-port="4"/>
		<edge from-layer="1543" from-port="0" to-layer="1544" to-port="0"/>
		<edge from-layer="1544" from-port="1" to-layer="1545" to-port="0"/>
		<edge from-layer="1542" from-port="0" to-layer="1545" to-port="1"/>
		<edge from-layer="1541" from-port="5" to-layer="1546" to-port="0"/>
		<edge from-layer="1545" from-port="2" to-layer="1546" to-port="1"/>
		<edge from-layer="1547" from-port="0" to-layer="1548" to-port="0"/>
		<edge from-layer="1546" from-port="2" to-layer="1549" to-port="0"/>
		<edge from-layer="1548" from-port="1" to-layer="1549" to-port="1"/>
		<edge from-layer="1550" from-port="0" to-layer="1551" to-port="0"/>
		<edge from-layer="1549" from-port="2" to-layer="1552" to-port="0"/>
		<edge from-layer="1551" from-port="1" to-layer="1552" to-port="1"/>
		<edge from-layer="1552" from-port="2" to-layer="1553" to-port="0"/>
		<edge from-layer="5" from-port="0" to-layer="1553" to-port="1"/>
		<edge from-layer="6" from-port="0" to-layer="1553" to-port="2"/>
		<edge from-layer="7" from-port="0" to-layer="1553" to-port="3"/>
		<edge from-layer="8" from-port="0" to-layer="1553" to-port="4"/>
		<edge from-layer="1555" from-port="0" to-layer="1556" to-port="0"/>
		<edge from-layer="1556" from-port="1" to-layer="1557" to-port="0"/>
		<edge from-layer="1554" from-port="0" to-layer="1557" to-port="1"/>
		<edge from-layer="1557" from-port="2" to-layer="1559" to-port="0"/>
		<edge from-layer="1559" from-port="1" to-layer="1562" to-port="0"/>
		<edge from-layer="1560" from-port="0" to-layer="1562" to-port="1"/>
		<edge from-layer="1561" from-port="0" to-layer="1562" to-port="2"/>
		<edge from-layer="1558" from-port="0" to-layer="1563" to-port="0"/>
		<edge from-layer="1562" from-port="3" to-layer="1563" to-port="1"/>
		<edge from-layer="1557" from-port="2" to-layer="1564" to-port="0"/>
		<edge from-layer="1563" from-port="2" to-layer="1564" to-port="1"/>
		<edge from-layer="1553" from-port="5" to-layer="1565" to-port="0"/>
		<edge from-layer="1564" from-port="2" to-layer="1565" to-port="1"/>
		<edge from-layer="1566" from-port="0" to-layer="1567" to-port="0"/>
		<edge from-layer="1565" from-port="2" to-layer="1568" to-port="0"/>
		<edge from-layer="1567" from-port="1" to-layer="1568" to-port="1"/>
		<edge from-layer="1568" from-port="2" to-layer="1569" to-port="0"/>
		<edge from-layer="1" from-port="0" to-layer="1569" to-port="1"/>
		<edge from-layer="2" from-port="0" to-layer="1569" to-port="2"/>
		<edge from-layer="3" from-port="0" to-layer="1569" to-port="3"/>
		<edge from-layer="4" from-port="0" to-layer="1569" to-port="4"/>
		<edge from-layer="1571" from-port="0" to-layer="1572" to-port="0"/>
		<edge from-layer="1572" from-port="1" to-layer="1573" to-port="0"/>
		<edge from-layer="1570" from-port="0" to-layer="1573" to-port="1"/>
		<edge from-layer="1569" from-port="5" to-layer="1574" to-port="0"/>
		<edge from-layer="1573" from-port="2" to-layer="1574" to-port="1"/>
		<edge from-layer="1574" from-port="2" to-layer="1575" to-port="0"/>
		<edge from-layer="0" from-port="0" to-layer="1575" to-port="1"/>
		<edge from-layer="1575" from-port="2" to-layer="1576" to-port="0"/>
	</edges>
	<meta_data>
		<MO_version value="custom_HEAD_0e242b324458ed332f0907ac6d88fc24b610d9b9"/>
		<Runtime_version value="2022.3.0-000-0e242b32445-HEAD"/>
		<legacy_path value="True"/>
		<cli_parameters>
			<caffe_parser_path value="DIR"/>
			<data_type value="FP16"/>
			<disable_nhwc_to_nchw value="False"/>
			<disable_omitting_optional value="False"/>
			<disable_resnet_optimization value="False"/>
			<disable_weights_compression value="False"/>
			<enable_concat_optimization value="False"/>
			<enable_flattening_nested_params value="False"/>
			<enable_ssd_gluoncv value="False"/>
			<extensions value="['/opt/home/sys_k8sworker/workspace/DL-Benchmark/try/convert']"/>
			<framework value="onnx"/>
			<input value="0"/>
			<input_model value="DIR/Mobilenet_se_focal_121000.onnx"/>
			<input_model_is_text value="False"/>
			<input_shape value="[1,3,128,128]"/>
			<k value="DIR/CustomLayersMapping.xml"/>
			<layout value="0(nchw)"/>
			<legacy_mxnet_model value="False"/>
			<log_level value="ERROR"/>
			<mean_values value="()"/>
			<model_name value="face-reidentification-retail-0095"/>
			<output_dir value="DIR"/>
			<progress value="False"/>
			<remove_memory value="False"/>
			<remove_output_softmax value="False"/>
			<reverse_input_channels value="True"/>
			<save_params_from_nd value="False"/>
			<scale_values value="0[255.0]"/>
			<silent value="True"/>
			<source_layout value="()"/>
			<static_shape value="False"/>
			<stream_output value="False"/>
			<target_layout value="()"/>
			<transform value=""/>
			<use_legacy_frontend value="False"/>
			<use_new_frontend value="False"/>
			<unset unset_cli_parameters="batch, counts, disable_fusing, finegrain_fusing, freeze_placeholder_with_value, input_checkpoint, input_meta_graph, input_proto, input_symbol, mean_file, mean_file_offsets, nd_prefix_name, output, pretrained_model_name, saved_model_dir, saved_model_tags, scale, tensorboard_logdir, tensorflow_custom_layer_libraries, tensorflow_custom_operations_config_update, tensorflow_object_detection_api_pipeline_config, tensorflow_use_custom_operations_config, transformations_config"/>
		</cli_parameters>
	</meta_data>
	<quantization_parameters>
		<config>{
		'compression': {
			'algorithms': [
				{
					'name': 'DefaultQuantization',
					'params': {
						'preset': 'performance',
						'stat_subset_size': 300
					}
				}
			],
			'dump_intermediate_model': true
		},
		'engine': {
			'models': [
				{
					'datasets': [
						{
							'name': 'LFW',
							'data_source': 'PATH',
							'annotation_conversion': {
								'converter': 'lfw',
								'pairs_file': 'PATH',
								'landmarks_file': 'PATH'
							},
							'annotation': 'PATH',
							'metrics': [
								{
									'type': 'pairwise_accuracy_subsets'
								}
							],
							'preprocessing': [
								{
									'size': 400,
									'type': 'point_alignment'
								},
								{
									'size': 128,
									'type': 'resize'
								}
							],
							'_command_line_mapping': {
								'pairs_file': 'PATH',
								'landmarks_file': 'PATH'
							}
						}
					],
					'launchers': [
						{
							'adapter': 'reid',
							'framework': 'openvino',
							'device': 'cpu'
						}
					],
					'data_source': null,
					'name': 'face-reidentification-retail-0095'
				}
			],
			'stat_requests_number': null,
			'eval_requests_number': null,
			'type': 'accuracy_checker'
		}
	}</config>
		<version value="invalid version"/>
		<cli_params value="{'quantize': None, 'preset': None, 'model': None, 'weights': None, 'name': None, 'engine': None, 'ac_config': None, 'max_drop': None, 'evaluate': False, 'output_dir': 'PATH', 'direct_dump': True, 'log_level': 'INFO', 'pbar': False, 'stream_output': False, 'keep_uncompressed_weights': False, 'data_source': None}"/>
	</quantization_parameters>
</net>
